classification_model.onnx (onnx, 40468 bytes, 4 tensors)

linear1.weight f4 [100, 82]
0	0x3dbf788f	0.093491666
1	0xbdd0417a	-0.10168739
2	0x3d6fd2c6	0.05855062
3	0x3be82170	0.007084064
4	0x3da687d7	0.08131378
5	0x3dcbfc09	0.09960181
6	0x3dd22c71	0.10262383
7	0xbd688ea5	-0.05677666
8	0x3dd98d2d	0.1062263
9	0xbc84ac58	-0.016195461
10	0x3d7996b2	0.06093473
11	0xbd54edd5	-0.051984627
12	0xbd316348	-0.043307573
13	0xbd2ab194	-0.041673258
14	0xbdb3bef6	-0.08776657
15	0x3c800fa4	0.015632458
16	0xbd30c7d2	-0.043159313
17	0xbdd5a257	-0.104313545
18	0x3da6abad	0.08138213
19	0x3dc605b7	0.09669059
20	0xbdbc357a	-0.09189887
21	0x3cd4a77c	0.025958769
22	0xbd705365	-0.05867328
23	0x3c10c640	0.008836329
24	0x3ca61c3c	0.020277135
25	0xbb3db240	-0.0028945357
26	0xbdd75652	-0.10514511
27	0xbcebc3c0	-0.028779864
28	0x3c08e930	0.0083563775
29	0x3d0323ce	0.032016568
30	0xbcf04ee4	-0.029334493
31	0xbda38091	-0.079835065
32	0xbd4a9ee7	-0.049467947
33	0x3d80531f	0.06265854
34	0xbd745664	-0.0596527
35	0x3ce8dc5c	0.028425388
36	0xbc8f44b8	-0.017488822
37	0x3c0feac8	0.008784004
38	0xba608200	-0.00085642934
39	0x3db91355	0.090368904
40	0xbc7507b8	-0.014955454
41	0xbdd7a20b	-0.10528954
42	0x3d6d0eb6	0.057875358
43	0x3dd6a627	0.1048091
44	0xbd2ca890	-0.04215294
45	0x3ca5f26c	0.020257197
46	0x3dd53291	0.104100354
47	0x3dc567f3	0.09638967
48	0xbdc60dd7	-0.096706085
49	0x3d0b7e32	0.034055896
50	0xbd4c853f	-0.04993176
51	0x3d36d436	0.044635974
52	0xbc7fae98	-0.015605591
53	0xbdb39ef3	-0.087705515
54	0xbd88e096	-0.06683461
55	0x3ca1fcfc	0.019773953
56	0x3d32b20a	0.043626823
57	0x3d2fb82a	0.042900242
58	0x39ab9900	0.00032729656
59	0xbd9734d2	-0.073831216
60	0xbd077d1c	-0.033078298
61	0xbdc0c251	-0.09412063
62	0x3dcf0609	0.10108573
63	0xbd7af1b5	-0.061265666
64	0xbd0c3444	-0.034229532
65	0xbdb0cdde	-0.08633016
66	0x3dd24ca3	0.102685235
67	0xbd893db7	-0.06701224
68	0xbc881f4c	-0.016616486
69	0x3dcfb189	0.10141284
70	0x3d706dfa	0.05869863
71	0xbdd6a1aa	-0.10480054
72	0x3dc89b41	0.09795237
73	0x3d91c145	0.07116941
74	0x3d2c585e	0.04207646
75	0xbcfdd488	-0.030985132
76	0xbd962dfa	-0.07332988
77	0x3c21e590	0.009881392
78	0x3c65f028	0.0140343085
79	0x3d9cbdbf	0.07653379
80	0x3dcdab29	0.10042412
81	0xbdc97958	-0.098375976
82	0x3d3f05d2	0.04663641
83	0xbdd5b610	-0.10435116
84	0xbda4f87b	-0.080552064
85	0x3dcf6eb3	0.10128536
86	0xbdcbcc79	-0.099511094
87	0x3c2786c0	0.010224998
88	0xbdd25906	-0.10270886
89	0x3d7d237e	0.061801426
90	0xbda1c2ce	-0.07898484
91	0xbd3389cc	-0.043832585
92	0x3dbb6cb7	0.09151595
93	0xbc889f38	-0.016677484
94	0x3d65cb9a	0.056102373
95	0x3d0ce3fa	0.034397103
96	0xbd40cf5c	-0.047072753
97	0x3b1341a0	0.0022469535
98	0xbc16bb40	-0.009199917
99	0x3dd7858d	0.1052352
100	0x3de1e4d9	0.11029977
101	0x3d95dae3	0.0731714
102	0x3bd2f290	0.006437607
103	0xbd8b8078	-0.06811613
104	0xbd4c887a	-0.04993484
105	0x3c214a90	0.009844437
106	0x3dbc0347	0.091803126
107	0x3da8dc9b	0.08245202
108	0x3da6f489	0.0815211
109	0xbdbcf9d8	-0.092273414
110	0x3db6e929	0.089311905
111	0x3d737e1a	0.05944643
112	0x3c462088	0.012092717
113	0xbc6cffc0	-0.014465272
114	0x3db8f769	0.09031565
115	0x3b8b2110	0.0042458847
116	0x3b876b70	0.0041326806
117	0x3ca8bf14	0.020598926
118	0xbd2ad04e	-0.04170256
119	0xbcf58e14	-0.029974975
120	0xbac3e700	-0.0014946163
121	0x3d6cc052	0.0578006
122	0xbde1fcc2	-0.11034538
123	0x3da85147	0.082186274
124	0xbcc51fbc	-0.024062984
125	0x3ddf5107	0.109041266
126	0xbd38a464	-0.04507865
127	0xbdb9af3d	-0.09066627
128	0xbd1a1196	-0.037614428
129	0xbddb407d	-0.107056595
130	0x3dd9d4e7	0.10636311
131	0x3d96e477	0.07367795
132	0x3dc60f89	0.09670932
133	0x3d9676f9	0.07346911
134	0xbbc3a770	-0.005970888
135	0x3b9bb870	0.0047522113
136	0xbd960cc8	-0.073266566
137	0x3da66d41	0.08126307
138	0x3dd0e67f	0.10200214
139	0x3dd790f7	0.10525697
140	0xbdb7a3d9	-0.08966798
141	0x3dc9df51	0.09857047
142	0x3ba95500	0.0051676035
143	0x3cc30084	0.023803957
144	0x3d8a242d	0.06745181
145	0x3d42bb7e	0.047542088
146	0xbd428622	-0.0474912
147	0x3d9afe77	0.075680666
148	0x3dc16679	0.09443373
149	0x3dbd7ce1	0.092523344
150	0x3d68962a	0.056783833
151	0x3dc2ceaf	0.09512078
152	0xbd1bacc0	-0.038006544
153	0xbd22352a	-0.039601482
154	0xbc5ecca0	-0.013598591
155	0x3dd64425	0.10462216
156	0xbd98fcd8	-0.07470101
157	0x3c8bd514	0.017069377
158	0x3d955935	0.072924055
159	0xbd9bf3b0	-0.07614839
160	0x3cae4db4	0.021277286
161	0xbd065c82	-0.032803066
162	0xbd5a3ed5	-0.053282578
163	0x3db01593	0.08597865
164	0x3d8985f7	0.06715005
165	0x3d2c9212	0.04213149
166	0xbc309f18	-0.010780118
167	0x3ddb6cf1	0.10714138
168	0x3dd6a04d	0.10479794
169	0x3cc5be8c	0.024138711
170	0x3d37ef0e	0.044905715
171	0xbdcf2cf9	-0.10116
172	0x3c4621d0	0.0120930225
173	0x3d7f1f46	0.062285684
174	0xbd0e9ebc	-0.03481935
175	0x3de0bd43	0.10973599
176	0x3d00627e	0.03134393
177	0x3ca4af04	0.020102985
178	0xbc81fcf8	-0.015867695
179	0xbdbca1c0	-0.09210539
180	0x3dc13b9d	0.094351985
181	0x3d601626	0.054708622
182	0xbddc0d43	-0.10744717
183	0x3cfa20b4	0.030533172
184	0x3dd09613	0.101848744
185	0x3d25d8c2	0.04048992
186	0x3daf270b	0.08552369
187	0x3da720a3	0.08160522
188	0x3ca253b4	0.019815303
189	0x3da3cf3b	0.079985105
190	0xbd9167d5	-0.070998825
191	0x3d90de39	0.070736356
192	0x3d0d7bda	0.034541942
193	0xbda45a1e	-0.08025001
194	0x3d79cfca	0.06098918
195	0xbc0890d0	-0.008335307
196	0xbd9b9eea	-0.0759867
197	0x3d46633e	0.04843449
198	0xbb08f320	-0.0020896867
199	0xbde21b66	-0.11040382
200	0xbd3add42	-0.045621164
201	0xbdae051d	-0.08497069
202	0x3ca8bde4	0.02059836
203	0xbd83de09	-0.06438834
204	0xbc8e8940	-0.01739943
205	0xbde0e125	-0.10980443
206	0x3d28477e	0.041083805
207	0xbdc14153	-0.09436288
208	0xbd17987c	-0.037010655
209	0x3da85c8d	0.08220778
210	0xbdb7a3e2	-0.08966805
211	0xbc136820	-0.008996993
212	0x3dd82961	0.105547674
213	0xbdb813be	-0.089881405
214	0xbd9e8aa0	-0.07741284
215	0xbdd8358c	-0.10557088
216	0xbd520594	-0.05127485
217	0x3d289eba	0.041167
218	0xbd8cc1d4	-0.06872907
219	0x3d45adda	0.0482615
220	0xbdcced6c	-0.10006222
221	0x3daf7c05	0.08568577
222	0x3dc52737	0.0962662
223	0xbcb5487c	-0.02212929
224	0x3d24d272	0.04023976
225	0x3d05bd02	0.032650955
226	0xbdd1a65a	-0.10236807
227	0xbdbd4fb1	-0.092437156
228	0x3b2cc880	0.0026364625
229	0xbbd8e3a0	-0.006618932
230	0xbc83de9c	-0.01609736
231	0x3dbf6e05	0.093471564
232	0x3cb58da4	0.022162266
233	0x3dcc31f9	0.09970469
234	0x3dd19203	0.10232928
235	0x3d488876	0.048958264
236	0x3cbdb624	0.02315814
237	0x3db87b0b	0.090078436
238	0xbc9a3a5c	-0.018826656
239	0x3db7a52f	0.08967053
240	0x3da8eed5	0.082486786
241	0xbb85b590	-0.004080482
242	0x3d5451b6	0.051835738
243	0x3dc71787	0.09721284
244	0xbdb7cc40	-0.089745045
245	0x3c899824	0.01679618
246	0xbda7a855	-0.08186404
247	0xbb93b470	-0.004507594
248	0xbd9290ea	-0.071565464
249	0x3d96b961	0.07359577
250	0xbd4e4402	-0.050357826
251	0x3d34b326	0.04411616
252	0xbdcc6881	-0.0998087
253	0x3bfdfb00	0.007750869
254	0x3d7c5c2a	0.061611332
255	0xbcde56d8	-0.02714102

linear1.bias f4 [100]
0	0x3c154e58	0.009112917
1	0x3d8a2d57	0.06746929
2	0x3d3fe0d6	0.04684528
3	0x3d9b3637	0.075787
4	0xbc9fabac	-0.01949104
5	0x3ce1eadc	0.02757781
6	0x3dd6aca1	0.10482145
7	0x3da3d8ab	0.080003105
8	0xbd9673a6	-0.07346277
9	0xbd24ade6	-0.040204905
10	0xbd349ed0	-0.044096768
11	0xbdd61ead	-0.1045507
12	0x3ca7c5ac	0.02048
13	0xbd347d82	-0.044065006
14	0x3d5c55f6	0.053792916
15	0xbd0d92ec	-0.034563944
16	0xbc08f1c0	-0.008358419
17	0xbda48bca	-0.08034475
18	0x3d8a4131	0.067507155
19	0x3dd9cedf	0.10635161
20	0xbd97773c	-0.07395789
21	0x3db0c539	0.08631367
22	0x3caf73dc	0.02141755
23	0x3d1349ce	0.035959058
24	0x3c87b4a4	0.016565628
25	0x3d94426b	0.07239231
26	0x3c21bc98	0.009871624
27	0xbc9e7a74	-0.0193455
28	0xbc73a0a0	-0.014869839
29	0xbc091258	-0.00836619
30	0xbd7f5a15	-0.06234177
31	0xbc647778	-0.013944499
32	0x3de18211	0.11011136
33	0xbd8b3ecb	-0.06799086
34	0x3d2a0872	0.04151196
35	0x3d48d342	0.049029596
36	0xbdaec5b3	-0.08533802
37	0xbd4491f3	-0.04799075
38	0xbdb588e8	-0.088640034
39	0x3bcbe690	0.0062225536
40	0xbd281632	-0.041036792
41	0x3befe450	0.007320918
42	0x3d351bda	0.044216014
43	0x3da2c549	0.079477854
44	0x39841b00	0.00025197119
45	0xbd4492fc	-0.047991738
46	0xbd635a58	-0.05550608
47	0xbd4c546c	-0.0498852
48	0xbaf5da80	-0.0018757135
49	0x3c0d4ca0	0.008624226
50	0xbd712545	-0.058873434
51	0x3c0642f0	0.00819467
52	0x3d432aaa	0.04764811
53	0xbdbecfe2	-0.09316994
54	0xbdd22325	-0.102606095
55	0xbd3bb90e	-0.04583078
56	0x3d07856e	0.033086233
57	0xbd3c12da	-0.045916416
58	0xbca10b04	-0.019658573
59	0xbc9a7fb0	-0.018859714
60	0x3c85ffac	0.016357265
61	0x3c9170fc	0.01775407
62	0x3c171008	0.009220131
63	0xbdc25b29	-0.09490044
64	0x3afffd80	0.0019530505
65	0xbdc5550c	-0.09635362
66	0x3dc6e4cb	0.097116075
67	0x3da9b99d	0.08287356
68	0x3d21d982	0.039514072
69	0xbd67e4ad	-0.056614567
70	0xbd3ceada	-0.04612241
71	0xbc9c42f0	-0.019074887
72	0x3d5e9942	0.054345377
73	0x3d0603da	0.032718517
74	0x3da84ac9	0.08217389
75	0xbda626bc	-0.08112857
76	0x3d3cbac6	0.04607656
77	0xbd8b6a74	-0.06807414
78	0x3cf3e40c	0.029771827
79	0xbd1c014c	-0.038087174
80	0xbd3bf478	-0.04588744
81	0x3d8327d3	0.0640408
82	0x3d203152	0.039109536
83	0xbc8e2c80	-0.017355204
84	0x3bdf30a0	0.0068112165
85	0x3ca48414	0.020082511
86	0x3cb1b8b4	0.021694519
87	0x3d02e8a2	0.031960137
88	0x3da650c9	0.08120877
89	0xbcc42c5c	-0.023946933
90	0x3db19049	0.08670098
91	0x3dae2415	0.08502976
92	0xbc471d98	-0.012153052
93	0x3d94db37	0.072683744
94	0x3d7e37f6	0.062065087
95	0xbd999ffb	-0.07501217
96	0xbda23ff3	-0.079223536
97	0x3d8cdb3b	0.068777524
98	0xbc4b60a8	-0.012413181
99	0xbd94bf86	-0.07263093

linear2.weight f4 [2, 100]
0	0x3d739e6a	0.059477247
1	0xbd6f548a	-0.058430232
2	0xbcccfc20	-0.025022566
3	0x3dab4a19	0.083637424
4	0x3cf5fe84	0.03002859
5	0xbdb82010	-0.089904904
6	0x3d171996	0.036889635
7	0xbd68af40	-0.056807756
8	0xbd7819aa	-0.06057135
9	0x3db1c4a1	0.08680082
10	0xbbd16660	-0.006390378
11	0xbc8db7ac	-0.017299496
12	0xbdb072c5	-0.086156406
13	0xbda80abb	-0.08205172
14	0x3b68b1a0	0.0035506263
15	0xbd28094a	-0.041024484
16	0xbd88ab8d	-0.06673346
17	0x3cfe82a4	0.031068154
18	0x3dab833d	0.08374641
19	0x3da81a9d	0.08208201
20	0xbd6c45bd	-0.057683695
21	0x3d8667ef	0.065627925
22	0xbda605a0	-0.08106542
23	0x3cb527b8	0.022113666
24	0xbc7cf380	-0.015438914
25	0xbc305d28	-0.010764398
26	0xbdc40420	-0.09571099
27	0xbd88d60c	-0.06681451
28	0x3b933a80	0.0044930577
29	0x3d96e1bd	0.07367275
30	0xbd87db60	-0.06633639
31	0xbca1cc80	-0.019750834
32	0xbd9e5d05	-0.07732586
33	0x3c7a9290	0.015293732
34	0xbd14d4e6	-0.03633585
35	0xbc39f928	-0.011350907
36	0x3d9d4021	0.07678247
37	0xbda32522	-0.07966067
38	0x3d998aa3	0.07497146
39	0xbd2aeff0	-0.04173273
40	0xbd451e30	-0.048124492
41	0xbd39b1e0	-0.04533565
42	0x3d81ad19	0.06331844
43	0x3dc18199	0.09448547
44	0x3d389caa	0.04507128
45	0xbd92a680	-0.071606636
46	0xbd875f78	-0.06610006
47	0x3d8cc57b	0.06873604
48	0xbd08e5ca	-0.03342227
49	0x3d1bc87a	0.038032986
50	0x3d80aa67	0.06282502
51	0x3b172760	0.002306424
52	0x3d7e8986	0.06214287
53	0xbd65112a	-0.055924572
54	0xbd39e2f0	-0.04538244
55	0x3d0916ae	0.033468895
56	0xbc4519c0	-0.012030065
57	0xbd09b86a	-0.033623137
58	0x3d6811d2	0.05665762
59	0xbc4d16b0	-0.012517616
60	0xbd12da20	-0.03585255
61	0xbdbbc2e5	-0.091680326
62	0xbc8d9054	-0.017280735
63	0xbd19546c	-0.037434027
64	0x3c8be708	0.017077938
65	0xbc92336c	-0.017846785
66	0x3d9016c7	0.070355944
67	0xbd60e293	-0.054903578
68	0x3d4efdaa	0.05053488
69	0xbd3577cd	-0.044303704
70	0xbdb2632b	-0.08710321
71	0xbd0375f4	-0.03209491
72	0x3cf2e8ac	0.029651962
73	0xba28fa80	-0.0006446019
74	0xbd78f51a	-0.060780622
75	0xbd58da6a	-0.05294267
76	0xbdcafb70	-0.09911239
77	0xbdc13dca	-0.094356135
78	0x3db478b1	0.088120826
79	0xbdc2972d	-0.09501491
80	0xbd96bd3b	-0.073603116
81	0x3dc36725	0.09541158
82	0xbd1d6b7a	-0.038432576
83	0x3d90ec0f	0.070762746
84	0xba2b7a80	-0.0006541386
85	0xbd567d10	-0.052365363
86	0x3d556652	0.052099533
87	0x3d3c91de	0.046037547
88	0xbdbca568	-0.09211236
89	0x3da7ec69	0.081993885
90	0xbd263d17	-0.040585604
91	0x3d605d02	0.0547762
92	0xbc8374d4	-0.016046919
93	0x3dcb4b61	0.09926487
94	0x3dc13373	0.09433641
95	0xbcc38058	-0.02386491
96	0x3dbd0ef7	0.0923137
97	0x3d236b52	0.03989727
98	0xbdcad5da	-0.0990407
99	0xbd04f124	-0.032456532
100	0xbd3d7120	-0.046250463
101	0xbd709fdd	-0.058746208
102	0x3dc1f921	0.09471346
103	0x3da2839d	0.079352595
104	0x3b5a16c0	0.003327772
105	0x3d1c6406	0.038181327
106	0xbdb892b8	-0.090123594
107	0xbd957a83	-0.07298758
108	0x3d8337a9	0.06407101
109	0xbd88e4e5	-0.06684283
110	0x3dbd7e2d	0.09252582
111	0x3d0e1b3e	0.03469395
112	0xbd4f0687	-0.050543334
113	0x3d63f312	0.05565173
114	0xbd8f9a38	-0.07011837
115	0xbd1b7297	-0.03795108
116	0xbc89d658	-0.01682584
117	0xbda79d15	-0.08184258
118	0x3c8f908c	0.01752498
119	0xbd339460	-0.043842673
120	0x3c324e70	0.010882959
121	0xbd3ba7e7	-0.04581442
122	0xbd6612ed	-0.056170393
123	0x3d2e0d72	0.04249329
124	0xbda99d5d	-0.08281968
125	0xbd071e1c	-0.0329877
126	0xbda735be	-0.081645474
127	0x3d8f6521	0.07001711
128	0x3d6c4862	0.057686217
129	0xbc150f40	-0.009097874
130	0x3db5d92b	0.08879312
131	0xbcdda1b8	-0.027054653
132	0xbd20453a	-0.03912852
133	0x3d9ceadd	0.07661984
134	0xbcb42414	-0.02198986
135	0x3d9fef41	0.07809306
136	0xbcb0efd8	-0.021598741
137	0x3dbf53f7	0.09342187
138	0xbce7ad88	-0.028280988
139	0xbd70793d	-0.05870937
140	0xbdadec72	-0.08492364
141	0x3bbadeb0	0.005702816
142	0x3d9eba57	0.07750385
143	0x3d5ce9a2	0.053933747
144	0x3d080ae6	0.03321352
145	0x3d3a1572	0.045430608
146	0xbd60d05a	-0.0548862
147	0x3d93f717	0.07224863
148	0x3d55f752	0.052237816
149	0xbcac1a40	-0.02100861
150	0xbcf2ba2c	-0.02962979
151	0xbd10743a	-0.035267092
152	0x3daa7eb5	0.08324949
153	0xbcd6f378	-0.026239142
154	0xbd0a9bba	-0.03383992
155	0xbd7740fa	-0.0603647
156	0xbd29a71a	-0.041419126
157	0x3d1f0c9a	0.038830377
158	0xbd0cea4a	-0.034403123
159	0xbd8b8ef0	-0.068143725
160	0x3b550ca0	0.0032508746
161	0x3cd7db24	0.026349612
162	0x3d34416e	0.04400771
163	0xbb8053b0	-0.0039162263
164	0x38a34c00	7.786602e-05
165	0xbb304400	-0.0026896
166	0xbd2d4233	-0.04229946
167	0x3d01816e	0.031617574
168	0x3d9f58b7	0.07780593
169	0xbdcb1fd0	-0.09918177
170	0xbda0a27e	-0.07843493
171	0xbc65cdd8	-0.014026128
172	0xbd5ae513	-0.05344112
173	0x3c0f2918	0.008737825
174	0x3cac234c	0.021012925
175	0xbb93fe00	-0.004516363
176	0xbc4f9dd8	-0.01267191
177	0x3b8503b0	0.0040592775
178	0x3cf2ed3c	0.029654138
179	0x3d8416bd	0.064496495
180	0x3d441616	0.047872625
181	0xbd187114	-0.037217215
182	0xbd962948	-0.073320925
183	0x3cfc9bb4	0.030835964
184	0x3d31c606	0.04340174
185	0x3d6f30e2	0.058396228
186	0x3dbe024f	0.09277784
187	0xbd2499cd	-0.04018574
188	0x3dc5b9cf	0.09654581
189	0x3d70c2c2	0.058779486
190	0xbd09cf5c	-0.03364502
191	0x3d1f6aca	0.0389202
192	0xbceb7dd8	-0.02874653
193	0xbd45ba2a	-0.048273243
194	0xbd937f2a	-0.07201989
195	0xbd8a343e	-0.06748246
196	0x3cff2efc	0.031150334
197	0xbd52cd57	-0.05146536
198	0x3d993f15	0.07482735
199	0x3dc91a77	0.09819501

linear2.bias f4 [2]
0	0x3cde70cc	0.027153395
1	0xbd8fca45	-0.07021002
