model2.onnx (onnx, 67637 bytes, 6 tensors)

linear1.weight f4 [128, 60]
00000000: aa60 e5bd e88b d4bd 8008 3f3b 641f 953d
00000010: e7cd debd a88e cb3c 40b1 b8bb d0f7 2cbc
00000020: 00dd f9ba 1c6e fcbc b8f3 843d 41f9 00be
00000030: acd1 94bc a788 b1bd bc02 8ebd fc33 5f3d
00000040: f8a7 3a3d 8863 b23d 5a18 903d d84a 1f3d
00000050: 9e0e b93d fe29 f93d b805 193d f4ac 94bd
00000060: d843 a93d 656e 03be e136 f9bd fc19 e73d
00000070: 7c1c 39bd 7a45 f2bd 80d9 4ebc e6bb 71bd
00000080: ac0f 4d3d eea3 813d 163f 843d 10af b03d
00000090: 5413 f9bd 84ec 563d 7003 783c b437 ecbd
000000a0: 6041 ff3b 7ead aa3d 1688 d13d 8e13 893d
000000b0: 007e 97b9 a063 463d 5011 7abc b84f 9d3d
000000c0: 206f fc3b b337 9ebd 068b 9a3d 7237 79bd
000000d0: b2b9 67bd 3d5a 82bd 2c07 d9bd 3834 f6bc
000000e0: be4c 00be 60b2 96bd 1680 c3bd 4886 663d
000000f0: 8033 a63a 986a 37bd 1a0c b1bd 7144 dcbd
00000100: f438 d83d 20d3 c83d aacd db3d a0b2 cdbb
00000110: 9452 0b3d cba2 013e 18c9 80bc c8eb 14bc
00000120: 0875 0ebc 8039 bc3c 7a4b e5bd c0b0 c13d
00000130: 7c48 9bbd e07a e33c a859 cdbd 7d64 03be
00000140: 388b 973d 4896 29bc f874 a03d 4cc6 483d
00000150: 5f10 01be 402d 40bb 8c8f 5cbd 1090 d6bd
00000160: bb35 f4bd 7c56 ae3d 90a1 ac3c 5054 0dbd
00000170: 303a f03c a648 9d3d 6e0e 16bd 50a9 1bbc
00000180: b454 94bc cce3 77bd 78e1 37bd 44db c4bc
00000190: 6875 313d ca79 8ebd 94fd 2a3d 386c b43d
000001a0: d03c 2c3c 8604 c33d e24d efbd 4e5a 903d
000001b0: 7c68 e5bd d8e7 f4bd 54c7 22bd 1653 8c3d
000001c0: 8a99 dbbd f049 f13d 6663 14bd fe97 8d3d
000001d0: 2c14 2e3d dce1 ac3d fe72 bbbd e0a1 9c3c
000001e0: 80e2 9b3b f29b 01bd 3870 02bc 3c4f b23d
000001f0: 8601 9e3d b850 c13d 42cd 01be 22ff 62bd
00000200: 3559 023e a0eb 363d 205e d63b 2017 883c
00000210: 0b32 c8bd 2007 d2bd ca44 a13d c7cc e7bd
00000220: e581 86bd 80f9 e13d 8caa be3d dc75 bdbc
00000230: 8e61 cbbd b4d0 98bd 5c1e d03d 8068 593c
00000240: 4a66 d2bd bef7 d9bd 50e8 95bd c863 253d
00000250: dc53 7a3d 66cd 2dbd 3080 263c 0059 1ebb
00000260: a09d 1f3c 84a2 ae3d 0a63 e6bd 3814 5bbd
00000270: cb49 99bd ff82 fabd b05a 0b3d fa68 9d3d
00000280: 1a54 14bd dc0b e1bc 78c7 0bbc 18e6 b3bc
00000290: 1848 703d 3a77 e73d c872 d63d 14a7 963d
000002a0: 0077 a8bc 4038 aebb ce6b 0cbd f0b6 9abd
000002b0: 98c6 ef3c 42c3 e43d 9a1e c53d 5efa 963d
000002c0: b229 04be 1cdb f63d 1e87 843d 404b f2bc
000002d0: 0842 1c3d ee59 24bd 0066 99bb 9e68 b2bd
000002e0: a841 943c 0018 77bb ae6c 4ebd 98d4 9bbc
000002f0: 7291 e3bd 8a95 87bd 0cc3 90bd e6f5 b0bd
00000300: 9f27 03be ae11 4bbd 0aed fe3d 8087 c73d
00000310: 9026 98bc 5c7f 883d 9cc1 a9bd d8eb b8bd
00000320: ba10 f23d d6e2 833d 2001 db3d 8050 9fba
00000330: 382b 213d bc8a d7bd 5721 013e ae05 fd3d
00000340: 587e 053d e091 e4bc 6c91 01bd f06f adbd
00000350: b4ed a1bc 891c 033e 802e 4a3c 700f ebbb
00000360: 4697 f33d ba61 15bd 3cc7 6ebd f4b4 e43d
00000370: def8 a13d 00ab 29bb 90a6 d2bd 3895 0d3d
00000380: 1063 3fbd 5762 80bd 74c6 593d 8267 b13d
00000390: e473 9f3d 2293 ed3d 0241 23bd 2490 c6bd
000003a0: 1852 1e3d 889e d8bd 305c 67bc 0b19 d3bd
000003b0: 5c40 7c3d a3a8 e9bd fafd ef3d 407c 31bb
000003c0: 700c 45bc 64ec 953d 3015 1dbd 1dc8 d2bd
000003d0: 346b 983d 1203 80bd cc51 7d3d d0ee 14bc
000003e0: 02f0 b73d 54e7 b73d 123e ac3d d026 6e3d
000003f0: dc5e cfbd ee4b cdbd 88a1 5a3d a0d3 b23c
-0.11200078 -0.103782475 0.0029149354 0.07281378 -0.108791165 0.024848297 -0.005636364 -0.01055713
-0.0019063056 -0.030814223 0.06491798 -0.12595083 -0.018166386 -0.086686425 -0.06934115 0.054492936
0.045570344 0.0871039 0.07035895 0.038889736 0.09035991 0.121662125 0.03735897 -0.07259551
0.08264893 -0.12835081 -0.121686704 0.11284253 -0.04519318 -0.11829658 -0.012625098 -0.059017085
0.050063774 0.06330095 0.06457345 0.086271405 -0.1216189 0.052471653 0.015137538 -0.11534062
0.0077897757 0.08333872 0.102310345 0.06693183 -0.00028894842 0.048434854 -0.015262917 0.07681221
0.007703677 -0.077254675 0.07546048 -0.060843892 -0.056573577 -0.06364868 -0.10597071 -0.030054197
-0.12529275 -0.07358241 -0.09545915 0.056280404 0.0012680143 -0.04477939 -0.08644886 -0.10755242
0.10557738 0.09805894 0.10732587 -0.0062773973 0.0340143 0.12659757 -0.015720889 -0.009089418
-0.008694895 0.022976637 -0.11196037 0.094575405 -0.07582185 0.027768552 -0.10026866 -0.12831302
0.07399601 -0.010350771 0.0783481 0.049017236 -0.12603901 -0.0029323846 -0.053847834 -0.104766965
-0.11924311 0.08512589 0.021073133 -0.034504235 0.029324621 0.07679872 -0.036634855 -0.009500816
-0.018106796 -0.06051998 -0.044892758 -0.024030335 0.043324858 -0.06956823 0.041745737 0.088097036
0.010512546 0.09522347 -0.11684777 0.07048474 -0.112015694 -0.11958283 -0.039740875 0.06851785
-0.107226446 0.117816806 -0.036227606 0.06913756 0.042499706 0.08441517 -0.091527924 0.019120157
0.0047572255 -0.03164286 -0.007961325 0.08706519 0.07715134 0.09439224 -0.12675956 -0.055419095
0.12729342 0.044658303 0.0065419823 0.01661259 -0.0977517 -0.10255265 0.078744486 -0.11318355
-0.06567744 0.110339165 0.09309873 -0.023127489 -0.099307165 -0.07461682 0.101620406 0.013269544
-0.10273416 -0.10642956 -0.07319701 0.040378362 0.06111513 -0.04243221 0.010162398 -0.0024161935
0.009742171 0.08527091 -0.11249359 -0.05348608 -0.07484778 -0.12232017 0.034022033 0.07686038
-0.036213018 -0.027471475 -0.008531444 -0.021960303 0.058662504 0.113020375 0.104711115 0.073560864
-0.020564556 -0.005316764 -0.034282498 -0.07554424 0.029269502 0.11170055 0.096249774 0.073719725
-0.1290653 0.120535105 0.06471084 -0.029576898 0.03814891 -0.040124826 -0.004681349 -0.087113604
0.018097714 -0.0037703514 -0.050396614 -0.019022271 -0.11111726 -0.06620319 -0.07068452 -0.086406514
-0.12808083 -0.049577408 0.12447555 0.097426414 -0.018573076 0.06664917 -0.08288881 -0.090293586
0.118195966 0.0643975 0.10693574 -0.0012154728 0.039347857 -0.10524508 0.12610374 0.12354599
0.032591194 -0.02790159 -0.031632826 -0.08468616 -0.019766666 0.12803854 0.012340188 -0.007173471
0.118940875 -0.036470152 -0.058295473 0.111673266 0.07908796 -0.0025889277 -0.102856755 0.034566134
-0.046725333 -0.06268757 0.053167775 0.08662321 0.07785776 0.11600329 -0.03985692 -0.096954614
0.03865251 -0.105771124 -0.0141211 -0.10307511 0.061584815 -0.11409118 0.11718364 -0.0027082115
-0.012026891 0.073204786 -0.038350284 -0.10292075 0.074423224 -0.062505856 0.061845586 -0.00909014
0.08981325 0.08979669 0.084102765 0.058142483 -0.10125515 -0.10024248 0.053376704 0.021829426

linear1.bias f4 [128]
00000000: 5afc 52bd fdf2 bebd e0fa 843b 8802 c5bc
00000010: 0c82 cebd e3a1 f9bd 9042 b13c b71a ecbd
00000020: 66dc ddbd f28d 03be 1027 c7bd 6292 883d
00000030: b6fe 803d 6ebc fc3d f0e3 dabd 1b89 ccbd
00000040: 918e abbd c189 e4bd e982 00be 9846 ae3c
00000050: fa92 ce3d 2455 5e3d 1215 bd3d 727d bbbd
00000060: 208b c5bc dc9d bbbc 5c14 37bd 1072 4f3c
00000070: b483 eabd 6c1f a23d 3a7c 5cbd 9095 4f3c
00000080: 60fb 9cbb 1482 b53d 3af7 8d3d dc70 ec3d
00000090: 58ab 44bd dbd5 a2bd e03c e2bd 80b2 423b
000000a0: b060 743c 8040 c23a 147f e13d ec2d 97bc
000000b0: f88e 33bc bca9 87bd f81c 0d3d cc7b 553d
000000c0: 5801 333d b00f 2abc b8e0 33bd 38eb d03d
000000d0: 88bc 103d f00b a83c 408e 353c b803 c43c
000000e0: 2163 01be f482 e23d ec50 6f3d baea d33d
000000f0: de34 8e3d 4e4b 52bd 327a bb3d 8a27 8a3d
00000100: b98f debd 7845 cc3c b682 f63d 404b 6ebb
00000110: 5a71 ff3d 2e2a ed3d 2e89 2cbd 6a27 973d
00000120: a8d9 1bbc 52aa 7fbd c07c 8cbc 0018 41bb
00000130: e006 6fbc 5420 80bd 3031 e83d cce0 3f3d
00000140: 32f8 d33d 209f c5bb 3cbf 0fbd b870 483d
00000150: a841 4a3d 50f9 283d a0e2 f13b 984b b03d
00000160: 8844 34bc 58d2 03be 4a68 ae3d 593f b3bd
00000170: 86ef 2fbd 3a8a a63d 70dd 203c 6019 203c
00000180: 20b4 c63b bca1 e0bc 5e6d 48bd 141b 2cbd
00000190: 966f 823d 5071 423d 06d7 d13d df4e 033e
000001a0: 926e ffbd 403a 453b fa5f e1bd 6a30 63bd
000001b0: ceec 00be 3098 8e3c f03b a7bb c082 0e3b
000001c0: 34e7 863d 0a6f ffbd b943 03be c2ce c53d
000001d0: 7a6a c7bd 15b2 003e 3031 c73d 56e4 a33d
000001e0: 24d2 b7bc 229d bdbd 1069 d2bc 484e 44bd
000001f0: 9e04 abbd fa90 92bd 9c74 94bc e0de 773d
-0.051510192 -0.0932369 0.004058227 -0.024049059 -0.10083398 -0.121890806 0.021638185 -0.11528533
-0.10833053 -0.12847117 -0.097242475 0.06668545 0.06298582 0.123406276 -0.10688007 -0.09987088
-0.08376802 -0.11159087 -0.12549938 0.021273896 0.10086627 0.054280415 0.092325345 -0.09154786
-0.024114192 -0.022902422 -0.04469715 0.012661472 -0.11450902 0.079161495 -0.05382941 0.012669936
-0.0047907084 0.08862701 0.0693192 0.11544964 -0.04801497 -0.07950946 -0.11046767 0.0029708445
0.01491563 0.0014820248 0.11010566 -0.018454514 -0.010959379 -0.06624171 0.034451455 0.052120015
0.043702453 -0.010379717 -0.04391548 0.102011144 0.035336047 0.020513505 0.011081278 0.023927554
-0.12635471 0.110601336 0.058426782 0.10347505 0.06943677 -0.051341347 0.09154166 0.06745823
-0.10867257 0.024935469 0.1203665 -0.003636077 0.12472792 0.11580311 -0.042123012 0.073805645
-0.0095123425 -0.06241829 -0.01714933 -0.0029463768 -0.0145890415 -0.06256166 0.11337507 0.046845242
0.10350074 -0.006030932 -0.035094485 0.048935622 0.04937902 0.041253388 0.007381752 0.08608168
-0.011002667 -0.12873209 0.08515985 -0.08752317 -0.042953037 0.081318334 0.00981842 0.009771675
0.006063953 -0.027420871 -0.048932426 -0.04201801 0.063689396 0.047471344 0.102460906 0.12823056
-0.124722615 0.0030094534 -0.11004634 -0.055466093 -0.12590334 0.017406553 -0.0051035807 0.0021745414
0.06587067 -0.12472351 -0.12818803 0.096585765 -0.09737106 0.12567933 0.09726179 0.08002536
-0.02243907 -0.09258486 -0.025684863 -0.047926217 -0.0835049 -0.07156558 -0.01812201 0.060515285

linear2.weight f4 [64, 128]
00000000: fb43 943d 84ee a9bc 887b 1ebc 80da 2abc
00000010: 2f69 39bd ac6c 9cbc aa80 8abd 7d76 b0bd
00000020: 380c 86bc 46bc 80bd da84 203d 807b 053a
00000030: 2a2e afbd a07f 293b aea2 acbd 06ee b1bd
00000040: 0df5 90bd 40a0 0fbd 7a1b 70bd 00e9 9f3c
00000050: 6edb 0cbd 45c4 a73d 3866 443c 8873 10bd
00000060: 88f0 853c d7fa 843d 2d5f 913d 0429 a03c
00000070: 30a5 513c c6b7 463d 400a 94bc 42df 403d
00000080: 0032 ccbb 3056 90bb c1f3 993d 30cb 24bc
00000090: 9d53 07bd 107d b6bb 88e4 98bc 7b88 86bd
000000a0: e23a 6bbd b4d5 b0bc 862d 3dbd 9db2 67bd
000000b0: 9824 df3c 3ea8 773d ed8f 8b3d 0e4a 4b3d
000000c0: f7f7 b43d 56d4 4fbd cc52 afbd 7a68 adbd
000000d0: c66f 84bd f52f 853d 2004 7fbc 1cdd 97bd
000000e0: 60da d03b 80fc 953c a0c0 c03b 00e3 d0bc
000000f0: 4e15 573d e9f0 2bbd f8dd 113c 1036 6a3c
00000100: 2263 8abd 6064 c63b a097 e4bb b6da 6e3d
00000110: 5efb 2a3d 51bc 73bd f057 fd3c 8e1a 0e3d
00000120: 3c9f e43c f4b9 a23c bc6c a8bd a063 7fbd
00000130: 7095 da3b 70c3 eabc f220 693d 388b 98bd
00000140: c35f a63d ba5f 443d 38f5 a43c 61ee ae3d
00000150: 486e 013d 3b37 03bd 6856 043c 12c1 9bbd
00000160: de7c 62bd 74b3 cebc 6050 aabc 7e5f 7dbd
00000170: 5d97 1abd 0a54 34bd e834 20bc 2460 c33c
00000180: fd86 18bd f99b 843d d878 0c3d b029 c9bb
00000190: 7643 1a3d a673 363d ca57 5bbd 0069 a53b
000001a0: 0c29 50bd e0da f43b 60b1 363c f092 ffbb
000001b0: 1016 de3c c079 d5bb 948d b53c 30e3 9cbd
000001c0: 2dac 94bd 8415 c2bc c3c4 b3bd ba97 123d
000001d0: 1545 b23d 8a04 16bd e645 183d 64b6 c53c
000001e0: be78 dabc 5acf b2bd 0089 e53b d86d 703c
000001f0: 5168 a8bd 4076 d1bc ced3 083d d641 683d
00000200: c464 a3bc ab7c 933d 089a 483c 2098 5d3c
00000210: e667 aabd cac5 5a3d c87b 383c 7687 d9bc
00000220: cb92 813d 8aa0 533d b067 ddbc 88f3 6d3c
00000230: 9cde 8f3c f9be a83d a22c 193d 43a4 b3bd
00000240: 741c 71bd 6277 9abd 41e0 a43d a7cc 5fbd
00000250: 90bd 3bbc 206c c8bc 5461 d13c cca8 81bd
00000260: c0f0 c1bc 3313 31bd 1340 6dbd 9a87 00bd
00000270: 28cb 1dbc 116e 8c3d fe34 0d3d f442 11bd
00000280: 7911 a5bd aa27 35bd c2e5 febc 3475 b43c
00000290: 116f 9c3d 4a8d 503d da19 523d edeb 843d
000002a0: b836 7bbd 0070 b339 bfbf 22bd 3f17 4cbd
000002b0: 302c c93b e8c9 5e3c cc9f adbc b87c 64bc
000002c0: cc7b 86bd d85e 3dbd 9178 0abd aad5 653d
000002d0: 9c5f a9bc ee18 373d 07b8 b0bd a99a a6bd
000002e0: a995 a03d 11fe 8bbd 7262 133d 2668 213d
000002f0: 06c0 7f3d eaef 5ebd a6be 4c3d 08b6 81bd
00000300: d431 63bd 0db3 03bd ec1b 84bd a00d 1c3c
00000310: 86e0 a8bd 2ab9 d4bc d0cf fabc 148a adbc
00000320: 76a9 293d e05e 32bb 500a 383c 7a25 253d
00000330: 62c3 67bd a629 a5bd 2a35 523d ba54 ebbc
00000340: 6042 91bd b6ba 82bd 06d9 4f3d b881 11bc
00000350: c0c2 bd3b 1a1f 74bd b67b 9ebd 5afa 19bd
00000360: 701d 533c 2772 35bd 0937 b2bd a005 3c3b
00000370: 63c1 923d 713f 20bd a73d 92bd 763f 16bd
00000380: 82e2 7f3d 88f5 8bbd f8b3 c5bc 6286 91bd
00000390: 5863 ae3c d224 053d d059 adbd a653 693d
000003a0: ae4d eebc d6da 99bd 2076 2f3b e079 413b
000003b0: 0575 933d 3e4d 8fbd 6bf4 823d 740f bcbc
000003c0: f006 863b 9dac a03d fede 293d 5083 80bd
000003d0: 2324 883d 26b4 4a3d e010 27bb 9040 e0bb
000003e0: adff 28bd 9b02 833d 3dd9 a83d bff2 833d
000003f0: 63ad aebd 8c3f a0bd 188f df3c 8036 fb3c
0.07239529 -0.020743616 -0.009673007 -0.010428071 -0.045266327 -0.019094788 -0.06762822 -0.0861635
-0.016363248 -0.0628591 0.039189197 0.00050919503 -0.08553727 0.0025863424 -0.08429466 -0.086879775
-0.0707799 -0.035064936 -0.058619954 0.019520283 -0.034388952 0.08191732 0.0119872615 -0.03526643
0.016350046 0.064931564 0.070982315 0.019550808 0.012795731 0.048515104 -0.018071294 0.047087915
-0.0062315464 -0.0044048056 0.075171955 -0.010058209 -0.033038724 -0.005569108 -0.01866366 -0.06569
-0.057429202 -0.021586277 -0.046185993 -0.056566823 0.027239129 0.060463183 0.06814561 0.04963117
0.08836358 -0.05073961 -0.08560714 -0.08467193 -0.064666316 0.06503288 -0.015564948 -0.0741522
0.0063736886 0.018308878 0.0058823377 -0.025498867 0.052510552 -0.041977797 0.008903019 0.014295116
-0.06757189 0.006054446 -0.006976083 0.058314048 0.04174363 -0.059505764 0.03092572 0.034693293
0.02790796 0.01986406 -0.082238644 -0.06235087 0.0066706464 -0.028657645 0.056916185 -0.07448429
0.08123734 0.047942854 0.02013646 0.08541561 0.031599313 -0.032035094 0.0080772415 -0.076051846
-0.055294864 -0.025232054 -0.020790279 -0.061858647 -0.037742008 -0.04402546 -0.009778239 0.023849554
-0.03723811 0.06475062 0.034294933 -0.0061390027 0.037661992 0.044543885 -0.05355052 0.0050479174
-0.050820395 0.007472381 0.011150688 -0.0077994987 0.02711013 -0.006514758 0.022162236 -0.0766052
-0.072594024 -0.0236919 -0.08777764 0.03578923 0.087045826 -0.036625423 0.037176035 0.024134822
-0.026668902 -0.087309554 0.007004857 0.014674626 -0.08223022 -0.025569081 0.033405118 0.05670341
-0.01994551 0.07201513 0.012243755 0.013525039 -0.08320598 0.053411283 0.0112599805 -0.02655385
0.06326827 0.051666774 -0.027026981 0.014523394 0.017562203 0.0823955 0.03739608 -0.08771565
-0.058865026 -0.07542302 0.080505855 -0.05463853 -0.011458769 -0.02446562 0.025559105 -0.063310236
-0.023674369 -0.0432312 -0.057922434 -0.03137932 -0.009630956 0.06856931 0.034474365 -0.035464242
-0.08059973 -0.04422728 -0.031115416 0.022028543 0.07638372 0.050915994 0.051294185 0.06490312
-0.06133148 0.00034224987 -0.039733645 -0.049826857 0.0061393008 0.013597943 -0.021194361 -0.013945751
-0.06566581 -0.04623303 -0.033806387 0.05611197 -0.020675473 0.04470151 -0.086288504 -0.08134968
0.078410454 -0.06835569 0.035982557 0.039405964 0.062438987 -0.05442802 0.049986504 -0.06333548
-0.05546744 -0.032153178 -0.06450638 0.009524733 -0.082459494 -0.0259672 -0.03061667 -0.021184005
0.041421376 -0.0027217194 0.011232927 0.040318944 -0.056582816 -0.080645844 0.051320232 -0.028726924
-0.07092738 -0.063832685 0.05074408 -0.008881025 0.0057910383 -0.059599973 -0.0773844 -0.03759227
0.012885436 -0.044298317 -0.087019034 0.0028689876 0.07165792 -0.039123002 -0.071406655 -0.036681615
0.062471874 -0.06833941 -0.024133667 -0.071057096 0.021287605 0.032505818 -0.08464396 0.05696454
-0.029089775 -0.07512443 0.002677329 0.0029522106 0.07200054 -0.06997155 0.06394275 -0.022956587
0.0040901825 0.07845423 0.041472428 -0.06275046 0.066475175 0.04948821 -0.0025492236 -0.006843634
-0.041259456 0.06396981 0.0824456 0.064427845 -0.08529165 -0.078246206 0.027289912 0.030665636

linear2.bias f4 [64]
00000000: 859c b23d 98b9 13bd b996 99bd ad0e 933d
00000010: a3aa 69bd 4e98 ddbc 626d f0bc 88af 85bc
00000020: a88a c63c e46a d53c d07d 84bd 79c1 953d
00000030: fc37 ccbc d49d b0bd 3822 5dbc e275 363d
00000040: 002f 023c 2331 913d a8e4 ca3c 006d 143c
00000050: b3fe 94bd 001a afbd 48fc 58bc 4dc1 803d
00000060: c0e7 143d 996c 913d 4381 9bbd 8b99 823d
00000070: 6936 863d ba2c 4b3d 78a4 9bbc 16ca 99bd
00000080: 1c26 5cbd 0564 9a3d 0c67 8e3c 5113 923d
00000090: d12b 6cbd e07d 97bc 7234 8dbd e977 94bd
000000a0: 9ff6 b33d ee1e 643d 005b 043a a366 98bd
000000b0: 9a09 643d 1973 8ebd da38 7a3d 02cf 3e3d
000000c0: 9b9b aebd 9a89 623d 205a 3d3c 152f 8a3d
000000d0: 1539 b2bd 9e8b 1f3d 72ab e4bc 00f7 aa3b
000000e0: 54ef 6dbd bc89 de3c 1450 8e3c eeef 703d
000000f0: b841 04bc 4c1d e0bc e89b ab3c 7e87 3f3d
0.0872126 -0.036065668 -0.07499451 0.071805336 -0.057047497 -0.027050164 -0.029349033 -0.016319051
0.024236038 0.026051946 -0.06469309 0.073122926 -0.02492904 -0.08623853 -0.013496928 0.044546016
0.007945776 0.0708945 0.024767235 0.009059191 -0.072751425 -0.08549881 -0.013243742 0.06286869
0.036353827 0.071007915 -0.07593014 0.06376942 0.06553347 0.0496032 -0.018999323 -0.07509248
-0.05374728 0.075386085 0.017383121 0.071325906 -0.057658974 -0.018492639 -0.06894769 -0.072494335
0.087872736 0.05569356 0.00050489604 -0.074414514 0.05567322 -0.06955547 0.061089374 0.046584137
-0.08525773 0.05530701 0.011557132 0.067472614 -0.08702294 0.03895151 -0.027913783 0.005217433
-0.05808957 0.027165286 0.017372169 0.058822565 -0.008072309 -0.02735772 0.020948365 0.046760075

linear3.weight f4 [10, 64]
00000000: 9851 e33d bed2 88bd 0896 d33d e887 a63c
00000010: 8a4b 9e3d 722b d9bd a0bb 533d d0a1 20bd
00000020: 2018 44bd ae4a 963d b0b3 5ebd 6eb9 843d
00000030: b82f 96bc f848 c0bd e0ab d2bb 748f bbbd
00000040: 207b 28bc 9449 39bd f899 ea3c c8a9 013d
00000050: f6a7 f2bd 200c 68bc 481a 5f3d 00e5 99bd
00000060: 5a13 a53d d897 acbc f801 4abd fcd1 99bd
00000070: aadf aebd ac3b a7bd 4eb4 a53d 2276 bfbd
00000080: 044e 633d 102d 3bbd d096 b0bc 6a9e c7bd
00000090: c035 c4bd 9c36 fa3d a460 a23d ac22 933d
000000a0: 029c f83d 2c34 bbbd 6627 98bd d06d e4bd
000000b0: d2e3 f1bd e2d0 d4bd e053 043d 68be 8ebc
000000c0: e43d fdbd d831 6abd 68ea 2abd 48e3 18bd
000000d0: 8e7c eb3d 3c8b 133d f40a e7bd bc40 58bd
000000e0: a625 a83d 30a6 e2bd 3a98 d3bd 1016 cabc
000000f0: 56ca 873d 78c7 fa3c 544d b63d e03d e83b
00000100: 5a7d d2bd 54c4 313d 5e08 bfbd 8cd9 be3d
00000110: e87a d23d a008 69bc 34c3 10bd f0a6 f7bc
00000120: 0e4e 8d3d 8266 f43d 38bb e7bd 144d b43d
00000130: fa05 953d d69d 89bd 0aa0 f73d 7839 a8bd
00000140: 605c b0bc 84e7 97bd b082 623d 3453 6cbd
00000150: 6ef3 83bd 68c1 823d 70ca d33c d2f3 da3d
00000160: 8af3 8e3d 82ab f23d b030 e03c 702a 9a3c
00000170: d848 be3c 5403 7f3d b038 73bd aaeb dc3d
00000180: 78ee aabc ecd0 58bd 602a b0bb 5039 a13d
00000190: 7097 b43c 084c fbbd 7c96 1ebd fe4e fbbd
000001a0: a63e c13d 5a34 d13d 808c 2d3d 4ee0 f8bd
000001b0: 22a3 d33d 30b1 28bc c2b8 93bd 144f 3e3d
000001c0: b674 b0bd ae9e febd 66bf 8e3d 5060 35bc
000001d0: 9eb9 eebd 1cda 073d 804c b1bc c498 503d
000001e0: 744c 203d 56a9 c5bd 7afd f13d ec81 fc3d
000001f0: f067 8b3c 9ce8 33bd 2095 143d 4e2f 98bd
00000200: e607 8e3d a8a1 103d 7018 00bd 1054 69bc
00000210: 808a 9a3d c47c eb3d da6a 95bd 4ccf 2d3d
00000220: d099 08bc 007a 84b9 60ae 88bc 9c63 45bd
00000230: 902c 363c 5c17 d3bd b858 a9bd 6092 82bd
00000240: e692 a93d 3cdd ff3d bca1 f93d 90e8 d4bd
00000250: 1e3a f0bd 10eb 81bc b068 0c3c 6407 03bd
00000260: 581c a7bd 3a8a fcbd 6aa3 f63d e0c0 d0bb
00000270: 90af 633c 586d 50bd 44cf 0b3d bc1f f7bd
00000280: 640e 3d3d 4010 a23c 12f4 e13d dcc8 2ebd
00000290: f0e6 623d c8ff be3d 6846 a93c 00f6 cdbb
000002a0: 6ad5 ba3d 5471 bc3d e4ba b3bd e4ac 8bbd
000002b0: 1485 00bd 1c83 043d 188a 3ebd 105f 483c
000002c0: 88d7 e33d d21b e13d 6476 713d d8ed c23c
000002d0: 908c 9e3c 24b7 323d 3cb5 2fbd 803c 463c
000002e0: a62d 813d 304a eebd 0028 6ebc 5034 43bd
000002f0: e842 be3c a6ed 95bd 8c58 02bd 3c85 30bd
00000300: 24c5 ad3d bc7a c2bd 74bd b43d 56f2 88bd
00000310: 8c80 49bd a6d5 e4bd 6edf 983d 28bc 1fbd
00000320: 503c 553d d0b2 203d 1c97 073d 0095 73bd
00000330: 1abc b5bd 4899 8e3c c6da eb3d d080 febd
00000340: 0834 633d 3873 de3d c682 c8bd b891 c6bc
00000350: 4872 773d 3881 d13d f4e0 bb3d 206a d3bc
00000360: b0b4 a0bc 7079 cd3c 600a 8f3d 5053 373c
00000370: 44ff 183d 68a2 a83d 5848 d9bc 92c8 8d3d
00000380: 881b aebd 005b acbc faa4 dabd 6c4a b83d
00000390: e631 8c3d fc3c 283d e6db 99bd 600d de3d
000003a0: ac0b 893d 4eb6 8cbd c874 1e3d 60b2 76bd
000003b0: 18fd c93c 1443 95bd 705e e5bc e02d c73b
000003c0: 10e7 1f3d 6042 f5bd 488b cfbd 229b db3d
000003d0: e42a 8fbd 740b ebbd 8834 96bc 00bf 5fbb
000003e0: 3005 bbbc f4d9 e1bd d012 213c 303a 53bc
000003f0: 0c1e b33d 80f8 fb3b 14c9 ce3d 9217 da3d
0.11099547 -0.06680821 0.103313506 0.020328477 0.07729252 -0.1060399 0.051692605 -0.039216816
-0.04787457 0.07338463 -0.054370582 0.064806804 -0.018333301 -0.09388918 -0.0064291805 -0.09158221
-0.010283262 -0.045236185 0.028637871 0.031656057 -0.11848442 -0.014163047 0.054468423 -0.075143814
0.08060332 -0.021068498 -0.049318284 -0.075107545 -0.08538754 -0.081656784 0.08091031 -0.09348704
0.055494323 -0.04569727 -0.021556288 -0.09747012 -0.095805645 0.12217447 0.07928589 0.071843475
0.12139131 -0.0914081 -0.0742939 -0.111537576 -0.118110314 -0.10391404 0.032306552 -0.017424777
-0.1236532 -0.05717644 -0.041727453 -0.037326127 0.11498366 0.036021456 -0.11281386 -0.05279611
0.08210306 -0.11066854 -0.10331769 -0.024668723 0.066303894 0.030612692 0.08901468 0.007087454
-0.10277815 0.043400124 -0.09327768 0.093188375 0.10277349 -0.014223248 -0.03534241 -0.03023097
0.068996534 0.11933614 -0.11315006 0.08803764 0.072765306 -0.06719558 0.12091072 -0.08214086
-0.021528423 -0.07417205 0.055300415 -0.057696536 -0.06442915 0.063845456 0.025853366 0.10691036
0.06980045 0.11849119 0.027366966 0.018819064 0.023228094 0.062259033 -0.059380233 0.10787137
-0.020865664 -0.05293362 -0.0053761452 0.078722596 0.022044867 -0.12270361 -0.03871773 -0.12270926
0.09435777 0.102150634 0.04237032 -0.12152158 0.103338495 -0.010296151 -0.07212974 0.046462134
-0.08616011 -0.124326095 0.069701 -0.011070326 -0.116564974 0.03316699 -0.021642923 0.05092694
0.03913541 -0.09651439 0.11815925 0.12329468 0.017017335 -0.043923005 0.03627503 -0.07430898
0.069351 0.035310417 -0.031273305 -0.0142412335 0.07545948 0.114984065 -0.07295771 0.04243402
-0.008337453 -0.000252679 -0.016684711 -0.048190698 0.011119023 -0.1030719 -0.08268875 -0.06375575
0.08279972 0.12493369 0.121890515 -0.1039592 -0.11729835 -0.015859157 0.008569881 -0.03198947
-0.08159703 -0.12331052 0.120428875 -0.0063706487 0.013896838 -0.05088553 0.03413321 -0.120666
0.046156302 0.01978314 0.11032881 -0.042672023 0.05539602 0.0932613 0.020663455 -0.006285429
0.09122737 0.09201303 -0.08775881 -0.06820086 -0.031376913 0.0323516 -0.046518415 0.012229696
0.11125094 0.109916344 0.058950797 0.023795053 0.019354135 0.043631688 -0.042897448 0.012099385
0.06307535 -0.11635244 -0.014535904 -0.04765731 0.023225263 -0.073207185 -0.031822726 -0.043095812
0.08484867 -0.09496066 0.08825198 -0.06686847 -0.049194857 -0.11173563 0.07464491 -0.0389978
0.05205947 0.03923303 0.033103094 -0.05946827 -0.08873768 0.017407075 0.11516337 -0.12426913
0.055469543 0.1086182 -0.09790568 -0.024239406 0.06041172 0.10229725 0.09173766 -0.02580744
-0.019617409 0.02508232 0.06984401 0.011189297 0.037352815 0.082341015 -0.026523754 0.069230214
-0.08501345 -0.021039486 -0.10675998 0.0899857 0.06845455 0.041073784 -0.075126454 0.10842395
0.06691679 -0.06870709 0.03868559 -0.060228705 0.024656817 -0.07288185 -0.027999133 0.006078467
0.039038718 -0.11975551 -0.10133988 0.107229486 -0.069906026 -0.11476794 -0.018335596 -0.0034140944
-0.022829622 -0.110278994 0.009831145 -0.012892291 0.08745965 0.0076895356 0.10096946 0.10649027

linear3.bias f4 [10]
00000000: b886 dabd 243c d53d 4096 65bb c01a 74bd
00000010: 0294 bb3d 6408 a33d 4803 acbd 34e8 7b3d
00000020: 80d7 b5bd 509e a43d
-0.10670227 0.104118615 -0.0035032183 -0.059595823 0.091590896 0.07960585 -0.08399063 0.061500743
-0.08878994 0.08038008
