model1.onnx (onnx, 67377 bytes, 6 tensors)

linear1.weight f4 [128, 60]
0.08402887 -0.010182776 -0.07125969 -0.020021014 0.034502804 0.013097942 -0.0109111145 -0.11719579
0.03399846 0.0049871504 -0.029453978 -0.051566087 -0.10724898 0.1147954 0.12734126 0.0692298
0.027413353 0.077096045 -0.012789756 0.08878702 -0.07678138 -0.021229915 0.06575647 0.06284398
0.106202945 0.050076395 0.0028350204 -0.092719525 -0.011770479 -0.08340944 -0.04760965 -0.08497569
0.09094295 -0.06883119 -0.053275622 0.037657425 0.022090271 -0.06917021 0.105624825 0.08063662
-0.06056066 -0.006840296 0.10038081 0.017238349 0.11834642 -0.027206704 -0.0979445 -0.035346642
0.11134291 0.0771233 -0.08825468 0.08026612 0.08626391 0.120094374 -0.032676354 -0.11044058
0.05525598 -0.121075824 0.016566962 -0.022659943 -0.12334257 0.04332161 -0.11364307 0.084376395
-0.017937489 -0.06653232 0.05505471 0.041866258 -0.019033588 0.014420703 0.06822513 0.05946195
0.09697653 -0.120755434 -0.11831694 -0.09508864 0.002946511 0.096486345 -0.077296734 0.10682663
0.007888287 -0.05350332 -0.119868115 -0.037208818 -0.12494463 0.027244419 -0.11718659 -0.074527286
-0.11247408 0.044066727 -0.10449341 0.046607167 0.0014164001 -0.036797017 0.012138367 -0.11972616
0.11899163 -0.11110319 -0.11432522 0.003412813 0.076200604 0.08177829 0.08883101 0.07021135
0.12213077 -0.05561003 0.09471813 0.09060913 -0.099643216 -0.03749527 -0.078707784 -0.022243477
0.00012776256 -0.08138667 0.04547806 -0.06417273 -0.07791418 -0.117495894 0.02943869 -0.020113446
0.08299306 -0.026907712 0.026288316 -0.09142081 -0.07364739 -0.06494718 -0.023402825 0.039494857
-0.053943418 0.08887121 -0.06782051 -0.12819794 0.0684696 -0.056786343 0.035559475 -0.085044175
-0.07987723 0.0498762 0.10489996 0.09330183 -0.026916377 -0.056933314 0.0710613 0.010982335
0.010365576 0.06249641 -0.08290163 -0.033222765 0.11127213 -0.10329038 -0.089146435 -0.11183745
0.061071426 0.08046664 -0.00044991076 0.066629425 -0.06715487 0.12890644 0.08483225 0.09862636
-0.015711166 0.08354378 -0.045039557 -0.068035334 -0.11435852 -0.087469846 -0.027683578 -0.065788604
0.09926346 -0.10633761 0.113980904 0.09796932 0.080339804 -0.0064630285 -0.1025839 -0.07446065
-0.07963364 -0.00080764294 -0.008786388 0.06721337 -0.0877358 0.07920453 -0.11407373 0.092710555
0.058446974 -0.11847962 -0.07716252 -0.0365244 0.09457201 -0.018140607 -0.047272377 -0.09953293
0.12495373 0.03318189 -0.11824107 0.113634765 0.046263054 0.04725392 0.11553514 -0.028801553
-0.12174238 0.087794885 -0.090624504 0.046933755 0.026486069 0.0909739 0.07208738 0.11736314
-0.096638784 0.013876393 -0.0038506836 -0.07900381 -0.03108102 0.049274564 -0.071518496 -0.05785512
0.11217803 0.095346436 -0.09186217 -0.00075405836 0.08679274 0.05973676 -0.03520555 0.11128403
-0.013923325 -0.026138663 0.007045269 -0.10385551 -0.089927234 -0.010793075 0.0047566146 0.06080851
-0.0742562 -0.123576626 0.020675942 -0.008917972 0.09184833 0.11596869 -0.11090261 -0.11459488
0.0876791 -0.0488823 0.018445417 0.01861383 -0.016197115 0.073888734 -0.084558174 -0.010967776
-0.090482205 0.12758876 -0.10672314 -0.02031567 0.005435765 -0.0527436 -0.10435395 -0.07471843
00000000: 5417 ac3d a8d5 26bc 9af0 91bd 1c03 a4bc
00000010: d052 0d3d c098 563c 88c4 32bc 5904 f0bd
00000020: f841 0b3d 406b a33b 7849 f1bc f636 53bd
00000030: 5aa5 dbbd da19 eb3d bf65 023e 5ac8 8d3d
00000040: f891 e03c 88e4 9d3d 208c 51bc f8d5 b53d
00000050: 8e3f 9dbd 5cea adbc 54ab 863d 58b4 803d
00000060: ee80 d93d e81c 4d3d c0cb 393b bce3 bdbd
00000070: f8d8 40bc 92d2 aabd 5602 43bd bc07 aebd
00000080: 4c40 ba3d 5ef7 8cbd 8a37 5abd ac3e 1a3d
00000090: a8f6 b43c 1ca9 8dbd d451 d83d d024 a53d
000000a0: 740e 78bd 9024 e0bb 7494 cd3d 7037 8d3c
000000b0: 9c5f f23d 98e0 debc 2097 c8bd a4c7 10bd
000000c0: c007 e43d d2f2 9d3d dfbe b4bd 9062 a43d
000000d0: 22ab b03d 0af4 f53d a4d7 05bd ac2e e2bd
000000e0: 1854 623d 9af6 f7bd 70b7 873c 58a1 b9bc
000000f0: 089b fcbd 0072 313d b3bd e8bd 88cd ac3d
00000100: a4f1 92bc 1942 88bd 0c81 613d f47b 2b3d
00000110: 54ec 9bbc d044 6c3c 9eb9 8b3d 608e 733d
00000120: a29b c63d a04e f7bd 2750 f2bd d5bd c2bd
00000130: 401a 413b a29a c53d c04d 9ebd ecc7 da3d
00000140: e03d 013c 4c26 5bbd 6a7d f5bd 4668 18bd
00000150: f8e2 ffbd b02f df3c 86ff efbd c3a1 98bd
00000160: cf58 e6bd 507f 343d a400 d6bd 28e7 3e3d
00000170: 80a6 b93a 78b8 16bd 00e0 463c fd32 f5bd
00000180: e2b1 f33d 128a e3bd 5723 eabd 80a9 5f3b
00000190: 100f 9c3d 607b a73d 08ed b53d f8ca 8f3d
000001a0: b21f fa3d 58c7 63bd 94fb c13d 4891 b93d
000001b0: be11 ccbd a494 19bd 8c31 a1bd f437 b6bc
000001c0: 00f8 0539 0eae a6bd 3447 3a3d fe6c 83bd
000001d0: 7891 9fbd b0a1 f0bd 6829 f13c f4c4 a4bc
000001e0: 44f8 a93d 906d dcbc 985a d73c d53a bbbd
000001f0: 71d4 96bd 0703 85bd 48b7 bfbc 5cc5 213d
00000200: c6f3 5cbd 1c02 b63d 7be5 8abd 5246 03be
00000210: ca39 8c3d cc98 68bd d0a6 113d a42b aebd
00000220: ac96 a3bd fc4a 4c3d cad5 d63d 0815 bf3d
00000230: bc7f dcbc e832 69bd 9688 913d 40ef 333c
00000240: 60d4 293c 3cfc 7f3d 54c8 a9bd 9814 08bd
00000250: a4e2 e33d e889 d3bd 6892 b6bd 080b e5bd
00000260: 0826 7a3d b2cb a43d 00e2 ebb9 0275 883d
00000270: 7e88 89bd 0d00 043e 88bc ad3d 9efc c93d
00000280: b4b4 80bc 0019 ab3d 667b 38bd 1c56 8bbd
00000290: cd34 eabd 6423 b3bd acc8 e2bc 2dbc 86bd
000002a0: a44a cb3d 88c7 d9bd d26e e93d 24a4 c83d
000002b0: 3289 a43d d0c7 d3bb 8217 d2bd d37e 98bd
000002c0: f616 a3bd 00b8 53ba c8f4 0fbc 2aa7 893d
000002d0: d4ae b3bd fc35 a23d 7d9f e9bd 08df bd3d
000002e0: 1866 6f3d 71a5 f2bd 6207 9ebd 9c9a 15bd
000002f0: f8ae c13d 9c9b 94bc aea0 41bd ecd7 cbbd
00000300: bee7 ff3d bce9 073d 6028 f2bd 58b9 e83d
00000310: 547e 3d3d 548d 413d b09d ec3d 3cf1 ebbc
00000320: 1254 f9bd cecd b33d 5799 b9bd 9c3d 403d
00000330: 50f9 d83c 8650 ba3d 8ca2 933d 165c f03d
00000340: 8eea c5bd d059 633c c05b 7cbb c0cc a1bd
00000350: a09d febc 20d4 493d 4a78 92bd 7ef9 6cbd
00000360: 98bd e53d fe44 c33d 3c22 bcbd 00ac 45ba
00000370: 64c0 b13d 88ae 743d b233 10bd e2e8 e33d
00000380: a81e 64bc c020 d6bc 00dc e63b 33b2 d4bd
00000390: c52b b8bd 70d5 30bc 60dd 9b3b 5812 793d
000003a0: a213 98bd be15 fdbd 9860 a93c b01c 12bc
000003b0: fa1a bc3d fe80 ed3d e820 e3bd b8b0 eabd
000003c0: 1a91 b33d ce38 48bd d81a 973c 087c 983c
000003d0: d0af 84bc fa52 973d d62c adbd 30b2 33bc
000003e0: bc4e b9bd a1a6 023e a991 dabd 0c6d a6bc
000003f0: 801e b23b ac09 58bd 86b7 d5bd fa05 99bd

linear1.bias f4 [128]
-0.052062534 -0.0891376 0.09359431 -0.06979577 0.098401636 0.038736105 0.051719487 -0.0735098
0.0009558946 -0.127687 -0.08499377 -0.08264175 0.113934636 -0.06777614 -0.019702092 0.0022014678
0.10974102 -0.09461871 -0.027053483 0.0879956 0.038277924 0.03465028 -0.04967092 0.03182435
-0.10067756 0.038157016 0.021776438 -0.09045118 0.017447248 0.055489182 -0.018397398 -0.10603167
0.122070685 -0.00083215535 0.09634259 0.09617293 0.09735361 -0.0707587 0.11247109 0.099276185
-0.024926253 0.08901866 0.006374091 0.121995464 0.1150168 0.12244089 0.09297049 0.011143878
0.086342365 -0.036168724 -0.10342745 0.028955951 0.091697216 0.07152121 0.09640977 0.08077085
-0.115772076 0.08403607 -0.067842424 -0.07183388 -0.10062746 0.086374015 -0.116461925 -0.013499565
-0.08113995 0.020886287 -0.11397827 0.028139353 -0.007074207 0.10217257 0.10575308 -0.11701835
-0.048230693 -0.09824585 -0.07871573 0.0134446025 0.07511273 -0.06250019 0.017461255 0.040428147
0.1095494 -0.09621227 -0.0071911737 -0.082888424 -0.026649088 0.02575396 -0.07523736 -0.07145892
0.011966482 -0.088145465 0.10600543 -0.09213343 -0.013058968 0.03549522 -0.042688593 0.08182265
0.09111184 0.025547907 -0.057117485 -0.075409755 -0.11085102 0.055692777 0.020341128 -0.07262799
0.06290181 0.09226999 0.028641209 -0.11506007 -0.01867517 -0.06917996 0.12568145 -0.0789392
-0.055898666 -0.008931518 -0.01839386 0.041278526 0.10897778 -0.08297624 -0.037646748 0.11486605
-0.016361602 0.08976847 -0.06822255 0.098938614 -0.1230287 0.11630064 0.061381325 0.006970316
00000000: 863f 55bd c68d b6bd 60ae bf3d 16f1 8ebd
00000010: cc86 c93d c0a9 1e3d d0d7 533d 4e8c 96bd
00000020: 0095 7a3a 62c0 02be 3711 aebd 1440 a9bd
00000030: 9056 e93d 38ce 8abd 4866 a1bc 8046 103b
00000040: e6bf e03d 74c7 c1bd 449f ddbc 0a37 b43d
00000050: 50c9 1c3d 74ed 0d3d bc73 4bbd 405a 023d
00000060: 0930 cebd 884a 1c3d 8064 b23c 783e b9bd
00000070: 88ed 8e3c a048 633d 24b6 96bc 2227 d9bd
00000080: 3200 fa3d 0025 5aba 444f c53d 50f6 c43d
00000090: 5461 c73d f0e9 90bd 3e57 e63d 5051 cb3d
000000a0: 2432 ccbc 6a4f b63d c0dd d03b c2d8 f93d
000000b0: ee8d eb3d 4ac2 fa3d 5067 be3d d094 363c
000000c0: 44d4 b03d a825 14bd c5d1 d3bd 0835 ed3c
000000d0: c0cb bb3d b679 923d 7c72 c53d 306b a53d
000000e0: e919 edbd 1a1b ac3d f8f0 8abd a41d 93bd
000000f0: c515 cebd dce4 b03d 9783 eebd 482d 5dbc
00000100: b42c a6bd b819 ab3c 706d e9bd 8084 e63c
00000110: c0ce e7bb da3f d13d 1295 d83d 51a7 efbd
00000120: 8c8d 45bd 1f35 c9bd b635 a1bd c046 5c3c
00000130: b4d4 993d 1a00 80bd e80a 8f3c fc97 253d
00000140: 705b e03d f00a c5bd f0a3 ebbb 68c1 a9bd
00000150: 304f dabc f8f9 d23c 0c16 9abd 0e59 92bd
00000160: 100f 443c 9c85 b4bd 6019 d93d 74b0 bcbd
00000170: 48f5 55bc 7063 113d 3cda 2ebd a292 a73d
00000180: d898 ba3d d849 d13c 06f4 69bd 6e70 9abd
00000190: dc05 e3bd 1c1e 643d 70a2 a63c fcbd 94bd
000001a0: aad2 803d 0cf8 bc3d f8a0 ea3c 9da4 ebbd
000001b0: acfc 98bc 39ae 8dbd a3b2 003e e0aa a1bd
000001c0: 00f6 64bd 8055 12bc b8ae 96bc ac13 293d
000001d0: be2f df3d 72ef a9bd 7a33 1abd e43e eb3d
000001e0: c408 86bc 88d8 b73d 44b8 8bbd 54a0 ca3d
000001f0: 79f6 fbbd 082f ee3d fc6a 7b3d 4067 e43b

linear2.weight f4 [64, 128]
-0.07273099 0.06537784 0.082868285 -0.027394619 -0.03143709 0.048815556 0.030255146 0.027631864
0.040217914 -0.0079475045 0.06967514 -0.02466821 -0.051742304 0.039239936 -0.0720949 -0.0051632
-0.062929064 -0.010299854 0.018643603 0.05991771 0.058937334 -0.059972078 -0.058424972 -0.03993475
0.082000814 0.07517191 0.011942036 -0.078261435 0.0704365 -0.008672431 -0.0878919 -0.0054843873
-0.022075757 -0.06523526 0.024652228 -0.047978424 0.009680152 0.06448997 -0.032996323 -0.054459356
0.03406713 0.07678469 0.033868194 0.014425948 -0.03815551 0.017798655 -0.084430486 -0.010839514
-0.042673018 0.05449707 -0.021719322 -0.08474816 -0.068433166 -0.057905924 -0.047797825 -0.0037006587
0.08176973 -0.07533169 0.03757537 -0.024074294 -0.06823669 0.0058153197 -0.011393219 -0.07864534
-0.055748437 0.023475401 -0.032227997 0.049020506 0.0422583 -0.017540537 0.007962592 -0.04187183
-0.024168596 -0.04301679 0.05249477 -0.044384584 -0.049702134 0.07675051 -0.029056594 0.04469838
-0.03849577 -0.08756085 -0.047739007 0.03864006 0.0774486 0.058031626 -0.035835527 0.021951556
-0.07144356 0.031514324 0.07963372 0.020325162 -0.022601165 -0.051831234 0.037792273 0.047338553
-0.035615098 0.072642125 0.059556775 -0.081597045 0.08636799 -0.065009944 -0.04797091 -0.06254309
-0.042537708 0.080398925 0.043982856 -0.014547668 -0.06802439 0.028923877 0.08388118 0.05078139
0.07394693 0.05101738 0.014269218 0.011068143 -0.037715677 0.075198285 0.04737348 0.043099023
0.047309346 -0.04543955 0.035557844 -0.029438488 -0.00051292777 -0.03841623 0.01706335 -0.0384863
-0.016728297 -0.059052043 -0.030474659 0.046317093 -0.087872624 -0.06866964 0.067469396 -0.02099014
0.05169324 0.051748864 0.04306046 0.014130302 -0.07845797 -0.06186954 -0.069262855 -0.055765096
0.028331682 0.08279277 -0.0005985275 0.048050113 -0.014010161 0.050804086 0.05786539 0.0070752576
0.01817666 -0.06735626 -0.078431204 -0.06636836 -0.07645297 0.059100337 0.032408237 0.032563023
0.014140643 0.050501116 -0.015197709 -0.080768436 -0.0052782744 -0.067382455 -0.061212838 0.07460324
0.0020017251 -0.08452663 -0.045923278 0.01860699 0.03916695 0.0637392 -0.08125137 0.06486689
0.06831353 -0.007135153 0.04487034 0.04300172 -0.02483327 -0.062141903 0.03081645 -0.03316566
0.018159539 0.057123967 0.028832175 -0.08200456 -0.019401774 -0.0049699843 0.052648686 0.032087587
-0.0071142837 -0.015835918 0.08740608 0.0032595918 -0.043874815 -0.07706488 0.017433524 0.058693655
0.051975407 -0.02888411 0.057759397 -0.08723945 -0.00583639 0.08149778 0.005348511 0.043570288
-0.0220422 0.055465437 -0.020476118 -0.05364396 0.024252772 -0.0012585223 -0.024500012 0.004895933
-0.0074680224 0.07730193 -0.0025940612 -0.044310804 -0.010423884 0.0400152 -0.023815677 0.083580546
-0.021299131 -0.017015137 0.02459155 -0.015396841 -0.035262685 -0.0054835603 0.065816306 0.07934063
-0.019282825 0.032182902 0.03790077 -0.06665308 0.040361382 -0.059692707 -0.08741164 0.06566439
-5.8077276e-05 0.0058496743 0.08486482 -0.079600126 -0.08566604 -0.0341763 0.0065487325 -0.021894395
-0.060550753 -0.04281029 0.014619201 0.041710563 0.056891136 -0.07990679 -0.05925162 -0.0068740696
00000000: fcf3 94bd d1e4 853d d9b6 a93d ae6a e0bc
00000010: 2ec4 00bd d2f2 473d a4d9 f73c 385c e23c
00000020: 8abb 243d 4036 02bc d7b1 8e3d fc14 cabc
00000030: bdef 53bd 0eba 203d 7ea6 93bd 1030 a9bb
00000040: f4e0 80bd b8c0 28bc 78ba 983c 466c 753d
00000050: 4668 713d 48a5 75bd 064f 6fbd 9f92 23bd
00000060: 0bf0 a73d bbf3 993d 88a8 433c 8847 a0bd
00000070: 0341 903d d016 0ebc ab00 b4bd 60b6 b3bb
00000080: 38d8 b4bc 109a 85bd 78f3 c93c 0685 44bd
00000090: 8099 1e3c 5113 843d 2727 07bd c610 5fbd
000000a0: fa89 0b3d 4b41 9d3d 60b9 0a3d d05a 6c3c
000000b0: f448 1cbd 7cce 913c e4e9 acbd 3898 31bc
000000c0: e7c9 2ebd 5238 5f3d b8ec b1bc 7190 adbd
000000d0: b026 8cbd c32e 6dbd a7c7 43bd c086 72bb
000000e0: e376 a73d 8047 9abd a2e8 193d 7437 c5bc
000000f0: adbf 8bbd 708e be3b a0aa 3abc cf10 a1bd
00000100: 7958 64bd 7c4f c03c 8101 04bd bac9 483d
00000110: 0a17 2d3d 2cb1 8fbc 8875 023c cc81 2bbd
00000120: 38fd c5bc 6032 30bd c204 573d 9ccc 35bd
00000130: 7794 4bbd 5f2f 9d3d 1808 eebc a615 373d
00000140: bead 1dbd 1a53 b3bd fa89 43bd 0a45 1e3d
00000150: 5f9d 9e3d 92b2 6d3d 46c8 12bd c0d3 b33c
00000160: 0051 92bd 2a15 013d 0117 a33d f480 a63c
00000170: 1426 b9bc fd4c 54bd 12cc 1a3d 12e6 413d
00000180: 23e1 11bd 65c5 943d cef1 733d 5a1c a7bd
00000190: b3e1 b03d ef23 85bd 257d 44bd 9716 80bd
000001a0: 053c 2ebd 31a8 a43d 5e27 343d 5859 6ebc
000001b0: 5f50 8bbd c4f1 ec3c e5c9 ab3d 2600 503d
000001c0: 7d71 973d 9af7 503d 70c9 693c 2857 353c
000001d0: c17b 1abd 8f01 9a3d b20a 423d 9a88 303d
000001e0: 72c7 413d d21e 3abd 1aa5 113d fc28 f1bc
000001f0: 0076 06ba 565a 1dbd 70c8 8b3c cfa3 1dbd
00000200: c809 89bc 8ee0 71bd fea5 f9bc feb6 3d3d
00000210: 90f6 b3bd aba2 8cbd 652d 8a3d 84f3 abbc
00000220: 4abc 533d 9ef6 533d 2a60 303d c882 673c
00000230: 92ae a0bd ea6a 7dbd afd9 8dbd f169 64bd
00000240: d817 e83c 418f a93d 80e6 1cba 32d0 443d
00000250: e08a 65bc f217 503d 4204 6d3d 90d7 e73b
00000260: 38e7 943c 14f2 89bd 8aa0 a0bd 22ec 87bd
00000270: 6093 9cbd 3213 723d 80be 043d ce60 053d
00000280: 28ae 673c 42da 4e3d d0ff 78bc ec69 a5bd
00000290: 60f5 acbb d0ff 89bd 50ba 7abd 95c9 983d
000002a0: 602f 033b 4c1c adbd 0c1a 3cbd b06d 983c
000002b0: 866d 203d b389 823d 1e67 a6bd efd8 843d
000002c0: f7e7 8b3d 00ce e9bb f6c9 373d 9222 303d
000002d0: 246f cbbc 8288 7ebd c872 fc3c b7d8 07bd
000002e0: 50c3 943c d2fa 693d 7431 ec3c 02f2 a7bd
000002f0: 78f0 9ebc 40db a2bb 26a6 573d 466e 033d
00000300: f01e e9bb 54ba 81bc f501 b33d e09e 553b
00000310: 14b6 33bd 31d4 9dbd c0d0 8e3c c268 703d
00000320: 2ae4 543d 5e9e ecbc 1e95 6c3d 99aa b2bd
00000330: 303f bfbb 4fe8 a63d 9042 af3b c276 323d
00000340: d891 b4bc ba2f 633d 88bd a7bc c5b9 5bbd
00000350: c0ad c63c 00f5 a4ba 40b4 c8bc 106e a03b
00000360: 50b6 f4bb 7950 9e3d 2001 2abb 3f7f 35bd
00000370: f0c8 2abc fae6 233d 1819 c3bc 472c ab3d
00000380: 847b aebc 5463 8bbc 3874 c93c 0843 7cbc
00000390: 9b6f 10bd 70af b3bb b3ca 863d 577d a23d
000003a0: 04f7 9dbc 38d2 033d d63d 1b3d 6981 88bd
000003b0: fa51 253d 5780 74bd e004 b3bd 0d7b 863d
000003c0: 0098 73b8 a0ae bf3b 9bcd ad3d 6405 a3bd
000003d0: ad71 afbd 73fc 0bbd c096 d63b e05b b3bc
000003e0: 1104 78bd d859 2fbd 6085 6f3c b2d8 2a3d
000003f0: ae06 693d 2ca6 a3bd d4b1 72bd e03f e1bb

linear2.bias f4 [64]
0.05877339 -0.06920594 0.023289993 0.03679023 0.079840176 0.04217375 -0.0799167 0.044637464
-0.08752541 -0.06820899 -0.01621823 0.053355657 0.015402399 0.013235785 -0.04478054 -0.015967183
0.041605256 0.049971946 0.04820486 -0.021133386 -0.06558802 -0.07912128 0.04375393 0.069667704
-0.07340249 -0.076112285 -0.06272997 -0.025943946 -0.07241563 0.01976531 0.024238639 -0.02458097
0.0051436126 0.037775524 0.012086518 -0.08003107 0.0039751083 -0.0057219192 0.08090032 -0.029554676
0.048895575 0.07268838 -0.063290656 0.005022146 -0.08745431 0.012471966 -0.047054563 -0.08708707
-0.0017004162 -0.06699792 -0.04536649 -0.051120237 -0.053662222 -0.035080276 0.022542454 -0.070664935
-0.02488307 0.07491597 -0.06276028 0.02357664 0.03324534 -0.0738959 -0.08354517 0.075141184
00000000: 5ebc 703d d8bb 8dbd a8ca be3c 5ab1 163d
00000010: 3f83 a33d 62be 2c3d 5eab a3bd c6d5 363d
00000020: 8640 b3bd 28b1 8bbd 18dc 84bc 768b 5a3d
00000030: 585a 7c3c e8da 583c cd6b 37bd 9ccd 82bc
00000040: 466a 2a3d 62af 4c3d 7672 453d ec1f adbc
00000050: 0353 86bd 560a a2bd 5237 333d f1ad 8e3d
00000060: 0b54 96bd c2e0 9bbd 9278 80bd 6688 d4bc
00000070: a54e 94bd dcea a13c 1c90 c63c 085e c9bc
00000080: c08b a83b 82ba 1a3d 8806 463c 54e7 a3bd
00000090: a041 823b f07e bbbb 11af a53d a61c f2bc
000000a0: ba46 483d a5dd 943d 889e 81bd d090 a43b
000000b0: 3f1b b3bd 3857 4c3c 49bc 40bd b55a b2bd
000000c0: 80e0 deba 3536 89bd 36d2 39bd 7463 51bd
000000d0: ebcc 5bbd 56b0 0fbd f4aa b83c c7b8 90bd
000000e0: 94d7 cbbc 8b6d 993d 7688 80bd cc23 c13c
000000f0: 442c 083d bc56 97bd bb19 abbd 9fe3 993d

linear3.weight f4 [9, 64]
-0.07649343 0.04508002 0.031219095 -0.0061687976 -0.11429301 -0.08070682 -0.04257688 -0.123450965
0.043739766 0.059558332 -0.00058200955 0.08222172 0.10776107 -0.009056732 0.049264565 0.058034986
0.10672112 -0.12070306 -0.002389893 0.10941267 -0.059410334 -0.118474305 0.031762347 0.101362094
0.011121839 -0.04478334 -0.038721934 0.102936596 0.019902766 0.0889159 -0.09997237 0.0917671
-0.002035439 0.06669831 0.019872278 -0.032268375 -0.0027222633 -0.048829153 0.016922653 -0.04264018
-0.11482899 -0.11445236 0.052972376 -0.029602349 -0.053881496 -0.05308208 -0.056781888 -0.10878724
-0.014953867 -0.061147675 -0.09413959 0.05508755 0.014180869 -0.1157462 0.11642201 0.03187248
0.08462329 -0.08037026 -0.07095848 -0.04361798 -0.0048405975 -0.07939701 -0.09412944 -0.0050125867
-0.0690175 -0.09646681 0.07591431 -0.10418275 -0.018974662 0.014839336 -0.12474093 0.091097474
-0.06586048 0.09737003 -0.018521667 -0.121056795 -0.082601815 -0.09005952 -0.08640544 -0.12399651
0.033961058 -0.012244657 -0.008843571 0.05805348 0.10423684 -0.026844949 0.013624564 0.039431304
-0.114099845 0.09888032 0.07303965 0.09574328 0.118630946 0.080362335 -0.12197037 -0.034904823
0.007625431 -0.105396494 0.10789919 -0.024987683 -0.08592348 0.030201107 -0.09930971 0.12363504
-0.08131413 0.034171134 -0.05131422 -0.049250215 -0.02937062 -0.106068864 -0.011596605 -0.010926604
0.016752511 -0.031374127 0.035993546 -0.08103001 0.10373585 0.04249102 -0.12232666 -0.074714154
-0.12285139 -0.06526753 0.12216218 0.08078568 -0.078719184 0.08178888 -0.0929752 0.028456464
-0.1188506 -0.0022467077 -0.016513497 0.109921426 0.07130882 -0.10446909 0.10018119 -0.012572095
0.07116565 -0.09359248 -0.04907751 -0.117797166 -0.0039033592 -0.023109287 0.10201442 0.01925011
0.09288524 0.07987063 -0.08401491 -0.03326477 -0.028726041 0.051767156 0.015646398 0.035057724
0.0126250535 -0.093392 0.053244874 -0.019077495 -0.0716093 0.03513202 -0.10236311 -0.11653909
-0.09271434 0.050544456 0.008921355 0.011270583 -0.030327305 -0.0140874535 0.11052756 0.011275083
-0.037933797 0.09045513 -0.013056383 -0.017876104 -0.026761666 -0.07978265 0.06293164 -0.013668969
0.03296165 0.05613117 0.02860926 0.039461777 0.10332923 0.025610626 -0.06986375 -0.12031554
0.04712048 -0.0015589744 0.09285931 0.0033881962 -0.049321458 -0.011839941 -0.025563374 0.06364377
-0.009830937 0.10637224 0.058572784 -0.042825654 0.0074536055 -0.080146596 -0.030490234 -0.090618744
0.050047994 0.024820745 0.10846762 -0.002503872 -0.062218398 0.0017745793 -0.016985685 0.0986065
0.07054831 -0.0069057494 0.058384836 -0.052569076 -0.003349647 0.08959624 0.044195667 -0.034176186
0.10526654 0.11110026 -0.10851623 0.09474996 0.013006389 0.0070369244 0.0007644594 -0.029068306
0.11713542 0.12270312 0.1133623 0.057930484 -0.07078639 0.11916959 0.087769225 -0.10163295
-0.1122684 -0.04336737 -0.11363645 -0.06499605 0.0800605 0.036202237 -0.11733265 0.039437562
-0.0101064 0.042361528 -0.0060910583 -0.00886859 -0.033370465 0.11587608 -0.0040170103 0.029231057
-0.053769097 -0.043580532 0.008604705 -0.06998868 0.020780623 0.070451245 -0.098040864 -0.10794522
00000000: 96a8 9cbd d4a5 383d 30bf ff3c a023 cabb
00000010: 7412 eabd 9e49 a5bd 1865 2ebd dcd3 fcbd
00000020: 7828 333d 70f3 733d 0092 18ba dc63 a83d
00000030: d6b1 dc3d b062 14bc a4c9 493d 18b6 6d3d
00000040: 9a90 da3d 2a33 f7bd c09f 1cbb c013 e03d
00000050: 4058 73bd a8a2 f2bd 3c19 023d ee96 cf3d
00000060: 6038 363c bc6e 37bd e49a 1ebd 6cd0 d23d
00000070: 200b a33c 8a19 b63d 50be ccbd 64f0 bb3d
00000080: 0065 05bb 2099 883d 30cb a23c d82b 04bd
00000090: 0068 32bb 1401 48bd 60a1 8a3c 78a7 2ebd
000000a0: 762b ebbd 0066 eabd 90f9 583d a080 f2bc
000000b0: d8b2 5cbd 986c 59bd 2094 68bd d8cb debd
000000c0: 1001 75bc fc75 7abd 42cc c0bd 7ca3 613d
000000d0: e056 683c 580c edbd aa6e ee3d b88c 023d
000000e0: fa4e ad3d 2a99 a4bd ae52 91bd c4a8 32bd
000000f0: e09d 9ebb e69a a2bd f0c6 c0bd a040 a4bb
00000100: 0c59 8dbd 6490 c5bd f678 9b3d c45d d5bd
00000110: c070 9bbc b020 733c 2c78 ffbd 5091 ba3d
00000120: dce1 86bd f069 c73d c0ba 97bc a0ec f7bd
00000130: 242b a9bd 2071 b8bd 56f5 b0bd e2f1 fdbd
00000140: c01a 0b3d d09d 48bc a0e4 10bc 7cc9 6d3d
00000150: 207a d53d f0e9 dbbc 9039 5f3c b882 213d
00000160: 2ead e9bd c481 ca3d d095 953d 0e15 c43d
00000170: c8f4 f23d 0295 a43d 9acb f9bd 5cf8 0ebd
00000180: c0de f93b 1eda d7bd 40fa dc3d f8b2 ccbc
00000190: a6f8 afbd 5068 f73c e462 cbbd 5e34 fd3d
000001a0: 0688 a6bd 08f7 0b3d dc2e 52bd 98ba 49bd
000001b0: a89a f0bc a23a d9bd b0ff 3dbc 8005 33bc
000001c0: 903c 893c 2882 00bd f86d 133d 10f3 a5bd
000001d0: 7673 d43d 100b 2e3d 6686 fabd bc03 99bd
000001e0: 8299 fbbd fcaa 85bd 2a30 fa3d f672 a53d
000001f0: 8637 a1bd ee80 a73d c869 bebd 881d e93c
00000200: f267 f3bd 803d 13bb 5047 87bc 7c1e e13d
00000210: 5c0a 923d e4f3 d5bd cc2b cd3d 30fb 4dbc
00000220: 4cbf 913d 6aad bfbd 8005 49bd a43f f1bd
00000230: 80cf 7fbb b04f bdbc f0ec d03d 68b2 9d3c
00000240: 9e3a be3d 3693 a33d 0210 acbd a440 08bd
00000250: e052 ebbc cc09 543d e02c 803c b098 0f3d
00000260: 50d9 4e3c 4e44 bfbd 4c17 5a3d 6848 9cbc
00000270: e6a7 92bd 98e6 0f3d c0a3 d1bd 0cac eebd
00000280: 04e1 bdbd b407 4f3d e02a 123c 40a8 383c
00000290: f870 f8bc 10cf 66bc 465c e23d 20bb 383c
000002a0: 7860 1bbd 8a40 b93d 70ea 55bc e870 92bc
000002b0: 483b dbbc 1665 a3bd 4ee2 803d d0f3 5fbc
000002c0: cc02 073d cce9 653d f85d ea3c aca2 213d
000002d0: 469e d33d 60cd d13c ba14 8fbd fe67 f6bd
000002e0: 6801 413d 8056 ccba 062d be3d 800c 5e3b
000002f0: 4c05 4abd 50fc 41bc 486a d1bc aa57 823d
00000300: f011 21bc b0d9 d93d 04ea 6f3d f469 2fbd
00000310: 603d f43b e623 a4bd a8c6 f9bc 5296 b9bd
00000320: 20ff 4c3d e054 cb3c 4624 de3d 0018 24bb
00000330: b8d8 7ebd 0099 e83a 9025 8bbc 34f2 c93d
00000340: a27b 903d a049 e2bb f024 6f3d ac52 57bd
00000350: c085 5bbb 3c7e b73d 8406 353d 54fc 0bbd
00000360: fc95 d73d 8888 e33d c23d debd 440c c23d
00000370: c018 553c 0096 e63b 0066 483a a820 eebc
00000380: b2e4 ef3d c64b fb3d 7e2a e83d 8448 6d3d
00000390: 74f8 90bd 300f f43d 5ac0 b33d f024 d0bd
000003a0: faec e5bd fca1 31bd 3aba e8bd a61c 85bd
000003b0: c2f6 a33d cc48 143d 1a4c f0bd 4889 213d
000003c0: 5095 25bc 4883 2d3d 8097 c7bb 904d 11bc
000003d0: 78af 08bd 7050 ed3d 20a1 83bb f875 ef3c
000003e0: fc3c 5cbd 8081 32bd c0fa 0c3c 3a56 8fbd
000003f0: 203c aa3c be48 903d a6c9 c8bd 6212 ddbd

linear3.bias f4 [9]
0.0031499863 0.11526081 -0.009207115 0.069517836 0.0026721656 -0.06603213 -0.0690086 0.09982596
0.12403208
00000000: 0070 4e3b dc0d ec3d 70d9 16bc 5e5f 8e3d
00000010: 801f 2f3b da3b 87bd 6254 8dbd 8e71 cc3d
00000020: 8804 fe3d
