model.onnx (onnx, 67377 bytes, 6 tensors)

linear1.weight f4 [128, 60]
00000000: c0e2 2e3d 5890 773d 28fe 8abc 8697 af3d
00000010: 0cdc a7bd 700e 0f3c b4bf 8cbd 8028 cf3c
00000020: 56ac 22bd 74fd 90bc 904b 503d c061 b93c
00000030: 5864 90bd c644 66bd e22d bdbd 08a5 6a3d
00000040: f420 2f3d 12d1 fd3d 1461 d8bd 3cee 483d
00000050: 484f bd3d 14c8 423d f664 fbbd 1571 adbd
00000060: 6161 e2bd 3904 033e 1431 383d a004 e93d
00000070: 72a8 50bd 70e2 79bc 3d08 9abd 8af3 92bd
00000080: 0475 9fbd d036 c1bc f4fe 1ebd 42ca ccbd
00000090: 7a1d 8e3d 570f 9ebd a46f 4d3d 9c2c 1c3d
000000a0: bc24 e73d 60da bd3b 160f f2bd 7679 97bd
000000b0: 503a b93d 8001 b8bd 80ac b9ba 0029 163c
000000c0: e2c0 bdbd 2084 fc3b 00af f03b 16b5 4abd
000000d0: acdb a0bd a1e3 03be 00d7 8c3a 163f a8bd
000000e0: 907b 24bd 3edc 34bd 0ea0 803d 5310 89bd
000000f0: 2fbb c9bd c46a f23d 50ca 1b3c 3ed4 85bd
00000100: 8607 3ebd 98f7 a93d d4a1 023d ec88 4a3d
00000110: 4087 32bd 78d7 c8bd e897 953c 220f 7cbd
00000120: 7098 123d c0bf c13d c2c4 febd ce70 49bd
00000130: 8a80 c33d 684b be3c 1053 e3bc a883 15bc
00000140: 7487 3f3d 18a9 d7bc 5cdb eabc 400b 823c
00000150: 60d7 f13d 7876 a5bd 6069 c1bc 8526 81bd
00000160: 1bed 02be 92b7 59bd 18fe 8c3d 5272 c33d
00000170: 5653 64bd 50b6 6e3c d8c2 4f3d 92a8 df3d
00000180: c93f ccbd 4076 0f3b 80ab ecba 6421 723d
00000190: cc8d afbd 6472 babc d15f f6bd e025 a73c
000001a0: 9808 e9bc e060 16bd f878 3d3d d097 e73c
000001b0: 50d5 62bc d036 96bd 8ab5 d6bd c4cc 003d
000001c0: c568 82bd 181f a63c f068 bdbd 9808 94bd
000001d0: e859 8abd 0c8d 92bc 0891 b8bd feaf cb3d
000001e0: d68f d83d ef67 fcbd c885 aabd 4ed8 3cbd
000001f0: ac4e b1bd 7897 55bd 00ba 393a c431 f4bd
00000200: 1e2e d33d 5468 c2bd dfe4 013e 926b ce3d
00000210: bcf7 6c3d f725 89bd 8010 043d e033 4f3c
00000220: 1cb4 573d 1e47 803d 2060 c23b 9074 5e3d
00000230: b0a3 a93c fe32 9dbd a0dc ea3d bcd9 543d
00000240: bcc4 b93d a209 953d c8c8 b8bc 627f df3d
00000250: 28f7 91bc 1818 b53c 0061 97ba dc3b f6bd
00000260: dcfb cebd ac02 983d 3b29 8ebd c0ac 84bd
00000270: e03b 6d3c a48a 513d 8ca0 123d 4eb7 babd
00000280: 1491 fbbd 24ec 8e3d 28ca 8f3c 2ec2 863d
00000290: 63db babd 70e0 e4bb b04f ae3c f062 773c
000002a0: a0ac 033c eab8 4ebd 3cd9 92bd fcde 5a3d
000002b0: 62d3 9bbd 5fe3 e0bd ece5 323d 98ec 89bd
000002c0: 9a4e ed3d 80e0 963c eaa9 fe3d 7e8e f23d
000002d0: fce1 9abc e628 d1bd bc2e c6bd c65e f0bd
000002e0: e0e8 ed3b dab3 e3bd d511 04be f89d 9dbc
000002f0: f66d ee3d 24a3 2ebd 8a26 ab3d 52e1 8ebd
00000300: e465 873d 70e3 5bbc c016 cc3c 5e5e 993d
00000310: d274 02be 60de e3bd e049 503d 5389 033e
00000320: b4e4 42bd 82a3 31bd 9a12 71bd 44a6 a4bd
00000330: 4a12 70bd 0667 9b3d 3a7e f53d e0ef 5d3d
00000340: f425 5e3d 28e9 fa3c ee8f 53bd 8a74 b2bd
00000350: 081d f63d 3e1c efbd 543e e8bd aa7d 17bd
00000360: 68f9 523d f0d4 6b3c 8ae5 aa3d 9895 c63d
00000370: 4293 f63d a061 983b 48f5 ca3d 3053 5a3c
00000380: 7e5d 37bd 4d44 eebd 6862 8cbc fc59 ae3d
00000390: d2a0 02bd fce1 3bbd 9e2e f5bd c6ee c93d
000003a0: ca7a 40bd 5ac9 8b3d 27e9 03be ac8f 0fbd
000003b0: 2c7b fabc 2c1a 693d 2ecb ae3d 0cd1 723d
000003c0: 1e05 d53d e08b e03b 76ad 9fbd 4538 a1bd
000003d0: a446 13bd a201 cbbd 2923 f9bd ccba 05bd
000003e0: 389a 8a3c c0b0 fc3b 44f0 82bd a888 a13d
000003f0: ea60 903d 4841 703d 0054 27ba 6217 9dbd
0.042696714 0.06044039 -0.016966894 0.08573823 -0.081962675 0.0087314695 -0.06872502 0.025287867
-0.039715134 -0.01769898 0.050853312 0.022629619 -0.07050389 -0.05621793 -0.09237267 0.057286292
0.042756036 0.123933926 -0.10565391 0.049055323 0.09243637 0.04755409 -0.12275116 -0.08468834
-0.1105373 0.1279458 0.04496868 0.11377835 -0.050941892 -0.015251741 -0.075211026 -0.07175358
-0.07785991 -0.023585707 -0.03881736 -0.09999515 0.06939216 -0.077177696 0.050155297 0.03812848
0.112863034 0.0057938546 -0.11819284 -0.07396214 0.09044325 -0.08984661 -0.0014165789 0.009165049
-0.09265305 0.00770618 0.0073450804 -0.049489103 -0.07854399 -0.12879802 0.0010745227 -0.08215158
-0.0401569 -0.04415535 0.06280528 -0.06692567 -0.098501556 0.1183677 0.009508684 -0.065346226
-0.046393894 0.08299178 0.031892613 0.049446985 -0.043586016 -0.098067224 0.018260911 -0.06153787
0.035789907 0.094604015 -0.12439872 -0.049179845 0.09546001 0.023229316 -0.027749568 -0.009125628
0.046760038 -0.026325747 -0.028669052 0.015874505 0.11808658 -0.08079237 -0.023609817 -0.06306175
-0.12785761 -0.053153582 0.06884402 0.09543289 -0.055743538 0.014569834 0.050722927 0.10920824
-0.099731036 0.002189055 -0.0018056482 0.059113875 -0.085719675 -0.022759624 -0.12029994 0.020403802
-0.02844648 -0.03671348 0.046257943 0.028270632 -0.013844803 -0.073346734 -0.104838446 0.03144528
-0.063676395 0.020278499 -0.09248531 -0.07228202 -0.067554295 -0.017889522 -0.090120375 0.09945677
0.105743095 -0.12324511 -0.08326298 -0.04610472 -0.086575836 -0.052146405 0.0007084906 -0.119235545
0.103115305 -0.09492555 0.12684964 0.10079111 0.057853445 -0.06696694 0.032242298 0.012646645
0.052662 0.062635645 0.005931869 0.05431038 0.020707935 -0.076757416 0.11467862 0.05196546
0.09070727 0.07277228 -0.022556677 0.10912968 -0.017818049 0.022106215 -0.0011549294 -0.12023136
-0.10106632 0.074223846 -0.06941458 -0.06478262 0.014479607 0.05115761 0.03579764 -0.09116994
-0.12283531 0.06978634 0.01755245 0.065800056 -0.09123876 -0.006984763 0.021278232 0.015099272
0.0080367625 -0.050469317 -0.071703404 0.05343531 -0.076086774 -0.109808676 0.0436763 -0.0673458
0.11587258 0.018417597 0.12434752 0.118435845 -0.018906586 -0.10212879 -0.096768826 -0.117368266
0.007260427 -0.11118288 -0.12897427 -0.019240364 0.11642067 -0.04263605 0.0835696 -0.0697657
0.06611231 -0.013420925 0.024913192 0.07488702 -0.12739876 -0.11126399 0.050851703 0.12845354
-0.04758139 -0.043368824 -0.05885563 -0.08039525 -0.05861119 0.075880095 0.119869664 0.05418384
0.054235414 0.030628756 -0.051650934 -0.08713634 0.12017256 -0.11675309 -0.11340013 -0.036985077
0.051507384 0.01439403 0.08344562 0.096965015 0.12039806 0.0046503097 0.09910065 0.0133254975
-0.044766895 -0.11634121 -0.017136768 0.08513257 -0.03189165 -0.045869812 -0.11971782 0.098599955
-0.0469921 0.06825514 -0.1288191 -0.035049126 -0.030576311 0.056909725 0.08534847 0.059281394
0.10401367 0.006852612 -0.07796757 -0.07872061 -0.03595604 -0.09912421 -0.121649094 -0.032648847
0.01691924 0.0077115 -0.06393483 0.07887393 0.07049735 0.058656007 -0.00063830614 -0.076704755

linear1.bias f4 [128]
00000000: c0c7 c13c b854 35bd 1b79 03be f23f 5ebd
00000010: a843 c43c dcde 483d f3fe b9bd f8d4 cc3c
00000020: 8046 113c eeb2 c5bd 9e25 7bbd 681d b0bd
00000030: 2005 bb3c bc13 e6bd dac5 de3d 18de cabd
00000040: ec7e 663d 30ff 513d 707c ce3d c0bd 953c
00000050: 5ce6 303d c05b 093c dc4d e8bc fe2b febd
00000060: f0d3 e5bb f479 1e3d 98be ec3d ea3d 24bd
00000070: 16b3 90bd 2abb bfbd e087 a63d aaba 5fbd
00000080: 7ebe 18bd 0018 d13c a0ed c33c 2470 eabc
00000090: 2957 023e 9ca3 6e3d 8e41 c63d be36 ab3d
000000a0: 9031 55bd 43f4 e6bd 0098 233d 1ca9 da3d
000000b0: 5c19 b2bd f027 6c3d e083 a6bd 9e5b 893d
000000c0: c046 703d 9ce4 953d c06c b93d a073 ee3b
000000d0: 3027 5cbd 9e5f b13d bc3d e53d 80d0 8f3b
000000e0: a4a1 d13d bbac c7bd 086f df3d d0ca 343c
000000f0: 60ca 923c 88fc a6bd 6e52 44bd 600a e03d
00000100: 9469 45bd 8aa0 03be c402 4d3d 10b7 a1bd
00000110: 6e5d 5abd ac20 cb3d 6c2b 1e3d f214 e3bd
00000120: 34be 3bbd e553 93bd 18c0 afbc d6f6 1ebd
00000130: 5487 cfbc b60c 9ebd 0082 aa3a fd4b cdbd
00000140: 2cbd efbc ea9b a0bd cce9 b23d 26c1 02be
00000150: ccd9 2b3d b0d1 05bc 8a32 30bd fdce 033e
00000160: 8ab2 42bd ca2f 60bd 7aa4 f3bd ca78 c33d
00000170: d4dc 403d 0097 9c3d 6708 aabd 4034 d73d
00000180: 3822 8e3d 4a64 d2bd c21b bd3d 0e05 01be
00000190: 894e f7bd 56eb ae3d 02a5 c23d 2cb9 cf3d
000001a0: 04a2 b8bd 6cef 9dbc 2ec3 cd3d 4037 4d3b
000001b0: c1a8 95bd fe08 bfbd 60c1 cf3b 20b2 283c
000001c0: acb2 cdbd e49f 1dbd b8a9 31bc 7cf0 453d
000001d0: a015 eb3d a8d8 d8bd 5629 b43d c6a2 88bd
000001e0: 206b 703d 38c9 7cbc 40fa 10bb 2277 ad3d
000001f0: e09f 843b 6edc f43d 2012 c6bc 25cf e0bd
0.023654819 -0.044270247 -0.12839167 -0.0542602 0.023958042 0.04904066 -0.09081831 0.025003895
0.008866906 -0.09653269 -0.06131517 -0.08599359 0.022829592 -0.11234233 0.10877581 -0.09905642
0.056273386 0.051268756 0.10082328 0.018278956 0.043188438 0.008383691 -0.028357439 -0.124107346
-0.0070137903 0.038690522 0.115597904 -0.04009811 -0.07065408 -0.093618706 0.08131385 -0.054621376
-0.037291043 0.02552414 0.02391702 -0.028617926 0.12728561 0.0582615 0.09680472 0.083600506
-0.05204922 -0.11277058 0.03993988 0.10676786 -0.08696243 0.057655275 -0.08130622 0.06706928
0.058661222 0.073189944 0.090539455 0.007276967 -0.05374831 0.08660816 0.111934155 0.004388869
0.10235909 -0.097497426 0.109098494 0.011034682 0.017918766 -0.08153635 -0.047930174 0.10939479
-0.04819639 -0.1285421 0.050051466 -0.078962445 -0.053311758 0.09918341 0.03861563 -0.110879794
-0.04583569 -0.07193736 -0.021453902 -0.03880962 -0.025333084 -0.07717268 0.0013008714 -0.10024259
-0.029265009 -0.07842238 0.087359995 -0.12768993 0.041955754 -0.008167669 -0.043016948 0.12871929
-0.04753355 -0.054733075 -0.11896606 0.09544523 0.047085598 0.076459885 -0.08302384 0.10508013
0.069401205 -0.10273035 0.0923381 -0.12599584 -0.12075526 0.085409805 0.09504129 0.101427406
-0.09015277 -0.019279204 0.10046993 0.003131345 -0.07307578 -0.09327887 0.006340191 0.010296375
-0.100438446 -0.03848256 -0.010843687 0.048325047 0.11478734 -0.10588199 0.08796947 -0.066716716
0.058695912 -0.015428834 -0.0022121817 0.084699884 0.004047379 0.11956106 -0.024178565 -0.1097701

linear2.weight f4 [64, 128]
00000000: 162a 573d b11d 873d 66e4 ebbc 621c 2b3d
00000010: 6737 923d 1cc1 d1bc 5404 113d 832a 943d
00000020: ec10 b6bc 540d 94bd 3821 12bd 668d 4a3d
00000030: 80a6 c6ba c031 2a3c 89bb 9e3d 4539 a93d
00000040: 0dc3 8e3d 36e9 1e3d 6a3d 213d b51b 66bd
00000050: bdc4 903d a0a5 60bc f54a acbd 40a8 fcbc
00000060: eac4 8ebd 0c17 bc3c 988b 9fbc 1c69 bebc
00000070: 4586 59bd 9d04 ad3d e74b 24bd df5c b43d
00000080: 4be9 3fbd e2af 323d d035 c93b 404f b4bb
00000090: 087b 41bc d431 a5bc 6339 48bd 3196 aa3d
000000a0: 5822 763c 807f be3a ef63 4ebd 2680 94bd
000000b0: 000c a03a 2c9c 69bd 9fd1 813d 8efd 513d
000000c0: bec2 503d d01d 9dbd 06f3 fdbc 934a 8a3d
000000d0: ec86 df3c 8936 883d dc98 e43c 1a39 dfbc
000000e0: 0139 a03d 5500 aabd aa7b 51bd f71c 80bd
000000f0: bf75 8e3d 4dbe b3bd b710 a63d 23a0 863d
00000100: aadf 59bd c0ac 2f3c 1098 803c 3e3b 583d
00000110: 5aad f8bc 2045 6c3c 0020 253c 3ac8 3a3d
00000120: 5b3c abbd 6ea2 373d 8091 7cbc 59c2 87bd
00000130: 9c8d bebc fd9d 88bd 831f 963d 05e0 a3bd
00000140: 2641 49bd 61c4 2cbd 6dc3 86bd 00ec edb8
00000150: 6665 623d 6caa 99bd f0b5 9d3c c959 b0bd
00000160: 8afe 2e3d ebc8 833d a86b 86bd cf8f 63bd
00000170: 113a af3d 78e2 ecbc 9571 96bd 7ed4 84bd
00000180: 79a6 47bd c638 84bd 4b79 86bd 6317 8c3d
00000190: a0ca 103c 9462 afbd b0e8 fabb 948b d4bc
000001a0: b5e5 09bd b9d2 9a3d 8305 973d 1672 153d
000001b0: 8c11 89bd 3cd5 51bd 469e 6b3d d639 613d
000001c0: 508f 593c 03fb ac3d b400 d43c 8836 25bc
000001d0: 9233 2e3d 0ac5 243d 52b1 443d 164f 603d
000001e0: 48f0 01bd 7a51 1a3d af76 b33d c8ef 00bc
000001f0: 18b2 52bd 6a53 64bd 4024 1c3c 887e 03bc
00000200: 8d7c 00bd 2538 93bd 367f 653d 1ea4 303d
00000210: 3024 64bc 115f b03d 2e8e 363d f08b 3e3c
00000220: f840 603c 6144 873d dc72 cfbc 2070 72bc
00000230: 8623 aebd d036 b3bc 7074 6e3c 4bad 4fbd
00000240: 208d fd3b 6872 d5bc 968f 4b3d 3dc2 963d
00000250: 349a c4bc 2e05 173d 006e aa3a a855 68bd
00000260: 46ab 393d 1ddf 5fbd 8075 e53c c222 8abd
00000270: 9a55 413d 4cef b0bc 1c27 98bc 59b1 93bd
00000280: fb5a 8f3d 9228 063d 9956 59bd 246d 04bd
00000290: 75bb 66bd 6ea0 513d 0e7b 503d 1ce3 a53c
000002a0: fb03 a63d 783f c03c 1da8 a1bd ce39 7fbd
000002b0: 6491 84bc 8d8c 3fbd 804b ca3a af84 99bd
000002c0: ecc2 c1bc fbcc 93bd f6fa e7bc e0b2 2c3c
000002d0: 0059 c3ba 834e a1bd fb8a 3dbd 7071 e13c
000002e0: 3988 b03d e455 b23c f5f0 ae3d 4108 973d
000002f0: fef2 7b3d 18cf cd3c 7caf 6ebd c709 863d
00000300: 07c4 a23d 4abe 063d cba4 813d b4c6 95bd
00000310: 46a8 1c3d 0662 1c3d 9cac 9ebc 7bda 8e3d
00000320: 02e4 633d 15f4 843d e748 ab3d b801 55bd
00000330: 07a8 a33d 1458 a9bc 8e68 9cbd 1f74 a2bd
00000340: 5433 aabd f2a1 6b3d 4013 91ba 02e6 dbbc
00000350: fe06 2c3d b4bf ccbc 005d db3a ec46 de3c
00000360: c0ea 07bc cd6a 9fbd 00ee 71bd 9287 063d
00000370: 85b5 b03d 5317 80bd 801b b23b 8849 ee3c
00000380: a648 313d d025 db3c 74c5 9dbd 5682 243d
00000390: 786a 15bc 3dcc 01bd 8643 343d 6c03 cb3c
000003a0: c001 8cbb a54f 9e3d 07eb a8bd 55c0 a53d
000003b0: 614b 853d dc21 bb3c 6042 3fbc e0a1 80bc
000003c0: 6e96 8abd 3811 d23c 1e6a 423d e025 02bd
000003d0: ed52 79bd 1608 013d 1e93 3b3d ee70 333d
000003e0: fa9d 43bd 935a 893d d475 8ebd b905 88bd
000003f0: 750b 9b3d 80b2 5dbd ae87 21bd 16ef 3d3d
0.05253037 0.0659746 -0.028795432 0.041775115 0.071394734 -0.025604777 0.03540452 0.07234671
-0.022224866 -0.07229105 -0.03567621 0.049451254 -0.0015155822 0.010387838 0.07750613 0.082628764
0.06970797 0.038796626 0.03936521 -0.056178767 0.07068775 -0.013711363 -0.084127344 -0.030841947
-0.06971152 0.022960208 -0.019475743 -0.02324348 -0.053106565 0.084481455 -0.04011145 0.08806776
-0.046853345 0.043624766 0.006140448 -0.0055026114 -0.011809118 -0.020165361 -0.048882853 0.08329428
0.015022837 0.0014533848 -0.050388273 -0.07251005 0.0012210608 -0.057033703 0.0633881 0.0512672
0.05096697 -0.07671702 -0.030999672 0.06752505 0.027286015 0.06651027 0.02790492 -0.027248908
0.07823373 -0.083008446 -0.051143326 -0.062555246 0.06956052 -0.08776531 0.08108657 0.065735124
-0.05319182 0.010722339 0.015697509 0.052790873 -0.030356098 0.014420778 0.01007843 0.045601107
-0.08361121 0.04483264 -0.015415549 -0.06628866 -0.023260884 -0.06670759 0.07330229 -0.08001713
-0.049134396 -0.04217947 -0.06580243 -0.00011344999 0.055272482 -0.075032085 0.019251794 -0.08610875
0.042723216 0.064348064 -0.065635026 -0.05555707 0.08555997 -0.028916582 -0.07345883 -0.06485842
-0.048742745 -0.06456141 -0.065661035 0.06840398 0.008837372 -0.08563724 -0.007657133 -0.025945462
-0.03366633 0.075597234 0.07374098 0.036485754 -0.066928 -0.051228747 0.05752399 0.054986797
0.013278797 0.08446314 0.025879242 -0.010083802 0.04252965 0.040226974 0.04802067 0.054762922
-0.03172329 0.03767536 0.087628715 -0.007869668 -0.051439375 -0.055743612 0.009530127 -0.008025773
-0.03136878 -0.07188443 0.05602952 0.043125264 -0.013924643 0.086118825 0.044569187 0.011630043
0.013687365 0.06604839 -0.025323324 -0.0147972405 -0.08502869 -0.021876723 0.014554128 -0.050702374
0.0077377707 -0.02605553 0.04969748 0.07361267 -0.023999311 0.036870174 0.0013002753 -0.056722313
0.045329355 -0.054656137 0.02801013 -0.06744911 0.047200777 -0.02159848 -0.018573336 -0.07211561
0.06999775 0.032753535 -0.0530611 -0.032330647 -0.056331117 0.05117839 0.050898604 0.020249896
0.08106228 0.023467764 -0.07893393 -0.062310986 -0.016182609 -0.0467649 0.0015433878 -0.074960105
-0.023652516 -0.07216831 -0.02831791 0.010540694 -0.0014903843 -0.07876303 -0.04627512 0.027519912
0.086197324 0.021769471 0.08542053 0.07374621 0.061511032 0.025123164 -0.058272824 0.06544834
0.079475455 0.032896318 0.0633026 -0.0731329 0.038246416 0.03817942 -0.019369416 0.069752656
0.055637367 0.064918675 0.083635144 -0.052003592 0.07991033 -0.020671882 -0.0763713 -0.079323046
-0.08310571 0.05752749 -0.0011068359 -0.026843075 0.041998856 -0.024993755 0.001673609 0.027133428
-0.008295715 -0.077840425 -0.059064865 0.032844134 0.08628372 -0.06254449 0.005435407 0.029087797
0.043282174 0.026751429 -0.07703677 0.04016336 -0.009119622 -0.031688917 0.044009708 0.024781905
-0.0042726696 0.07730035 -0.08247953 0.08093325 0.06508518 0.022843294 -0.01167354 -0.015702188
-0.067669734 0.025642976 0.047464482 -0.0317744 -0.0608701 0.031501852 0.0457946 0.04380887
-0.04775808 0.06706729 -0.06956068 -0.066417165 0.07570545 -0.05412531 -0.039436035 0.04637059

linear2.bias f4 [64]
00000000: c66b 6e3d a0d1 bcbb 7c96 1fbd 7e7e 783d
00000010: b0e5 fe3b c08e c93a ac46 9b3c 405f b2bb
00000020: 7f37 943d c0c2 9abc 2ec0 52bd a676 5dbd
00000030: da60 7cbd 71f3 b13d b6d1 7a3d 21e4 a43d
00000040: f655 acbd b6b2 523d 70a8 89bc 1ed0 6c3d
00000050: 1892 d5bc dcb3 febc c608 f8bc aa24 84bd
00000060: 80df 2c3a d0e5 acbd 6024 4cbc 3579 823d
00000070: 6637 5e3d fd43 83bd 34ad e6bc 710a 48bd
00000080: 69ae 1cbd 7ac5 6bbd f07f 84bb 4c50 f23c
00000090: 97cf 9b3d 7e2d 32bd 8063 613c 89e1 863d
000000a0: 07ab 9c3d 90a7 17bc a8b3 31bc c694 2d3d
000000b0: 682e 81bd a4e0 93bd f64f 0abd 200d e63b
000000c0: ad8e ac3d 50c3 59bc 12e6 703d 38fa 5c3c
000000d0: af9c 1dbd 4e5f 393d b8d9 553c b078 34bd
000000e0: 9ea6 423d f7c9 923d d3c0 a33d d4b5 b2bd
000000f0: bf57 8bbd ad0f 8e3d c2be 373d bcb7 d43c
0.05820825 -0.005762294 -0.038961872 0.060667507 0.0077788457 0.0015377626 0.018954597 -0.0054434836
0.072371475 -0.018891692 -0.051452808 -0.05406823 -0.061615802 0.08689011 0.061235152 0.08051325
-0.08414833 0.051439963 -0.01680395 0.057815664 -0.02607064 -0.031091623 -0.030277621 -0.064523056
0.00065945834 -0.08442271 -0.012459844 0.06370775 0.05425205 -0.06409452 -0.028158762 -0.048838083
-0.038252268 -0.057561375 -0.0040435717 0.029579304 0.07607954 -0.043500416 0.013756633 0.06585986
0.076498084 -0.009256259 -0.010846056 0.04237821 -0.063076794 -0.07220581 -0.033767663 0.0070206076
0.08425651 -0.013291195 0.058813162 0.013487391 -0.038479503 0.045256905 0.0130523965 -0.04406041
0.04752218 0.07167428 0.07995763 -0.08726087 -0.068038456 0.06936584 0.044859655 0.025966518

linear3.weight f4 [9, 64]
00000000: a0c0 b2bd 4002 eabd ae84 bc3d 90c7 02bc
00000010: 025c f93d 3845 dcbc 9e6c f6bd 78c6 b4bc
00000020: a8a5 b33d 40b4 f93c dc47 9a3d 3060 0b3d
00000030: d0ef 223c 9a5e eb3d 684e bd3c 9003 1a3d
00000040: b09b 05bc b820 5abd 3c06 1e3d 2aaf a53d
00000050: 8072 debc 144f cfbd 6e61 82bd e8f4 dd3d
00000060: 48df 32bd 0038 98ba 08f4 88bd a06f 233d
00000070: 4252 94bd 34e2 85bd c605 873d 5a7c 873d
00000080: 3a2d 8a3d 784d 9cbc 002d fd3b 20a4 8ebb
00000090: c087 ecbd a0d1 c2bb ea6d 8ebd f4ae 86bd
000000a0: 40ee d0bd 5eba e8bd 0416 543d f03d 3d3d
000000b0: 00b0 ad39 223b 9e3d 68cd 77bd 0094 c03b
000000c0: b0b0 583c a4f4 1cbd 3811 ce3d 82b4 c03d
000000d0: e65f e83d 1471 bd3d 2040 883b a8cd 9b3d
000000e0: 5077 663d 28ae 87bd 8c8f f7bd 9449 3abd
000000f0: 3c7e 55bd c0bb 25bb 4631 cebd 0c6f 37bd
00000100: 50ae 0abc f0e3 f7bd e666 d43d b432 313d
00000110: e681 f3bd 0648 973d a46b 0e3d eac2 dc3d
00000120: 063f c23d 54fb bd3d ec15 5dbd 10a3 14bc
00000130: c072 1c3b 383a eabc 007a 933a 7c00 653d
00000140: 724a da3d e0ef bc3b c0a5 953d 74e1 073d
00000150: 1047 d4bd 0075 fc3a 4454 643d 002a 8dba
00000160: 5c46 df3d 582d e03d 841a f0bd 06a5 ab3d
00000170: f8cf c93d 3ca3 debd f8ff d63c 02de e6bd
00000180: cce3 cc3d 7aa5 d5bd 94b3 64bd 805b ef3b
00000190: 0070 483c 86ea fcbd 3c2f 75bd 1833 da3d
000001a0: 2460 73bd acc5 233d 86d4 c5bd 0c89 65bd
000001b0: 507d a2bc e0d1 a63d b8c3 e43c 8c2e 3dbd
000001c0: 90bd c93d d069 d53c bed8 b23d baef a13d
000001d0: 606c 80bd de81 883d e6f7 bf3d 4223 b13d
000001e0: 34de acbd b062 91bc 5656 93bd 5059 a5bd
000001f0: 5830 97bd ee60 d53d ec9a 94bd 14f6 d73d
00000200: 7e7d a8bd 4ac2 e53d f05b 8d3c 3a3a a3bd
00000210: dac9 db3d b429 66bd d0ef 673d c03c fb3d
00000220: 2826 f13d 2c94 2bbd 10a4 44bd 849e 0e3d
00000230: 4205 80bd c02c 8ebc 8089 0c3b 6e21 98bd
00000240: 903e 6cbc 06ba cfbd f8db b03c 1caa bbbd
00000250: 7804 ca3c 9ac9 9cbd f8a2 c63c 8848 b9bc
00000260: 56a3 a1bd 740b 623d 481e 813c 380b d9bc
00000270: a014 143c d652 99bd 2e99 a33d e881 f53c
00000280: e06d 163c fe01 983d ac06 74bd bc88 4abd
00000290: 84c8 debd f0da a3bd d073 47bd 5019 7cbd
000002a0: 943e 263d dae6 be3d b0e5 89bc a02d 16bd
000002b0: 52a5 cf3d d0a4 fd3d 08e2 7b3d c891 30bd
000002c0: ba5f e93d b660 8e3d aa49 ec3d 5a79 a5bd
000002d0: 9621 bc3d bc9d 0abd 0667 e43d ecb0 5ebd
000002e0: ca07 a63d 40cc aabb 7cfa 97bd e0b8 08bc
000002f0: 346c 9d3d 5aee ae3d ee92 e33d b01b e1bd
00000300: 02bf eabd 243c dabd 9ce3 4c3d b404 213d
00000310: 60ac d53d 7036 65bc 18ed 57bd 0c4b 55bd
00000320: c0f8 e63b dc54 d13d 6899 a5bc 2638 a73d
00000330: c6e4 bebd a226 adbd c8bc fcbc 38b5 043d
00000340: 003b 313a 948c a23d b067 7abc 90b2 84bd
00000350: d865 f6bc 00e5 203a 5825 a7bd 38b0 27bd
00000360: fefd e4bd 1845 babd 90ae bbbc ca6f 9e3d
00000370: 0ed4 f23d d06d e7bc fe7a fc3d cec3 debd
00000380: 80a9 153b 4442 44bd 3cba 303d 8cbb dcbd
00000390: b0ff 453d 0822 ea3c c2ac 853d b0e4 4b3d
000003a0: 48e3 9fbd c4cc 0f3d 2086 9e3d 2c37 86bd
000003b0: 6a41 ec3d 8491 923d 501c c43c cc02 5bbd
000003c0: 10bd c4bd 6cec 96bd 9844 9b3d e49b 663d
000003d0: 50fc c53c e0b5 0ebd 8aa6 96bd b88a d83c
000003e0: 786d febc 00ad 333b 6406 353d 80d4 e6bb
000003f0: e8c2 2b3d c097 2fbb 9ae1 9bbd 30f4 9a3d
-0.087281466 -0.114262104 0.09204994 -0.00798215 0.12175752 -0.026888475 -0.12032436 -0.022067294
0.08771831 0.030481458 0.07533237 0.03402728 0.009944871 0.11492653 0.023108676 0.037601054
-0.008154795 -0.05325386 0.038580164 0.080900505 -0.027154207 -0.10122505 -0.063662395 0.10837728
-0.04366997 -0.0011613369 -0.0668717 0.039901376 -0.07242252 -0.065372854 0.06592898 0.06615515
0.067469075 -0.019079909 0.0077263117 -0.0043530613 -0.1154933 -0.0059453994 -0.06954558 -0.065763384
-0.102016926 -0.11363672 0.05177881 0.046201646 0.00033128262 0.077261224 -0.060498625 0.005877018
0.013225719 -0.038319245 0.10061878 0.09409429 0.11346416 0.092500836 0.004158035 0.07607585
0.05626613 -0.066250145 -0.12087926 -0.045480326 -0.05212234 -0.002528891 -0.10067992 -0.044783637
-0.008464411 -0.121040225 0.10371189 0.043261245 -0.118900105 0.07386784 0.034770623 0.107793644
0.09484677 0.09276453 -0.053975984 -0.00907208 0.0023872107 -0.028592214 0.0011251569 0.055908665
0.106587306 0.0057659 0.07307005 0.033173993 -0.103651166 0.0019260943 0.055744424 -0.0010769963
0.10902092 0.10946149 -0.117238075 0.08381085 0.0985412 -0.10870978 0.026245102 -0.112728134
0.10004386 -0.10431953 -0.05583532 0.007304609 0.012233734 -0.12349419 -0.0598595 0.106542766
-0.05941786 0.039983436 -0.09659676 -0.0560389 -0.019835144 0.08145499 0.027925357 -0.04618697
0.09850609 0.026051432 0.087327465 0.07907052 -0.06270671 0.06665395 0.09373455 0.08649303
-0.084408194 -0.017747253 -0.07194202 -0.08073676 -0.07382268 0.104188785 -0.072561115 0.105449826
-0.08227061 0.11218698 0.017255753 -0.0797009 0.107318595 -0.056192115 0.056625187 0.122674465
0.11774856 -0.041889355 -0.048008025 0.03481914 -0.06251003 -0.017355323 0.002144426 -0.07428251
-0.014419213 -0.10142903 0.021589264 -0.09163305 0.024660334 -0.0765564 0.024247631 -0.022617593
-0.07892482 0.055186704 0.01576151 -0.026494607 0.0090381205 -0.07486503 0.07988201 0.02996917
0.00918147 0.07422255 -0.059576675 -0.049446806 -0.10878089 -0.080007434 -0.04869443 -0.061547577
0.040587023 0.09321375 -0.016833156 -0.036664605 0.10138954 0.12384951 0.061494857 -0.043107778
0.113952115 0.0695204 0.11537488 -0.080797866 0.091860935 -0.033841833 0.11152463 -0.054367945
0.081069544 -0.005212337 -0.07420823 -0.008344859 0.07686654 0.08541556 0.11112009 -0.10991609
-0.11462213 -0.10656002 0.050021753 0.039311126 0.104332685 -0.01399003 -0.052716345 -0.052073523
0.0070486963 0.10221264 -0.020214751 0.08165006 -0.09320979 -0.08454634 -0.030851737 0.032399386
0.0006760806 0.079369694 -0.01528351 -0.064793706 -0.03007786 0.0006137639 -0.0816142 -0.04093954
-0.11181258 -0.0909521 -0.022910386 0.07736166 0.118568525 -0.028250605 0.123281464 -0.108771905
0.0022836626 -0.04791476 0.043146357 -0.10777959 0.048339546 0.02858068 0.065270916 0.04977864
-0.07807022 0.03510739 0.07740426 -0.06553492 0.11535914 0.07156661 0.023939282 -0.053469464
-0.09606373 -0.07369313 0.075814426 0.056301013 0.024168164 -0.03484142 -0.073559836 0.026433334
-0.031058058 0.0027416348 0.044195548 -0.007044375 0.041933924 -0.002679333 -0.076113895 0.07566106

linear3.bias f4 [9]
00000000: e6da e4bd d8cb 23bd 724f 8bbd b8a5 933d
00000010: bcb0 a3bd 5441 a7bd 404c 043c f0c0 923c
00000020: f0a1 ef3d
-0.11174564 -0.039989322 -0.06802262 0.07209343 -0.07992694 -0.08166757 0.00807482 0.017914265
0.11700809
