model3.pth (torch, 70487 bytes, 6 tensors)

weight f4 [128, 60]
0	0xbde49e04	-0.111629516
1	0xbd839573	-0.064249896
2	0x3dbcc6e8	0.09217626
3	0x3ca267f8	0.019824967
4	0x3de91d8c	0.11382589
5	0xbbe0b210	-0.006857164
6	0xbd9ede85	-0.07757286
7	0x3d1cd160	0.038285613
8	0xbd21032e	-0.039309673
9	0x3d273444	0.04082133
10	0x3d739520	0.05946839
11	0x3dee5ee4	0.11639193
12	0x3db2fc34	0.0873951
13	0xbdc22cc0	-0.09481192
14	0x3c133750	0.0089853555
15	0x3d9e450e	0.07728015
16	0x3dc62554	0.096750885
17	0xbdb8e704	-0.09028438
18	0xbde9b8dd	-0.11412213
19	0x3dcef596	0.101054356
20	0xbdfe3170	-0.12411773
21	0x3de2aa9c	0.110676974
22	0x3e01f43f	0.12690829
23	0xbdb8bff6	-0.09020989
24	0x3d0f9d48	0.035062104
25	0xbce03e18	-0.027373359
26	0xbdeb1c32	-0.11479987
27	0xbdd607c6	-0.104507014
28	0xbdb05510	-0.086099744
29	0xbdae62b2	-0.085149184
30	0xbd553b22	-0.052058347
31	0xbd3952a4	-0.045244828
32	0xbc069b88	-0.0082157925
33	0xbda441d0	-0.08020365
34	0x3d6de82c	0.058082744
35	0x3db6a084	0.08917335
36	0x3d370998	0.044686884
37	0x3dad3782	0.08457853
38	0x3b3ed980	0.002912134
39	0xbd991275	-0.074742235
40	0x3db4d986	0.08830552
41	0xbde80e2c	-0.11330828
42	0xbdfbb8c5	-0.12291101
43	0xbda00eb4	-0.078153044
44	0xbd8f3682	-0.069928184
45	0x3ce01518	0.027353808
46	0xbcd637fc	-0.026149742
47	0x3ddf009a	0.108887866
48	0xbd90f620	-0.070781946
49	0xbc1444c8	-0.009049602
50	0x3d8a925c	0.06766197
51	0x3deb066e	0.11475836
52	0xbd8458e0	-0.06462264
53	0xbd5a198e	-0.053247027
54	0x3cd926d0	0.026507765
55	0x3cf6a2f8	0.030107006
56	0x3d87a106	0.0662251
57	0xbd7c4066	-0.061584853
58	0x3da7a812	0.08186354
59	0x3dcfa008	0.101379454
60	0x3cf2f540	0.02965796
61	0xbdf91229	-0.12161667
62	0xbdb6d1c4	-0.08926728
63	0x3db9cc62	0.09072186
64	0x3b77f1c0	0.0037833303
65	0x3e015863	0.12631373
66	0x3d0e01f4	0.03466983
67	0x3cdf2808	0.027240768
68	0x3d2f3d48	0.04278305
69	0xbdb89e12	-0.090145245
70	0xbde650b8	-0.11245865
71	0xbda9e46e	-0.08295523
72	0x3d764ad4	0.060129955
73	0xbd6ac5c4	-0.05731751
74	0x3deed3f8	0.116615236
75	0xbd5a4514	-0.053288534
76	0x3d39382c	0.045219585
77	0x3dbf3292	0.093358174
78	0x3dd744f0	0.10511196
79	0xbb02e900	-0.0019975305
80	0x3cecd5d0	0.028910547
81	0xbd0da810	-0.034584105
82	0x3dc8fe5e	0.09814142
83	0x3debc88e	0.11512862
84	0x3b6dba80	0.0036274493
85	0xbdca2bd0	-0.09871638
86	0xbd96264a	-0.07331522
87	0x3dc7367c	0.09727189
88	0x3b410a00	0.0029455423
89	0x3bf484c0	0.007462114
90	0x3ce57158	0.028008148
91	0x3c8130c8	0.015770331
92	0xbdf6de57	-0.12054127
93	0xbde0877c	-0.109633416
94	0x3d947134	0.07248154
95	0x3dfa4c8e	0.12221633
96	0xbca6e688	-0.020373598
97	0xbde0ed52	-0.10982765
98	0xbd42f886	-0.04760029
99	0xbca7f604	-0.020503052
100	0x3c80f4f8	0.01574181
101	0xbd1cbb98	-0.03826484
102	0x3d298b50	0.041392624
103	0x3c5081b0	0.012726232
104	0x3d82141e	0.06351493
105	0xbdb7cc28	-0.089744866
106	0xbd33bb24	-0.043879643
107	0x3e022c35	0.12712176
108	0x3ccb1be0	0.024793565
109	0xbde6b47a	-0.11264892
110	0xbd9b820a	-0.07593162
111	0x3decb1a8	0.11557323
112	0xbd5c2db8	-0.05375454
113	0x3dd89d86	0.1057692
114	0x3da39f0a	0.07989319
115	0x3dd87e00	0.105709076
116	0x3db4caba	0.088277295
117	0xbd32d7ba	-0.043662764
118	0xbc541718	-0.012944959
119	0x3df95036	0.12173502
120	0x3e017519	0.12642325
121	0x3db31280	0.08743763
122	0x3d5a6984	0.053323284
123	0xbd961f28	-0.07330161
124	0xbc8cb46c	-0.017175876
125	0xbdf15654	-0.11784044
126	0x3d079d70	0.03310913
127	0xbe02dadc	-0.127788
128	0x3de373e6	0.1110609
129	0xbcbd43dc	-0.023103647
130	0x3de99b30	0.11406553
131	0x3c22eeb0	0.009944603
132	0x3b0cc040	0.0021476895
133	0xbd16ceb8	-0.036818236
134	0x3da4543a	0.080238774
135	0xbdade224	-0.084903985
136	0x3ddc2a30	0.10750234
137	0xbdb552fd	-0.088537194
138	0x3b1c40c0	0.0023842305
139	0x3de45d02	0.11150552
140	0x3c639e80	0.01389277
141	0xbd9279af	-0.071521156
142	0x3dffd97e	0.12492655
143	0xbab8be80	-0.0014094859
144	0xbd8bd834	-0.06828347
145	0xbd072316	-0.032992445
146	0x3da7138e	0.08158027
147	0xbde551d3	-0.11197247
148	0xbabe2280	-0.0014506131
149	0xbd0fcb1c	-0.03510581
150	0xbd91e65e	-0.07124017
151	0xbdcb17c4	-0.09916642
152	0xbc922e68	-0.017844394
153	0x39917400	0.00027742982
154	0x3dd5bd12	0.10436453
155	0xbcafbdac	-0.021452747
156	0xbdfd8c86	-0.12380318
157	0xbc013b68	-0.007887699
158	0xbdbf567e	-0.09342669
159	0xbdcfd132	-0.10147323
160	0x3e02f871	0.12790085
161	0xbdc2abb4	-0.09505406
162	0xbb6d6540	-0.003622368
163	0x3dde4ba2	0.108542696
164	0x3d38d8dc	0.04512869
165	0x3d06fbe8	0.03295508
166	0xbd08bcf2	-0.033383317
167	0x3dfc1556	0.12308757
168	0x3ccd3b80	0.025052786
169	0x3dc3cece	0.09560929
170	0xbcbb8414	-0.022890128
171	0xbdb02bc7	-0.086021
172	0x3d57409c	0.05255185
173	0x3e00454f	0.12526439
174	0x3d765cb8	0.060147017
175	0x3de18c8a	0.11013134
176	0x3d123f78	0.03570506
177	0x3d45eea0	0.048323274
178	0x3de8ca86	0.11366753
179	0xbddd5f91	-0.108092435
180	0xbdfb3740	-0.122663975
181	0x3d45d274	0.048296407
182	0x3d721e64	0.059111014
183	0xbd0970c8	-0.033554822
184	0xbca0ff38	-0.019652948
185	0x3d7eda7c	0.06222008
186	0xbdd44c24	-0.10366085
187	0xbdf4dee2	-0.11956574
188	0x3d1c7dac	0.038205788
189	0xbdfe1b1d	-0.12407515
190	0xbbd940f0	-0.0066300556
191	0xbdf85b3a	-0.12126775
192	0x3cacdee8	0.021102384
193	0x3cc99f10	0.02461198
194	0x3d1d04e4	0.038334742
195	0x3d477d8c	0.048703715
196	0x3de264a8	0.11054355
197	0x3cca9378	0.024728522
198	0xbdce0f74	-0.10061541
199	0x3ca2fd70	0.019896239
200	0x3cd01d10	0.025404483
201	0x3d63a22c	0.05557458
202	0x3dc5fab6	0.0966696
203	0xbdee990a	-0.11650284
204	0x3cef3a10	0.029202491
205	0x3df14710	0.11781132
206	0xbda79a8c	-0.08183774
207	0x3dda0f68	0.1064747
208	0x3d87ef86	0.06637482
209	0x3dd3ebda	0.103477195
210	0x3dfa7ab6	0.122304365
211	0xbcbc0090	-0.022949487
212	0xbd037ee0	-0.03210342
213	0x3d968d92	0.07351221
214	0xbe037119	-0.12836112
215	0x3d6d168c	0.05788283
216	0x3c9e66e0	0.019336164
217	0x3d4bc064	0.049744025
218	0x3e02f735	0.12789614
219	0x3db6c854	0.08924928
220	0x3d2302d4	0.03979762
221	0xbca1ba94	-0.019742288
222	0x3db709e4	0.08937433
223	0xbde7043b	-0.11280104
224	0x3c0b9960	0.008520454
225	0xbc846c28	-0.016164854
226	0x3d5207e4	0.051277056
227	0x3d21189c	0.03933011
228	0xbd7d94d6	-0.06190952
229	0x3d855d78	0.065119684
230	0x3de4d3f8	0.11173242
231	0xbd8054e5	-0.06266192
232	0x3d114fec	0.03547661
233	0x3ba063e0	0.0048947185
234	0x3d960472	0.073250666
235	0xbdf5477a	-0.11976524
236	0xbc9cd9b4	-0.019146778
237	0xbcec5020	-0.0288468
238	0x3df22dfc	0.11825177
239	0x3d94c032	0.07263221
240	0x3cb73fa0	0.022369206
241	0xbdeb0dc4	-0.11477235
242	0x3d226074	0.039642766
243	0x3de82862	0.113358274
244	0xbdc7690f	-0.09736835
245	0xbdc724f2	-0.09723844
246	0xbd6b57f4	-0.057456926
247	0xbd28cec0	-0.041212797
248	0xbde6e332	-0.11273803
249	0x3c844920	0.01614815
250	0x3c463190	0.012096778
251	0xbdd0ae62	-0.10189511
252	0xbbe0c5b0	-0.0068595037
253	0x3d6bfffc	0.057617173
254	0xbd69f4d0	-0.057118237
255	0xbdd5908c	-0.10427961

bias f4 [128]
0	0xbdf0ec9d	-0.117638804
1	0x3de5f9f4	0.112293154
2	0x3dd3ea00	0.10347366
3	0xbcf79ddc	-0.03022664
4	0xbd136b0c	-0.03599076
5	0x3dea0694	0.11427036
6	0xbd899c28	-0.067192376
7	0xbcf66f20	-0.030082285
8	0xbd04bafa	-0.032404877
9	0xbd9d45cc	-0.07679328
10	0xbde9f576	-0.11423771
11	0xbd776040	-0.060394526
12	0xbd35e724	-0.044409886
13	0xbdcfe67b	-0.101513825
14	0x3dc06468	0.09394151
15	0x3df9f2c6	0.122045085
16	0xbb6f9a80	-0.0036560595
17	0xbc47ac18	-0.012187026
18	0x3dccebc2	0.10005905
19	0xbdb62ad0	-0.088948846
20	0x3d9cb520	0.07651734
21	0xbd9abd0f	-0.07555591
22	0x3dd92766	0.10603218
23	0x3dbcb8ce	0.09214936
24	0xbdd35868	-0.103195965
25	0x3d4cfde0	0.0500468
26	0xbcb19cd4	-0.021681227
27	0xbdd6521c	-0.1046488
28	0xbc306278	-0.010765664
29	0x3c8ee568	0.017443374
30	0xbd5daada	-0.054118015
31	0x3d884056	0.06652896
32	0x3d9f8da2	0.07790686
33	0xbdd516bc	-0.10404727
34	0xbd50da54	-0.050989464
35	0xbd8c5922	-0.06852938
36	0x3df92e9a	0.12167092
37	0xbd3cb56a	-0.046071447
38	0x3df253f4	0.11832419
39	0xbd1ddfb6	-0.038543426
40	0xbca90ea0	-0.020636857
41	0x3dada990	0.08479607
42	0xbd974a70	-0.07387245
43	0xbce7c210	-0.028290778
44	0xbdb125c7	-0.086497836
45	0xbdc2210a	-0.09478958
46	0x3cd9e2f0	0.02659747
47	0xbd02a394	-0.03189428
48	0xbca993f4	-0.020700432
49	0x3d066030	0.032806575
50	0xbc816944	-0.015797265
51	0xbde990f3	-0.114046
52	0x3d90f004	0.07077029
53	0x3df34a52	0.1187941
54	0x3d77e4d0	0.060520947
55	0x3de39552	0.11112465
56	0xbd4b7462	-0.04967154
57	0xbc3867d8	-0.011255227
58	0xbdf2ecb4	-0.11861554
59	0xbdd66d89	-0.10470111
60	0x3cb85ab8	0.022504196
61	0x3de55ea6	0.111996934
62	0xbd1b0e8c	-0.03785567
63	0xbe00b38a	-0.12568489
64	0x3ddfb2f0	0.109228015
65	0xbbb55aa0	-0.005534485
66	0x3cc13538	0.023584947
67	0x3b75d300	0.00375098
68	0x3d804626	0.0626338
69	0xbde20dcd	-0.110377885
70	0xbd179d64	-0.037015334
71	0xbdf1c6db	-0.11805507
72	0x3e00b209	0.12567915
73	0x3d162c0c	0.0366631
74	0xbe02552e	-0.12727806
75	0xbd7a945a	-0.061176635
76	0xbdfac631	-0.12244833
77	0x3dbb45ca	0.091441706
78	0x3ceb1aa8	0.028699234
79	0x3bd7c800	0.006585121
80	0x3c39d990	0.011343375
81	0x3c0bf560	0.008542389
82	0x3c193bb0	0.0093526095
83	0x3cd4e240	0.02598679
84	0xbdc3e6c7	-0.09565502
85	0x3d802742	0.06257488
86	0xbcc40678	-0.023928866
87	0x3d00ac24	0.031414166
88	0xbd8ac982	-0.06776716
89	0x3d678a9c	0.056528673
90	0x3d9f8930	0.07789838
91	0x3dd5edfe	0.10445784
92	0xbda1fe86	-0.079098746
93	0x3dcb1472	0.09916009
94	0xbb16cbc0	-0.0023009628
95	0xbd10ea26	-0.03537955
96	0x3ddad8e4	0.106859
97	0x3d863020	0.06552148
98	0x3bb76da0	0.005597785
99	0xbc958bbc	-0.018255107
100	0x3dd595ac	0.10428938
101	0xbdf225d7	-0.118236236
102	0x3dcd156c	0.100138515
103	0xbb74fcc0	-0.0037382096
104	0xbbfb9d20	-0.007678643
105	0xbd8ae1bc	-0.06781337
106	0x3db36ac2	0.08760597
107	0x3dd79bb2	0.105277434
108	0xbc324ec8	-0.010883041
109	0x3df59186	0.11990647
110	0xbdd63aca	-0.10460432
111	0x3d0676c0	0.032828093
112	0xbd60b346	-0.05485847
113	0xbb7123c0	-0.003679499
114	0xbd794e1a	-0.0608655
115	0xbd4aa006	-0.049469016
116	0x3c937590	0.018000394
117	0xbda3cdae	-0.07998215
118	0x3d55de38	0.052213877
119	0xbd715a44	-0.058923975
120	0xbdb897a8	-0.09013301
121	0x3bf86b40	0.0075811446
122	0x3d44a3c0	0.048007727
123	0x3e01d2c7	0.12678061
124	0x3dc2b33c	0.095068425
125	0xbe01b560	-0.12666845
126	0x3d9453ea	0.07242568
127	0xbc4758f0	-0.0121672

weight f4 [64, 128]
0	0xbcd7d832	-0.026348207
1	0x3da8bd2b	0.08239206
2	0xbbdbf380	-0.006712377
3	0xbd050947	-0.03247955
4	0x3d52b742	0.0514443
5	0xbd881210	-0.0664407
6	0x3d3e79c2	0.046502836
7	0x3b558aa0	0.0032583848
8	0xbd7de2f8	-0.061984032
9	0xbca5a6a0	-0.020221055
10	0x3cc7119c	0.024300389
11	0xbbeaf140	-0.0071698725
12	0x3d018410	0.031620085
13	0x3d33bc56	0.043880783
14	0xbd34cc4e	-0.044140153
15	0xbd9d2fe2	-0.076751485
16	0xbdafe496	-0.08588521
17	0xbd96f343	-0.07370617
18	0xbcdb296e	-0.026753154
19	0x3c47bfc0	0.012191713
20	0xbcc96364	-0.024583526
21	0xbb1644e0	-0.0022929236
22	0xbd041918	-0.032250494
23	0x3d80fb25	0.06297902
24	0xbd009e70	-0.031401098
25	0xbd816a12	-0.063190594
26	0x3d3fb9fa	0.04680822
27	0x3c6aa148	0.014320679
28	0xbd7d5c52	-0.06185562
29	0x3cf9f484	0.030512102
30	0xbc61a418	-0.013772033
31	0x3d88bb87	0.06676393
32	0xbd2352af	-0.039873775
33	0xbd21e905	-0.039528865
34	0x3db03aed	0.08604989
35	0x3d903c7b	0.07042786
36	0x3d9cc1ef	0.076541774
37	0x3da1c1ed	0.078983165
38	0x3d08875e	0.03333222
39	0x3dac7e9b	0.084225856
40	0xbcaa94cc	-0.020822905
41	0xbc4e0c50	-0.012576178
42	0x3d711a32	0.058862872
43	0xbd8975d9	-0.06711931
44	0x3d157cfe	0.036496155
45	0xbd948560	-0.07252002
46	0x3d5c15c2	0.053731687
47	0x3c80a070	0.015701503
48	0x3d81f0b9	0.06344742
49	0x3d64a53e	0.05582165
50	0xbd115a33	-0.03548641
51	0x3d470196	0.048585497
52	0x3d28da2e	0.041223697
53	0xbc0a3540	-0.008435547
54	0xbda9b820	-0.08287072
55	0xbc7b89e8	-0.015352704
56	0xbd12f3ed	-0.035877157
57	0xbd33d882	-0.04390765
58	0x3c7bc6f0	0.015367255
59	0x3d864b21	0.065572985
60	0x3d1446c0	0.036200285
61	0xbd91a55f	-0.0711162
62	0xbd856d0a	-0.06514938
63	0xbda570ce	-0.080781564
64	0xbda40058	-0.08007878
65	0x3d0eebfa	0.034893014
66	0xbd1f2ef3	-0.038863134
67	0x3d0bdb50	0.0341447
68	0x3ce6068c	0.028079294
69	0x3caa9608	0.020823494
70	0xbd5ed1bb	-0.054399233
71	0xbd09056a	-0.03345243
72	0xbd315aaf	-0.043299373
73	0xbd814b10	-0.06313145
74	0xbdb2d6c5	-0.0873237
75	0x3d9db2b9	0.07700104
76	0x3d388942	0.045052774
77	0x3d8a1f99	0.06744308
78	0x3d80125b	0.06253501
79	0xbd832d49	-0.06405122
80	0xbdb395af	-0.08768784
81	0xbd3dcf29	-0.04634014
82	0x3c148bd8	0.0090665445
83	0x3d914ff3	0.07095327
84	0x3d932ecb	0.071866594
85	0xbcead944	-0.028668053
86	0x3c9782f4	0.01849506
87	0x3d938c37	0.07204478
88	0x3d75a912	0.05997569
89	0x3d1c4c92	0.03815896
90	0xbcc787ac	-0.024356686
91	0x3c9575cc	0.018244646
92	0xbce78a76	-0.028264266
93	0x3bc5ef30	0.0060404763
94	0x3dabbd4b	0.08385714
95	0x3d136e50	0.035993874
96	0x3d8cc201	0.06872941
97	0x3dace421	0.0844195
98	0x3d78672a	0.06064526
99	0xbd52eae8	-0.051493555
100	0xbd454eb7	-0.04817077
101	0x3d9fd86b	0.0780495
102	0x3d9eec45	0.077599086
103	0xbd0f7e57	-0.035032596
104	0x3cc93314	0.024560489
105	0x3d16caa2	0.03681434
106	0x3d78d682	0.060751446
107	0x3d828d7b	0.063746415
108	0x3d8c53d5	0.06851927
109	0x3c2a5940	0.010397255
110	0x3dacd407	0.084388785
111	0x3cbc8720	0.023013651
112	0xbccbff48	-0.024902001
113	0xbdafad8e	-0.08578025
114	0x3c153228	0.009106196
115	0x3d89f5bd	0.06736324
116	0xbd464eeb	-0.048415106
117	0x3d738a26	0.05945792
118	0x3c6ea570	0.014565811
119	0x3c7c8040	0.015411437
120	0x3da06a6f	0.078328006
121	0xbd3835ef	-0.04497331
122	0x3d031b60	0.03200853
123	0xbd445978	-0.047936887
124	0xbc853bcc	-0.016263865
125	0x3c675ae0	0.014120787
126	0x3cdaca58	0.026707813
127	0xbd0029b3	-0.031289767
128	0x3d5610fe	0.0522623
129	0x3d168dc6	0.0367563
130	0x3d639202	0.055559166
131	0xbbd49f10	-0.0064886883
132	0xbd90c23a	-0.07068296
133	0xba41af00	-0.0007388443
134	0x3dac1d5b	0.084040366
135	0x3d37eaca	0.044901647
136	0xbd3c3d37	-0.045956817
137	0x3a662900	0.0008779913
138	0x3d6ed03a	0.05830405
139	0x3d89c221	0.0672648
140	0x3d22bf4a	0.03973321
141	0xbcd26640	-0.025683522
142	0x3d9641d9	0.07336778
143	0xbdaf4fae	-0.085601196
144	0xbda22758	-0.079176605
145	0xbda52d0d	-0.080652334
146	0xbd89495e	-0.06703447
147	0x3da78e3d	0.08181427
148	0xbcd7e9a2	-0.026356522
149	0x3d9e3d25	0.07726506
150	0x3d814e57	0.0631377
151	0xbd9e7448	-0.07737023
152	0x3cad6d54	0.021170296
153	0x3d03dd06	0.032193206
154	0x37d5c000	2.5480986e-05
155	0x3d4b51ce	0.049638562
156	0xbd3b836f	-0.04577964
157	0x3ca613f8	0.020273194
158	0x3da5aa13	0.0808908
159	0xbda4b480	-0.0804224
160	0xbcec67be	-0.028858062
161	0x3db33b11	0.087515004
162	0x3db05193	0.08609309
163	0x3da41813	0.08012404
164	0xbd1cb617	-0.038259592
165	0xbd246c1f	-0.040142175
166	0x3bff42c0	0.0077899396
167	0x3d960d9f	0.07326817
168	0xbd933bf8	-0.071891725
169	0x3b1b7700	0.0023722053
170	0x3d1aa0ba	0.037750937
171	0x3b17ac00	0.0023143291
172	0x3d117af6	0.035517655
173	0xbb834fb0	-0.004007302
174	0x3d964ff7	0.07339471
175	0xbd68b742	-0.056815393
176	0xbc5713a8	-0.013127245
177	0x3b0c8860	0.002144359
178	0xbd114b71	-0.035472337
179	0xbd7b8b52	-0.061412163
180	0xbd7f4480	-0.062321186
181	0xbcd79d2c	-0.026320063
182	0xbd646383	-0.055758964
183	0xbcf3e308	-0.029771343
184	0x3d9cb9f3	0.076526545
185	0x3d3da1b6	0.046296798
186	0xbda2dcd9	-0.079522796
187	0x3d7651ee	0.060136728
188	0x3cad9210	0.021187812
189	0xbc8fbab8	-0.01754509
190	0x3d1b925e	0.037981384
191	0xbd099c56	-0.03359636
192	0x3d18fd36	0.037350856
193	0x3da87057	0.08224552
194	0xbc00a8c8	-0.007852741
195	0x3dade7d5	0.08491484
196	0xbcfc8af2	-0.030827973
197	0x3d1d1bb2	0.03835649
198	0x3d3131e6	0.043260477
199	0xbd1dcc72	-0.038525052
200	0xbd51dbc3	-0.05123497
201	0xbd92e23c	-0.07172057
202	0x3d69c58e	0.05707317
203	0x3c768fd0	0.015048936
204	0x3c1eac30	0.009684607
205	0xbcdefcb6	-0.027220111
206	0x3d02f068	0.03196755
207	0xbb8c4800	-0.004281044
208	0xbd201aed	-0.03908818
209	0x3d693486	0.056934856
210	0xbcfba67c	-0.030719034
211	0xbd00ba12	-0.03142745
212	0x3d49e432	0.04928989
213	0x3da1e7e1	0.079055555
214	0x3d6b2f8a	0.057418384
215	0x3d9e62b7	0.07733672
216	0x3d7b28d6	0.06131824
217	0xbd94403e	-0.07238816
218	0x3d8d853b	0.06910177
219	0xbcbf372c	-0.023341738
220	0xbcab838c	-0.02093675
221	0xbd83ca7d	-0.06435106
222	0x3c218cb0	0.009860203
223	0x3ca438c4	0.0200466
224	0x3d427faa	0.04748503
225	0xbd8af68c	-0.06785306
226	0x3d8fc2d7	0.070195846
227	0x3d52575a	0.051352836
228	0xbc46bd08	-0.0121300295
229	0xbceddf4e	-0.029037144
230	0xbd6b3c48	-0.057430536
231	0x3be41b60	0.006961271
232	0xbd9be959	-0.07612867
233	0x3d091336	0.033465587
234	0x3d90cfaf	0.070708625
235	0xbd829183	-0.063754104
236	0x39fd0e00	0.0004826635
237	0x3d2425f2	0.04007525
238	0x3d11bf56	0.035582863
239	0xbd8b06b5	-0.06788389
240	0xbb385b40	-0.002813056
241	0x3ccbd1b4	0.024880268
242	0x3ccd2d88	0.025046125
243	0xbcf4065e	-0.029788192
244	0xbd098bc0	-0.03358054
245	0xbd9f87c9	-0.07789571
246	0xbd879bf0	-0.066215396
247	0xbc8985bc	-0.016787402
248	0xbb4a2760	-0.0030846223
249	0x3da3d771	0.080000766
250	0xbd876b8d	-0.066123106
251	0xbd71f1b1	-0.059068386
252	0x3d9b1c0f	0.07573711
253	0x3d093e66	0.033506773
254	0xbd1c096c	-0.038094923
255	0x3cd8c458	0.026460811

bias f4 [64]
0	0xbc842220	-0.016129553
1	0x3d60f9fe	0.05492591
2	0xbc4c0ee0	-0.012454718
3	0x3cb7a570	0.022417754
4	0xbd237cdd	-0.039914
5	0xbd6f02a8	-0.058352143
6	0xbd083ae4	-0.033259287
7	0xbd5e4345	-0.054263372
8	0xbd856fda	-0.065154746
9	0x3cca5c14	0.02470211
10	0xbd794ca1	-0.060864095
11	0xbd009b2e	-0.03139799
12	0xbdaf0a1a	-0.085468486
13	0xbceb9e70	-0.028762072
14	0xbda3c250	-0.079960465
15	0xbcca872c	-0.024722658
16	0xbd50da99	-0.05098972
17	0x3c856220	0.016282141
18	0x3d849b0b	0.064748846
19	0xbc8e85d8	-0.017397806
20	0xbdac331c	-0.08408186
21	0x3d9a5f6b	0.07537731
22	0xbd2e4396	-0.042544924
23	0x3db24b13	0.087057255
24	0x3d2c020a	0.041994132
25	0x3b046720	0.002020307
26	0x3d6a46ee	0.05719655
27	0x3db314b3	0.087441824
28	0x3d02f1ca	0.03196887
29	0x3d80cce1	0.062890776
30	0xbd716fac	-0.05894439
31	0xbb889440	-0.0041680634
32	0xbbc59610	-0.0060298517
33	0xbd08b7a4	-0.03337826
34	0xbd656247	-0.056001928
35	0xbda07965	-0.07835654
36	0xbd13ccd7	-0.036084022
37	0x3da3a695	0.079907574
38	0x3d70efc6	0.058822416
39	0x3a691c80	0.00088924915
40	0x3cbff78c	0.02343347
41	0x3c5ceda8	0.013484396
42	0x3d7c6112	0.06161601
43	0xbc4ab6d8	-0.012372695
44	0xba921d40	-0.0011147633
45	0xbdad73c4	-0.08469346
46	0xbd7f6b31	-0.062358085
47	0x3d8a1ba3	0.067435525
48	0x3c236e38	0.009975009
49	0x3d8a3839	0.06749005
50	0x3d9d2b2b	0.07674249
51	0x3d1a0db6	0.037610732
52	0xbbd25770	-0.006419115
53	0xbcc02c00	-0.02345848
54	0x3c94cfd0	0.018165499
55	0x3d49182a	0.04909531
56	0xbc066540	-0.008202851
57	0xbcf5a548	-0.029986039
58	0xbd83aebf	-0.064298145
59	0x3d151ba8	0.03640333
60	0xbda03afd	-0.07823751
61	0xbd283e8c	-0.041075274
62	0x3d9dc473	0.07703485
63	0x3d5a1d9a	0.053250886

weight f4 [14, 64]
0	0xbd835e30	-0.06414449
1	0x3db52292	0.088444844
2	0x3dfacbba	0.12245889
3	0xbd588748	-0.05286339
4	0xbd443764	-0.047904387
5	0xbd403c64	-0.046932593
6	0x3dc7c0aa	0.09753545
7	0x3dfb00f2	0.1225604
8	0x3d93cfe6	0.07217388
9	0xbdc08752	-0.0940081
10	0xbd9a69ee	-0.07539736
11	0x3d1bfcd4	0.038082913
12	0xbd309fdc	-0.043121204
13	0xbddee8a4	-0.108842164
14	0xbdc21700	-0.09477043
15	0x3c95f3e0	0.018304765
16	0x3de8c592	0.113658085
17	0x3c2052b0	0.009785339
18	0x3d7667b8	0.060157508
19	0x3d4768c8	0.04868391
20	0xbd68ab48	-0.05680397
21	0x3db7597a	0.08952613
22	0x3d8dcf3a	0.06924291
23	0xbd912f18	-0.070890605
24	0xbdcea878	-0.100907266
25	0x3d8e2c70	0.069420695
26	0x3d5ce888	0.053932697
27	0x3c431560	0.011906952
28	0xbc5f0070	-0.013610944
29	0x3d445520	0.047932744
30	0xbdf4f260	-0.11960292
31	0x3acea100	0.0015764534
32	0xbc8c9e08	-0.017165199
33	0x3d931f4c	0.07183704
34	0xbc111970	-0.008856162
35	0xbcfe80b8	-0.031067237
36	0x3ddc9964	0.107714444
37	0xbd59e418	-0.053196043
38	0xbd446fac	-0.04795806
39	0xbdbe3c38	-0.092888296
40	0xbda9fa00	-0.08299637
41	0xbda09cd4	-0.078424126
42	0x3dbf9c7e	0.093560204
43	0x3d8eae70	0.06966865
44	0x3df99ab8	0.121877134
45	0xbde4c612	-0.111705914
46	0xbdf59c26	-0.119926736
47	0xbc140390	-0.0090340525
48	0x3df82cbc	0.121179074
49	0x3c8f06f8	0.017459378
50	0x3d7009e4	0.058603182
51	0xbb16b840	-0.0022998005
52	0xbda4e4d4	-0.08051458
53	0x3d94a1fa	0.07257457
54	0x3c81e4a0	0.015856087
55	0xbc84cd10	-0.016211063
56	0x3d0f6ab0	0.035013855
57	0xbd88a73e	-0.06672524
58	0x3d412134	0.047150806
59	0xbce9eaa0	-0.02855426
60	0x3d9afb14	0.075674206
61	0xbd65f48c	-0.05614142
62	0xbdca6d4e	-0.098841295
63	0x3d373b74	0.044734433
64	0xbdcce958	-0.10005444
65	0x3d8c4f88	0.06851107
66	0xbd8bc2ee	-0.06824289
67	0xbd8355dc	-0.06412861
68	0x3d9a5384	0.075354606
69	0xbd196634	-0.037450984
70	0x3ccdac60	0.025106609
71	0x3c85ff70	0.016357154
72	0xbd8d8938	-0.06910938
73	0xbde05b2e	-0.10954891
74	0x3c207a40	0.009794772
75	0xbc81cdc0	-0.01584518
76	0xbbeb2360	-0.007175848
77	0xbdbde922	-0.09272982
78	0x3d9bc2a2	0.07605483
79	0x3cce8e30	0.025214285
80	0xbca280e8	-0.019836858
81	0x3d189d24	0.037259236
82	0x3da125c2	0.0786853
83	0x3dc5b080	0.09652805
84	0xbbd82b80	-0.0065969825
85	0xbc75e5d0	-0.015008405
86	0xbdd4397a	-0.10362525
87	0x3ddd5fb2	0.10809268
88	0xbd8133ca	-0.06308706
89	0xbce150b0	-0.027504295
90	0x3d5269b4	0.051370338
91	0xbde58e3a	-0.11208768
92	0xba027800	-0.0004976988
93	0xbd3d3f08	-0.04620269
94	0x3d697c14	0.057003096
95	0x3d7b940c	0.061420485
96	0x3cf04e30	0.029334158
97	0x3dcf60cc	0.101258844
98	0x3de06bc2	0.10958053
99	0x3d0af164	0.033921614
100	0x3d33b040	0.043869257
101	0x3dcd2aa4	0.10017899
102	0x3d876230	0.06610525
103	0x3cee7d40	0.029112458
104	0xbdabeb1e	-0.083944544
105	0xbdb954aa	-0.090493515
106	0x3ce461c8	0.027878657
107	0xbcc56bf0	-0.02409932
108	0x3d3be4d8	0.04587254
109	0x3db7e9b6	0.08980124
110	0x3dabd880	0.083909035
111	0xbd313a60	-0.04326856
112	0xbd427424	-0.04747404
113	0x3d56c36c	0.052432463
114	0xbdb85876	-0.090012476
115	0x3ce30368	0.027711585
116	0x3de72b82	0.11287595
117	0x3c5369a0	0.012903601
118	0xbd158f8c	-0.03651385
119	0x3d6776d4	0.056509808
120	0x3dac14ae	0.08402382
121	0xbd6f1544	-0.05836989
122	0xbdb212da	-0.08695002
123	0x3d8b8c64	0.06813887
124	0x3d86088e	0.065446004
125	0x3ddc9b90	0.10771859
126	0x3c4cac60	0.012492269
127	0x3d8cad04	0.068689376
128	0xbdd9a32a	-0.10626824
129	0xbdde4aea	-0.108541325
130	0xbd8c5c48	-0.06853539
131	0xbd362e04	-0.044477478
132	0xbd040ee8	-0.03224078
133	0xbdcbffae	-0.099608764
134	0xbda5abb0	-0.080893874
135	0xbb311540	-0.0027020723
136	0xbddb1f0c	-0.10699281
137	0xbdaa070c	-0.08302125
138	0xbdb269ee	-0.08711611
139	0xbd80bf6e	-0.06286512
140	0x3d3bcfec	0.045852587
141	0x3cfe1580	0.031016111
142	0x3c3258f0	0.010885462
143	0xbd871c7c	-0.0659723
144	0xbbf57720	-0.0074910074
145	0xbd8c8a54	-0.068623215
146	0xbc981680	-0.018565416
147	0x3c965d58	0.018355057
148	0xbdb3db2c	-0.08782038
149	0xbcff96c0	-0.031199813
150	0xbd1f7470	-0.038929403
151	0xbdd23226	-0.10263471
152	0xbd87f20c	-0.06637964
153	0x3c950898	0.018192574
154	0xbd70df7c	-0.05880688
155	0xbddba16e	-0.1072415
156	0xbd9ae548	-0.07563263
157	0xbd9d8362	-0.07691075
158	0xbdbdad7e	-0.09261607
159	0x3d9765d6	0.073924705
160	0xbd97cf1c	-0.0741255
161	0x3d84d278	0.06485456
162	0x3d657710	0.05602175
163	0x3c80d9b0	0.015728801
164	0xbddb0456	-0.106941864
165	0xbd2f2fb0	-0.042770088
166	0xbd9b1092	-0.0757152
167	0xbdfc4072	-0.123169795
168	0x3dead736	0.114668295
169	0xbd8a46ba	-0.06751771
170	0x3dd25cee	0.10271631
171	0x3b0fdc80	0.0021951497
172	0xbd2a7388	-0.041614085
173	0x3d1bd1f4	0.038042024
174	0x3d8bd256	0.06827228
175	0x3d908e36	0.070583746
176	0xbd7cd1f8	-0.06172368
177	0xbcad2cd8	-0.021139547
178	0xbbfde620	-0.0077483803
179	0xbd4f3bdc	-0.050594196
180	0xbdf1a12a	-0.11798318
181	0xbdf911b8	-0.12161583
182	0xbdc2bda8	-0.0950883
183	0x3dedd580	0.116129875
184	0x3d255120	0.04036057
185	0x3cead410	0.028665572
186	0x3d635efc	0.055510506
187	0xbd877054	-0.06613222
188	0xbd966be0	-0.07344794
189	0x3c4403e0	0.0119638145
190	0xbd03e360	-0.032199264
191	0x3c1bd300	0.009510756
192	0xbcf792a8	-0.030221298
193	0x3ddaab36	0.10677187
194	0x3ce1f660	0.027583301
195	0xbc5e4670	-0.013566598
196	0xbcbfd0d8	-0.023415014
197	0xbd39b21c	-0.045335874
198	0xbdc73b6c	-0.09728131
199	0x3dd35e50	0.10320723
200	0xbcd02918	-0.02541022
201	0x3daf54ec	0.085611194
202	0xbb4229c0	-0.0029626936
203	0x3ce58848	0.028019086
204	0xbdedad22	-0.11605288
205	0xbbfab9a0	-0.0076515228
206	0xbda518ce	-0.08061372
207	0xbb97c0a0	-0.004631117
208	0xbb2a3380	-0.0025970638
209	0xbdb1f81a	-0.086899
210	0xbdb284dc	-0.08716747
211	0xbd9853d4	-0.07437864
212	0xbdbace84	-0.09121421
213	0x3daf590a	0.08561905
214	0x3de0e716	0.10981576
215	0x3d379d98	0.044828027
216	0x3d66eab0	0.05637616
217	0xbdb62ee8	-0.088956654
218	0x3d11254c	0.03543596
219	0x3d32dcf8	0.043667763
220	0x3d7fb798	0.062430948
221	0xbdf888c6	-0.121354625
222	0xbb933cc0	-0.004493326
223	0xbd5485bc	-0.05188535
224	0x3db33c02	0.0875168
225	0x3df1a54a	0.117991045
226	0x3dc142c8	0.09436566
227	0x3dc8ef5a	0.09811278
228	0x3c71dc20	0.014761955
229	0xbc2150d0	-0.009845927
230	0xbd4639a0	-0.0483948
231	0x3d635ff4	0.05551143
232	0xbdd1d446	-0.10245566
233	0xbda218ee	-0.07914911
234	0x3dd8db16	0.10588662
235	0xbce195d8	-0.027537271
236	0x3dfdad60	0.12386584
237	0x3dc8a70a	0.09797485
238	0xbcb1ff40	-0.021728158
239	0x3de74bdc	0.11293766
240	0x3d27b290	0.040941775
241	0xbd88bbb2	-0.06676425
242	0x3cdbb908	0.026821628
243	0x3d31a9d8	0.043374866
244	0x3da693cc	0.08133659
245	0x3d0e17ac	0.034690544
246	0x3d26d4a0	0.04073012
247	0x3de6dd38	0.11272663
248	0x3b485480	0.0030567944
249	0x3d93d9d6	0.07219283
250	0xbd56acb0	-0.05241078
251	0xbd91b9b4	-0.07115498
252	0xbd873a82	-0.06602956
253	0x3d88b906	0.066759154
254	0xbd7843d4	-0.06061156
255	0xbcbe0e00	-0.023200035

bias f4 [14]
0	0xbd9302e8	-0.07178289
1	0xbda5c0be	-0.08093403
2	0xbd7ec8cc	-0.062203214
3	0xbbf671e0	-0.007520899
4	0x3cc5c850	0.024143368
5	0x3dcb8644	0.099377185
6	0x3b86afc0	0.0041103065
7	0xbd6aaf74	-0.05729623
8	0x3d6bb9dc	0.057550296
9	0xbca33100	-0.019920826
10	0xbd9f4c30	-0.077782035
11	0x3d04d144	0.032426134
12	0x3dac0c4e	0.084007844
13	0x3dfaaa66	0.12239532
