stock_forecast2.pth (torch, 69463 bytes, 6 tensors)

weight f4 [128, 60]
0	0xbd5957fc	-0.053062424
1	0xbd092b74	-0.033488706
2	0xbb840580	-0.004028976
3	0x3de43c82	0.111443534
4	0xbdd6608e	-0.10467635
5	0x3d9bbf36	0.0760483
6	0x3d786f84	0.060653225
7	0xbdb0ea4a	-0.08638437
8	0xbd668256	-0.05627664
9	0x3c918c18	0.017766997
10	0x3dbc873c	0.092054814
11	0xbdfdaee3	-0.123868726
12	0x3cfa0068	0.030517772
13	0x3cb301c0	0.02185142
14	0x3da59e02	0.08086778
15	0xbc400808	-0.011720665
16	0xbbcc0940	-0.0062266886
17	0xbd57f27a	-0.052721478
18	0xbdfa2562	-0.122141615
19	0x3d7d6fd8	0.06187424
20	0x3d79c7c4	0.060981527
21	0x3deb4b36	0.11488955
22	0xbdf4b925	-0.11949376
23	0x3d220594	0.0395561
24	0xbc3fb0f8	-0.0116999075
25	0xbd94f6ca	-0.07273634
26	0xbdd3758f	-0.10325157
27	0xbd86a03c	-0.06573531
28	0x3da080ac	0.07837042
29	0x3d63c6c0	0.055609465
30	0x3df51274	0.1196641
31	0xbc8281f0	-0.0159311
32	0xbdd1ecdf	-0.10250258
33	0xbd712fd4	-0.058883503
34	0x3cf553a0	0.029947102
35	0xbcb7d22c	-0.022439085
36	0xbc9e8c50	-0.019354016
37	0x3db9f8f6	0.09080689
38	0xbdf6d013	-0.12051406
39	0x3bd5c240	0.0065234005
40	0x3df009f8	0.117206514
41	0xbd02b798	-0.03191337
42	0x3dc0c9c2	0.09413482
43	0x3b98a9a0	0.0046588928
44	0x3d84d758	0.06486386
45	0x3d0176f8	0.031607598
46	0x3dbfd74e	0.09367238
47	0x3d638028	0.05554214
48	0xbc9da894	-0.019245423
49	0x3c8346c8	0.016024962
50	0x3cf0f080	0.029411554
51	0xbd99cc88	-0.07509714
52	0xbdf4d37d	-0.11954401
53	0xbcaebed4	-0.021331228
54	0xbdc58ec0	-0.09646368
55	0xbdd08a88	-0.10182673
56	0x3da87e16	0.08227174
57	0x3cd2a3f0	0.025712937
58	0xbdc5f9a4	-0.09666756
59	0xbd615b9e	-0.055019014
60	0xbd62282a	-0.055214085
61	0xbdab3d1e	-0.083612666
62	0x3d34b078	0.044113606
63	0x3c9cab28	0.019124582
64	0x3cc051a0	0.023476422
65	0x3e02cd65	0.12773664
66	0xbdd236ab	-0.10264333
67	0x3e0242ef	0.12720846
68	0x3c5cbec0	0.013473213
69	0x3dfce306	0.12347989
70	0x3d47ef68	0.0488123
71	0x3df5290a	0.11970718
72	0xbdb0639b	-0.08612748
73	0xbdbbafe8	-0.09164411
74	0x3df6dd28	0.12053901
75	0x3deb9346	0.115026996
76	0xbda7c614	-0.08192077
77	0xbd4d7404	-0.05015947
78	0xbd4c4bac	-0.049876854
79	0xbdd28b80	-0.10280514
80	0xbda78e5b	-0.08181449
81	0xbd8437e0	-0.0645597
82	0x3ddc7e4e	0.10766278
83	0xbe0304a2	-0.12794736
84	0xbdabce84	-0.08388999
85	0xbd6a1d04	-0.057156578
86	0x3dc57e08	0.09643179
87	0x3c504ff0	0.012714371
88	0x3de059ca	0.10954626
89	0xbdc2b0da	-0.09506388
90	0x3d8dd3ee	0.06925188
91	0xbdc48dea	-0.095973805
92	0xbcb21b70	-0.021741599
93	0x3dea6cf6	0.11446564
94	0x3da9f10e	0.08297931
95	0x3df4f97a	0.119616464
96	0xbd30d382	-0.04317046
97	0xbdc9c0b8	-0.09851211
98	0xbde653e9	-0.11246473
99	0x3d845324	0.0646117
100	0x3c837448	0.016046658
101	0x3d3df0d8	0.046372265
102	0x3d0d9194	0.034562662
103	0x3ddff4b2	0.10935344
104	0x3df35052	0.11880554
105	0xbd1bf05c	-0.03807102
106	0xbdae4369	-0.08508951
107	0xbdbfa108	-0.09356886
108	0x3df92b96	0.121665165
109	0x3d434b2c	0.04767911
110	0x3d2ac830	0.04169482
111	0xbce6dc50	-0.028181225
112	0x3dc27cba	0.09496446
113	0xbb4e3ac0	-0.0031468123
114	0xbad46300	-0.0016203821
115	0xbdeb99fa	-0.11503978
116	0xbb4f6580	-0.0031646192
117	0xbd8ef829	-0.069809265
118	0xbcaad660	-0.020854175
119	0x3d0a2adc	0.03373228
120	0xbb7d6e80	-0.00386706
121	0xbe03d7e4	-0.12875324
122	0x3db104fe	0.0864353
123	0xbdc7d328	-0.09757072
124	0x3d649128	0.055802494
125	0xbd020bbe	-0.03174948
126	0xbd8258c9	-0.06364591
127	0xbd9066f0	-0.07050884
128	0xbb501440	-0.0031750351
129	0xbd9f70b2	-0.07785167
130	0xbd2baa32	-0.041910358
131	0x3cbb0488	0.02282931
132	0xbdfa2a8e	-0.12215148
133	0xbd03fe02	-0.032224663
134	0x3d7f982c	0.06240098
135	0x3db38274	0.08765116
136	0x3dbadc38	0.09124035
137	0x3d3902d8	0.045168728
138	0xbd93c104	-0.07214549
139	0x3df4a062	0.11944653
140	0xbde23655	-0.11045519
141	0x3c156950	0.009119347
142	0x3d936d5a	0.071985915
143	0xbd783b38	-0.06060335
144	0xbcd2b5e0	-0.02572149
145	0xbdbc6417	-0.09198778
146	0x3d9c06d4	0.0761849
147	0x3e024219	0.12720527
148	0x3c8faa30	0.017537206
149	0xbd8d11f0	-0.06888187
150	0x3dfeefc6	0.12448077
151	0xbde3646a	-0.11103137
152	0x3da89ba0	0.08232808
153	0xbcb4937c	-0.022042982
154	0x3e012f29	0.12615646
155	0xbdb976a3	-0.09055831
156	0xbdde7aa0	-0.108632326
157	0x3d3f0510	0.046635687
158	0xbd364682	-0.044500835
159	0xbd771308	-0.060320884
160	0xbd5de16a	-0.05417005
161	0xbd96e494	-0.073678166
162	0xbde4ca0e	-0.111713514
163	0xbce549f0	-0.027989358
164	0x3da81e5e	0.08208917
165	0x3df12d08	0.11776167
166	0x3dd10f2e	0.102079734
167	0xbdea56d5	-0.11442343
168	0xbda8e8f8	-0.0824756
169	0x3c8e5790	0.017375737
170	0x3d7c1254	0.061540917
171	0xbd402290	-0.04690796
172	0xbca6782c	-0.020320974
173	0x3cf3fc88	0.029783502
174	0xbce20614	-0.027590789
175	0xbd2e3ad8	-0.042536587
176	0x3d897d34	0.06713334
177	0xbdb60f71	-0.08889664
178	0xbda1ca42	-0.07899906
179	0xbd7b7614	-0.061391905
180	0x3c863da0	0.016386807
181	0x3c859e00	0.016310692
182	0x3d945aa4	0.07243851
183	0x3e030e79	0.1279849
184	0xbcc6d27c	-0.024270289
185	0x3dfdb802	0.12388612
186	0xbde88302	-0.11353113
187	0xbd517de0	-0.051145434
188	0x3d045590	0.03230816
189	0x3cbba008	0.022903457
190	0x3daf7268	0.08566743
191	0x3dec4d22	0.115381494
192	0x3dc1415e	0.09436296
193	0x3baab7e0	0.005209908
194	0x3c2162e0	0.009850234
195	0x3d1adc08	0.037807494
196	0xbc38c818	-0.011278175
197	0x3e033067	0.12811433
198	0xbd868eab	-0.065701805
199	0x3d350058	0.04418978
200	0x3d86e832	0.065872565
201	0x3dfa5c8e	0.12224685
202	0xbd0f9af0	-0.03505987
203	0x3d71bc5c	0.059017524
204	0x3c230cf0	0.009951815
205	0x3d70884c	0.058723733
206	0x3dafe06c	0.08587727
207	0xbdac7fcc	-0.08422813
208	0xbcfafea0	-0.030638993
209	0xbd7df124	-0.061997548
210	0xbd578f1a	-0.052626707
211	0x3ce57070	0.028007716
212	0x3b1b1ac0	0.0023667067
213	0xbdfbed98	-0.12301177
214	0xbdba9d69	-0.09112055
215	0x3c583880	0.013197064
216	0x3df6f7bc	0.1205897
217	0xbc2214c0	-0.0098926425
218	0x3dfbcb96	0.1229469
219	0x3df24048	0.11828667
220	0xbd4f9a0c	-0.05068402
221	0xbdf8d194	-0.12149349
222	0x3d1ff28c	0.03904967
223	0xbc4f57e0	-0.012655228
224	0xbd364794	-0.044501856
225	0xbce7c564	-0.028292365
226	0x3d97fa0c	0.074207395
227	0xbd9eb525	-0.07749394
228	0xbda68cda	-0.08132334
229	0xbdbc1d8a	-0.09185322
230	0x3d62a3bc	0.05533193
231	0x3d9f215c	0.07770035
232	0x3d859808	0.06523138
233	0xbd5aa0a8	-0.05337587
234	0x3d731394	0.059344843
235	0xbd9f4994	-0.07777706
236	0xbdce3130	-0.100679755
237	0xbdf19ebd	-0.11797855
238	0x3db5041c	0.088386744
239	0xbda9f5e2	-0.082988515
240	0x3cabafa8	0.020957783
241	0x3db06a26	0.08613996
242	0x3dc78bee	0.09743486
243	0xbc86668c	-0.01640632
244	0xbcaf5f64	-0.02140779
245	0x3d8c3268	0.06845552
246	0x3b81d800	0.003962517
247	0xbda8ef52	-0.08248772
248	0xbd37feba	-0.04492066
249	0x3b124200	0.002231717
250	0xbd790818	-0.060798734
251	0xbd8fda47	-0.07024055
252	0xbdb5e84e	-0.08882199
253	0xbda9ca25	-0.08290509
254	0xbe015f32	-0.1263397
255	0xbcfa5a28	-0.030560568

bias f4 [128]
0	0xbdce4d23	-0.100733064
1	0x3db8f00c	0.0903016
2	0xbd294e3c	-0.041334376
3	0x3cae0448	0.021242276
4	0x3dd36d8c	0.10323629
5	0x3d94df58	0.07269162
6	0xbbf51b60	-0.00748007
7	0x3be89460	0.007097766
8	0x3d63d9e8	0.055627733
9	0xbdaa8abc	-0.08327243
10	0xbdef2aec	-0.116781086
11	0x3da24642	0.07923557
12	0x3cfaa688	0.030596986
13	0xbe029c68	-0.12754977
14	0xbdbd0888	-0.09230143
15	0xbc1d4c10	-0.009600654
16	0x3db2f86e	0.087387905
17	0xbdaf83b4	-0.08570042
18	0xbd47e5ae	-0.048803024
19	0xbca86288	-0.020554796
20	0x3dc8b650	0.09800398
21	0x3e019eb7	0.12658201
22	0x3c8b9ef0	0.01704356
23	0xbe01a4a0	-0.12660456
24	0xbcd34f60	-0.025794685
25	0xbdf9d0e1	-0.121980436
26	0x3d9f7dce	0.07787667
27	0xbe019ca0	-0.12657404
28	0x3d159850	0.03652221
29	0xbced2da0	-0.02895242
30	0xbcb719a8	-0.022351101
31	0x3b189680	0.0023283064
32	0xbde309fd	-0.110858895
33	0x3b158780	0.002281636
34	0x3cb8db68	0.022565559
35	0xbd05a0ea	-0.032624163
36	0xbdc15081	-0.09439183
37	0xbb806f40	-0.003919512
38	0x3d82933a	0.063757375
39	0xbc034d60	-0.008014053
40	0x3c98d4c8	0.01865615
41	0xbca4227c	-0.020035975
42	0x3ada9d00	0.001667887
43	0x3dbbcda0	0.09170079
44	0x3cca8ff0	0.024726838
45	0x3d11bfe4	0.03558339
46	0xbdd85c26	-0.10564451
47	0x3d83d9e4	0.06438044
48	0x3d4a1174	0.04933305
49	0xbd8c2b79	-0.06844229
50	0x3cd1a010	0.025589019
51	0x3db58126	0.08862524
52	0x3d9f3dd2	0.07775463
53	0x3d97d0f0	0.074128985
54	0xbe0250c8	-0.12726128
55	0xbd9d6b58	-0.0768649
56	0xbc0a9d60	-0.008460373
57	0xbd4d29b8	-0.050088614
58	0xbcc6e780	-0.02428031
59	0x3d9d73ba	0.07688089
60	0xbca66084	-0.020309694
61	0xbc3e9418	-0.011631988
62	0xbdb703a8	-0.08936244
63	0x3dd6ffde	0.104980215
64	0xbce39708	-0.027781978
65	0xbdcb3b5a	-0.0992343
66	0x3cb08258	0.021546528
67	0xbd75c0ca	-0.05999831
68	0xbdaad526	-0.08341436
69	0x3dff29be	0.124591336
70	0xbde6f790	-0.112776875
71	0x3dd95686	0.10612206
72	0xbdc3d2d7	-0.09561699
73	0x3e029051	0.12750365
74	0x3d838d9a	0.06423493
75	0x3be67360	0.0070327967
76	0xbd935e9a	-0.07195778
77	0xbd5d1b70	-0.053981245
78	0xbdfa84bb	-0.122323476
79	0xbd742418	-0.059604734
80	0xbddba9e1	-0.10725761
81	0x3da816c6	0.08207469
82	0xbdfc4fa1	-0.123198755
83	0x39926400	0.00027921796
84	0x3dbbb31a	0.0916502
85	0xbdfcae89	-0.123379774
86	0x3dd5cc9a	0.10439415
87	0x3d1d250c	0.03836541
88	0xbdfdaff4	-0.12387076
89	0x3d8b1496	0.06791036
90	0xba987880	-0.0011632591
91	0x3cbf1b90	0.023328573
92	0x3d4ed6f8	0.05049798
93	0x3d80790e	0.06273089
94	0xbdc40ca4	-0.095727235
95	0x3dd5c3aa	0.104377106
96	0x3de4abaa	0.11165555
97	0xbdb0a8ff	-0.086259834
98	0xbd462a7c	-0.04838036
99	0x3d43f86c	0.047844335
100	0xbd139b6c	-0.036036894
101	0x3d6eb190	0.058274806
102	0x3cc11c68	0.023573115
103	0xbd1943e8	-0.037418276
104	0xbd527b38	-0.05138704
105	0x3de791d6	0.11307113
106	0x3d62b930	0.05535239
107	0xbd4d63f6	-0.05014416
108	0x3db6c9ac	0.089251846
109	0xbdbba46d	-0.09162221
110	0x3d9c7c14	0.076408535
111	0x3df2d0b8	0.11856216
112	0xbceb2d78	-0.028708205
113	0x3dc5f612	0.09666075
114	0xbbc17160	-0.005903408
115	0xbdd79eae	-0.105283126
116	0x3d759594	0.059957102
117	0xbdce79ee	-0.1008185
118	0xbd0c593a	-0.03426478
119	0x3d4d9644	0.050192133
120	0xbdaf441e	-0.08557914
121	0x3c19d540	0.009389222
122	0xbcc82ff4	-0.024436928
123	0xbdbaf614	-0.09128967
124	0xbd1a219e	-0.037629716
125	0xbc8ac8e0	-0.016941488
126	0xbd9d4f5a	-0.07681151
127	0x3d94c540	0.07264185

weight f4 [64, 128]
0	0xbc710fad	-0.01471321
1	0x3cd42fea	0.025901753
2	0xbd1fac29	-0.038982544
3	0xbd7140dd	-0.05889975
4	0xbd7f8a6a	-0.06238786
5	0x3c1f9988	0.009741195
6	0x3c38735c	0.011257973
7	0x3d76fbb0	0.06029862
8	0x3dc1ed4f	0.09469091
9	0xbd8e220f	-0.0694009
10	0xbd8e62f9	-0.06952471
11	0xbd0b6d00	-0.034039497
12	0x3d60aed9	0.054854248
13	0x3c94dc8b	0.01817157
14	0x3daa6252	0.08319534
15	0xbd8a0243	-0.06738713
16	0x3b3869df	0.0028139276
17	0x3d21cc65	0.039501566
18	0xbb8c8d75	-0.004289324
19	0xbda15ce5	-0.07879046
20	0xbd5f6e8a	-0.054548778
21	0xb9bab473	-0.0003561113
22	0xbd2b29b6	-0.041787826
23	0xbd0cf3f9	-0.034412358
24	0x3d0fab56	0.035075508
25	0x3dc9d618	0.09855288
26	0x3c9363de	0.017991956
27	0x3c9d29da	0.019184995
28	0x3d00278f	0.031287726
29	0x3d1dac27	0.038494255
30	0xbcf50518	-0.029909655
31	0x3dbc8791	0.09205545
32	0xbd177ae9	-0.03698245
33	0xbcf8da22	-0.030377451
34	0xbd9b89f5	-0.075946726
35	0x3cee965f	0.029124437
36	0xbd9758c0	-0.073899746
37	0xbc7c377a	-0.015394086
38	0x3d8c2e82	0.06844808
39	0x3db98006	0.09057622
40	0x3d32557d	0.04353856
41	0x3c0c5c19	0.00856688
42	0xbd211ce5	-0.039334197
43	0xbd9cc80a	-0.07655342
44	0xbdb1ee44	-0.08688024
45	0x3cafc06d	0.02145406
46	0x3cc3b914	0.023891963
47	0x3c9f52df	0.019448696
48	0xbcb331f4	-0.021874405
49	0xbd055dec	-0.032560274
50	0x3d318b8e	0.04334598
51	0x3d1b0349	0.03784493
52	0xbd1b500a	-0.037918128
53	0x3d91d6e7	0.071210675
54	0x3cd0bc8a	0.025480527
55	0xbd718e2e	-0.058973484
56	0xbd8a7798	-0.06761092
57	0x3dae95b6	0.08524649
58	0xbd6c7633	-0.05772991
59	0xbc608667	-0.013703919
60	0x3d021f9a	0.03176842
61	0xbd166c63	-0.03672446
62	0x3d9e1dd8	0.07720536
63	0x3d88e1b1	0.06683672
64	0xbc5cc6a8	-0.013475098
65	0x3d2a572d	0.041587044
66	0xbd2d37de	-0.042289607
67	0xbd964660	-0.07337642
68	0xbd44865b	-0.047979694
69	0x3d90c36c	0.07068524
70	0x3b9fc612	0.0048759067
71	0xbb783871	-0.0037875439
72	0xbbda552f	-0.0066629867
73	0x3b9080a4	0.0044098664
74	0x3d8ac080	0.06774998
75	0x3ca7ed96	0.020499032
76	0xbc6c3830	-0.014417693
77	0x3d1fbabe	0.03899645
78	0xbc61b885	-0.013776903
79	0x3d8fd342	0.07022716
80	0x3d3df472	0.0463757
81	0x3d6e0a48	0.058115274
82	0x3d915229	0.07095749
83	0x3d8aa8aa	0.06770451
84	0xbd66c575	-0.056340653
85	0xbd352852	-0.044227906
86	0x3db800e8	0.08984548
87	0x3d7d0c28	0.06177917
88	0xbd83e31e	-0.064398035
89	0x3d5037e2	0.050834544
90	0xbd85e31d	-0.06537459
91	0xbd8c5452	-0.0685202
92	0xbd23bacd	-0.03997307
93	0xbcc1efa1	-0.023673834
94	0xbd58efb5	-0.052962977
95	0xbd807d92	-0.06273951
96	0x3b8d191f	0.004305973
97	0x3c9bc83a	0.019016374
98	0x3d99eaee	0.075155124
99	0x3dac9e8e	0.084286794
100	0x3d2670c5	0.04063489
101	0xbd67f55a	-0.05663047
102	0x3dc9bd27	0.09850531
103	0x3dc70e23	0.09719493
104	0x3dc48557	0.09595745
105	0x3c7c62b9	0.015404397
106	0x3da11eb0	0.07867181
107	0xbd821a17	-0.063526325
108	0x3d2cb8e7	0.042168524
109	0x3d5a4841	0.053291563
110	0xbd0ac4be	-0.033879034
111	0x3ce8c11e	0.028412398
112	0x3dc2dfab	0.095153175
113	0xbd2ef35e	-0.04271256
114	0x3becba42	0.007224352
115	0xbcb4f5ac	-0.022089802
116	0x3c3c4db8	0.011493139
117	0x3daae938	0.08345264
118	0xbd982ed7	-0.07430809
119	0xbd93ebfe	-0.07222746
120	0x3da76b28	0.08174735
121	0xbcb57915	-0.022152463
122	0x3b5ff271	0.0034171606
123	0x3c860c1a	0.016363192
124	0xbd0921d6	-0.033479534
125	0xbd9285f0	-0.07154453
126	0x3cb52fce	0.022117522
127	0xbcbac908	-0.022800937
128	0xbd6cf770	-0.057853162
129	0xbd46f5bd	-0.048574198
130	0x3da99c69	0.08281786
131	0xbcb550c7	-0.022133244
132	0x3d22b687	0.039724853
133	0x3db12634	0.08649865
134	0xbc8cb3aa	-0.017175514
135	0x3d89a9a3	0.06721809
136	0xbb32a17f	-0.0027256904
137	0xb98faacd	-0.00027402342
138	0x3c9993da	0.018747259
139	0xbd344610	-0.04401213
140	0xbd6b402c	-0.057434246
141	0x3d809f6f	0.062804095
142	0x3dba7430	0.09104192
143	0xbd9eb23c	-0.07748839
144	0x3d976d13	0.07393851
145	0x3dbac423	0.09119441
146	0xbd037ffd	-0.03210448
147	0x3ca9fc4a	0.020750184
148	0x3ca6f6e8	0.020381406
149	0xbbf62827	-0.0075121108
150	0x3d0a2258	0.03372416
151	0xbda96ac5	-0.08272318
152	0x3d95cdc4	0.07314637
153	0xbc27f9be	-0.010252414
154	0xbd89f149	-0.067354746
155	0xbda3b605	-0.07993702
156	0xbca1d035	-0.019752601
157	0x3b5d1ed4	0.0033740299
158	0xbda4a4f2	-0.08039273
159	0xbaf4ab43	-0.0018666763
160	0xbc0a52c1	-0.008442582
161	0xbd59bc53	-0.053158116
162	0xbd750fc1	-0.059829477
163	0x3db750df	0.08950972
164	0xbd2c997a	-0.042138554
165	0x3c1d51ba	0.009602005
166	0xbc9b6b07	-0.018971933
167	0xbda8e2c5	-0.08246378
168	0xbca7afc2	-0.02046955
169	0x3c41082f	0.011781736
170	0xbb9727f3	-0.0046129166
171	0x3daeeef7	0.08541673
172	0xbc6350f8	-0.013874285
173	0xbd041104	-0.03224279
174	0x3db0c5ec	0.086315006
175	0xba67bb83	-0.0008839892
176	0xbc8b148b	-0.01697757
177	0x3d4a621f	0.04940998
178	0x3d6f497b	0.058419686
179	0x3cf29a7e	0.029614683
180	0x3bd6a10a	0.006549959
181	0xbca5c5d0	-0.020235926
182	0x3cce008e	0.025146749
183	0x3b5ea751	0.003397424
184	0x3cde635a	0.027146984
185	0xbd2e13a8	-0.042499214
186	0x3bc5ee4c	0.00604037
187	0xbd9bddb2	-0.076106444
188	0xbd6da96d	-0.058022905
189	0xbc2ae193	-0.010429758
190	0x3d908c39	0.07057995
191	0xbcb66401	-0.022264482
192	0xbd304253	-0.043032
193	0xbd5b21a4	-0.05349888
194	0xbd90e95a	-0.07075758
195	0x39a2b746	0.00031035597
196	0x3db4294b	0.087969385
197	0xbc31d0c2	-0.010852994
198	0xbcc442c4	-0.023957618
199	0x3cd46d2f	0.025930969
200	0xbd075fc1	-0.033050302
201	0xbd8291ae	-0.063754424
202	0x3d72597d	0.059167374
203	0xbd8023c6	-0.06256823
204	0xbba1013b	-0.0049134768
205	0xbda34bf8	-0.07973474
206	0xbd85e758	-0.06538266
207	0xbbde4266	-0.0067828177
208	0xbd32a6a3	-0.04361595
209	0xbc29b57f	-0.010358213
210	0x3d317acf	0.04333001
211	0xbd71bb6c	-0.05901663
212	0xbd341c13	-0.043972086
213	0xbd88e276	-0.06683819
214	0xbda7377c	-0.0816488
215	0x3dacef31	0.0844406
216	0x3db3ef23	0.08785846
217	0xbcb61ccf	-0.022230534
218	0xbd8c7149	-0.06857545
219	0x3d2d97af	0.042380985
220	0xbd8be052	-0.06829895
221	0x3d7fe680	0.06247568
222	0x3c3e261e	0.0116057675
223	0xbd6012f4	-0.054705575
224	0xbd9bbdf1	-0.07604588
225	0xbbcffc4d	-0.0063472153
226	0xbd1af574	-0.03783174
227	0x3d8c2fec	0.06845078
228	0xbccc1400	-0.02491188
229	0x3d514817	0.05109414
230	0x3b05db22	0.0020424803
231	0xbd8b7a3d	-0.068104245
232	0x3d381af1	0.04494757
233	0x3d7d88f1	0.061898176
234	0x3c8c1421	0.017099442
235	0xbd74de66	-0.05978241
236	0xbd0b56c9	-0.03401831
237	0x3d784595	0.060613234
238	0x3c762669	0.015023806
239	0xbd7e8809	-0.062141452
240	0x3d74ec9b	0.059795957
241	0x3d67b422	0.056568272
242	0x3d788bae	0.060680084
243	0xbd67441b	-0.056461435
244	0x3c725c6a	0.014792541
245	0x3da33c14	0.07970443
246	0xba5eb9b6	-0.0008496301
247	0x3d5b3e94	0.053526476
248	0x3d7d98d4	0.061913326
249	0x3d10912f	0.035294708
250	0xbd872ed1	-0.066007264
251	0xbd923fe7	-0.07141095
252	0xbd0a9526	-0.033833645
253	0x3d4db56c	0.050221846
254	0x3d9d3d86	0.0767775
255	0xbd0b123c	-0.033952937

bias f4 [64]
0	0x3d60d797	0.054893102
1	0x3dae6630	0.085155845
2	0xbd79673e	-0.060889475
3	0x3c92b226	0.017907213
4	0x3d85cb01	0.065328605
5	0xbcc69b14	-0.024243869
6	0x3d36afff	0.044601437
7	0xbd7d3dde	-0.06182658
8	0x3cf8c44f	0.030367045
9	0x3da18461	0.078865774
10	0xbd8043df	-0.062629454
11	0x3dbdee2f	0.092739455
12	0xbcbe8e7d	-0.023261303
13	0x3b8fdc55	0.0043902793
14	0xbd5d617a	-0.05404804
15	0xbcb69ee7	-0.022292567
16	0x3d7f8b0f	0.062388476
17	0x3d9a3de3	0.07531335
18	0xbd9cb79d	-0.07652209
19	0x3db9f536	0.090799734
20	0xbcda2f97	-0.02663402
21	0x3b896436	0.0041928543
22	0xbda264ad	-0.07929359
23	0x3dc6a831	0.09700049
24	0xbd326321	-0.043551568
25	0xbc6c64a1	-0.014428289
26	0xbcd98f77	-0.026557667
27	0x3aa974a9	0.0012928444
28	0xbd91f1f9	-0.07126231
29	0xbd1eb88a	-0.03875021
30	0xbd076fb5	-0.033065517
31	0x3d76c0f2	0.0602426
32	0x3d152606	0.036413215
33	0x3dbdb4a8	0.09262973
34	0xbd032ed0	-0.032027066
35	0xbd91efab	-0.07125791
36	0xbd84b455	-0.06479708
37	0xbd8635f4	-0.065532595
38	0xbd5efdca	-0.05444125
39	0xbd289ec8	-0.04116705
40	0xbd639b94	-0.055568293
41	0x3d1fa2a9	0.038973484
42	0x3cb62fe6	0.022239637
43	0xbda34cbe	-0.07973622
44	0x3c83c1c2	0.016083602
45	0xbd3cdeed	-0.046111036
46	0x3bbfdb58	0.0058550052
47	0x3dc29201	0.09500504
48	0xbd589103	-0.05287267
49	0xbcefa8f9	-0.029255377
50	0x3c9b80d3	0.018982327
51	0x3d1e751b	0.0386859
52	0xbda675ff	-0.08127975
53	0xbbe77b4a	-0.0070642577
54	0xbc06b78e	-0.008222474
55	0xbb78e8b9	-0.003798051
56	0x395bdc58	0.00020967552
57	0xbd2a6c64	-0.041607276
58	0xbc95f01c	-0.01830297
59	0xbd1c3509	-0.038136516
60	0xbd8ce37e	-0.06879328
61	0xbd9b81ea	-0.075931385
62	0x3c950d6b	0.018194875
63	0x3d879b44	0.066214114

weight f4 [10, 64]
0	0xbe26ed23	-0.16301398
1	0xbe23c528	-0.15993178
2	0xbdf68e4c	-0.1203886
3	0x3ab3160f	0.001366319
4	0xbe28cf97	-0.16485439
5	0xbdaf371b	-0.085554324
6	0xbdc8c848	-0.098038256
7	0xbd9bfa3a	-0.07616086
8	0xbdd1fb36	-0.10252993
9	0xbde2c0e9	-0.11071951
10	0x3c177ade	0.009245602
11	0xbe2bd339	-0.16779794
12	0xbe0ebd20	-0.13939333
13	0x3b857cfc	0.004073737
14	0xbd988070	-0.074463725
15	0xbd9a6aa4	-0.07539871
16	0xbd2b22f5	-0.041781384
17	0xbcf7d2cf	-0.030251889
18	0x3d9b0f46	0.075712726
19	0xbe3565db	-0.17714636
20	0xbdc47de1	-0.09594322
21	0xbe29819a	-0.16553345
22	0xbdb70c64	-0.0893791
23	0xbbdb3150	-0.006689228
24	0xbad09bb8	-0.0015915548
25	0xbdaf325d	-0.08554528
26	0xbc79f86a	-0.01525698
27	0xbe1e6cbc	-0.15471166
28	0x3cf5fac6	0.030026805
29	0x3d038492	0.03210885
30	0xbe0f154d	-0.1397297
31	0x3d564c09	0.052318607
32	0x3ce841bd	0.028351659
33	0x3c2c7775	0.010526528
34	0xbd40878d	-0.04700427
35	0x3b8241c3	0.0039751246
36	0xbd90291a	-0.070390895
37	0x3cc031aa	0.023461182
38	0x3d0f9dbb	0.035062533
39	0xbe0a7f28	-0.13525069
40	0x3d83e112	0.06439413
41	0x3d83d95d	0.06437943
42	0x3d57346f	0.05254024
43	0xbd32e23e	-0.043672793
44	0xbd104fc4	-0.03523232
45	0xbe2377b4	-0.15963632
46	0xbdf71483	-0.12064459
47	0xbe2c9dd6	-0.16857085
48	0xbc891312	-0.016732726
49	0xbe395340	-0.18098164
50	0xbd791fe7	-0.06082144
51	0xbd979889	-0.07402141
52	0xbb8028f8	-0.003911134
53	0xbe117175	-0.14203437
54	0xbd696b0e	-0.05698686
55	0x3d6dce61	0.058058146
56	0xbdd18cd7	-0.10231941
57	0xbe448f6c	-0.19195336
58	0x3d57ff3b	0.05273364
59	0xbe089a05	-0.13340004
60	0xbd8b32d0	-0.06796801
61	0xbe375ee1	-0.17907287
62	0xbdd1d586	-0.102458045
63	0x3d3deaf1	0.046366636
64	0xbdedf8bb	-0.11619707
65	0xbe119f5e	-0.1422095
66	0xbdfece13	-0.12441649
67	0xbca9654d	-0.020678187
68	0xbe124874	-0.14285451
69	0x3b32e17b	0.0027295041
70	0xbe0056c4	-0.12533098
71	0xbe058600	-0.13039398
72	0xbc561051	-0.013065414
73	0x3d429c42	0.0475123
74	0xbd99e3dc	-0.07514164
75	0xbd910591	-0.0708114
76	0xbd9908df	-0.07472395
77	0xbe11aafd	-0.14225383
78	0xbca2c091	-0.019867213
79	0xbd6f2db2	-0.058393188
80	0xbd197eb4	-0.03747435
81	0xbd73776b	-0.059440058
82	0x3da8a361	0.08234287
83	0xbce22b8a	-0.027608652
84	0x3d237960	0.039910674
85	0xbcc4a76c	-0.024005614
86	0xbbab625b	-0.0052302307
87	0xbdf80b06	-0.121114776
88	0xbe35e63a	-0.17763606
89	0xbdea3fb4	-0.11437932
90	0xbddfb19a	-0.10922547
91	0xbcf3c487	-0.029756797
92	0xbde4e9d9	-0.111774154
93	0xbd92c402	-0.07166292
94	0xbc0bc1f9	-0.008530133
95	0x3d3bd229	0.04585472
96	0xbda47197	-0.08029478
97	0xbd849448	-0.06473595
98	0xbe169a6a	-0.14707342
99	0xbb863a41	-0.0040963
100	0xbd88e22e	-0.06683765
101	0xbe186a9a	-0.14884415
102	0xbddee8e6	-0.108842656
103	0xbda8f570	-0.082499385
104	0xbc76f1d2	-0.015072303
105	0xbe2e662c	-0.17031163
106	0xbc4b60e9	-0.012413242
107	0xbc999b31	-0.018750759
108	0x3cdd2aaa	0.026997883
109	0x3c615906	0.013754135
110	0xbdc01998	-0.093798816
111	0xbdaae63a	-0.083446935
112	0xbd0b3fc6	-0.033996366
113	0xbe36729e	-0.1781716
114	0xbd8a8eca	-0.06765516
115	0xbe239eba	-0.15978518
116	0xbcb0a08a	-0.021560926
117	0xbd7c6556	-0.06162008
118	0x3cfada6a	0.030621726
119	0x3d73ed1b	0.059552293
120	0xbdefe88a	-0.11714275
121	0xbd9a637c	-0.075385064
122	0xbad2e788	-0.001609073
123	0xbd16dbb5	-0.036830623
124	0xbd806d8d	-0.06270895
125	0xbde696ce	-0.112592325
126	0x3d5e36c3	0.054251444
127	0xbdbe2549	-0.09284455
128	0xbe107539	-0.14107217
129	0xbdff753b	-0.12473532
130	0xbd2ea623	-0.04263891
131	0x3d46bfcc	0.048522756
132	0xbe23dfca	-0.16003338
133	0xbdfbb7dc	-0.12290928
134	0xbd5019aa	-0.050805725
135	0xbd93dcba	-0.072198346
136	0x3d9d39de	0.07677053
137	0x3c9b86b6	0.018985134
138	0xbdd7895b	-0.10524245
139	0xbd07dda9	-0.033170376
140	0x3cde166b	0.0271103
141	0xbdbe88fa	-0.0930347
142	0xbde44805	-0.11146549
143	0xbdc200e4	-0.09472826
144	0xbdd8809a	-0.10571404
145	0x3c8a18b4	0.016857482
146	0xba17ff78	-0.00057982607
147	0xbdffc630	-0.12488973
148	0xbd994bed	-0.07485185
149	0xbe1dcf7a	-0.15411177
150	0xbe0681df	-0.1313548
151	0xbc8e3b6b	-0.017362317
152	0xbdfb8766	-0.122816846
153	0x3d7f80f3	0.062378835
154	0x3d80ab56	0.0628268
155	0xbe1457db	-0.14486639
156	0xbbbcacd3	-0.005757907
157	0x3d101988	0.0351806
158	0xbdb7c107	-0.08972364
159	0xbe02ca4e	-0.12772486
160	0xbe30bcf9	-0.17259587
161	0xbdef0a7a	-0.1167192
162	0xbe34fc53	-0.17674379
163	0xbd7b9452	-0.061420746
164	0xbc0ebd74	-0.008712161
165	0xbe1dcedd	-0.15410943
166	0xbdef4ef6	-0.116849825
167	0xbe1d7907	-0.153782
168	0xbe0f8e45	-0.14019115
169	0xbe0164c4	-0.12636095
170	0x39a3e355	0.00031259158
171	0x3d2164d9	0.039402816
172	0xbddd2329	-0.10797722
173	0x3c64bb08	0.013960607
174	0xbe0e79fc	-0.13913721
175	0xbe0e804e	-0.13916132
176	0xbe24cc27	-0.16093503
177	0x3cb6eb90	0.022329122
178	0xbe1288fd	-0.1431007
179	0x3d65dcec	0.05611889
180	0xbdab514e	-0.08365117
181	0x3c20c8ba	0.009813482
182	0x3a0589d8	0.00050940877
183	0xbd3013cf	-0.04298764
184	0xbd61551d	-0.05501281
185	0x3bae0465	0.0053105825
186	0x3bfa49f6	0.0076382114
187	0xbdcd56a6	-0.100262925
188	0xbd111999	-0.035424802
189	0x3cf7d6e4	0.030253835
190	0xbb878ebd	-0.004136889
191	0xb9d77c61	-0.00041100665
192	0x3d148fb6	0.036269866
193	0x3bac92b2	0.005266511
194	0xbd237c61	-0.03991354
195	0xbd78f7b6	-0.06078311
196	0xbe13b37d	-0.14423938
197	0xbd276d45	-0.040875692
198	0x3d202a2a	0.03910271
199	0x3d2bbce6	0.041928194
200	0xbdbc9767	-0.09208565
201	0xbe02f873	-0.12790088
202	0x3cba2798	0.022723958
203	0xbe1421f3	-0.14466076
204	0xbd9da1eb	-0.07696899
205	0xbe4a0399	-0.19727935
206	0x3d153cbc	0.036434874
207	0x3d1bbcdd	0.03802191
208	0xbce87f24	-0.028380938
209	0xbda5c1ce	-0.08093606
210	0xbdfc33f1	-0.123145945
211	0xbe4e51c5	-0.2014838
212	0x3d726c38	0.059185237
213	0xbd38afc1	-0.045089487
214	0xbe08577a	-0.1331462
215	0x3ca6b862	0.020351592
216	0xbdb92acc	-0.09041366
217	0x3d512fd1	0.051070992
218	0x3ba657f1	0.0050764014
219	0xbcc5a694	-0.024127282
220	0x3bfbb6b8	0.007681694
221	0x3d4a2f90	0.049361765
222	0x3b229d5a	0.0024813027
223	0x3d56797e	0.052361958
224	0xbcf7b363	-0.030236905
225	0xbdab9710	-0.08378422
226	0xbd92f236	-0.07175104
227	0xbd5faf88	-0.05461076
228	0xbcf39937	-0.029736144
229	0xbc95c204	-0.01828099
230	0xbe3cac69	-0.18425144
231	0xbd9eeb76	-0.07759754
232	0xbce19493	-0.027536666
233	0x3c3fdf93	0.011711019
234	0xbe2e57f7	-0.17025743
235	0xbdc9f436	-0.09861033
236	0xbe325433	-0.17414932
237	0xbcb0d848	-0.021587506
238	0x3d00fd98	0.031491846
239	0x3cf3e147	0.029770507
240	0xbce82e53	-0.028342402
241	0x3bc2dde2	0.0059468606
242	0xbd91d894	-0.07121387
243	0x3ca43281	0.020043613
244	0x3d6838c7	0.056694772
245	0xbc6e0e6a	-0.014529804
246	0x3a839243	0.0010038096
247	0x3c966c9e	0.01836234
248	0x3cb3fcc4	0.021971114
249	0xbe2121bb	-0.15735523
250	0xbd22a71d	-0.039710153
251	0x3d5022bf	0.050814386
252	0xbdbdd435	-0.09268991
253	0x3d6142b4	0.054995254
254	0xbdca4107	-0.09875684
255	0xbe1cc3db	-0.15309088

bias f4 [10]
0	0xbc4558d7	-0.012045107
1	0xbdebaeb4	-0.11507931
2	0xbd694c36	-0.056957446
3	0xba2bb7c7	-0.0006550517
4	0x3e3f2321	0.18665744
5	0x3e3a1392	0.18171528
6	0xbdeaec27	-0.11470824
7	0x3ba98870	0.0051737353
8	0xbd72e0ed	-0.059296537
9	0xbe2fff39	-0.17187203
