stock_forecast1.pth (torch, 69207 bytes, 6 tensors)

weight f4 [128, 60]
-0.1204154 -0.036293045 -0.09014026 -0.06409384 -0.074548766 -0.07529878 -0.05426587 0.095178366
-0.07164217 -0.00046655536 -0.056451768 -0.086326376 -0.095366485 0.12816967 -0.013292894 0.09403439
-0.04309459 -0.12457726 0.1079402 0.031834424 -0.017741501 -0.09317723 -0.11784767 0.076340795
-0.051257566 0.048449248 -0.07809353 0.07761142 -0.01811181 -0.018525459 0.0770113 -0.056157604
-0.013491347 -0.00085526705 -0.032078736 -0.03901691 -0.116735175 -0.07157309 -0.060567662 0.06647898
0.11541371 0.011717394 0.10270171 0.09534031 0.111778095 -0.013376072 -0.013144918 0.10120426
-0.124767095 -0.05693344 0.02438739 0.07732089 -0.05142141 -0.12766731 -0.10012692 -0.0030983686
0.022974044 0.10519445 0.07498042 0.08820456 -0.042866834 0.044896603 -0.030857548 0.018477574
-0.12610081 -0.02484075 0.03766726 -0.096379586 -0.11524322 0.036271363 0.068508714 0.012177095
-0.035886675 -0.0093116015 0.031241268 -0.04288149 0.11055501 -0.08068791 0.02157472 -0.090202
0.047116354 0.08185843 -0.00826329 0.03321439 -0.097114325 -0.09057195 0.02288945 0.11738296
-0.06938355 0.04968454 -0.054501966 0.012542397 -0.084230065 -0.037820056 -0.015407093 -0.114418834
0.02159606 -0.099852644 0.06134975 -0.0029515773 -0.007003017 0.020502836 -0.024217337 -0.014492668
-0.022556812 0.10538128 0.101066574 0.0061184466 0.06754471 -0.0328684 0.02509901 0.045645565
-0.031512372 -0.010124676 0.08986595 0.09159994 0.122848794 -0.021460012 -0.045565397 0.005226493
-0.004178822 0.11478929 -0.059509374 0.074019134 -0.0099974945 0.015018195 -0.08982745 -0.044424623
0.006336227 -0.06650965 0.098307595 -0.113149785 0.03463368 0.08245486 0.019434646 -0.014283724
0.05197507 0.054663822 0.0082787275 -0.03969314 0.06855884 0.023093835 -0.04811219 0.08279276
-0.096200004 0.12219407 -0.104671486 -0.014922619 0.06383011 -0.12610689 0.12296195 -0.062320575
0.029142946 0.09181002 -0.049449675 -0.05884421 0.10877794 0.09864576 -0.07678001 -0.028564781
-0.05815299 0.004497543 0.122106835 0.024666235 -0.1273427 -0.11152092 0.01905553 0.061724707
0.121630415 -0.025288142 0.0059963465 0.11110005 -0.01156681 -0.060164355 -0.04917618 0.10857089
0.09839901 -0.11864395 0.053375155 0.014944091 0.05187632 -0.040149942 -0.058693126 -0.050697193
0.07270746 -0.080096126 -0.022383846 0.0066700727 0.10350081 0.05218415 -0.06189947 -0.052302003
-0.013287939 -0.040612467 -0.033531412 0.008092374 -0.10055555 -0.067021266 -0.03429492 -0.10028388
0.021676302 0.09124273 0.0720638 -0.093774654 0.083442 0.07955924 -0.09849776 -0.107195884
-0.10724473 0.023537308 0.0117868185 0.033129618 -0.09645798 -0.035357848 0.051923677 0.008889109
0.016058147 0.0026960224 0.11913781 -0.05381462 -0.09637736 -0.043841384 0.039529607 -0.10072457
-0.044258274 0.016598001 -0.118912145 0.043157384 0.0025727898 0.052616373 -0.103046745 -0.09266303
-0.08507992 0.0073479116 0.086897686 -0.105815336 0.024151579 -0.101772785 0.055185422 -0.07602847
0.027080461 0.10272512 0.088099495 0.028455272 0.1168925 -0.06167317 0.03298478 0.0768895
0.052424133 -0.023470111 0.06989086 0.10243626 -0.03253647 -0.112804234 0.06532253 -0.05719029
00000000: 599c f6bd 04a8 14bd 759b b8bd a243 83bd
00000010: 06ad 98bd 3f36 9abd e445 5ebd e0ec c23d
00000020: 21b9 92bd 009c f4b9 f839 67bd e2cb b0bd
00000030: 814f c3bd e93e 033e 70ca 59bc 1a95 c03d
00000040: f483 30bd 5d22 ffbd c00f dd3d d064 023d
00000050: a056 91bc b4d3 bebd 1f5a f1bd 9058 9c3d
00000060: 74f3 51bd b872 463d 80ef 9fbd bcf2 9e3d
00000070: 385f 94bc b4c2 97bc 1ab8 9d3d 8405 66bd
00000080: d00a 5dbc 0034 60ba fe64 03bd 32d0 1fbd
00000090: da12 efbd ea94 92bd cc15 78bd 2226 883d
000000a0: 065e ec3d 50fa 3f3c 4655 d23d c841 c33d
000000b0: eaeb e43d 5027 5bbc c85d 57bc 2e44 cf3d
000000c0: e485 ffbd 0a33 69bd 10c8 c73c 6a5a 9e3d
000000d0: 429f 52bd 38bb 02be 580f cdbd 000e 4bbb
000000e0: 1034 bc3c 3070 d73d 568f 993d 98a4 b43d
000000f0: 2295 2fbd 80e5 373d f8c8 fcbc 485e 973c
00000100: 9220 01be d47e cbbc fc48 1a3d a962 c5bd
00000110: a304 ecbd 4891 143d 4c4e 8c3d 7082 473c
00000120: e8fd 12bd b08f 18bc b0ed ff3c 80a4 2fbd
00000130: aa6a e23d b43f a5bd 78bd b03c d4bb b8bd
00000140: 14fd 403d 64a5 a73d c062 07bc d00b 083d
00000150: e0e3 c6bd c97d b9bd a882 bb3c 7a66 f03d
00000160: f618 8ebd 0482 4b3d 743d 5fbd a07e 4d3c
00000170: d080 acbd 34e9 1abd 086e 7cbc 6c54 eabd
00000180: 38ea b03c 8b7f ccbd e049 7b3d 406f 41bb
00000190: 9079 e5bb 90f5 a73c 7063 c6bc a872 6dbc
000001a0: 10c9 b8bc 24d2 d73d fefb ce3d 407d c83b
000001b0: e254 8a3d 04a1 06bd 709c cd3c d8f6 3a3d
000001c0: 1e13 01bd f8e1 25bc a40b b83d c098 bb3d
000001d0: 2698 fb3d e8cc afbc c8a2 3abd 0043 ab3b
000001e0: 80ee 88bb a616 eb3d 1ac0 73bd 5897 973d
000001f0: 88cc 23bc e00e 763c 74f7 b7bd 98f6 35bd
00000200: 20a0 cf3b 3636 88bd 7e55 c93d 13bb e7bd
00000210: 0cdc 0d3d 18de a83d 6835 9f3c 4806 6abc
00000220: d0e3 543d 2ce7 5f3d 80a3 073c 4695 22bd
00000230: 9468 8c3d 482f bd3c 4a11 45bd 408f a93d
00000240: 8204 c5bd e240 fa3d 015e d6bd 007e 74bc
00000250: 5cb9 823d 2a22 01be 7ad3 fb3d dc43 7fbd
00000260: 30bd ee3c e406 bc3d be8b 4abd a006 71bd
00000270: f8c6 de3d ca06 ca3d d63e 9dbd b000 eabc
00000280: d431 6ebd 2060 933b 2613 fa3d d810 ca3c
00000290: 2066 02be 1565 e4bd 581a 9c3c 0cd3 7c3d
000002a0: 5e19 f93d 1429 cfbc 007d c43b 6c88 e33d
000002b0: b882 3dbc e66e 76bd f66c 49bd 6a5a de3d
000002c0: 6c85 c93d 99fb f2bd e89f 5a3d 10d8 743c
000002d0: 447c 543d 4474 24bd 3468 70bd dca7 4fbd
000002e0: a6e7 943d 7009 a4bd 545e b7bc a090 da3b
000002f0: 3cf8 d33d 0cbf 553d 4c8a 7dbd a03a 56bd
00000300: a8b5 59bc 4259 26bd 3c58 09bd e095 043c
00000310: 11f0 cdbd 7242 89bd d478 0cbd a361 cdbd
00000320: 8092 b13c 78dd ba3d 3096 933d ed0c c0bd
00000330: a4e3 aa3d f4ef a23d 32b9 c9bd 8489 dbbd
00000340: 20a3 dbbd 50d1 c03c 801d 413c ecb2 073d
00000350: c38b c5bd 64d3 10bd ecad 543d a0a3 113c
00000360: 608c 833c c0af 303b 86fe f33d b86c 5cbd
00000370: 7e61 c5bd 0693 33bd cce9 213d af48 cebd
00000380: 2a48 35bd 88f8 873c 3688 f3bd ccc5 303d
00000390: 409c 283b 4484 573d 2c0a d3bd 1dc6 bdbd
000003a0: 623e aebd c0c6 f03b 6af7 b13d b6b5 d8bd
000003b0: 88d9 c53c 406e d0bd 1c0a 623d d1b4 9bbd
000003c0: d8d7 dd3c 8c61 d23d 826d b43d 081b e93c
000003d0: 5665 ef3d 029d 7cbd 0c1b 073d 3e78 9d3d
000003e0: b0ba 563d 6444 c0bc f022 8f3d 1aca d13d
000003f0: f644 05bd e805 e7bd d2c7 853d 5e40 6abd

bias f4 [128]
-0.11462954 -0.008416861 -0.05006662 0.037055343 -0.120749064 0.0130790025 -0.0708317 0.039756805
-0.08512731 0.06209606 0.101190224 -0.07510405 0.0692049 -0.09063643 -0.08907501 0.07546306
-0.028341047 0.108321324 0.089190915 -0.03185735 0.123647854 0.095522165 0.051264644 -0.041655086
-0.06977901 -0.020383 -0.10766641 -0.024326138 0.09652355 0.10313776 0.09535381 -0.09555893
0.076656684 -0.07408252 0.10077773 0.085682556 -0.056499675 0.073056266 0.10614291 -0.11884951
-0.023101985 -0.110920824 0.12759547 0.056562454 -0.034141093 0.11858843 -0.06941992 -0.10933569
-0.054303713 -0.12847051 0.061841995 -0.060026936 -0.0078321695 -0.008065008 0.0018036515 0.07969569
-0.059147805 0.03919159 -0.09375021 -0.06564435 0.0038522333 -0.06993863 -0.05113948 -0.059166737
0.037591904 -0.09709038 -0.089259915 -0.110651106 0.10599357 -0.01183515 0.106612235 -0.06986949
0.12578936 -0.02137535 -0.0055914223 0.10541904 -0.10018982 0.0096401125 0.09184216 -0.11191381
0.049996108 0.10857327 0.11126201 -0.12677395 0.083642006 0.12906979 0.041218683 0.05772257
-0.02841647 0.122679785 -0.068194024 -0.028446928 0.092795 0.013749763 -0.084683225 0.03244318
0.0029226243 0.067615196 0.12361522 0.042500958 -0.0893067 0.08047417 -0.07125979 -0.029212631
-0.10241345 -0.06987299 0.043226108 -0.028904974 -0.086947426 -0.023733601 0.0763343 -0.08300311
-0.02194085 -0.018614553 -0.0820865 -0.045911975 0.06521687 0.11021839 -0.044267848 0.003452599
-0.07908957 0.060372397 0.034702808 0.09082033 0.11619677 -0.007612884 0.059333086 0.08025387
00000000: e4c2 eabd e0e6 09bc a812 4dbd 58c7 173d
00000010: 494b f7bd 5049 563c 3610 91bd 08d8 223d
00000020: 3a57 aebd 7058 7e3d d23c cf3d 27d0 99bd
00000030: 4cbb 8d3d 989f b9bd f56c b6bd 608c 9a3d
00000040: 7c2b e8bc 92d7 dd3d baa9 b63d da7c 02bd
00000050: 163b fd3d 20a1 c33d e0fa 513d 869e 2abd
00000060: 4ce8 8ebd 40fa a6bc 3580 dcbd 9c47 c7bc
00000070: 24ae c53d e439 d33d dc48 c33d 66b4 c3bd
00000080: 2efe 9c3d 94b8 97bd 8e64 ce3d 567a af3d
00000090: 346c 67bd 869e 953d 7461 d93d 5f67 f3bd
000000a0: 6040 bdbc 752a e3bd 63a8 023e 08ae 673d
000000b0: 88d7 0bbd 7ede f23d 082c 8ebd 64eb dfbd
000000c0: 926d 5ebd c68d 03be 084e 7d3d cede 75bd
000000d0: 8052 00bc 1823 04bc 8068 ec3a 7e37 a33d
000000e0: f844 72bd 5c87 203d 1c00 c0bd 8c70 86bd
000000f0: c075 7c3b fc3b 8fbd a277 51bd d258 72bd
00000100: f8f9 193d 52d7 c6bd e7cd b6bd 0c9d e2bd
00000110: 2813 d93d 38e8 41bc 8457 da3d bc17 8fbd
00000120: edce 003e 5c1b afbc 4038 b7bb f0e5 d73d
00000130: 5230 cdbd 90f1 1d3c be17 bc3d 1133 e5bd
00000140: b8c8 4c3d aa5b de3d 56dd e33d 08d1 01be
00000150: 804c ab3d df2a 043e ecd4 283d 806e 6c3d
00000160: a8c9 e8bc 8a3f fb3d 4fa9 8bbd 8809 e9bc
00000170: 4e0b be3d b046 613c 666e adbd 24e3 043d
00000180: 8089 3f3b d679 8a3d fa29 fd3d 7c15 2e3d
00000190: 6ee6 b6bd a4cf a43d a7f0 91bd 544f efbc
000001a0: 25be d1bd 9219 8fbd dc0d 313d 20ca ecbc
000001b0: 7e11 b2bd f86c c2bc 2855 9c3d 89fd a9bd
000001c0: 4cbd b3bc 8c7d 98bc f81c a8bd 320e 3cbd
000001d0: 6c90 853d 2eba e13d 3452 35bd 0045 623b
000001e0: b6f9 a1bd 0c49 773d 8824 0e3d 0200 ba3d
000001f0: 92f8 ed3d 8075 f9bb 4007 733d 245c a43d

weight f4 [64, 128]
0.08575932 -0.041135985 0.0687825 -0.07331543 0.043732945 -0.07900909 0.042340543 0.06693744
-0.02747849 0.0071651465 0.01269357 0.033522557 0.067296065 -0.04215253 0.0626959 -0.043972705
-0.06615787 -0.00809765 -0.02453478 -0.052887257 -0.07333269 -0.011343732 -0.03739077 0.03714876
0.08054842 -0.0725881 0.043831162 -0.062449854 -0.031687316 -0.021014914 -0.016375009 0.048006956
-0.03292559 -0.069651365 -0.06252174 -0.035773817 0.06904752 0.07285985 -0.08138201 0.027009526
-0.018633602 0.05376132 -0.05385213 -0.045061573 -0.03743311 -0.04777131 -0.0043513817 0.075640514
0.0880864 0.0302004 0.07987962 0.06125473 0.048635513 0.048894793 -0.02453055 0.005967582
0.057274107 -0.050128695 0.059308257 -0.036183845 0.029264122 -0.04544894 -0.033746578 -0.007215729
0.04060824 0.09997647 -0.0697393 0.090124585 -0.024999117 0.053708103 0.023584789 0.0005733276
-0.05865081 0.004639208 -0.06906647 0.09050219 -0.07219727 -0.049056355 0.029693218 0.0038526542
-0.060343508 -0.04840444 -0.009681248 0.05603214 0.0135099515 0.025527056 0.07189542 -0.08349207
-0.01775608 0.095506094 0.01164215 0.03138294 0.032362733 0.012431372 -0.08647935 0.044851586
0.071523346 0.0037978536 0.07955934 0.06858062 -0.059442926 -0.082313016 0.010036927 0.07929136
0.026895888 0.022980884 -0.009619827 0.072462134 0.06681733 -0.0072398954 -0.07058273 -0.060250178
0.071829714 -0.069694325 0.09444538 -0.028854012 0.07814091 -0.029272787 0.08480145 0.010866782
-0.051306456 0.044682037 -0.054727927 -0.0125105055 0.0558734 0.044309378 -0.057476625 0.060990475
0.048109308 -0.02634274 0.016629025 0.018320398 -0.052776717 0.0092592165 0.027996797 -0.010341409
-0.03317774 0.03663811 0.042751882 -0.06387069 -0.070259124 -0.008938709 -0.037160624 -0.07864047
0.0008036888 -0.083688885 -0.011883852 0.051251054 0.010100133 0.07426731 0.011634313 -0.058297925
-0.0047846963 -0.044971164 0.026164643 -0.07677335 0.05814793 0.06675035 -0.05873196 -0.0029288847
-0.02826612 0.046751298 -0.06668509 -0.0047953064 -0.08192404 0.040161602 0.043494187 -0.008930268
0.040941726 0.034183495 0.059507433 -0.008752792 -0.024598058 -0.026904682 -0.05317401 -0.07021122
0.058793776 0.07581756 -0.05830221 0.087496735 -0.042571224 0.08163862 0.075722925 0.069036245
0.042354543 -0.0084423125 0.04709964 -0.019802924 0.0138826035 0.07621035 -0.025121754 -0.08257783
0.020064792 0.03078612 0.08778942 -0.049933784 -0.03930693 -0.01216075 0.06384693 0.04107779
-0.01314474 0.045752898 -0.01874918 0.06409537 0.011888178 0.066835135 0.0348061 0.031184599
-0.031922407 -0.05357299 0.07070134 0.043811318 -0.058077 -0.02819625 -0.017931083 -0.027903643
0.051948965 0.065624855 -0.08016208 0.043253962 0.0058175614 -0.0504869 -0.04617159 0.006463515
0.08223306 0.0034427778 0.05537907 0.008388538 -0.0063232724 0.07072553 -0.071718045 0.03972159
-0.07864434 -0.080373555 0.07519295 -0.0076024653 -0.06152138 -0.08028781 0.01325053 0.049399678
-0.00036392582 -0.048724454 0.057408642 0.08323824 -0.06122766 -0.005898494 0.011211501 0.045656405
-0.065938026 -0.05546103 0.02284391 0.06648895 -0.010388774 0.044804715 -0.009088108 0.06275445
00000000: 95a2 af3d 357e 28bd d7dd 8c3d 6626 96bd
00000010: 5121 333d 85cf a1bd 476d 2d3d 7f16 893d
00000020: 921a e1bc 9bc9 ea3b b1f8 4f3c f34e 093d
00000030: 85d2 893d 22a8 2cbd b566 803d b91c 34bd
00000040: c77d 87bd 01ac 04bc 2afd c8bc 4fa0 58bd
00000050: 732f 96bd 0fdb 39bc 1027 19bd 4c29 183d
00000060: 92f6 a43d 12a9 94bd 4e88 333d 6bcb 7fbd
00000070: 8fca 01bd 7827 acbc e224 86bc f1a2 443d
00000080: fcdc 06bd 60a5 8ebd 660b 80bd 9187 12bd
00000090: c968 8d3d 8c37 953d 9cab a6bd 1543 dd3c
000000a0: 7fa5 98bc d434 5c3d 0d94 5cbd 7c92 38bd
000000b0: 7653 19bd d9ab 43bd 0996 8ebb 6ae9 9a3d
000000c0: a466 b43d d466 f73c ed97 a33d 3de6 7a3d
000000d0: 0836 473d e845 483d 4bf4 c8bc b58b c33b
000000e0: 4198 6a3d bf53 4dbd 37ed 723d 8335 14bd
000000f0: 50bb ef3c ab28 3abd da39 0abd ec71 ecbb
00000100: d354 263d 77c0 cc3d 7ad3 8ebd 3d93 b83d
00000110: f3ca ccbc 07fd 5b3d e334 c13c 5d4b 163a
00000120: d53b 70bd 7f04 983b b972 8dbd 3659 b93d
00000130: 2adc 93bd 51ef 48bd 313f f33c d07c 7c3b
00000140: c12a 77bd bc43 46bd 199e 1ebc f581 653d
00000150: d858 5d3c 1e1e d13c e83d 933d e4fd aabd
00000160: 3375 91bc b398 c33d b7be 3e3c 668b 003d
00000170: c98e 043d f4ac 4b3c 161c b1bd 4cb6 373d
00000180: d57a 923d 69e5 783b 02f0 a23d ff73 8c3d
00000190: 6d7a 73bd ba93 a8bd ec71 243c 8263 a23d
000001a0: c454 dc3c 6842 bc3c 7b9c 1dbc 0767 943d
000001b0: 86d7 883d a53c edbb ae8d 90bd e4c8 76bd
000001c0: 751b 933d e6bb 8ebd 946c c13d 405f ecbc
000001d0: 5708 a03d 7ccd efbc 62ac ad3d 960a 323c
000001e0: b826 52bd 8304 373d 642a 60bd ddf8 4cbc
000001f0: 82db 643d c07d 353d 9c6c 6bbd 26d1 793d
00000200: 440e 453d bbcc d7bc 9839 883c a914 963c
00000210: 662c 58bd f8b3 173c 8a59 e53c 036f 29bc
00000220: 62e5 07bd d811 163d 991c 2f3d a3ce 82bd
00000230: 04e4 8fbd aa73 12bc bd35 18bd 410e a1bd
00000240: a4ae 523a 1465 abbd 7db4 42bc a0ec 513d
00000250: 077b 253c 7619 983d d89d 3e3c cec9 6ebd
00000260: f1c8 9cbb af33 38bd 3c57 d63c 593b 9dbd
00000270: 862c 6e3d 68b4 883d ec90 70bd 88f2 3fbb
00000280: 5a8e e7bc 4a7e 3f3d 3192 88bd f221 9dbb
00000290: cbc7 a7bd 7e80 243d f626 323d 4250 12bc
000002a0: 83b2 273d fe03 0c3d 11be 733d df67 0fbc
000002b0: de81 c9bc 3567 dcbc fecc 59bd e6ca 8fbd
000002c0: bed1 703d 3d46 9b3d 4cce 6ebd 7d31 b33d
000002d0: 2a5f 2ebd 2632 a73d 9f14 9b3d e062 8d3d
000002e0: f57b 2d3d a051 0abc 8deb 403d be39 a2bc
000002f0: dc73 633c 2c14 9c3d 23cc cdbc 911e a9bd
00000300: eb5e a43c 2c33 fc3c f0ca b33d 5e87 4cbd
00000310: 4e00 21bd e23d 47bc 2ec2 823d 2f41 283d
00000320: 095d 57bc 6467 3b3d e197 99bc 6f44 833d
00000330: a2c6 423c dce0 883d d790 0e3d d876 ff3c
00000340: 12c1 02bd 5a6f 5bbd ddcb 903d 7f73 333d
00000350: 26e2 6dbd d2fb e6bc 35e4 92bc 2e96 e4bc
00000360: 70c8 543d 5366 863d 042c a4bd 112b 313d
00000370: 3ea1 be3b 5acb 4ebd 6c1e 3dbd e5cb d33b
00000380: ce69 a83d 3aa0 613b 2ad5 623d 1470 093c
00000390: 7433 cfbb 8cd8 903d e9e0 92bd 1bb3 223d
000003a0: 4910 a1bd e49a a4bd c3fe 993d 1a1e f9bb
000003b0: d8fd 7bbd ef6d a4bd c018 593c 5157 4a3d
000003c0: 4ccd beb9 4b93 47bd 5325 6b3d cf78 aa3d
000003d0: dbc9 7abd 2748 c1bb 72b0 373c 3602 3b3d
000003e0: 840a 87bd 1b2b 63bd 2723 bb3c 5c2b 883d
000003f0: ad35 2abc 2685 373d 4ae6 14bc 6885 803d

bias f4 [64]
0.081914455 0.067043975 0.022334004 -0.020040248 -0.0151322475 0.08109748 -0.079093 -0.06695777
-0.047988 0.012729948 0.05243069 0.07126421 0.07954286 -0.038997103 -0.08253731 0.04572473
-0.03665598 0.03407309 -0.06796845 -0.052018307 -0.06481963 0.038137745 -0.0056231166 0.023712832
0.0055999532 -0.04275983 -0.0078294575 0.027843218 -0.06131675 0.08144317 0.059678264 -0.054351684
-0.03826208 0.020428317 0.07165087 0.081659324 0.025168017 -0.021193111 0.00023255339 0.08611063
-0.07095631 -0.007216524 -0.050501913 0.07589814 0.024355542 0.09259053 0.024874484 0.07961362
-0.07657717 0.0413727 -0.03354756 0.07795285 0.013202203 -0.05720145 0.015132579 -0.04189621
0.014986884 0.080939956 -0.022254597 -0.0010037972 -0.033014525 0.06869295 9.507204e-05 0.08089205
00000000: c4c2 a73d 5a4e 893d cdf5 b63c 722b a4bc
00000010: 3fed 77bc 7016 a63d 83fb a1bd 2821 89bd
00000020: 118f 44bd 4691 503c 90c1 563d f8f2 913d
00000030: 5ee7 a23d 6dbb 1fbd 5209 a9bd db49 3b3d
00000040: 9524 16bd 3990 0b3d 0b33 8bbd 2611 55bd
00000050: 27c0 84bd 5336 1c3d 1f42 b8bb 6a41 c23c
00000060: d07f b73b ee24 2fbd 2047 00bc 7617 e43c
00000070: 4627 7bbd adcb a63d 3271 743d df9f 5ebd
00000080: b3b8 1cbd 4959 a73c b1bd 923d 013d a73d
00000090: 282d ce3c 2d9d adbc 93d9 7339 c55a b03d
000000a0: 8b51 91bd 9778 ecbb 18db 4ebd 7c70 9b3d
000000b0: 4685 c73c 1ba0 bd3d 93c5 cb3c 770c a33d
000000c0: 7ed4 9cbd 6c76 293d 2b69 09bd bea5 9f3d
000000d0: 0e4e 583c 114c 6abd a3ee 773c 5c9b 2bbd
000000e0: 8c8b 753c d9c3 a53d 464f b6bc d891 83ba
000000f0: 3d3a 07bd e4ae 8c3d 6a61 c738 bbaa a53d

weight f4 [9, 64]
-0.1869888 -0.011120047 0.0048691398 0.055626795 -0.0054491763 0.05048846 -0.06450011 -0.056998927
-0.064502604 -0.034887627 -0.17358539 -0.09504952 -0.15548615 0.005962258 0.07570756 -0.15157112
0.0053261667 -0.090412386 -0.15622671 -0.059937496 -0.12928677 -0.17057782 -0.025461892 -0.03346088
0.03865302 0.0073792306 -0.08432047 0.02858162 -0.14705993 -0.021121161 -0.12090712 -0.12899564
-0.06533419 -0.06906389 -0.06773452 -0.09171448 -0.00833561 -0.16677861 -0.10166056 0.0066640126
-0.06823828 -0.14877698 -0.04533319 -0.1405942 -0.12954801 -0.026645264 -0.07442244 -0.17597435
0.04949731 0.007432224 -0.12537442 -0.11932571 0.043393213 -0.01144257 -0.07669199 0.0042166
0.0064883344 -0.14106968 0.039722737 -0.10030456 -0.16835032 -0.11284435 -0.17719403 0.034452934
-0.19121158 -0.044471428 -0.1829096 -0.090836614 -0.14566725 -0.0018315002 0.0009865542 0.039696272
-0.08848883 -0.013376201 -0.16669925 -0.004436659 -0.15164028 -0.14435671 -0.12947588 -0.079842925
-0.101653405 -0.043292698 0.04331496 -0.107472084 0.042379074 -0.064215526 0.032019176 0.06412202
-0.057021692 -0.09294842 0.020401517 -0.1250782 -0.007936971 -0.15866974 -0.1483825 0.007807629
0.028213132 -0.020318285 0.02592973 -0.11588804 -0.1286248 0.0021699688 -0.15880318 -0.12866206
0.046944372 -0.14192209 0.048077684 0.058163512 -0.18022412 0.033147506 -0.0037371507 0.020136504
-0.1291245 -0.15559521 -0.09681689 -0.040616624 -0.025274647 0.01753339 -0.16460167 0.027694086
-0.06504789 0.0045335256 -0.11627716 -0.16078535 -0.01661728 -0.1600016 -0.076387055 -0.021353094
0.0020502764 -0.07406064 -0.013234206 -0.16823334 -0.004232277 0.06703996 -0.12235891 -0.12720422
-0.086535536 -0.029332759 -0.06770992 -0.15177485 -0.13989663 -0.03995257 0.043888055 -0.0253631
-0.1533133 -0.12771979 -0.09364077 -0.05960698 -0.1810934 0.05374282 -0.16761512 0.022539444
0.054698013 -0.018599985 0.005042886 -0.09831009 0.017064659 -0.154745 0.03808682 -0.08396593
-0.053266972 0.07968126 -0.038390122 -0.04665287 -0.1660842 -0.14466293 -0.08041165 0.06398363
-0.145844 -0.14472768 0.08330986 -0.10617384 -0.020686423 -0.09976809 -0.058946185 -0.067298695
0.038389582 -0.08901005 -0.14487599 0.024500728 0.0367542 0.019872699 -0.12440894 -0.17348728
0.0056946813 -0.008410267 0.012812534 0.024752365 -0.088142246 -0.13997577 -0.01601649 -0.04614034
0.023923991 0.019311149 0.070329815 -0.0790713 -0.080187894 -0.06577983 -0.02494219 -0.08217961
-0.0033219666 0.016567882 -0.05894764 -0.0805039 0.0032806986 0.12558588 0.05774022 0.101644866
-0.046387497 -0.0002381024 -0.101922095 -0.022613985 0.11088165 -0.058830153 0.09617086 -0.0718929
0.11577656 -0.069999315 0.09160329 0.03366778 0.10456347 0.014086593 -0.098879136 0.07074012
-0.01759002 -0.04595893 -0.082734786 -0.0480262 0.020861624 0.09934784 0.0023147322 0.025968054
-0.020738788 0.07726046 0.0014804762 0.0974008 -0.07318614 0.03732368 -0.034608305 0.06869148
4.8021375e-05 -0.093097195 0.050181165 -0.07467767 0.0756455 0.031343717 0.08760953 -0.04784366
-0.034255482 0.11735203 -0.06438982 0.033233467 -0.083555065 0.1035157 -0.017804187 -0.016674038
00000000: fe79 3fbe dc30 36bc 4e8d 9f3b ecd8 633d
00000010: 018f b2bb fdcc 4e3d a218 84bd b577 69bd
00000020: f119 84bd 54e6 0ebd 5ec0 31be 53a9 c2bd
00000030: c337 1fbe 0c5f c33b 910c 9b3d 7635 1bbe
00000040: 2087 ae3b 212a b9bd e5f9 1fbe 0581 75bd
00000050: c063 04be f4ab 2ebe 7595 d0bc 470e 09bd
00000060: a152 1e3d 79cd f13b 36b0 acbd 0024 ea3c
00000070: e196 16be 4906 adbc 279e f7bd 6f17 04be
00000080: efcd 85bd 5e71 8dbd 65b8 8abd cdd4 bbbd
00000090: 1592 08bc 03c8 2abe 6933 d0bd ca5d da3b
000000a0: 83c0 8bbd fe58 18be 4caf 39bd edf7 0fbe
000000b0: 3ca8 04be 2b47 dabc cb6a 98bd 9f32 34be
000000c0: b1bd 4a3d 048a f33b 2762 00be 0a61 f4bd
000000d0: 15bd 313d 9e79 3bbc b110 9dbd 682b 8a3b
000000e0: 189c d43b 9274 10be 4fb4 223d 7a6c cdbd
000000f0: 0764 2cbe f01a e7bd 5a72 35be 851e 0d3d
00000100: f8cc 43be ac27 36bd a74c 3bbe 8c08 babd
00000110: cc29 15be f30e f0ba 444f 813a 8f98 223d
00000120: a239 b5bd da27 5bbc 35b3 2abe 6561 91bb
00000130: 9747 1bbe 3fd2 13be 5395 04be b084 a3bd
00000140: a92f d0bd af53 31bd 076b 313d 531a dcbd
00000150: ae95 2d3d 6e83 83bd 8a26 033d 6852 833d
00000160: 948f 69bd be5b bebd 1521 a73c 8014 00be
00000170: 120a 02bc 527a 22be 95f1 17be 24d7 ff3b
00000180: 3a1f e73c 8872 a6bc 966a d43c b556 edbd
00000190: 38b6 03be 0936 0e3b 4d9d 22be fdbf 03be
000001a0: be48 403d 0654 11be 1bed 443d dd3c 6e3d
000001b0: ac8c 38be aec5 073d fcea 74bb 4ff5 a43c
000001c0: 3739 04be 5a54 1fbe ef47 c6bd 9e5d 26bd
000001d0: c70c cfbc 2fa2 8f3c 578d 28be b5de e23c
000001e0: d437 85bd f88d 943b b822 eebd eaa4 24be
000001f0: f620 88bc 76d7 23be d170 9cbd afec aebc
00000200: ee5d 063b 1bad 97bd 48d4 58bc 5c45 2cbe
00000210: eaae 8abb 3f4c 893d 4f97 fabd d341 02be
00000220: 8b39 b1bd 414b f0bc 80ab 8abd de6a 1bbe
00000230: 1041 0fbe 4ea5 23bd f6c3 333d 47c6 cfbc
00000240: 29fe 1cbe fac8 02be bbc6 bfbd 7326 74bd
00000250: 8c70 39be 6e21 5c3d 4ca3 2bbe a4a4 b83c
00000260: 060b 603d ff5e 98bc cb3e a53b cd56 c9bd
00000270: 2fcb 8b3c 7975 1ebe ed00 1c3d 54f6 abbd
00000280: 782e 5abd ee2f a33d f63e 1dbd 1417 3fbd
00000290: fa11 2abe 8522 14be ddae a4bd d909 833d
000002a0: 2158 15be 7e33 14be 5c9e aa3d ac71 d9bd
000002b0: 9376 a9bc 3653 ccbd 8e71 71bd e6d3 89bd
000002c0: 653e 1d3d e74a b6bd 5f5a 14be c0b5 c83c
000002d0: 928b 163d 12cc a23c 1dca febd a6a6 31be
000002e0: 739a ba3b 37cb 09bc aaeb 513c 79c5 ca3c
000002f0: ec83 b4bd cf55 0fbe 0435 83bc a7fd 3cbd
00000300: 3ffc c33c 6a32 9e3c 1409 903d 22f0 a1bd
00000310: 8d39 a4bd 93b7 86bd 9053 ccbc c94d a8bd
00000320: 5ab5 59bb 5eb9 873c 1573 71bd 3bdf a4bd
00000330: fd00 573b 9699 003e 0281 6c3d 2f2b d03d
00000340: d100 3ebd 20ab 79b9 88bc d0bd f740 b9bc
00000350: eb15 e33d e3f7 70bd 3af5 c43d 963c 93bd
00000360: 431c ed3d cd5b 8fbd 819a bb3d 3ae7 093d
00000370: 5f25 d63d 74cb 663c 2581 cabd 32e0 903d
00000380: f218 90bc 6e3f 3cbd db70 a9bd 1fb7 44bd
00000390: ffe5 aa3c e176 cb3d c3b2 173b f5ba d43c
000003a0: 64e4 a9bc bb3a 9e3d 8a0c c23a 127a c73d
000003b0: 9de2 95bd b7e0 183d 70c1 0dbd 1eae 8c3d
000003c0: 8f6a 4938 bea9 bebd c48a 4d3d 9bf0 98bd
000003d0: 07ec 9a3d 4562 003d a06c b33d b7f7 43bd
000003e0: 7a4f 0cbd 4356 f03d cfde 83bd d11f 083d
000003f0: eb1e abbd 0a00 d43d 16da 91bc fe97 88bc

bias f4 [9]
-0.18408221 -0.0032687348 -0.124814674 0.079483256 0.18481301 0.08855721 -0.15904264 -0.06865857
-0.032659177
00000000: 0c80 3cbe 4538 56bb d69e ffbd 1ec8 a23d
00000010: 9f3f 3d3e 7c5d b53d 13dc 22be dd9c 8cbd
00000020: a1c5 05bd
