stock_forecast3.pth (torch, 70487 bytes, 6 tensors)

weight f4 [128, 60]
000000 04 99 58 3d 00 b3 2d bc 94 5c 9e 3d df af e4 bd
       0.052880302 -0.010601759 0.077325016 -0.11166357
000010 e0 2d 16 3d 98 7d 97 3c 0a 05 00 be be fa 8c 3d
       0.036664844 0.018492505 -0.12501922 0.06883763
000020 3a d7 4d bd 7b 06 87 bd e6 b5 29 bd 5e e3 dd bd
       -0.050254084 -0.06593033 -0.041433237 -0.108343825
000030 4c 88 87 bd 50 06 54 bd 00 cd 69 bd ce e4 bb bd
       -0.066177934 -0.051763833 -0.05708027 -0.091745004
000040 10 a8 37 bd 20 e3 fc 3c 1f 5e b1 bd d8 e9 84 3c
       -0.04483801 0.03087002 -0.0866053 0.016224787
000050 93 dd 02 be ea eb 49 bd 22 c7 c7 3d b6 66 f5 3d
       -0.12779836 -0.04929725 0.097547784 0.11982481
000060 96 b3 e2 3d 1a 28 96 3d d2 49 f9 3d 1e a1 8f 3d
       0.110694095 0.073318675 0.12172283 0.070131525
000070 48 9b c3 3d 54 49 d8 bc 5a a1 98 bd 30 cd d5 3c
       0.09551102 -0.026402153 -0.0745265 0.026098818
000080 60 9d a0 bb a6 d7 a9 3d f4 d8 40 bd 2a 12 bf 3d
       -0.004901573 0.08293085 -0.047081903 0.093296364
000090 0a a1 8f 3d e0 64 21 bd 7c 07 26 3d f2 e4 c5 bd
       0.07013138 -0.039402843 0.04053448 -0.096628085
0000a0 bb 62 02 be ea d4 62 bd a9 9e fd bd c2 19 72 bd
       -0.12732975 -0.055378832 -0.12383778 -0.059106596
0000b0 68 86 b4 3c 20 9c e1 3c 42 33 e2 bd 74 a4 61 3d
       0.022036746 0.027540267 -0.11044933 0.055088475
0000c0 08 12 33 bd d6 33 e5 3d 3e d4 c7 3d 02 36 9d bd
       -0.043718368 0.111915275 0.09757279 -0.07676317
0000d0 58 45 0f bc 12 c3 1d bd 1c 18 92 bc fe 53 cd 3d
       -0.00874456 -0.03851611 -0.017833762 0.10025786
0000e0 58 6f af 3d 90 2c 9c bb da 1c e5 3d d6 30 ed 3d
       0.08566159 -0.0047660545 0.111871436 0.1158158
0000f0 be 12 24 bd c9 9d a4 bd cc 83 a4 bd ab e7 bc bd
       -0.040056936 -0.08037908 -0.08032951 -0.09223875
000100 c8 5d 05 3d 00 f6 d4 b9 08 b5 ad 3d ae e3 9f 3d
       0.03256014 -0.00040619075 0.084817946 0.07807098
000110 40 69 49 bb 00 c0 01 3a 68 9d 90 3d 0b 72 ab bd
       -0.00307329 0.00049495697 0.07061273 -0.08371361
000120 02 6f ee 3d bc 07 a4 bd 3c 58 89 bc ea 70 a4 bd
       0.11642267 -0.08009288 -0.016765706 -0.08029349
000130 1f ad 8c bd 93 39 fd bd 9e 81 c9 3d ae c1 07 bd
       -0.06868958 -0.12364497 0.09839176 -0.03314369
000140 ff 5b 03 3e 6e d4 5f bd a1 42 ee bd bc 96 f5 bd
       0.12828062 -0.054645948 -0.11633802 -0.11991641
000150 6e 80 94 3d 86 ca e6 3d cc f7 ff bd 98 31 5e 3d
       0.072510585 0.11269097 -0.124984354 0.054246515
000160 a6 58 f5 bd 17 97 93 bd 50 73 f7 3c d2 0f 97 bd
       -0.11979799 -0.072065525 0.030206352 -0.07376064
000170 76 61 a9 bd 60 ac 87 3d ee d0 de 3d 04 b9 48 3d
       -0.08270542 0.06624675 0.10879694 0.04900457
000180 b4 87 f2 3d 03 0e f9 bd 4a 23 cd 3d 60 d0 eb bd
       0.118422896 -0.12160876 0.100164965 -0.11514354
000190 92 81 d6 3d 20 00 e5 3b c4 fe 8e bd 2a 7e e9 3d
       0.10473932 0.0069885403 -0.069821864 0.11401017
0001a0 08 4b 12 3d 25 cd ea bd 40 7d bb bd 0c be da 3d
       0.035716087 -0.114649095 -0.09154749 0.1068078
0001b0 26 4a bf bd 3b ee 9e bd 14 df b7 bc 02 1a f0 3d
       -0.093403146 -0.077602826 -0.02244524 0.117237106
0001c0 c0 70 a6 bb 1f 52 cd bd 2a e3 c8 3d 91 c5 c3 bd
       -0.005079359 -0.10025429 0.09808953 -0.09559167
0001d0 a2 17 fe 3d 7c b5 0e 3d 90 a0 62 bd c8 de 21 bc
       0.12406851 0.034841046 -0.055328906 -0.009879775
0001e0 3a 02 72 bd d6 4a 98 bd cc 1c 7a 3d 1a d4 d8 3d
       -0.059084155 -0.07436149 0.06106262 0.1058733
0001f0 f4 c6 8d bc 74 e2 a6 3d 48 85 16 bc 8a 9f ff bd
       -0.017306782 0.08148661 -0.00918705 -0.124816015
000200 72 80 60 bd 2c c3 f0 3d 98 8d c8 3c 20 91 34 3c
       -0.054809995 0.11755976 0.02448158 0.011020929
000210 1a a4 c1 3d f8 5a 95 bd 30 75 21 3d 90 ae 25 3c
       0.09455128 -0.072927415 0.0394184 0.01011242
000220 30 11 e2 3d 26 4e a4 bd d0 10 3b bd c8 59 af bd
       0.110384345 -0.08022718 -0.04567033 -0.08562046
000230 11 6f c6 bd 00 6e fc 3b cc e7 ba 3d a6 ae db bd
       -0.09689153 0.0077035427 0.09126243 -0.10726671
000240 eb 48 b7 bd 0a b2 b5 bd 10 e1 11 3c 00 76 e7 ba
       -0.08949455 -0.08871849 0.008903757 -0.0017659068
000250 f2 44 e8 3d cc ef 83 bd 09 ab dc bd 80 a5 95 3a
       0.11341275 -0.06442222 -0.1077481 0.0011417121
000260 25 0a ce bd 60 ef 9c 3c fe ec aa 3d 30 c0 11 3c
       -0.10060529 0.019157112 0.08345984 0.008895919
000270 f0 77 09 3c 7c 45 c7 3d 70 c9 d8 3c 10 1e d0 3d
       0.008390412 0.0973005 0.02646324 0.10161984
000280 10 0e d9 3d 00 34 d9 b9 94 eb 55 bd 46 44 c9 bd
       0.10598385 -0.00041428208 -0.052226618 -0.09827475
000290 82 71 f8 3d 90 d1 c1 3d f6 57 be 3d a8 0a bc 3c
       0.12131025 0.09463799 0.09294121 0.0229543
0002a0 c2 51 a6 3d 10 88 b5 bd 41 5b e6 bd 04 fa ab 3d
       0.08121063 -0.088638425 -0.11247874 0.08397296
0002b0 74 75 a2 bd 7c c7 89 3d 7a 5d 93 3d 00 f7 b6 3b
       -0.07932559 0.06727502 0.071955636 0.005583644
0002c0 4c 5e b6 bd 29 e1 02 3e 80 01 85 bb 62 45 71 bd
       -0.089047045 0.12781204 -0.0040590167 -0.05890406
0002d0 f6 86 2d bd a4 0b b4 3d 38 40 df bd 95 b4 97 bd
       -0.042365037 0.08791283 -0.10900921 -0.0740749
0002e0 b9 4e e0 bd d0 df a0 3d 60 e8 d0 bc 2c 55 1e 3d
       -0.10952515 0.07855189 -0.02550143 0.038655445
0002f0 e0 bd 12 bc 20 b5 e2 bd c4 e0 d1 bd a0 52 99 3d
       -0.008956403 -0.11069703 -0.10247949 0.074864626
000300 dc a2 c2 bd e0 50 dd 3d a8 be 93 3d 90 e4 b0 3c
       -0.09503719 0.10806441 0.07214099 0.021593362
000310 aa ec 04 bd 67 5f 02 3e 8c 58 c5 bd 18 8f c1 bd
       -0.032452263 0.12731706 -0.096360296 -0.09451121
000320 64 6e d3 bc 9c 49 b4 3d 80 d1 a3 3d dc be 49 3d
       -0.025809474 0.088031024 0.07998943 0.049254283
000330 fc 26 2e 3d 50 16 d3 bb 40 01 e8 bd be d7 c4 bd
       0.042517647 -0.006441869 -0.113283634 -0.09611462
000340 b8 58 ab 3d b0 0b c0 bc ac 7a ba bd a8 cf 68 3d
       0.08366531 -0.023443073 -0.09105429 0.05683866
000350 a0 61 2c 3c 9c e6 a1 bd a2 46 a7 bd 20 56 bc bd
       0.0105213225 -0.079053134 -0.08167769 -0.091961145
000360 9e f8 ed bd 7e ac a9 bd 64 7e 5e 3d 80 09 0f 3c
       -0.116196856 -0.082848534 0.054319754 0.008730292
000370 b4 c7 c5 bd 23 26 da bd 38 0c b7 bd c5 31 83 bd
       -0.09657231 -0.10651805 -0.089378774 -0.06405977
000380 6c 6e 0d bd b8 c8 73 3d 9c 11 f6 3d 74 d9 f3 bd
       -0.034529135 0.059517592 0.120150775 -0.1190671
000390 56 e1 0c bd a8 f8 77 bc b8 25 c4 bc 34 9f f4 bc
       -0.034394585 -0.015134968 -0.023943767 -0.02986107
0003a0 98 7d 76 bd f2 44 bf 3d e2 10 00 be 10 b3 73 3c
       -0.06017837 0.09339322 -0.1250644 0.014874235
0003b0 f6 97 de 3d a8 43 ed 3d 1b d8 02 be b4 8f ee bd
       0.10868828 0.1158517 -0.1277775 -0.11648503
0003c0 e4 b4 1d 3d e4 f1 61 bd 48 d9 af 3c fe 91 f5 bd
       0.03850259 -0.055162326 0.021465912 -0.119907364
0003d0 f0 d8 e5 bc 2a 79 fd 3d 04 80 a6 bd 40 0e df 3b
       -0.028057545 0.12376626 -0.08129886 0.0068071187
0003e0 a2 7f 57 bd 82 cd 44 bd a2 72 8d bd 6e 9d 18 bd
       -0.052611955 -0.04804755 -0.0690663 -0.03725951
0003f0 34 b4 7a bd 1a 80 0b bd a4 6a a5 bd d5 05 d7 bd
       -0.06120701 -0.034057714 -0.08076981 -0.10499159

bias f4 [128]
000000 c4 45 4b 3d a0 c1 4e 3c 20 64 db 3b 26 97 b9 3d
       0.04962708 0.012619406 0.0066952854 0.090620324
000010 c0 58 95 bd f9 b5 03 3e c6 8d b4 3d 34 4b 13 bd
       -0.07292318 0.12862386 0.08816104 -0.03596039
000020 14 07 f7 3d 04 f1 22 3d 10 93 5b 3c a8 22 bf 3d
       0.12061897 0.03978063 0.013401762 0.09332782
000030 b8 e1 89 bc a0 62 a5 bd f9 76 ec bd 6c 67 f2 bd
       -0.016831264 -0.08075452 -0.1154613 -0.118361324
000040 b8 a2 ec bd 90 9b ef 3c e0 11 6a 3c e3 3a a2 bd
       -0.11554474 0.029248983 0.014286488 -0.07921388
000050 da 9e ea 3d 58 2a 7b 3d ab 5c 00 3e 32 ea 7d bd
       0.1145608 0.06131968 0.1253535 -0.061990924
000060 10 3d d7 bc 6a 52 a9 3d 7e 50 48 bd c6 fb 62 bd
       -0.026274234 0.08267672 -0.04890489 -0.05541589
000070 94 25 0f 3d de ef bc 3d 68 f0 86 3d 6c 6b 3f bd
       0.034947947 0.092254385 0.065888226 -0.046733305
000080 59 a3 9b bd e6 d2 e5 3d 48 9f 8e 3d a0 1a dc 3c
       -0.075995155 0.11221866 0.06963974 0.026868165
000090 6f 3a 85 bd 06 8a 22 bd 60 f6 bf 3b c0 6f 12 bd
       -0.06505286 -0.03968241 0.0058582276 -0.035751104
0000a0 d2 56 e5 3d 0c 56 b1 3d 6d 95 02 3e c0 83 d2 bd
       0.111982 0.0865899 0.12752314 -0.102790356
0000b0 c0 2d 60 bb 94 44 ca bd b0 db 83 3c 30 9b 9d bb
       -0.0034206957 -0.098763615 0.016095966 -0.0048097596
0000c0 40 71 c3 3b 91 06 8a bd 58 58 a4 bc a8 08 9a bd
       0.005964428 -0.06739534 -0.020061657 -0.07521182
0000d0 ce 7e 56 bd 58 d9 38 3d 84 fc b4 bd 0a 05 bd bd
       -0.052367024 0.04512915 -0.08837226 -0.09229477
0000e0 9c ee 4d bd 5f bb e5 bd 7a 2f d4 bd e6 1a f9 3d
       -0.050276384 -0.11217379 -0.10360618 0.121633336
0000f0 20 8f 8f 3d f0 12 21 3d c0 2d 5c 3b c0 c1 cd 3c
       0.07009721 0.0393247 0.0033596605 0.025116801
000100 94 d8 3c 3d 5c 0d 4a 3d be 5b e9 bd da e1 b9 bd
       0.046104982 0.049329147 -0.113944516 -0.09076281
000110 a0 08 9a bd b8 9f 39 3d 80 55 45 3b 7a fe e8 3d
       -0.07521176 0.045318335 0.0030110776 0.113766626
000120 3c 53 ce 3d c0 72 4e 3c c4 9d c2 bc c0 94 cb 3c
       0.100744694 0.012600601 -0.02375687 0.024851203
000130 90 61 f1 3c c6 8a f2 3d d8 73 0f 3d 46 38 5b bd
       0.029465467 0.11842875 0.035022587 -0.053520463
000140 98 44 11 3d 28 77 2e 3d e0 ce ed bd 3a 6c e9 bd
       0.035465807 0.042594105 -0.11611724 -0.11397596
000150 8a b5 9c bd 4b 88 dc bd 00 c0 4b 39 6c 99 bf 3d
       -0.07651813 -0.10768183 0.00019431114 0.09355435
000160 b0 99 cd 3d 46 29 96 bd 74 87 25 3d 30 02 2c bd
       0.10039079 -0.07332091 0.04041238 -0.041994274
000170 46 e9 89 3d 20 b4 3c bd 96 9b 17 bd 40 0e 5c 3d
       0.067339465 -0.046070218 -0.037013613 0.053724527
000180 d8 91 7a 3d 2c 06 45 bd fc 4e 8c bd e0 db a9 3b
       0.061174244 -0.04810159 -0.068510026 0.005183682
000190 40 f1 63 3c 86 31 7d bd 60 e6 3a 3d 58 8e e1 3c
       0.013912499 -0.061814807 0.04562986 0.027533695
0001a0 a2 38 f5 3d 18 23 f1 bd 53 28 cf bd d4 e3 38 bd
       0.119736925 -0.11774272 -0.10115113 -0.04513915
0001b0 45 ab ed bd 50 5a 9b bc f0 a4 0b 3d 28 f8 f5 3d
       -0.11604933 -0.018963963 0.034092844 0.12010223
0001c0 44 a0 d1 bd 9e a1 0a bd 54 f9 6f 3d 5c 1a ec 3d
       -0.10235646 -0.033845536 0.058587387 0.11528465
0001d0 91 4e 01 3e 67 0b d2 bd 2c 59 cf 3d 80 0e 20 3b
       0.12627627 -0.10256081 0.1012443 0.0024422705
0001e0 3f 58 88 bd 4d 01 ef bd 90 74 8a 3c 7e fa 27 bd
       -0.066574566 -0.1167017 0.016901284 -0.041010372
0001f0 a0 18 b8 3c fe 26 8f bd 9d e2 ef bd d3 4b d8 bd
       0.02247268 -0.06989859 -0.11713145 -0.10561337

weight f4 [64, 128]
000000 e4 2c 96 bd 3e a9 14 3d 78 a3 8d bd 74 50 fc bc
       -0.07332781 0.036294214 -0.06915945 -0.030800082
000010 0a b9 f5 3b 23 70 79 bd c5 20 77 bd c2 8a 4a bd
       0.007498865 -0.060897958 -0.060333986 -0.049448736
000020 07 84 4e bd f7 8c 8f bd ed 47 2f 3d 97 31 38 3d
       -0.05041888 -0.07009309 0.042793203 0.044969168
000030 44 ed 34 3d af 42 13 bd a5 6c 7a 3c 6a da 97 bd
       0.044171587 -0.035952266 0.015284692 -0.07414706
000040 98 34 49 3c 2b f5 8a bc cf e5 36 3d b5 6d 5c bc
       0.012280606 -0.016962608 0.044652756 -0.013453891
000050 4e 0e a3 3d 08 62 b0 3d 2b 30 86 3d 6f 05 c5 3c
       0.07961713 0.08612448 0.06552156 0.024050443
000060 3b 9f c7 3c 08 c9 45 bd 76 bf 8c 3d 1f d6 44 3d
       0.02436792 -0.04828742 0.06872456 0.048055764
000070 ce 06 81 3d f1 3b 72 bd b8 23 ba 3c 35 c2 8b 3d
       0.06300126 -0.059139196 0.02272211 0.068241514
000080 de 2a 64 3c 40 d3 09 bc 2c 5f c8 bb 0a 54 38 bd
       0.013926236 -0.008412182 -0.006114861 -0.04500202
000090 b4 b9 23 bd a8 81 ab 3d d9 73 e4 bc da 49 92 bd
       -0.039972022 0.08374339 -0.027887272 -0.07142992
0000a0 58 a9 bc 3c aa cb 7f bd ef 8e 86 bd 75 0f 88 3d
       0.023029968 -0.06245009 -0.06570231 0.06643573
0000b0 71 be 60 bc 09 65 9f 3d 98 ad 53 3d 8b da 8c 3b
       -0.01371728 0.07782943 0.051679224 0.0042985133
0000c0 e1 50 04 3d 73 80 11 bd 47 37 72 ba 92 a9 b4 3d
       0.032303695 -0.03552289 -0.00092398043 0.088214055
0000d0 b5 0a f1 bc a7 d1 2c bd bb 1b 7a 3b e8 9b 22 bd
       -0.02942405 -0.042192128 0.0038163501 -0.039699465
0000e0 c3 0a 8d bd 52 94 5b 3d e8 c2 76 bd 24 e8 1e bd
       -0.06886818 0.053608246 -0.06024447 -0.038795605
0000f0 07 a2 54 3d a9 16 a0 3d 92 72 93 3c 30 2f 01 3d
       0.051912334 0.07816822 0.017998967 0.031539142
000100 f6 8c 30 bd a2 27 f0 3c df da c5 bc 27 b9 31 3c
       -0.04310318 0.029315773 -0.024152217 0.010847366
000110 3d c8 cd 3d 71 6a 93 3c f9 da ad 3d 5b 9e ae bb
       0.10047958 0.017995091 0.08489031 -0.005328936
000120 39 56 08 bc d5 64 e2 39 7b 49 20 3c 6a 3a 6c bd
       -0.008321338 0.00043181205 0.009783144 -0.057672895
000130 a5 a3 fc 3c 64 b5 0e bc 60 cc 47 bb f8 3b 70 bd
       0.03083975 -0.008710239 -0.0030486807 -0.05865094
000140 4b 08 c2 bc 09 c1 78 bd 05 67 f5 bb dc 47 53 3d
       -0.023685595 -0.060730968 -0.0074890875 0.051582202
000150 57 ac bd 3d b2 a0 04 bd b6 ff ab 3d a3 69 35 bd
       0.09261387 -0.032379813 0.08398382 -0.044290196
000160 99 cc 78 3d 2f 72 5b bd 3d 9a 6e 3d 1a c8 64 3d
       0.060741995 -0.05357569 0.05825256 0.055854894
000170 dd e1 a1 3a fb 55 3d bd 1a 2b 08 3d 23 9a aa 3d
       0.0012350638 -0.046224575 0.03324423 0.083301805
000180 6f 72 cc 3b 08 91 94 bb cc 12 89 3d 51 87 4d 3d
       0.0062392275 -0.0045338906 0.06693038 0.050177876
000190 f8 7f 9c bd 5c 07 79 3d 35 a6 8d bd b4 c3 41 bd
       -0.076415956 0.060798034 -0.06916467 -0.047305778
0001a0 0f 8a a6 3d 19 90 a3 3d fe fc 1e bd 47 1f 86 3c
       0.08131801 0.07986469 -0.03881549 0.016372336
0001b0 f8 79 4b bc 54 69 59 3c 66 43 eb 3c 98 5b a9 bd
       -0.012419216 0.013269741 0.028718662 -0.08269423
0001c0 83 9c 60 3d 55 df 88 bd e3 8a 3f bd 6a ed 47 3d
       0.05483676 -0.06683222 -0.046763312 0.0488104
0001d0 41 08 39 3d b3 c6 87 bd d8 9a 38 bd 20 c3 40 3c
       0.045173887 -0.06629696 -0.045069546 0.011765271
0001e0 1c 35 b9 3c af d2 68 bc c0 39 74 bc 7e ce 87 bc
       0.022608332 -0.014210387 -0.014906347 -0.016577955
0001f0 d7 71 fe 3c 62 47 0a 3d fe 40 8d bd bf ef 36 bd
       0.031060142 0.033759482 -0.06897162 -0.044662233
000200 b6 a5 bd 3c d5 3d 90 bd 79 bd a7 3d 33 45 5f bd
       0.023150306 -0.070430435 0.08190436 -0.054509353
000210 a5 58 9c bc 17 26 9a bd 63 b2 b0 bd 7b da 46 3d
       -0.019085238 -0.07526796 -0.086277746 0.048548203
000220 0f be 1b 3d 13 b9 0c 3d 9c 40 87 bc 83 ca a1 bd
       0.03802305 0.034356188 -0.0165103 -0.07899954
000230 8c 2e 5f bc 38 7c ac bd 42 8b 2e 3d aa 75 51 3d
       -0.0136219375 -0.0842213 0.042613275 0.051137604
000240 12 90 f4 3b 81 05 38 3d 79 7e 87 bd fb 3b 58 bd
       0.0074634636 0.044927124 -0.066159196 -0.052791577
000250 e4 2b 25 3c 9a f6 eb 3b 32 49 a8 3d 6e 5a a7 3d
       0.010081265 0.007201028 0.08217086 0.08171545
000260 3f bf 1d 3d 90 ed a4 3d e7 9c 70 bc 14 bb 2b 3d
       0.038512465 0.08053124 -0.014685846 0.04192646
000270 06 21 ad bd 0b ad 3d bd c0 77 f9 bc af a4 6a bd
       -0.08453564 -0.046307605 -0.030452609 -0.05728596
000280 77 1d 75 3c 98 e7 8d 3d 17 51 43 bd cf 7f ad bd
       0.014960638 0.069289386 -0.047684755 -0.08471643
000290 10 ca b0 bc d3 87 ae bd db b2 86 3d 7c 18 62 3d
       -0.021580726 -0.08522 0.06577083 0.05519913
0002a0 f1 50 90 3a d5 60 5a 3c 6f e9 a9 3d ef 51 96 3d
       0.001101045 0.013328751 0.08296477 0.07339846
0002b0 b0 4b 6d 3d 74 db 8d bd e4 fb 80 bc 35 f4 af 3d
       0.05793351 -0.06926623 -0.01574511 0.08591501
0002c0 12 46 90 bb 68 23 5c 3d 41 cc 5e bd 62 ba 1e 3c
       -0.0044028843 0.053744704 -0.05439401 0.009687992
0002d0 ae 62 1d bd 75 b4 82 3d ce 96 ea 3b 04 4d 64 bd
       -0.038424186 0.06382076 0.0071590906 -0.05573751
0002e0 29 9d 42 3d 17 b9 05 bb 6b 75 2f bc 59 a1 8a 3c
       0.04751316 -0.0020404512 -0.010709147 0.01692264
0002f0 95 13 01 bd af d3 86 bd 34 82 8e 3d 2e d5 86 bd
       -0.031512816 -0.06583344 0.06958428 -0.065836295
000300 ab e9 a9 bd 3e 74 dd bc 75 f7 3d 3c f2 98 31 bd
       -0.08296522 -0.027032968 0.011594643 -0.04335875
000310 5c 0c f6 3b 2a d7 9a bd 83 b1 5f bd 2f 7d 42 bd
       0.0075087976 -0.075605705 -0.054612648 -0.047482666
000320 dc 58 93 3d 17 ef ac bd 9f 33 63 3d 51 9f b5 3c
       0.07194683 -0.0844404 0.05546915 0.022170695
000330 13 45 ab 3d ab 4c 04 3d d7 90 ab bd a4 88 23 bd
       0.08362784 0.03229968 -0.083772354 -0.039925233
000340 9c 72 b3 3d b2 2a 89 bc d9 89 46 3c b0 26 41 3d
       0.087620944 -0.016743992 0.012117826 0.047156036
000350 26 56 3a 3d 3f e3 71 bd 4f c7 a9 3d bd 10 af 3d
       0.045492314 -0.05905461 0.08289968 0.085481144
000360 3e 13 0f 3d 27 6f 15 bd c2 ad 20 3d dc ab 92 bd
       0.03493046 -0.036482956 0.03922821 -0.07161686
000370 87 01 d8 3b 18 8f 9a bd d8 a2 9f 3d 21 10 36 3d
       0.006591979 -0.07546824 0.07794732 0.044448975
000380 06 b1 50 bd 75 9a 5e bd e7 b4 2d bd 30 f0 09 3b
       -0.050950073 -0.05434652 -0.04240885 0.0021047704
000390 f1 f6 8f 3d b7 f2 12 bd 7c f0 a6 bd 85 b2 8e bd
       0.07029522 -0.035876002 -0.081513375 -0.06967644
0003a0 c8 1f 96 3c 0b 3c 4e 3c 1a 1d aa bd a0 dd 1f 3c
       0.018325701 0.012587558 -0.08306332 0.009757429
0003b0 f9 70 b3 3d 7c f4 19 3d 02 ba 9d bd b9 32 02 bb
       0.08761782 0.037586674 -0.07701494 -0.001986666
0003c0 50 91 99 bc ad 67 81 3d 6c b7 0e bd 25 1e 9a bc
       -0.018746048 0.06318603 -0.034842893 -0.018813202
0003d0 8d 0d 6b 3d 5d 28 e7 bc b1 0b 07 3c f0 cb 3d 3d
       0.05738597 -0.028217489 0.008242534 0.046337068
0003e0 a2 de 4e 3d f7 68 57 bd 6d f1 83 3d 58 ce 99 bd
       0.050505288 -0.052590337 0.06442533 -0.0751006
0003f0 70 b7 26 bd 72 bb 9e 3d fb 42 bd bb 2c 29 49 3d
       -0.040702283 0.07750596 -0.005775807 0.04911153

bias f4 [64]
000000 01 f5 41 bc 42 78 01 bc 90 ac 4b 3d 9a b8 94 bd
       -0.011838199 -0.007902207 0.049725115 -0.072617725
000010 a0 58 8c 3d 84 61 b0 3d b1 48 e4 bb 70 d8 a0 bd
       0.068528414 0.0861235 -0.0069666733 -0.07853782
000020 dc 7c 00 bc d7 da 04 bd b2 af a8 3d 14 57 90 bd
       -0.007842269 -0.032435264 0.08236636 -0.07047859
000030 6a 7f 82 3d 0e 69 5a bd 86 9d 7a bd 6f 25 6d 3b
       0.063719586 -0.053322844 -0.061185382 0.0036185642
000040 cc 7e 49 bd cc 80 99 3d 09 11 01 bd 1d 7b 90 3d
       -0.04919319 0.07495269 -0.031510387 0.07054732
000050 44 06 ab 3d 16 59 1a 3c a9 0f 00 bb 9e b8 3e bd
       0.083508044 0.009420654 -0.0019540584 -0.046562783
000060 54 51 60 3c 13 b2 ac bc 8b be 82 3c 43 64 be 3d
       0.013691265 -0.021081006 0.015959999 0.09296467
000070 57 51 22 bd 61 5f 2f 3b 2f 55 70 3c d8 c4 9c bd
       -0.039628353 0.002675973 0.014668747 -0.076547325
000080 73 a3 65 bd fd 80 75 bd 88 7a b5 bb 7e 03 9a bd
       -0.05606408 -0.059937466 -0.0055382885 -0.07520197
000090 60 76 0b 3d 70 f4 77 3d a9 da 0a 3d fa a5 a9 3c
       0.034048438 0.06053585 0.033899937 0.020709027
0000a0 c5 c4 8f bd 98 1c 01 bd 8b 79 77 3d aa f0 67 3d
       -0.07019953 -0.03152141 0.060418647 0.056626
0000b0 df b6 7c 3a 60 a7 c1 3d 59 2f ba 3d 1e 79 2a 3c
       0.0009640287 0.094557524 0.09091062 0.010404853
0000c0 76 52 7f bd 79 83 24 3d 23 91 bb 3d 00 84 c4 bc
       -0.0623345 0.040164445 0.09158542 -0.023988724
0000d0 86 1b b6 3d 4a f7 ae 3c e2 e4 82 3d 79 a1 4f bc
       0.088919684 0.021358151 0.06391312 -0.012672775
0000e0 c2 6c f5 b9 03 86 10 3d 95 36 2a bd b6 3c 45 bd
       -0.00046811072 0.035284054 -0.04155596 -0.0481536
0000f0 20 ef 43 bd 6b e3 9f bd b3 ab 9f bd 26 04 a2 3d
       -0.04783547 -0.078070484 -0.07796421 0.079109475

weight f4 [14, 64]
000000 69 96 a8 bc 4c a4 91 bd b6 b4 ca ba 81 94 c4 bd
       -0.020579534 -0.07111415 -0.0015465233 -0.09598637
000010 2b ab 4f bd 18 46 36 be ed 8f c9 3c 0d bd ce bd
       -0.050700348 -0.17800176 0.024604762 -0.10094652
000020 68 50 fa bd 73 19 7b bd e6 10 0e be 34 b7 47 bc
       -0.122223675 -0.061303567 -0.13873634 -0.012189675
000030 27 e9 19 be 58 86 e7 3b c2 ae 3a ba 52 5b 8d bd
       -0.15030347 0.0070655756 -0.0007121378 -0.069021836
000040 b9 22 92 bd b8 b3 a3 bd e9 a3 26 bd 5d f4 fd ba
       -0.07135529 -0.07993263 -0.04068366 -0.0019375194
000050 ec 8f 6f 3d 73 61 23 be 4e 47 21 be ca 45 3a bd
       0.058486864 -0.15955143 -0.15749857 -0.045476712
000060 7c 58 01 be fd 59 b5 bc 55 32 0e be af 53 c4 bd
       -0.1263141 -0.022137636 -0.13886388 -0.09586274
000070 4d 96 95 bc 74 d6 8e bc 01 e7 02 3d fe ef 55 3d
       -0.018260146 -0.017436244 0.031958584 0.052230828
000080 38 c6 e0 bd bc cd 7e 3d fd 95 80 3c e0 aa d1 3c
       -0.10975307 0.062207922 0.01569652 0.025594175
000090 d4 cb 23 3d 5b 30 47 3d 7c 19 0b 3d b9 55 61 bd
       0.039989308 0.0486301 0.03395985 -0.055013392
0000a0 7d 3b 01 bc ac 2e 6a bd 91 32 26 3c 87 b2 3a 3d
       -0.007887718 -0.057173416 0.010143892 0.045580413
0000b0 74 4e d3 bd e3 b8 f2 bd 8f 8d 02 be 72 b5 21 be
       -0.10317698 -0.118516706 -0.12749313 -0.15791872
0000c0 03 c1 0a be 8e 58 48 3d fc 6f f1 3a e5 77 46 bd
       -0.1355019 0.048912577 0.0018420215 -0.048454184
0000d0 ca b6 81 bd ea 55 c7 bd 0c 28 e2 bd e7 de 9f bd
       -0.06333692 -0.09733184 -0.110427946 -0.07806187
0000e0 d7 c4 ff bd 78 91 96 3d 2c e8 12 be 25 7e 81 3d
       -0.12488716 0.07351965 -0.14346379 0.06322888
0000f0 7c a5 fa bc 5d 62 c3 bd 27 ee 35 3d 69 59 22 bd
       -0.030596487 -0.09540246 0.044416573 -0.03963605
000100 cc ca ce bd 60 f4 b5 3c e6 f9 c5 bd c4 ed 48 3d
       -0.10097274 0.022211254 -0.09666805 0.049054876
000110 07 e0 1c be b6 76 34 be 90 0e 8c bd eb 49 fc 3b
       -0.15319835 -0.1762341 -0.06838715 0.0076992414
000120 3d 75 32 3d 30 77 9f bd a5 72 cc bd 0c 9d 3a 3d
       0.04356884 -0.07786405 -0.09982804 0.045559928
000130 48 83 9b 3c aa 30 c8 bd d8 e8 01 be 31 3d 14 be
       0.018983498 -0.09774907 -0.12686479 -0.14476468
000140 5e c5 1f be 9f 53 b7 3b 65 c3 b6 bd ac e7 16 be
       -0.15602633 0.005594685 -0.08923987 -0.14736813
000150 12 f6 c7 bd a5 dc ca bd cc ba 0c 3d a4 c5 11 3d
       -0.09763731 -0.09905366 0.03435783 0.035588875
000160 df 79 0b be 10 6c bf bd 2a a3 d9 3c 17 34 27 3d
       -0.13620709 -0.09346783 0.02656706 0.04082116
000170 ab a6 09 3d 5e fb 00 be 2d f6 c1 bd 8b af 4e 3d
       0.033606213 -0.12595889 -0.094707824 0.05046038
000180 62 06 3b 3d 3c 9d 16 bc 39 90 06 3d 19 6c 2c 3d
       0.045660384 -0.009192761 0.032852385 0.042095277
000190 c7 49 01 3d 20 55 c3 bc 18 7a 75 bd b7 cb 85 3d
       0.0315645 -0.023844302 -0.05993089 0.06532996
0001a0 e3 1a ad 3d 0f 3a 24 be e0 be 0e 3d 6d e2 78 3b
       0.08452394 -0.16037773 0.03485 0.0037976757
0001b0 0e 7e 1c be b3 a8 4c 3d de 63 06 be 83 6d af bd
       -0.15282461 0.04996557 -0.13124034 -0.085658096
0001c0 22 8c 2b be 4f 9a 35 be e5 e9 bc bd 54 1b 1c be
       -0.16752675 -0.17734645 -0.09224299 -0.152448
0001d0 a9 0d 4c 3d 34 34 af bd 9d d0 e2 bd d2 8f d9 bd
       0.049817715 -0.08554879 -0.11074946 -0.10623135
0001e0 62 12 1a 3d 06 ed c5 3c fb 76 dd bd cc 93 04 be
       0.037615187 0.024160873 -0.10813709 -0.12947005
0001f0 73 53 12 3d bb e9 1d 3d 85 1b 13 3c 18 36 56 3d
       0.035724115 0.03855298 0.008978729 0.05229768
000200 44 08 b1 bd a0 b4 12 3d 3b b7 e7 bc 32 59 55 3c
       -0.08644155 0.03581679 -0.028285613 0.013021754
000210 bc 6b 6c 3d b3 f2 dd 3b e3 01 ca bd 1e 0c c1 39
       0.05771993 0.0067733168 -0.09863641 0.00036820857
000220 5e 2d 00 3d 20 2e 6e 3d 52 e9 04 be 99 e2 a4 3c
       0.031293266 0.058149457 -0.1297963 0.020127581
000230 d3 a4 a8 bd 9b c3 bd bc e4 57 75 bd 2b 4d 24 be
       -0.08234563 -0.023164561 -0.059898272 -0.16045062
000240 59 b4 f7 3c 23 20 68 bd 7d a0 95 3d d6 c4 b4 bd
       0.030237364 -0.056671273 0.07306001 -0.08826606
000250 4a 6b c8 bd 7e 19 0b 3d 13 d4 33 3d bd 96 11 be
       -0.09786089 0.033959858 0.04390342 -0.14217658
000260 7c db 96 3d 60 1c 00 be 94 e1 85 bd 4b bb 81 bd
       0.07366082 -0.12510824 -0.06537166 -0.063345514
000270 49 6d a8 bc 6d 66 2c be 4f 36 85 3d 2d 8d 29 be
       -0.020559924 -0.16835947 0.06504499 -0.1655776
000280 9a 5c 51 3d 86 d3 2f 3d 4d 35 18 be 0f 84 32 3d
       0.051113702 0.042926334 -0.14864083 0.043582972
000290 82 f8 fa bd 1a e8 53 3d 85 35 21 be 35 ed 06 be
       -0.1225443 0.05173502 -0.15743072 -0.13176425
0002a0 e9 2e 88 bd fc 7e d7 bd aa 68 21 3d 79 e8 92 bd
       -0.066495724 -0.10522267 0.039406456 -0.07173247
0002b0 8f 0c f5 bd a1 d3 75 bd 24 c1 58 bd a9 62 51 bd
       -0.11965286 -0.06001628 -0.05291857 -0.05111948
0002c0 12 fc d4 bc 38 9c 3d bd 0a d6 e6 bc 08 a0 10 be
       -0.025999103 -0.04629156 -0.028178234 -0.14123547
0002d0 14 23 06 be 01 85 32 bc 0f 33 36 be 9c 2b f6 bb
       -0.13099319 -0.010895968 -0.17792915 -0.007512523
0002e0 f4 ab 8b 3d 91 fb d0 bb 3a 74 04 be 43 b4 8b bc
       0.06819907 -0.0063776453 -0.12934962 -0.017053729
0002f0 c6 24 24 be 68 37 d5 bd d1 09 91 bd 8b 99 f1 bb
       -0.16029653 -0.104109585 -0.070819505 -0.00737304
000300 44 83 13 be 66 e0 26 be aa 4f 9e 3d 79 fa ef bd
       -0.14405543 -0.16296539 0.077300385 -0.11717696
000310 cc 46 d5 bc 95 4c 9b bd 23 c4 35 bd ca 44 1f be
       -0.026034735 -0.07582966 -0.044376504 -0.15553585
000320 e8 41 67 bd 42 2f 26 be af be f1 3c be 37 3b 3d
       -0.056459337 -0.16228965 0.02950987 0.045707457
000330 a4 a4 63 3d f7 74 3b 3d 7d 87 55 bc e9 16 93 3d
       0.055576935 0.045765843 -0.013032791 0.07182104
000340 f3 a3 16 bc 25 27 57 3d 8b fa 14 3b c5 6f 96 bd
       -0.009194362 0.052527566 0.0022732343 -0.07345537
000350 d2 35 1a be ed ba ca bd 04 1b 73 bd 63 fd 77 3c
       -0.15059593 -0.098989345 -0.059351936 0.015136096
000360 6f 44 01 be 9f 9e ae bc 0e cc 08 3d 49 44 28 be
       -0.12623762 -0.02131587 0.033397727 -0.16432299
000370 61 bc fa 3c 1d 9c d0 bd ad 7a 38 3d 76 44 b7 3d
       0.030607404 -0.10186026 0.045038868 0.08948605
000380 36 f5 1b be 21 8d 9e bd f6 7f 73 3d 6e 41 f1 3c
       -0.1523026 -0.07741762 0.059448205 0.029450145
000390 b0 55 a8 bc 76 b3 db bd 91 3e 31 3c 53 25 c6 bb
       -0.020548671 -0.10727589 0.01081814 -0.00604693
0003a0 2e 1c ba 3d e9 f6 85 bd bb f8 1c be 93 97 1d be
       0.09087406 -0.06541235 -0.15329258 -0.15389852
0003b0 a6 f1 30 3d 94 6b 1f bd 3d df 32 3d f4 91 e8 bd
       0.043199204 -0.038920954 0.043669928 -0.11355963
0003c0 01 c4 90 3c 88 4e f5 bb f9 81 db 3c eb c5 36 be
       0.017671587 -0.0074861683 0.026795374 -0.17848937
0003d0 38 72 18 be 9b 5f 31 be 40 e7 9d 3b 48 0f 2a be
       -0.14887321 -0.17321627 0.004818827 -0.16607392
0003e0 ac 8d 8f bd 84 27 c1 bd 85 d4 cd bd 1c 7e 80 bd
       -0.07009444 -0.09431365 -0.100503005 -0.062740535
0003f0 71 ad 1a be 4a ab 00 be cf 24 b1 3c 35 2b 31 3d
       -0.15105225 -0.12565342 0.021623997 0.043254096

bias f4 [14]
000000 ac f7 72 bd bc 3c 89 bd 37 e0 bd bd 61 f7 ef bd
       -0.05931823 -0.06701037 -0.09271281 -0.11717106
000010 a0 91 8e 3d cd ce a1 bc 0e 62 80 3e a3 e2 25 3e
       0.069613695 -0.01975193 0.2507481 0.16199736
000020 6d a1 98 3d f1 6b 31 3d 9d ae c1 bb da 1b d5 bd
       0.074526645 0.04331583 -0.005910708 -0.10405703
000030 3a 04 b1 bd 91 ea ef bd
       -0.08643384 -0.11714662
