stock_forecast.pth (torch, 69207 bytes, 6 tensors)

weight f4 [128, 60]
0	0x3cf89028	0.030342177
1	0x3e03635f	0.12830876
2	0x3afdcc00	0.0019363165
3	0x3ddbc474	0.1073083
4	0x3bf6a540	0.0075270236
5	0x3dd21804	0.10258487
6	0x3d6c72ec	0.057726786
7	0xbd670cee	-0.056408815
8	0x3dca1ecc	0.09869155
9	0x3d660698	0.056158632
10	0x3d1ae8e8	0.037819773
11	0x3dc22586	0.09479813
12	0x3cf690d8	0.030098364
13	0x3db37d20	0.087641
14	0x3d9640c4	0.07336572
15	0x3dd34992	0.10316767
16	0x3b3639c0	0.0027805418
17	0x3de828c2	0.11335899
18	0x3da07da0	0.07836461
19	0xba7d9c00	-0.000967443
20	0xbd4c70ca	-0.04991225
21	0xbdc6cc6a	-0.09706958
22	0xbdfe4aa7	-0.124165826
23	0x3ce3b3a0	0.027795613
24	0xbd1c2cfc	-0.038128838
25	0x3b91cae0	0.0044492334
26	0x3d060480	0.032719135
27	0x3d704290	0.05865723
28	0xbde0980d	-0.109665014
29	0xbda618eb	-0.081102215
30	0x3dcffc84	0.101555854
31	0x3dfdda8a	0.12395199
32	0xbda83d1a	-0.08214779
33	0x3cbf3088	0.023338571
34	0x3ad25980	0.0016048402
35	0xbce969ac	-0.028492771
36	0x3dfccbf6	0.1234359
37	0x3d093fb4	0.033508018
38	0xbd84682c	-0.06465182
39	0x3dffc8aa	0.124894455
40	0x3d039644	0.032125726
41	0x3dcf926c	0.1013535
42	0xbd05b28e	-0.032640986
43	0x3bd70000	0.0065612793
44	0xbdcf4b05	-0.10121731
45	0xbc373d50	-0.011184052
46	0xbd9ce58e	-0.076609716
47	0xbcffbd44	-0.031218179
48	0x3d9decc6	0.077111766
49	0x3ccb0b48	0.024785653
50	0x3d3a7014	0.045517042
51	0x3df0c2f4	0.11755934
52	0x3c835f68	0.016036704
53	0xbd455788	-0.04817918
54	0x3daabc88	0.08336741
55	0x3db54df0	0.08852756
56	0xbdd116bc	-0.10209414
57	0xbdc04a16	-0.09389131
58	0xbdacd7ba	-0.08439584
59	0x3df11f84	0.11773589
60	0xbdf0fcdd	-0.1176698
61	0x3d176d1c	0.03696929
62	0x3d9202fe	0.07129477
63	0xbdd9a298	-0.106267154
64	0xbccb3384	-0.024804838
65	0xbda4d8b4	-0.08049145
66	0xbdcbcb14	-0.099508435
67	0xbdf40c22	-0.11916377
68	0x3d4b1b50	0.049586594
69	0x3cae89c0	0.021305919
70	0xbd823c3d	-0.06359146
71	0xbdb8f950	-0.090319276
72	0xbdfb701e	-0.12277244
73	0xbd9182da	-0.07105036
74	0xbc8963ec	-0.01677128
75	0x3d1b0e0c	0.037855193
76	0x3d7d2160	0.061799407
77	0xbde4e630	-0.11176717
78	0x3d2eb7e4	0.04265584
79	0xbcdd2c60	-0.026998699
80	0x3dc1e2aa	0.09467061
81	0xbddd6e4e	-0.108120546
82	0x3da796fe	0.08183096
83	0xbdae19b0	-0.08500993
84	0x3c862ba0	0.016378224
85	0x3db926ec	0.09040627
86	0xbd5ecc12	-0.054393835
87	0xbcb4eb74	-0.022084929
88	0x3df79d56	0.12090556
89	0xbd731114	-0.05934246
90	0xbd64ce52	-0.055860825
91	0xbdd8e626	-0.10590772
92	0x3d0b2c9c	0.03397809
93	0xbde5c86e	-0.112198696
94	0x3d41f998	0.04735717
95	0xbd1cec54	-0.038311318
96	0x3d85f4ca	0.065408304
97	0xbc656ed0	-0.014003471
98	0xbdf57d16	-0.11986749
99	0x3c2edf00	0.0106732845
100	0xbd79dbee	-0.061000757
101	0xbd9e5b70	-0.07732284
102	0x3d8501d8	0.06494492
103	0xbd61e8a2	-0.055153497
104	0xbe042742	-0.129056
105	0xbd4cf610	-0.05003935
106	0xbc8e4850	-0.017368466
107	0xbd208946	-0.039193414
108	0xbde24fdc	-0.11050388
109	0xbc796cf8	-0.015223734
110	0x3da25f54	0.07928339
111	0xbd40e5bc	-0.04709409
112	0x3d449f14	0.04800327
113	0xbdaf5c72	-0.085625544
114	0x3d3824d0	0.044956982
115	0xbc74a7a0	-0.014932543
116	0x3cf3ce00	0.029761314
117	0xbdc61ea7	-0.09673815
118	0x3d760590	0.0600639
119	0xbda62444	-0.08112386
120	0x3d8f4708	0.0699597
121	0x3dbb063a	0.09132047
122	0xbe0335b3	-0.12813453
123	0x3ceaf670	0.028681964
124	0xbdb5eca2	-0.08883025
125	0x3da5b2a8	0.080907166
126	0x3dca712c	0.09884867
127	0xbc828c74	-0.015936114
128	0xbc43ce38	-0.011951022
129	0x3dccdd38	0.10003132
130	0x3c62b560	0.0138371885
131	0x3dfc1782	0.12309171
132	0xbd7d2598	-0.06180343
133	0xbc4ae328	-0.01238326
134	0xbd00bc60	-0.03142965
135	0x3dc69626	0.09696607
136	0x3dd2ff52	0.10302605
137	0x3d9422dc	0.072332114
138	0x3d4d8d9c	0.050183877
139	0xbcac6008	-0.021041885
140	0xbdbcbdea	-0.09215911
141	0x3b429880	0.0029692948
142	0xbc084eb0	-0.008319542
143	0x3d7d1dec	0.061796114
144	0xbd41b916	-0.047295652
145	0xbdf8200a	-0.12115486
146	0x3d4b46b4	0.049627975
147	0x3d65adcc	0.05607395
148	0xbbd4b5c0	-0.006491393
149	0xbdc3163e	-0.09525727
150	0x3d35008c	0.044189975
151	0xbd0954fe	-0.03352832
152	0x3decb548	0.11558014
153	0xbc5d2fb8	-0.013500147
154	0xbdf0fdd1	-0.11767162
155	0xbdbc7ea1	-0.0920384
156	0x3df216aa	0.11820729
157	0xbdba4e27	-0.090969376
158	0xbd3a3ae8	-0.045466334
159	0x3dea9d90	0.11455834
160	0x3b833200	0.004003763
161	0xbbe03450	-0.0068421736
162	0x3df8f822	0.121567026
163	0x3d93a2ee	0.07208811
164	0x3e0313ef	0.12800573
165	0xbd8092d1	-0.06278003
166	0x3c709e60	0.014686197
167	0xbd4377d0	-0.047721684
168	0x3df52bcc	0.11971244
169	0x3dad43fa	0.08460231
170	0xbdc86cf2	-0.09786405
171	0xbd3d3ac2	-0.046198614
172	0xbdab01e8	-0.08349973
173	0x3dc3a48c	0.09552869
174	0xbd783ec0	-0.060606718
175	0xbc216320	-0.009850293
176	0xbcc3c190	-0.023896009
177	0xbd7145de	-0.05890452
178	0x3c98bda8	0.018645123
179	0xbc481438	-0.012211852
180	0xbdf78a45	-0.1208692
181	0xbe02e6cd	-0.12783356
182	0x3cba0870	0.022709101
183	0x3d9159b8	0.070971906
184	0xba8c2400	-0.0010691881
185	0x3db3009a	0.08740349
186	0xbd097f7a	-0.033568837
187	0x3cc08400	0.023500443
188	0xbdbee582	-0.09321119
189	0x3d2341a8	0.039857537
190	0xbd5ecefe	-0.054396622
191	0x39487c00	0.0001911968
192	0xbd241e28	-0.04006782
193	0xbcef87f0	-0.029239625
194	0xbe039e51	-0.12853362
195	0xbdfc60c3	-0.12323143
196	0xbd83bf92	-0.064330235
197	0x3d0b3e38	0.033994883
198	0xbd2e7de4	-0.042600527
199	0x3c178a60	0.0092493
200	0x3c37b670	0.01121293
201	0x3d56a364	0.052401915
202	0x3e006745	0.12539394
203	0xbd28211c	-0.0410472
204	0xbc3654f0	-0.011128649
205	0xbc32f028	-0.0109215155
206	0x3d86ed68	0.065882504
207	0x3d4e44b4	0.05035849
208	0xbd173b04	-0.036921516
209	0x3de1246c	0.10993275
210	0xbb609840	-0.0034270436
211	0xbcdad9e8	-0.026715234
212	0x3d37508c	0.04475455
213	0xbe0066bf	-0.12539195
214	0x3cf05098	0.029335305
215	0xbc834d04	-0.016027935
216	0xbdfbd791	-0.122969754
217	0xbdaaaca6	-0.08333711
218	0xbd79c8e0	-0.060982585
219	0x3d150bac	0.036388084
220	0x3d1ad2f8	0.03779885
221	0x3d03bd30	0.032162845
222	0x3d366ea4	0.04453911
223	0xbbe83480	-0.0070863366
224	0xbdd62fbf	-0.104583256
225	0x3df616f4	0.12016097
226	0xbd514186	-0.05108788
227	0x3dea15e8	0.114299595
228	0x3d8d7196	0.069064304
229	0xbd8eb31e	-0.06967758
230	0x3dc951e6	0.09830074
231	0xbd1bb8e8	-0.038018137
232	0x3dcdd76a	0.100508526
233	0xbdf448a8	-0.119279206
234	0xbd71768a	-0.05895094
235	0x3c59e8c0	0.013300121
236	0x3daae72a	0.08344872
237	0x3db94154	0.090456635
238	0x3d8d4188	0.06897265
239	0xbd1af3f8	-0.037830323
240	0xbda43d3e	-0.080194935
241	0xbce532ec	-0.027978383
242	0x3dacb71c	0.08433363
243	0x3defa16c	0.11700711
244	0xbd99dff2	-0.07513417
245	0x3d994f56	0.07485835
246	0xbcd6db04	-0.026227482
247	0xbdabd247	-0.083897166
248	0x3d8df1fa	0.06930919
249	0xbd5cf902	-0.05394841
250	0xbcec216c	-0.02882453
251	0x3db1710e	0.086641416
252	0x3dd6fb14	0.10497108
253	0x3d4937a4	0.04912533
254	0x3d1efac0	0.038813353
255	0xbd95e5d8	-0.0731923

bias f4 [128]
0	0xbd03bdc6	-0.032163404
1	0xbbe5d550	-0.007013954
2	0xbd3a9a9a	-0.045557596
3	0x3df5b54c	0.1199747
4	0x3de56daa	0.112025574
5	0x3df893c2	0.121375576
6	0xbd0f161c	-0.034933195
7	0xbd24ceec	-0.0402364
8	0x3d933c46	0.071892306
9	0x3d790f10	0.06080538
10	0x3d2dcc0c	0.042430922
11	0xbcaa81a0	-0.020813763
12	0x3dace9d8	0.0844304
13	0xbc8bd51c	-0.017069392
14	0x3df0b8c6	0.11753993
15	0x3cef5e98	0.02921991
16	0xbd23d11e	-0.03999435
17	0x39cb6a00	0.00038798153
18	0x3de04356	0.10950343
19	0xbce97474	-0.028497912
20	0xbdccdb02	-0.1000271
21	0xbd8ba1e9	-0.06817991
22	0xbba1daa0	-0.004939392
23	0xbccbee4c	-0.024893902
24	0xbde0238e	-0.109442815
25	0xbd2ea082	-0.04263354
26	0xbc2d4ab0	-0.010576889
27	0x3cd90590	0.02649191
28	0xbdb4a0d6	-0.088197395
29	0xbd9a0cd2	-0.075219765
30	0xbd61bafe	-0.05510997
31	0xbdd20dd1	-0.102565415
32	0xbd5e9a72	-0.05434651
33	0xbd9120e6	-0.07086353
34	0x3d6c1970	0.057641447
35	0xbd9e58ce	-0.07731782
36	0xbdf61f80	-0.12017727
37	0xbdb116ec	-0.0864695
38	0x3d802b24	0.062582284
39	0xbd8c7153	-0.068575524
40	0xbd839588	-0.06425005
41	0xbbb71530	-0.0055872425
42	0xbdc5676e	-0.09638868
43	0xbc14a568	-0.009072639
44	0xbda91dba	-0.08257623
45	0xbcc53cf4	-0.024076916
46	0xbc18b218	-0.009319805
47	0x3dec3778	0.11534017
48	0x3bb20880	0.005433142
49	0x3c7f7410	0.015591636
50	0xbdde17dd	-0.10844395
51	0xbdb181a6	-0.086673066
52	0xbd383a7e	-0.044977657
53	0x3d0db428	0.03459564
54	0x3bfb8a00	0.007676363
55	0xbcedbab4	-0.029019691
56	0xbda6535e	-0.0812137
57	0xbd8ada54	-0.06779924
58	0xbd334a94	-0.043772295
59	0x3b96f420	0.0046067387
60	0xbdf70fc1	-0.12063552
61	0x3dc829ca	0.09773596
62	0x3d178170	0.036988676
63	0x3d8b7b14	0.06810585
64	0x3d871b54	0.06597009
65	0xbdf78c75	-0.12087337
66	0xbc6f41f0	-0.014603123
67	0xbdddc9ba	-0.10829492
68	0xbd9bdb14	-0.07610145
69	0x3d4a3280	0.049364567
70	0xbda3b441	-0.07993365
71	0x3cde8618	0.02716355
72	0xbdc44030	-0.09582555
73	0xbd2b2628	-0.041784436
74	0x3d8ac8ec	0.06776604
75	0xbd99b046	-0.075043246
76	0xbd4f7786	-0.050651096
77	0xb9e3e600	-0.00043468177
78	0x3ddbacfc	0.107263535
79	0xbe00d25d	-0.12580247
80	0xbd90bec6	-0.07067637
81	0x3dd401c6	0.10351901
82	0xbd52f1d8	-0.05150017
83	0xbde85304	-0.11343959
84	0x3cd4ccc8	0.025976554
85	0x3b85d720	0.004084483
86	0xbd994e37	-0.074856214
87	0x3c7d5490	0.015462056
88	0xbdc42b4e	-0.09578572
89	0x3d324340	0.043521166
90	0xbb8c6d50	-0.004285492
91	0xbd976bca	-0.07393606
92	0xbd9e9da4	-0.07744911
93	0xbb03dfc0	-0.002012238
94	0xbde8ec42	-0.113731876
95	0xbdc0659e	-0.09394382
96	0xbca1c1c0	-0.019745708
97	0x3dfb531a	0.1227171
98	0xbdb04ea8	-0.086087525
99	0xbd849c8e	-0.06475173
100	0x3c4a7c40	0.012358725
101	0xbe02c745	-0.12771328
102	0x3db5a8c8	0.08870083
103	0xba0be100	-0.0005335957
104	0xbd6a75e2	-0.057241328
105	0xbd41aeee	-0.047285967
106	0x3d9056c8	0.07047802
107	0x3da02312	0.07819189
108	0xbd95a6f8	-0.073072374
109	0xbd1207b2	-0.03565187
110	0x3d604888	0.05475667
111	0xbd359a42	-0.044336565
112	0xbd1b03fa	-0.03784559
113	0x3d96ce8e	0.07363616
114	0xbdc4d720	-0.09611344
115	0x3db39a30	0.08769643
116	0xbda1a0bc	-0.07891986
117	0xbde54b5f	-0.111960165
118	0xbcbdc6a4	-0.023166008
119	0x3d3f0120	0.046631932
120	0xbcabf424	-0.020990439
121	0x3cc405f0	0.023928612
122	0xbc6a3670	-0.0142952055
123	0xbc552138	-0.013008408
124	0xbdd50d44	-0.10402921
125	0xbc5d9178	-0.013523452
126	0x3b752600	0.0037406683
127	0x3de8cd78	0.11367315

weight f4 [64, 128]
0	0xbd369f48	-0.044585496
1	0xbd188b34	-0.03724213
2	0x3d9121e3	0.070865415
3	0x3da0d306	0.078527495
4	0x3d8b2a61	0.067951925
5	0x3da66cce	0.081262216
6	0xbd94f9d1	-0.07274211
7	0xbcbd4396	-0.023103517
8	0x3c96b527	0.018396927
9	0x3dac0c70	0.0840081
10	0x3c1b4924	0.009477887
11	0xbbcc0ad8	-0.0062268786
12	0x3d571521	0.052510384
13	0x3d144893	0.036202025
14	0x3c7f6fd2	0.015590625
15	0x3d8972b6	0.067113325
16	0x3d396a78	0.045267552
17	0x3cbdb19b	0.023155978
18	0xbd27cd82	-0.040967472
19	0x3b8f20a1	0.0043679033
20	0x3c19f00b	0.00939561
21	0xbc047860	-0.00808534
22	0xbc26cd51	-0.010180787
23	0xbd5eeb38	-0.05442354
24	0xbd8c235b	-0.06842681
25	0xbd763653	-0.0601104
26	0x3ca42686	0.0200379
27	0x3db654f9	0.08902926
28	0x3cb6b6dd	0.022303993
29	0xbccdd90d	-0.025127912
30	0xbd4482e7	-0.0479764
31	0xbd4e2dd4	-0.050336674
32	0xbb990f75	-0.004671032
33	0x3d7344a0	0.059391618
34	0x3dba1cdc	0.09087536
35	0x3b257a93	0.0025250062
36	0xbbc0c6ce	-0.0058830744
37	0x3d1c8c50	0.03821975
38	0xba342b31	-0.0006872891
39	0xbd72e646	-0.059301637
40	0xbc9936f2	-0.018702958
41	0xbd84b209	-0.0647927
42	0xbbd69058	-0.006547969
43	0xbcfceb72	-0.030873988
44	0xbd23f57b	-0.04002903
45	0xbcf25674	-0.02958224
46	0xbd20d50f	-0.03926569
47	0x3db232cc	0.08701095
48	0xbd7a7760	-0.061149
49	0x3d532fd9	0.051559303
50	0xbd2c38e4	-0.042046443
51	0xbd2082c6	-0.039187215
52	0xbd0c8dd8	-0.03431496
53	0xbd5b1f11	-0.053496424
54	0x3c8ec03f	0.017425654
55	0x3d6c5353	0.05769665
56	0x3db1534e	0.08658467
57	0xbcdaec9a	-0.026724149
58	0xbd6b3c54	-0.05743058
59	0x3d6cb7e0	0.057792544
60	0xbd0990a0	-0.03358519
61	0x3d2fac64	0.042889014
62	0x3cd0988a	0.025463361
63	0x3da9121b	0.082554065
64	0x3da37bb2	0.079825774
65	0xbda8d6d6	-0.08244102
66	0x3d2af591	0.041738097
67	0xbd33dfc0	-0.043914557
68	0xbd508ede	-0.0509175
69	0xbd057948	-0.032586366
70	0xbd9bf35a	-0.07614775
71	0xbd2df48b	-0.042469542
72	0x3c497430	0.012295768
73	0x3b3b379d	0.0028567084
74	0xbba8e688	-0.0051544346
75	0xbd3b08a6	-0.045662545
76	0x3da3bf11	0.079954274
77	0xbcae3e66	-0.021269988
78	0x3b2c448b	0.0026285972
79	0x3d05aa10	0.032632887
80	0x3d33b1b0	0.043870628
81	0xbd929ad3	-0.071584366
82	0x3d1639db	0.03667627
83	0xbce48670	-0.027896136
84	0x3d258c81	0.040417198
85	0x3ce8fe9a	0.028441716
86	0xbc8c51c5	-0.017128835
87	0x3d3dcb5d	0.04633652
88	0xbd052ef9	-0.0325155
89	0x3d9708c0	0.07374716
90	0x3d3aed3a	0.045636393
91	0x3d6b9a62	0.057520278
92	0x3bfa4ef5	0.007638807
93	0x3d95defb	0.07317921
94	0x3c2acdd4	0.01042505
95	0xbb3c86c8	-0.002876686
96	0xbd8cdc36	-0.068779394
97	0xbb21495e	-0.002461038
98	0xbce956ba	-0.028483737
99	0xbd6efa04	-0.058343902
100	0x3c49c823	0.012315783
101	0x3d92e033	0.07171669
102	0xbc5461ca	-0.012962768
103	0xbbf40c80	-0.007447779
104	0x3d9846dc	0.0743539
105	0xbda2bfe5	-0.07946757
106	0x3cacc209	0.021088617
107	0xbd207615	-0.03917511
108	0xbd86be1a	-0.06579228
109	0xbd2d5f53	-0.042327236
110	0xbda7dcda	-0.08196421
111	0x3da87f4f	0.08227407
112	0x3ca5a253	0.020219004
113	0xbc9773b4	-0.018487789
114	0xbd92aa9f	-0.0716145
115	0x3dc2d2d5	0.09512869
116	0x3d8496cb	0.06474074
117	0x3d137f6a	0.036010183
118	0xbc10adb2	-0.008830475
119	0xbd865829	-0.06559784
120	0x3da9dace	0.08293687
121	0xbcdd9a8a	-0.027051229
122	0xbd33ea6b	-0.04392473
123	0x3bf81fc5	0.0075721466
124	0xbc944e2d	-0.018103683
125	0x3d299604	0.04140283
126	0x3d33ade0	0.043866992
127	0x3d0d57e0	0.034507632
128	0x3da2e539	0.07953877
129	0x3d8d118a	0.06888111
130	0xbc6b95d2	-0.014378982
131	0x3d111c80	0.03542757
132	0xbd7f0ea1	-0.06226981
133	0x3d93e461	0.07221294
134	0xbd6e2791	-0.058143202
135	0x3d829580	0.06376171
136	0xbcf9a3bb	-0.03047358
137	0xbd848304	-0.06470302
138	0xbc99b019	-0.018760728
139	0x3d8cee11	0.06881345
140	0xbcbe12eb	-0.02320238
141	0x3b0a5ccd	0.0021112442
142	0xbdb19ac6	-0.08672099
143	0x3d64b00a	0.055831946
144	0xbc0a7646	-0.00845105
145	0xbd188400	-0.03723526
146	0x3d8a7da2	0.06762244
147	0x3da17823	0.078842424
148	0x3da8eec9	0.0824867
149	0xbd319efe	-0.043364517
150	0x3ca0af01	0.019614698
151	0xbb9b7ab3	-0.0047448515
152	0xbd569f88	-0.052398235
153	0xbd6daec6	-0.058028005
154	0x3d4fb8aa	0.05071322
155	0x3d0bf180	0.03416586
156	0x3db55a03	0.08855059
157	0xbda1601b	-0.07879659
158	0x3c2e9cb3	0.010657477
159	0xbd71c937	-0.059029784
160	0xbd678529	-0.056523476
161	0xbd9c07c6	-0.0761867
162	0xbda668ca	-0.08125456
163	0xbdaabd9a	-0.08336945
164	0xbd682463	-0.056675326
165	0xbccb4a56	-0.02481572
166	0xbd18060e	-0.03711515
167	0x3d8d05f5	0.06885902
168	0x3db40d28	0.08791572
169	0x3c74e4fc	0.014947172
170	0x3d03a952	0.0321439
171	0x3d0dce78	0.034620732
172	0xbdadce82	-0.08486654
173	0xbd7505c8	-0.059819967
174	0x3d05543d	0.03255104
175	0x3b41b355	0.0029556353
176	0x3d019e34	0.031645015
177	0x3d4bfeab	0.049803417
178	0xbd6489e8	-0.05579558
179	0xbd39c4ba	-0.04535363
180	0x3d83c8db	0.064347945
181	0xbd1df1eb	-0.03856079
182	0x3ce6db41	0.02818072
183	0x3b822d73	0.003972703
184	0xbd7f7995	-0.06237181
185	0x3d89c2d5	0.067266144
186	0x3d5716d7	0.052512016
187	0x3b059faf	0.0020389368
188	0xbc2a66a6	-0.01040045
189	0xbd959222	-0.07303263
190	0xbd8ac613	-0.06776061
191	0x3d77a10b	0.060456317
192	0x3cd88ede	0.026435312
193	0x3d37ed88	0.04490426
194	0x3d7b0ba6	0.061290406
195	0xbd3bb10a	-0.045823134
196	0xbc86afab	-0.016441187
197	0xbc6c9b49	-0.01444132
198	0x3d1cc6c4	0.038275495
199	0xbd616a34	-0.055032924
200	0xbda5cacf	-0.08095323
201	0x3d770885	0.06031086
202	0xbd6d11fb	-0.057878476
203	0x3cdcd7a4	0.026958294
204	0x3c7a416f	0.01527439
205	0xbda434a0	-0.0801785
206	0x3b9d2234	0.004795337
207	0x3ca5f0fb	0.02025651
208	0xbd90cff5	-0.07070915
209	0x3da467a9	0.08027584
210	0xbca11e5c	-0.019667797
211	0xbd9198ed	-0.071092464
212	0x3d8f3b66	0.06993751
213	0x3d061eca	0.032744206
214	0xbd8715cd	-0.06595955
215	0x3b3b3944	0.0028568069
216	0x3d04ac67	0.03239098
217	0xbd64d7ad	-0.055869747
218	0x3c1f0b83	0.009707334
219	0x3cd6cafb	0.026219836
220	0xbcdaa528	-0.02669008
221	0x3db56e21	0.08858896
222	0xbd4eb493	-0.050465178
223	0xba12e5ca	-0.0005603699
224	0x3d9ead46	0.07747893
225	0xbd706f66	-0.058699988
226	0xbd941223	-0.07230022
227	0x3d8889fa	0.06666942
228	0xbd048b65	-0.0323595
229	0x3c9eb6c5	0.01937426
230	0xbd560f50	-0.052260697
231	0x3d101468	0.03517571
232	0x3ce8b072	0.028404448
233	0x3da6f782	0.08152677
234	0xbc21f0d6	-0.00988408
235	0xbcad3735	-0.021144489
236	0x3cf7c0ec	0.03024336
237	0xbbc71a21	-0.006076113
238	0xbcbb225f	-0.022843538
239	0xbd0cfb77	-0.034419503
240	0x3bd1fea6	0.0064085303
241	0x3d6b6d36	0.0574772
242	0xbcc55217	-0.024086995
243	0x3d2b795e	0.04186379
244	0x3d6c4272	0.057680555
245	0xbd880614	-0.06641784
246	0x3d8fb837	0.07017558
247	0xbd82b1c1	-0.0638156
248	0x3bd4b261	0.006490991
249	0xbda8949d	-0.08231471
250	0xbbdf0cfa	-0.006806967
251	0x3dbb2e27	0.09139662
252	0x3d838891	0.06422532
253	0x3d5c191d	0.053734887
254	0x3d51f639	0.051260207
255	0xb991f9d9	-0.00027842706

bias f4 [64]
0	0x3dc5f466	0.09665756
1	0x3d73092d	0.059334923
2	0x3d5ed49e	0.054401986
3	0x3d74df45	0.05978324
4	0x3d408a97	0.04700717
5	0x3d671e4d	0.05642538
6	0x3d70fb8e	0.05883365
7	0xbcdeae2c	-0.027182661
8	0xbda04f4e	-0.07827626
9	0xbd20c2fb	-0.039248448
10	0xbc982725	-0.018573353
11	0xbd71d420	-0.05904019
12	0x3cec801d	0.028869683
13	0x3da20866	0.07911758
14	0xbd919429	-0.071083374
15	0xbd14e465	-0.036350626
16	0xbafe969b	-0.0019423546
17	0x3db6dcec	0.08928856
18	0xbd8e2aa2	-0.06941725
19	0x3d4e0e69	0.05030671
20	0xbca821c7	-0.020523919
21	0xbd7bb2d5	-0.061449844
22	0xbd3ed53b	-0.04659007
23	0x3d144c44	0.036205545
24	0xbcfae6bc	-0.0306276
25	0x3d621ceb	0.05520336
26	0x3d284615	0.04108246
27	0x3cb79063	0.022407716
28	0xbca6bff5	-0.020355204
29	0xbd117a43	-0.03551699
30	0x3d0ee644	0.034887567
31	0x3d7b1d80	0.06130743
32	0x3d86694a	0.06563051
33	0xbd0951de	-0.03352534
34	0x3b4f5db5	0.0031641547
35	0xbc96debb	-0.018416753
36	0x3d58f94b	0.05297212
37	0xbb994f37	-0.0046786326
38	0xbd882927	-0.06648474
39	0xbd8b9935	-0.06816331
40	0xbcee4c5f	-0.029089151
41	0xbd06e17c	-0.032929882
42	0x3d51536a	0.05110494
43	0x3d0b6418	0.034031004
44	0x3cb2c8ef	0.021824328
45	0xbce00214	-0.02734474
46	0xbd52f94d	-0.051507283
47	0x3d896e10	0.06710446
48	0x3d9f3a42	0.07774784
49	0xbd180935	-0.037118156
50	0xbd22c77a	-0.039741017
51	0x3c0d7799	0.008634471
52	0xbd688c19	-0.056774233
53	0x3d2624bd	0.04056238
54	0xbd3977b9	-0.045280192
55	0xbd9a8a52	-0.07545914
56	0xbd72c561	-0.059270266
57	0xbd0afee4	-0.03393449
58	0x3b8f673d	0.0043763206
59	0xbc536451	-0.012902335
60	0xbd6caa05	-0.05777933
61	0xbd9247a8	-0.071425736
62	0xbdb53416	-0.08847825
63	0x3d56f840	0.052482843

weight f4 [9, 64]
0	0xbde6e611	-0.112743504
1	0x3d21738e	0.039416842
2	0x3d8ee28a	0.06976803
3	0xbd42acfe	-0.04752826
4	0xbdde4ca6	-0.10854463
5	0xbd7d5780	-0.061851025
6	0xbd19798e	-0.03746944
7	0xbd6976e1	-0.056998137
8	0x3a6cc4e1	0.0009032023
9	0x3d9147a9	0.07093746
10	0xbd4760a6	-0.048676156
11	0xbdaf58b4	-0.08561841
12	0xbe0d0ea1	-0.13775112
13	0x3d63d75c	0.055625305
14	0x3d519b76	0.05117365
15	0xbc8bae04	-0.01705075
16	0xbda71771	-0.08158768
17	0xbd45af7f	-0.04826307
18	0xbc2a8d7a	-0.010409707
19	0x3da65be8	0.081229985
20	0x3d61e937	0.05515405
21	0x3dae9954	0.08525339
22	0xbac6aa7e	-0.0015157012
23	0xbd2d5814	-0.042320326
24	0xbd09c4cf	-0.033634957
25	0xbd84c471	-0.06482781
26	0x3d2d1947	0.042260434
27	0xbde42077	-0.11139005
28	0x3c7cc26d	0.015427214
29	0xbd16a962	-0.03678263
30	0xbdc82ce6	-0.09774189
31	0xbdc851c0	-0.097812176
32	0x3d8b3ccc	0.067987055
33	0xbe11d07c	-0.14239687
34	0xbc2e7c3b	-0.010649736
35	0x3d7eb228	0.06218162
36	0x3da40c17	0.080101185
37	0x3db7d4fa	0.08976169
38	0xbd3e7878	-0.046501607
39	0x3d85787a	0.0651712
40	0xbcebc7c3	-0.028781777
41	0x3d0bf5cc	0.034169957
42	0xbe02e2c2	-0.12781814
43	0xbbb2be79	-0.005454835
44	0xbd90344b	-0.07041224
45	0xbcc9c945	-0.024632106
46	0x3d2a4b04	0.041575447
47	0x3c480f1b	0.012210633
48	0x3b0a343d	0.0021088265
49	0xbdcb66f0	-0.09931743
50	0x3d374ff8	0.044754
51	0xbce10eb9	-0.02747284
52	0xbdf36c92	-0.118859425
53	0xbdfc1e5b	-0.12310477
54	0x3d3a935c	0.04555069
55	0xbd9f76d9	-0.0778634
56	0xbc5a1535	-0.01331072
57	0xbd272b6f	-0.040812906
58	0x3d5cfe93	0.05395372
59	0xbc8e9237	-0.017403705
60	0xbcaa0f85	-0.020759353
61	0xbc9491db	-0.018135956
62	0x3cbf9ecd	0.023391152
63	0xbe0f93e0	-0.14021254
64	0xbd83ce97	-0.06435888
65	0x3c46fc54	0.012145121
66	0x3d579c8b	0.052639525
67	0x3b6f4e80	0.0036515296
68	0x3d6b612c	0.057465717
69	0xbd3678db	-0.04454885
70	0xbdd03fb5	-0.10168401
71	0x3d937f6a	0.07202037
72	0xbcad411d	-0.021149212
73	0x3d716172	0.05893082
74	0xbd9be650	-0.07612288
75	0xbcfd23d5	-0.030900875
76	0xbccb55dc	-0.024821214
77	0x3b75ea3d	0.003752365
78	0xbe0515a5	-0.12996538
79	0xbd4ef109	-0.050522838
80	0xbd62559c	-0.055257425
81	0xbe0a207a	-0.13488951
82	0x3cf69726	0.03010137
83	0xbde9f602	-0.114238754
84	0xbdd18504	-0.10230449
85	0x3d9531d8	0.072848976
86	0xbcd444bf	-0.025911687
87	0xbe07dd7a	-0.1326808
88	0xba802be3	-0.0009778704
89	0x3dcc00de	0.09961103
90	0x3cbf4860	0.02334994
91	0x3d5e9e91	0.05435044
92	0xbdc57d3a	-0.09643026
93	0xbbf06228	-0.00733592
94	0xbc2007b9	-0.009767466
95	0xbe17525b	-0.1477751
96	0x3d38a0ee	0.04507535
97	0xbd007937	-0.0313656
98	0xbcdece3c	-0.02719795
99	0xbdd5f2e8	-0.10446721
100	0xbccefcbd	-0.025267
101	0xbd8211e2	-0.06351067
102	0xbe0dfa47	-0.13865004
103	0x3d8f3e0f	0.069942586
104	0xbe0cbe27	-0.13744412
105	0xbd61c20f	-0.05511671
106	0xbe08aadd	-0.13346429
107	0x3d8f0af7	0.06984513
108	0xbbc6b954	-0.0060645733
109	0xbe03db0f	-0.12876533
110	0x3b7534eb	0.0037415575
111	0x3d164750	0.036689103
112	0xbb96610f	-0.004589207
113	0x3d5bf407	0.05369952
114	0xbe0494ef	-0.12947439
115	0xbd29b95f	-0.04143655
116	0x3c3cb658	0.0115180835
117	0xbde53f99	-0.11193771
118	0xbd4302ff	-0.04761028
119	0xbd400897	-0.046883192
120	0x3d2d3e8e	0.042295985
121	0x3db1e1f7	0.086856775
122	0xbb17de34	-0.0023173215
123	0xbcc544ee	-0.02408072
124	0x3d0f7c08	0.035030395
125	0xbe18f971	-0.14938904
126	0xbd08d3e8	-0.033405215
127	0xbdb4cfd6	-0.08828704
128	0xbde39c32	-0.11113776
129	0xbd09e80a	-0.033668555
130	0x3cdd3999	0.027005004
131	0x3d3a0ba1	0.045421246
132	0x3b3c0055	0.0028686721
133	0x3cda5aeb	0.026654681
134	0x3d851328	0.064977944
135	0xbe03ad1a	-0.12859002
136	0xbda6f236	-0.08151667
137	0x3d84972b	0.064741455
138	0x3d6de144	0.05807616
139	0xbb8d8d8f	-0.0043198536
140	0xbd674636	-0.056463443
141	0xbda2bbb6	-0.07945959
142	0xbda09b81	-0.0784216
143	0xbd838831	-0.06422461
144	0x3dafe902	0.085893646
145	0xbcb71eea	-0.022353608
146	0xbd5b37a8	-0.053519875
147	0xbe124a56	-0.1428617
148	0xbdc34999	-0.09535522
149	0x3c9aa517	0.01887755
150	0xbd7e3e25	-0.062070984
151	0xbe13b67a	-0.14425078
152	0x3d3a6dd2	0.04551489
153	0x3d30de3c	0.04318069
154	0xbc4f3034	-0.01264577
155	0xbdf865b7	-0.121287756
156	0xbd6dd301	-0.058062557
157	0xbc71d850	-0.014761046
158	0xbd27ce28	-0.04096809
159	0xb9e53ba0	-0.00043722708
160	0xbdc04c23	-0.09389522
161	0xbc246e89	-0.010036119
162	0xbc78c8c0	-0.015184581
163	0x3b0c519c	0.0021410948
164	0xbdc2c57e	-0.09510325
165	0xbc0b82c0	-0.00851506
166	0xbe165f38	-0.1468476
167	0xbd842db7	-0.06454032
168	0x3cfc58d5	0.030804077
169	0xbd6d36ff	-0.057913776
170	0xbdc5a327	-0.096502595
171	0xbdbc0a9e	-0.091817126
172	0x3da5463f	0.08070039
173	0x3da1c834	0.07899514
174	0xbde8398b	-0.113391005
175	0x3d40bf5c	0.047057495
176	0x3d3fd673	0.046835374
177	0x3dafb8e7	0.08580189
178	0xbdb13ade	-0.08653806
179	0x3d615d1b	0.055020433
180	0xbbe34eb4	-0.0069368724
181	0xbe203b7a	-0.15647689
182	0xbab08956	-0.0013468664
183	0x3d8d68f0	0.06904781
184	0x3d0be035	0.034149367
185	0x3da615a8	0.08109599
186	0x3dbd0f81	0.09231473
187	0x3d8c72f5	0.06857864
188	0x3d27f233	0.041002464
189	0xbddfaf94	-0.10922161
190	0xbd5dc66d	-0.05414431
191	0x3c575761	0.013143391
192	0x3dbdd17a	0.0926847
193	0x3ddd688d	0.10810957
194	0xbc36b908	-0.011152513
195	0xbdc4ca1f	-0.09608864
196	0xbd0b8942	-0.034066446
197	0x3dc279cc	0.09495887
198	0x3c2e5a64	0.010641668
199	0x3d0afa86	0.033930324
200	0x3d607b93	0.05480535
201	0xbbc93222	-0.0061400095
202	0xbd240607	-0.04004481
203	0xbda9f822	-0.08299281
204	0x3d998306	0.07495694
205	0xbdd2e69d	-0.10297892
206	0xbd419471	-0.047260705
207	0xbdae9e96	-0.085263416
208	0xbdc77dd9	-0.097408004
209	0x3dfd9500	0.12381935
210	0x3b237b31	0.0024945254
211	0xbba7b94a	-0.0051185237
212	0xbc09f6a9	-0.008420625
213	0xbdd91440	-0.105995655
214	0x3c7a78ba	0.0152875725
215	0xbc258abb	-0.010103877
216	0xbda34dbd	-0.07973812
217	0x3d8dad57	0.069178276
218	0x3dca158c	0.09867391
219	0xbd1fe9a9	-0.039041195
220	0xbc2b28ef	-0.010446771
221	0x3d2e9efc	0.042632088
222	0x3da35d9c	0.07976839
223	0x3db4168d	0.08793364
224	0xbd39dad6	-0.045374714
225	0x3de5749a	0.112038806
226	0xbdb464ff	-0.08808326
227	0x3c15a932	0.009134578
228	0x3dda8aef	0.10671031
229	0x3d25463e	0.04035019
230	0xbb2cc1ee	-0.0026360708
231	0x3d2a819e	0.04162752
232	0xbd9a8f2c	-0.07546839
233	0xbcf8c2f2	-0.030366395
234	0x3d754fb7	0.059890475
235	0xbd3ae827	-0.045631554
236	0xbdddf733	-0.10838165
237	0x3dabe5bf	0.0839343
238	0xbb81acf7	-0.0039573866
239	0x3bdd0a1d	0.0067455904
240	0x3e02d30a	0.12775818
241	0x3d777529	0.060414467
242	0x3e078032	0.13232496
243	0xbbdcc4d9	-0.0067373333
244	0x3db01837	0.085983686
245	0x3c1358c9	0.008993336
246	0xbdec1dc5	-0.115291156
247	0xbd7cb338	-0.061694354
248	0x3db885c2	0.09009887
249	0x3d5d512f	0.0540325
250	0x3cbd5459	0.02311151
251	0xbd87a56d	-0.06623349
252	0x3c79ba3b	0.015242155
253	0xbd59991f	-0.053124543
254	0xbcac2fb6	-0.021018844
255	0x3d1453b6	0.036212645

bias f4 [9]
0	0xbdf44675	-0.11927501
1	0xbdcda108	-0.1004048
2	0xbd40fbaf	-0.047115024
3	0x3dda1106	0.10647778
4	0x3db7098e	0.08937369
5	0xbcc89066	-0.024482917
6	0xbdff87c3	-0.12477066
7	0xbd85318f	-0.06503593
8	0x3cb77aa5	0.022397349
