models/model2.onnx (onnx, 65557 bytes, 6 tensors)

linear1.weight f4 [128, 60]
0	0x3dc97a64	0.09837797
1	0xbda08f6e	-0.07839857
2	0x3d8cae42	0.068691745
3	0xbdf01d04	-0.11724284
4	0x3c832d28	0.016012743
5	0x3da06bbc	0.07833049
6	0xbd553368	-0.052050978
7	0x3e01f5c3	0.12691407
8	0xbce2bd80	-0.027678251
9	0xbd008e78	-0.03138587
10	0xbd83c815	-0.06434647
11	0xbdba6a86	-0.09102349
12	0x3e02fa85	0.12790878
13	0x3dbb4624	0.09144238
14	0xbdbb82b7	-0.09155791
15	0xbd4ee54a	-0.050511636
16	0x3d268484	0.04065372
17	0xba3b2100	-0.0007138401
18	0xbde560c3	-0.112000965
19	0x3d96d046	0.07363944
20	0xbc05c218	-0.008163951
21	0x3df26884	0.11836341
22	0x3d1cc214	0.038271025
23	0xbd682cce	-0.056683354
24	0x3d586264	0.052828208
25	0x3db0a3e6	0.08625011
26	0x3de170e4	0.1100786
27	0xbd049004	-0.032363907
28	0xbd88a6ff	-0.06672477
29	0xbce78fd8	-0.028266832
30	0x3dd514ba	0.10404344
31	0x3d9f9958	0.0779292
32	0xbcae3570	-0.021265715
33	0xbd4be332	-0.049777217
34	0xbd2651c6	-0.04060533
35	0xbdace5f8	-0.084423006
36	0x3b181200	0.0023204088
37	0xbce3fd60	-0.02783078
38	0xbde57234	-0.11203423
39	0x3d6ce6bc	0.057837233
40	0x3d77ef18	0.060530752
41	0x3d838818	0.06422442
42	0x3c6ac940	0.014330208
43	0xbdc8889f	-0.097916834
44	0xbc87a184	-0.016556509
45	0xbd312bea	-0.04325477
46	0xbdabd203	-0.08389666
47	0xbd2b1a9a	-0.041773416
48	0x3d266b58	0.040629715
49	0xbdfc7671	-0.123272784
50	0x3d5b8ecc	0.05360298
51	0x3d0a3e34	0.033750728
52	0x3d7cf248	0.061754495
53	0xbd6eeb8e	-0.05833011
54	0xbd02a11c	-0.031891927
55	0x3d8a005e	0.06738351
56	0xbd24df1c	-0.040251836
57	0x3c476f30	0.012172505
58	0x3d89e6de	0.067334875
59	0xbd6e2b40	-0.058146715
60	0x3dc528d4	0.09626928
61	0xbdfbc012	-0.12292494
62	0xbdca3ef4	-0.098752886
63	0x3d87081c	0.065933436
64	0x3d9ba01e	0.07598899
65	0x3cf80348	0.030275002
66	0xbdefd2a9	-0.11710102
67	0x3dad0fc0	0.0845027
68	0x3dbb89ea	0.091571644
69	0xbdcc03dc	-0.099616736
70	0x3c07d130	0.00828962
71	0x3def16d8	0.11674279
72	0x3ceb8f60	0.02875489
73	0x3dcbb66e	0.09946905
74	0x3d35ff80	0.044433117
75	0x3dd8e5e0	0.1059072
76	0x3dffd01a	0.12490864
77	0x3c85aa08	0.016316429
78	0xbda3432e	-0.07971798
79	0x3cb1d200	0.021706581
80	0xbdb2098f	-0.086932294
81	0x3dc7b54c	0.097513765
82	0x3b7b6f00	0.0038365722
83	0xbc27c900	-0.010240793
84	0x3e012f03	0.1261559
85	0xbcf53050	-0.029930264
86	0xbcae59b8	-0.021283016
87	0x3dd9e728	0.10639793
88	0xbd5cb34a	-0.05388192
89	0xbcb071bc	-0.021538608
90	0x3de31028	0.11087066
91	0xbd2af294	-0.041735247
92	0x3c5c79e0	0.013456792
93	0x3dc673fc	0.09690091
94	0xbd21c0e8	-0.03949061
95	0xbdc01cd8	-0.093805015
96	0x3dbd53d8	0.092445076
97	0xbbf30270	-0.007416062
98	0xbd83ac85	-0.0642939
99	0x3d70c8b4	0.058785155
100	0x3d425e48	0.047453195
101	0xbde1484e	-0.11000119
102	0xbe040d88	-0.12895787
103	0xbdd9c76f	-0.10633742
104	0xbddf0ed6	-0.108915016
105	0xbde6d1d3	-0.112704895
106	0xbd1d5fca	-0.03842143
107	0xbd9a02e6	-0.07520084
108	0x3c7ef460	0.015561193
109	0xbddc4c8d	-0.107567884
110	0x3de9da2c	0.11418566
111	0xbbcc2d60	-0.006230995
112	0xbded5a78	-0.11589521
113	0xbc830fb0	-0.015998691
114	0xbd92ade0	-0.0716207
115	0xbe004386	-0.12525758
116	0xbe0133fc	-0.12617487
117	0xbd2f6df4	-0.04282947
118	0x3daa66fa	0.083204225
119	0xbdddd103	-0.108308814
120	0x3de64b00	0.11244774
121	0x3d9c4870	0.07631004
122	0x3ce21138	0.027596101
123	0xbc90af70	-0.01766178
124	0xbdc6969c	-0.09696695
125	0x3dbf37ae	0.09336792
126	0xbdf94037	-0.12170451
127	0x3d51132c	0.051043674
128	0xbbf5aa20	-0.007497087
129	0xbc85cef4	-0.016334035
130	0xbde6dbe1	-0.11272407
131	0xbdabb058	-0.08383244
132	0x3d6ba65c	0.0575317
133	0xbb221400	-0.002473116
134	0x3dbd377e	0.092391
135	0x3d56a5e8	0.052404314
136	0xbd166f20	-0.03672707
137	0x3c404da0	0.011737257
138	0xbd708614	-0.058721617
139	0x3d548f5c	0.05189453
140	0x3ddaf1f4	0.1069068
141	0xbdc872d6	-0.09787528
142	0xbd07cdb4	-0.03315516
143	0x3d8d965a	0.06913443
144	0x3d4c820c	0.04992871
145	0x3d816d5c	0.06319687
146	0xbd94f6ab	-0.07273611
147	0xbd8a8276	-0.06763165
148	0x3d6e1d58	0.058133453
149	0x3dec4b04	0.115377456
150	0xbda05aaa	-0.07829793
151	0x3d7c32f0	0.061572015
152	0x3dc2d1ee	0.09512697
153	0xbda69dde	-0.081355795
154	0x3dc2cfba	0.09512277
155	0x3d66a7ec	0.056312487
156	0x3cee0eb8	0.029059753
157	0xbced35dc	-0.028956346
158	0x3d960cdc	0.073266715
159	0x3dd7a650	0.105297685
160	0xbde6bf7c	-0.112669915
161	0xbc9ce338	-0.019151315
162	0x3dcbd26c	0.09952244
163	0x3de9c584	0.11414626
164	0x3da05d5e	0.078303084
165	0x3d4f42cc	0.05060081
166	0x3e019d81	0.12657739
167	0x3da6941a	0.08133717
168	0xbc1dcf38	-0.009631924
169	0xbcd35748	-0.025798455
170	0xbd70f3aa	-0.058826126
171	0xbdcb6cce	-0.09932862
172	0x3c31b200	0.010845661
173	0xbde03ab8	-0.109487
174	0xbd5c5b36	-0.053797923
175	0xbdc5799e	-0.09642337
176	0x3daa6022	0.08319117
177	0x3d9db8f8	0.077012956
178	0x3d9c0af8	0.076192796
179	0xbc041eb0	-0.008063957
180	0xbdb06e1c	-0.08614752
181	0x3cecbc68	0.028898433
182	0x3df218a0	0.11821103
183	0xbc981084	-0.018562563
184	0x3d853c54	0.06505647
185	0x3dbd50fc	0.09243962
186	0xbda441f2	-0.080203906
187	0xbd92aad0	-0.07161486
188	0x3d233184	0.039842144
189	0xbdb262f2	-0.087102786
190	0x3df31ae6	0.11870365
191	0x3dace1b2	0.084414855
192	0xbc5fc7f0	-0.013658509
193	0x3d7c6b64	0.061625853
194	0xbd8189b8	-0.06325096
195	0x3c735d40	0.0148537755
196	0x3df0c592	0.117564335
197	0xbd0f4e28	-0.034986645
198	0x3dacf36c	0.084448665
199	0xbce89a48	-0.02839388
200	0x3dead74e	0.11466847
201	0x3dd919ac	0.106006
202	0x3d04b1ac	0.032396004
203	0x3d807e9e	0.0627415
204	0xbdfed708	-0.12443358
205	0x3da65f7e	0.081236824
206	0xbca1b97c	-0.019741766
207	0xbc9b9698	-0.018992707
208	0x3c8ef008	0.01744844
209	0xbabf3400	-0.0014587641
210	0x3dfb7dbe	0.12279843
211	0xbdc9847c	-0.098397225
212	0x3d900d58	0.07033795
213	0x3daa3ede	0.08312772
214	0x3bbdf340	0.00579682
215	0x3b754240	0.0037423521
216	0xbd694cf8	-0.05695817
217	0xbc493950	-0.012281731
218	0xbdde1f75	-0.10845844
219	0xbbf454d0	-0.0074563995
220	0x3d1f85d0	0.038945973
221	0x3d148714	0.036261633
222	0xbdb5fddc	-0.088863105
223	0x3d962282	0.073308006
224	0x3d6146c0	0.054999113
225	0x3deb9ac6	0.1150413
226	0x3de73c10	0.11290753
227	0x3db80cc2	0.08986808
228	0xbd328a66	-0.04358902
229	0x3dc93c8c	0.098260015
230	0xbd01485e	-0.031563155
231	0xbd2cc636	-0.042181216
232	0xbcce2424	-0.025163718
233	0x3dc42fb4	0.09579411
234	0x3d973ff4	0.07385245
235	0xbda30c8e	-0.07961379
236	0x3c4a4d90	0.012347594
237	0xbd980662	-0.074230924
238	0x3dc88b56	0.09792201
239	0x3d565b34	0.05233307
240	0x3de27cbe	0.11058949
241	0x3d8b5428	0.06803161
242	0xbcea05ec	-0.028567277
243	0x3dddece0	0.10836196
244	0xbe000fff	-0.12506102
245	0xbdb996ab	-0.09061941
246	0xbd2a367c	-0.041555867
247	0xbdd05a04	-0.10173419
248	0xbd69d830	-0.057090938
249	0xbcd99290	-0.026559144
250	0xbb9dd630	-0.004816793
251	0xbdb2acf7	-0.08724397
252	0xbd5017ac	-0.050803825
253	0x3da0a68e	0.07844268
254	0xbd8cbedb	-0.0687234
255	0xbc969794	-0.018382825

linear1.bias f4 [128]
0	0x3d10a0c0	0.035309553
1	0x3deab42a	0.11460145
2	0x3d69d0b8	0.057083815
3	0xbde84615	-0.11341492
4	0xbdfd4269	-0.12366182
5	0x3bd605e0	0.006531462
6	0x3d5e4e88	0.054274112
7	0x3de64a5e	0.11244653
8	0xbcaa10c8	-0.020759955
9	0xbc0a3e88	-0.00843776
10	0x3d87af20	0.06625199
11	0xbc926d9c	-0.017874531
12	0xbda7b89c	-0.08189508
13	0xbad9c400	-0.0016614199
14	0xbdf80e48	-0.12112099
15	0x3c8df988	0.0173309
16	0xbd9c509c	-0.076325625
17	0x3d05867c	0.032598957
18	0x3df353ca	0.11881216
19	0xbc93f5e0	-0.018061578
20	0x3dfdae56	0.123867676
21	0x3da76734	0.08173981
22	0xbdc81572	-0.09769715
23	0xbdb4b1ac	-0.08822951
24	0xbd04efe0	-0.032455325
25	0xbd521cd8	-0.05129704
26	0x3dcced02	0.10006143
27	0x3e03b769	0.12862934
28	0xbdca7c7a	-0.09887023
29	0x3ca2ea08	0.019886985
30	0xbd9fcf5d	-0.07803223
31	0xbc26cc08	-0.010180481
32	0x3dddea28	0.108356774
33	0xbdca2ed7	-0.09872215
34	0xbbeb9a40	-0.007190019
35	0xbd3f4fc4	-0.04670693
36	0xbc22c950	-0.009935692
37	0xbd494b7a	-0.049144246
38	0x3c8cf1c0	0.01720512
39	0xbdd0a6a5	-0.10188035
40	0x3df12670	0.117749095
41	0x3c823b38	0.015897378
42	0xbd0b6e52	-0.034040757
43	0x3e002fd3	0.12518243
44	0x3dd057ba	0.101729825
45	0x3dc3fb36	0.09569399
46	0x3d9d3430	0.076759696
47	0xbdf676eb	-0.120344006
48	0x3d281594	0.041036204
49	0xbd541a68	-0.051782995
50	0x3be08200	0.0068514347
51	0x3db4446c	0.08802113
52	0xbda37f99	-0.07983322
53	0x3db3886a	0.08766253
54	0xbe00a021	-0.12561084
55	0x3c4f0260	0.012634844
56	0x3d81831a	0.06323834
57	0xbdb33191	-0.087496884
58	0xbdb7ffd2	-0.08984341
59	0x3d9caf5a	0.07650633
60	0x3db35d6c	0.08758053
61	0xbd3db996	-0.046319567
62	0x3d449e08	0.048002273
63	0xbd3be28c	-0.04587035
64	0x3d322c3c	0.043499216
65	0x3ccdeca0	0.025137246
66	0x3dbbc7c2	0.0916896
67	0xbdc2cc50	-0.09511626
68	0x3d8f1dd0	0.06988108
69	0x3df1a6be	0.11799382
70	0x3dd9781e	0.10618614
71	0xbc391f70	-0.011298999
72	0xbd54bdc8	-0.051938802
73	0x3c8575d0	0.016291529
74	0x3d8c8ad8	0.0686242
75	0x3d20e5dc	0.03928171
76	0x3dcab716	0.09898202
77	0xbcae1f5c	-0.021255188
78	0x3d8a44a2	0.06751372
79	0x3cf5f608	0.030024543
80	0xbbdf4ff0	-0.006814949
81	0x3d5dfce4	0.054196253
82	0x398e7600	0.00027172267
83	0xbde199f8	-0.11015695
84	0xbdd859ec	-0.10564026
85	0x3d8e0062	0.06933667
86	0x3de00214	0.10937896
87	0x3dde0242	0.108402744
88	0x3d683bf4	0.0566978
89	0xbcbf62fc	-0.02336263
90	0xbaa7fb80	-0.0012816042
91	0xbd82d43a	-0.06388135
92	0x3cca4a00	0.02469349
93	0xbd626046	-0.055267595
94	0xbdbab818	-0.09117144
95	0xbc40e900	-0.0117743015
96	0x3c3f2be0	0.011668175
97	0x3e03736f	0.12837003
98	0xbd30dd5e	-0.043179862
99	0xbdbd4959	-0.092425056
100	0xbd22fe60	-0.039793372
101	0x3cff3418	0.03115277
102	0x3e032677	0.12807642
103	0x3d8b192c	0.067919105
104	0x3e039517	0.12849842
105	0x3df0ca42	0.117573276
106	0x3dd14dea	0.10219939
107	0x3d11fd48	0.03564194
108	0x3cc90428	0.024538115
109	0x3d811032	0.06301917
110	0x3d6dfc98	0.05810222
111	0xbd19acd4	-0.037518337
112	0x3de4162e	0.11137043
113	0x3dad7620	0.08469796
114	0xbda09732	-0.07841338
115	0x3db7301e	0.089447245
116	0x3d5fe5b8	0.054662436
117	0x3d0c88e0	0.03431022
118	0x3d1328a8	0.035927445
119	0xbd5c4c8c	-0.05378394
120	0xbd971700	-0.07377434
121	0x3def77a8	0.116927445
122	0xbde93445	-0.11386923
123	0x3d1b8ed8	0.037978023
124	0x3d86755e	0.06565355
125	0xbd9e8ec7	-0.07742076
126	0xbd9235e6	-0.071391866
127	0xbd5dd058	-0.05415377

linear2.weight f4 [64, 128]
0	0x3daa400b	0.083129965
1	0xbd082433	-0.033237647
2	0x3daaa5d3	0.0833241
3	0x3d98b695	0.074567
4	0x3d1e6792	0.03867299
5	0xbcdd11a4	-0.02698595
6	0xbda23f5d	-0.07922242
7	0xbda3491d	-0.079729296
8	0x3ccc544c	0.02494254
9	0xbd6c67ae	-0.057716064
10	0xbc3a06f8	-0.011354201
11	0x3c41e1e8	0.011833645
12	0xbd43613e	-0.04770016
13	0xbd2af2ba	-0.04173539
14	0x3ce4f940	0.027950883
15	0xbd0de6e2	-0.034644015
16	0x3bbd35d0	0.005774237
17	0xbcd23f10	-0.025664836
18	0x3ccd3640	0.025050282
19	0xbac14980	-0.0014746636
20	0x3d9d1b97	0.07671278
21	0x3d9998e5	0.074998654
22	0x3ba9ee10	0.00518585
23	0xbd508780	-0.050910473
24	0x3d75ac3a	0.0599787
25	0xb8b2b800	-8.521974e-05
26	0x3d9813e5	0.074256696
27	0x3d2874fa	0.041127183
28	0x3b3df8e0	0.0028987452
29	0xba740980	-0.0009309277
30	0xbc922d7c	-0.017843954
31	0xbda2568e	-0.07926665
32	0x3d8ffd3d	0.07030723
33	0xbd899fbe	-0.067199215
34	0xbd4dbcf2	-0.05022902
35	0x3d3d582a	0.046226658
36	0xbd4c0282	-0.04980708
37	0x3d31ce6e	0.043409757
38	0xbd87694c	-0.06611881
39	0x3a2fd500	0.00067074597
40	0xbd8367a2	-0.06416251
41	0xbd85ec34	-0.06539193
42	0x3bdd5230	0.0067541823
43	0x3d7450f2	0.059647508
44	0x3cae0fb8	0.02124773
45	0xbd687952	-0.056756325
46	0x3b051220	0.0020304993
47	0x3d28d016	0.04121407
48	0xbdab1d33	-0.08355179
49	0xbd4249c8	-0.047433645
50	0xbcffc692	-0.031222615
51	0x3c2eed70	0.010676727
52	0x3bacfb90	0.005279012
53	0x3cbb25ac	0.022845112
54	0xbd8628da	-0.065507606
55	0xbda2c114	-0.07946983
56	0x3da6a671	0.08137215
57	0x3d1e1ace	0.03859978
58	0xbd581ab5	-0.052759845
59	0xbcccde60	-0.02500838
60	0x3b56d820	0.003278263
61	0x3d281a2e	0.041040592
62	0x3d86bd8f	0.06579124
63	0xbd26356c	-0.04057829
64	0x3b42ee00	0.002974391
65	0x3c491eb0	0.012275383
66	0x3d012710	0.031531394
67	0x3c53d368	0.012928821
68	0x3db48b61	0.08815647
69	0xbd990a51	-0.07472671
70	0x3c4b4b88	0.012408145
71	0xbd3f9041	-0.04676843
72	0xbd98ea6e	-0.07466589
73	0x3d872645	0.06599096
74	0x3bbfea40	0.005856782
75	0xbda3daf7	-0.080007486
76	0xbd80dd42	-0.062922016
77	0x3d83ff8f	0.06445228
78	0x3d0d5bc0	0.034511328
79	0xbd97e5d7	-0.07416885
80	0x3d6b9e6e	0.057524137
81	0x3d059cec	0.032620355
82	0xbcc05ce8	-0.023481801
83	0xbdaf1956	-0.08549754
84	0xbca66368	-0.020311072
85	0x3c08aa48	0.008341379
86	0x3d9aad23	0.075525545
87	0x3d69a1ba	0.057039
88	0x3d86ab3f	0.06575631
89	0x3d3f7fc2	0.0467527
90	0xbdb1ce45	-0.08681921
91	0xbd1953d7	-0.03743347
92	0x3d935403	0.07193758
93	0x3c9eadf4	0.019370057
94	0xbb87e2a0	-0.004146889
95	0xbd9df1d7	-0.07712143
96	0x3cb9f208	0.022698417
97	0x3dac4621	0.084118135
98	0xbd42f80f	-0.04759985
99	0x3d92bcc5	0.07164911
100	0x3a800880	0.0009768158
101	0xbb4e9e00	-0.003152728
102	0xbcbed77c	-0.02329611
103	0xbced7072	-0.028984282
104	0xbd33211f	-0.04373276
105	0x3d8589f5	0.06520454
106	0x3b944020	0.004524246
107	0xbd66578e	-0.056235842
108	0x3cc7a6fc	0.024371617
109	0xbcab8218	-0.020936057
110	0xbbdb25e0	-0.0066878647
111	0x3bb7f440	0.0056138337
112	0xbc0129e8	-0.007883526
113	0x3d028b40	0.03187108
114	0xbcd82994	-0.026387013
115	0xbd7e2783	-0.0620494
116	0x3d7eaaca	0.062174596
117	0xbd2d8226	-0.042360447
118	0x3d3f03e6	0.046634577
119	0xbdb4a401	-0.08820344
120	0x3d72381e	0.05913555
121	0x3d8e723d	0.06955383
122	0xbd0e8be7	-0.03480139
123	0xbd0886f6	-0.033331834
124	0xbd355b89	-0.044276748
125	0xbd154d82	-0.03645087
126	0xbda57ef4	-0.08080855
127	0xbb17eb00	-0.0023180842
128	0x3db498bd	0.08818195
129	0x3ca6a594	0.020342626
130	0x3d4b2c6e	0.04960292
131	0x3daea0eb	0.085267864
132	0xbc90f4d0	-0.01769486
133	0xbd54d8f9	-0.051964734
134	0xbd9ccf89	-0.07656772
135	0xbd1886c7	-0.03723791
136	0xbd2cbb8d	-0.04217105
137	0xbb225f20	-0.0024775937
138	0x3d35466e	0.04425662
139	0xbd46a8f7	-0.04850098
140	0x3da0c8d3	0.07850804
141	0xbd6135f3	-0.05498309
142	0xbd431902	-0.04763127
143	0xbd92a269	-0.071598835
144	0xbb3e67e0	-0.0029053614
145	0x3cd73474	0.026270129
146	0x3c3dbf38	0.011581235
147	0xbb7ffa60	-0.0039059147
148	0xbd45c119	-0.048279855
149	0x3da68907	0.08131605
150	0x3c78f350	0.015194729
151	0x3d8b8af7	0.06813615
152	0x3d816633	0.06318321
153	0xbd2f9809	-0.0428696
154	0xbd200acb	-0.039072793
155	0x3c6bcc10	0.014391914
156	0x3d2d1b46	0.042262338
157	0x3c01ed60	0.00793013
158	0x3d83b5fb	0.064311944
159	0xbc17e8d8	-0.009271823
160	0xbd965127	-0.07339697
161	0xbc0dbe10	-0.008651271
162	0xbd19a0e4	-0.037506953
163	0x3c904e70	0.017615527
164	0xbd5f9fe8	-0.054595858
165	0x3ccb57b4	0.024822094
166	0xbd94a3d3	-0.072578095
167	0x3c00f3a0	0.007870585
168	0x3b969060	0.0045948476
169	0x3cd41294	0.025887765
170	0x3d7e66f2	0.062109895
171	0xbd2bb9e9	-0.041925345
172	0x3d46708e	0.048447184
173	0x3d8fc9fb	0.070209466
174	0xbbf4c930	-0.0074702725
175	0xbc23b1d0	-0.009991124
176	0x3d60a816	0.0548478
177	0xbd77d7e2	-0.060508616
178	0x3d2164da	0.03940282
179	0xbdab3c73	-0.08361139
180	0xbd3804a8	-0.044926316
181	0xbd4d6068	-0.05014077
182	0x3d835551	0.06412757
183	0xbc28c140	-0.010299981
184	0x3cf8b9f8	0.030362114
185	0xbd247dc7	-0.040159013
186	0xbcc827d0	-0.024433047
187	0x3b52e020	0.0032177046
188	0xbd208d60	-0.039197326
189	0x3d6eac2e	0.058269672
190	0xbcdce2c6	-0.026963603
191	0x3c2e9c18	0.010657333
192	0x3dae3b2b	0.08507379
193	0x3d4d94ea	0.050190844
194	0x3dab71a5	0.08371285
195	0xbd26eefe	-0.040755264
196	0x3d8fbaa5	0.070180215
197	0x3d34be0e	0.044126563
198	0x3c119800	0.008886337
199	0x3c56b778	0.013105266
200	0xbd6e8977	-0.058236565
201	0xbd80b282	-0.06284048
202	0xbd29054d	-0.04126482
203	0x3bfe9290	0.0077689365
204	0x3cc70214	0.024292983
205	0x3c9f0044	0.019409306
206	0x3da03047	0.07821708
207	0xbd87ddc9	-0.06634099
208	0x3cee7ccc	0.029112242
209	0xbdb13b53	-0.08653893
210	0xbd19af39	-0.03752062
211	0x3cf39fdc	0.029739313
212	0x3d92a291	0.07159913
213	0x3b3fea80	0.002928406
214	0x3cb15048	0.021644726
215	0x3d796fae	0.06089752
216	0xbd7d65e3	-0.061864745
217	0xbdab824c	-0.083744615
218	0x3d964223	0.07336833
219	0xbcf44dce	-0.029822256
220	0x3d674e12	0.056470938
221	0x3d9c4185	0.07629684
222	0xbcd3e21c	-0.025864653
223	0x3d0821c2	0.03323532
224	0x3d9a22a1	0.07526136
225	0x3d7488c6	0.05970075
226	0xbd1cc550	-0.03827411
227	0xbd46b773	-0.048514795
228	0xbb6f5e00	-0.0036524534
229	0xbd79529b	-0.060869794
230	0xbd26cfa9	-0.040725384
231	0x3d97d207	0.074131064
232	0xbd793df8	-0.060850114
233	0xbd9b7522	-0.07590701
234	0x3bd09390	0.006365247
235	0x3d091e24	0.03347601
236	0xbd5c284a	-0.05374936
237	0xbd6fdf82	-0.058562763
238	0x3c2d3b08	0.010573156
239	0xbda40b75	-0.08009998
240	0x3da25729	0.07926781
241	0xbd4275a7	-0.047475483
242	0xbd35bead	-0.044371296
243	0x3d9b9c23	0.0759814
244	0x3baf6d10	0.0053535774
245	0xbcef2b02	-0.029195312
246	0xbcf4dd6a	-0.029890735
247	0x3d3b99f2	0.04580111
248	0x3d70df16	0.0588065
249	0x3d319472	0.04335446
250	0xbcd8bc80	-0.026457071
251	0x3d939f6d	0.072081424
252	0xbcb96960	-0.022633255
253	0x3c89db7c	0.016828291
254	0x3d0ae5ac	0.03391044
255	0x3db2ae47	0.08724647

linear2.bias f4 [64]
0	0x3d98cdc5	0.074611224
1	0x3cc3eb54	0.023915924
2	0x3d86dbb3	0.06584873
3	0x3da73ee5	0.08166293
4	0x3c7d0600	0.015443325
5	0xbcb9aa44	-0.022664197
6	0xbd294537	-0.041325774
7	0xbd1bf7d3	-0.03807814
8	0xbcf5e56e	-0.030016627
9	0x3c53c178	0.0129245445
10	0x3d7d2a4e	0.061807923
11	0x3d870943	0.065935634
12	0x3d22e81a	0.03977213
13	0xbcb71694	-0.022349633
14	0xbd9125ac	-0.070872635
15	0x3c630cc0	0.01385802
16	0xbce9a06a	-0.028518874
17	0xbd8ea75e	-0.069655165
18	0xbd420922	-0.04737199
19	0xbc0dc4a8	-0.008652844
20	0xbd68b548	-0.05681351
21	0x3da10743	0.07862713
22	0x3b88d710	0.004176028
23	0xbdafee01	-0.085903175
24	0x3d71672e	0.05893629
25	0x3ce42cfc	0.027853481
26	0xbd9501ec	-0.07275757
27	0x3db07d09	0.086175986
28	0xbc0524f0	-0.008126482
29	0xbceb5e9a	-0.028731633
30	0x3ca3c500	0.019991398
31	0x3d252272	0.040316053
32	0x3d2e958a	0.04262308
33	0x3cf30c90	0.029669076
34	0x3cc3ff20	0.023925364
35	0x3d8f117d	0.069857575
36	0x3d90a0ff	0.070619576
37	0x3d8b28b9	0.067948766
38	0x3bb181f0	0.005417101
39	0xba498d00	-0.0007688552
40	0x3d5a751a	0.053334333
41	0xbcf424ba	-0.029802669
42	0xbd8a093e	-0.06740044
43	0xbd74f15b	-0.059800487
44	0xbd57cc65	-0.05268516
45	0xbd3c49cd	-0.04596882
46	0x3d1623a2	0.036655076
47	0xbd919242	-0.071079746
48	0xbd51a8c9	-0.051186357
49	0xbce93d9e	-0.028471764
50	0xbbc78930	-0.006089352
51	0x3b6c4580	0.0036052167
52	0xbdb3050b	-0.08741196
53	0xbd368286	-0.04455807
54	0xbd7ca7f4	-0.06168361
55	0x3daba563	0.083811544
56	0xbb321500	-0.0027173162
57	0xbd3dbf9b	-0.046325307
58	0xbce7a96c	-0.028279029
59	0xbd917271	-0.07101906
60	0x3d8f9b0f	0.07011997
61	0xbcba15fc	-0.022715561
62	0xbd82f36b	-0.063940845
63	0x3d4b38a2	0.049614556

linear3.weight f4 [2, 64]
0	0x3d1fe91c	0.03904067
1	0xbdd127e0	-0.10212684
2	0xbd896436	-0.06708567
3	0xbda01d6e	-0.07818113
4	0xbdf0831e	-0.117437586
5	0xbd76f254	-0.060289696
6	0x3c9c4d08	0.0190797
7	0xbd2990e4	-0.041397944
8	0x3c88d780	0.01670432
9	0xbcd9cd48	-0.026587144
10	0xbda12b7e	-0.078696236
11	0x3cdda2d8	0.027055189
12	0xbcd42550	-0.025896698
13	0xbda1ed40	-0.0790658
14	0xbdd02642	-0.10163547
15	0x3d7747d4	0.060371235
16	0xbc83f6f8	-0.016108975
17	0xbd3d193c	-0.046166644
18	0xbc957590	-0.018244535
19	0xbd87c2a8	-0.066289246
20	0x3dc2f9da	0.09520312
21	0xbdd238d6	-0.10264747
22	0x3da2675a	0.07929869
23	0x3c0da910	0.008646265
24	0x3ce366f8	0.02775906
25	0x3c3b7840	0.011442244
26	0x3d8b3656	0.06797473
27	0xbdcf8f46	-0.10134749
28	0xbd3ee248	-0.046602517
29	0xbc80ad88	-0.015707746
30	0x3df3654e	0.11884557
31	0xbc671760	-0.014104694
32	0xbdeee5fc	-0.1166496
33	0xbca21cd8	-0.019789144
34	0xbdaec7f4	-0.08534232
35	0xbd9c2d5c	-0.07625839
36	0x3d777cb0	0.060421646
37	0xbbb39160	-0.0054799765
38	0xbd72aaa8	-0.05924478
39	0xbdffb9f6	-0.12486641
40	0xbdac89ea	-0.084247425
41	0x3d1f4990	0.038888514
42	0xbc9d3ef8	-0.019195065
43	0xbd3b2930	-0.045693576
44	0x3dbecffc	0.093170136
45	0xbdf394d2	-0.118936196
46	0x3dbacf6e	0.09121595
47	0xbda13858	-0.07872075
48	0xbd0ddf84	-0.03463699
49	0xbdff1adc	-0.12456295
50	0x3ddf7980	0.10911846
51	0x3df1ee84	0.11813071
52	0x3dd04550	0.1016947
53	0xbd9ae7b4	-0.07563725
54	0xbda73f7e	-0.08166407
55	0x3dcea90e	0.100908384
56	0x3d001c20	0.031276822
57	0xbd85e134	-0.06537095
58	0x3ca18a40	0.019719243
59	0x3d592ce0	0.05302131
60	0x3cdcf928	0.026974276
61	0xbdf25c08	-0.1183396
62	0xbc07b8a0	-0.008283764
63	0x3d773a04	0.060358062
64	0xbdd61a6e	-0.1045426
65	0x3d9dee7c	0.07711503
66	0xbdf8c9a6	-0.121478364
67	0x3dd0c3da	0.10193606
68	0xbb4c2180	-0.0031147897
69	0xbdd8a70a	-0.10578735
70	0x3ceaa8d0	0.02864495
71	0x3dd864d8	0.105661094
72	0x3de8424c	0.1134077
73	0x3cbc5298	0.022988603
74	0xbdbab33e	-0.09116219
75	0x3c9e6538	0.019335374
76	0xbd23756c	-0.039906904
77	0xbc648a80	-0.013949037
78	0x3ccd5bb0	0.025068134
79	0x3dc78c0a	0.09743507
80	0x3d5438f0	0.051812112
81	0xbd43d874	-0.047813848
82	0xbdbf98f2	-0.09355344
83	0xbd0b3ab0	-0.033991516
84	0x394fc800	0.00019815564
85	0x3d661df4	0.05618091
86	0x3db60814	0.088882595
87	0x3abb0080	0.0014267117
88	0xbdfb8008	-0.122802794
89	0xbd459408	-0.048236877
90	0xbcfd1c40	-0.03089726
91	0xbda92a30	-0.0826
92	0x3dbaa078	0.09112638
93	0x3cc071c0	0.02349174
94	0x3de609e6	0.11232357
95	0x3dd3dbf6	0.103446886
96	0xbcc42e88	-0.02394797
97	0x3c7136f0	0.014722571
98	0xbb5bc200	-0.003353238
99	0xbd3ef31c	-0.046618566
100	0x3c8a15e0	0.016856134
101	0x3d5a4984	0.053292766
102	0x3dff1884	0.12455848
103	0xbd9f54be	-0.07779835
104	0xbd4e63d0	-0.050388157
105	0x3dd412fa	0.10355182
106	0xbd3e59c4	-0.046472326
107	0x3d151f9c	0.0364071
108	0x3dd64a12	0.104633465
109	0xbd32c6e4	-0.043646708
110	0xbdb0264a	-0.08601053
111	0xbcc7f0a0	-0.024406731
112	0xbd0bfc10	-0.034175932
113	0x3dbb0966	0.09132652
114	0xbd9df9d2	-0.07713665
115	0xbdae4676	-0.08509533
116	0x3de1b852	0.110214844
117	0xbc3d0970	-0.011537895
118	0xbd9f2168	-0.077700436
119	0xbd9e31a4	-0.07724312
120	0x3dfc55e8	0.12321073
121	0xbdc9380c	-0.09825143
122	0xbdf2e068	-0.11859208
123	0x3d497e64	0.0491928
124	0x3d137b60	0.03600633
125	0xbda1c024	-0.07897976
126	0x3d254034	0.040344432
127	0xbd37c930	-0.0448696

linear3.bias f4 [2]
0	0xbcd4f010	-0.025993377
1	0x3d9de904	0.0771046
