models/model1.pth (torch, 69463 bytes, 6 tensors)

weight f4 [128, 60]
-0.10274629 0.024758458 0.028580055 -0.109829314 0.01840727 0.08273883 -0.050487995 -0.04673566
-0.10984932 0.040476114 -0.019717172 -0.062398434 0.08504698 0.056051686 0.042504042 -0.114015296
0.057222873 0.12700774 -0.03072036 0.10301918 0.030364186 0.10972197 -0.009060547 0.096802145
0.08658074 0.12787788 -0.102621436 -0.12716776 -0.071297646 0.009094074 -0.100004666 0.10335089
-0.0948053 0.12355821 -0.015809089 0.0051901042 0.04190579 0.022267386 0.004281044 0.04109244
-0.12798902 0.0911926 0.024079323 0.063266814 0.08291556 0.111206785 0.02419731 0.0020985454
-0.11669978 -0.044318788 -0.089252144 -0.11237803 -0.0024778694 0.016719982 0.050970346 0.0013917089
0.10708472 0.12284441 0.026607677 -0.083501264 0.028110206 -0.049117513 0.021165803 -0.11717455
-0.088458 0.07394701 -0.055860445 -0.06804739 0.033404395 0.12828584 0.05084312 -0.08015625
-0.0007260293 0.025314704 0.00277251 -0.0950228 0.008776084 -0.11029416 -0.039655864 -0.056878097
-0.09985338 0.027261943 0.083554626 0.019448057 -0.042692572 -0.07535215 0.061537325 -0.04483948
0.0683341 -0.0087793395 0.10786337 -0.060427472 -0.04644324 0.060620695 0.088906184 0.12204783
0.029898465 -0.0876257 -0.05504732 -0.10770926 -0.08999133 -0.038106263 -0.019824363 0.0861669
0.054216355 -0.12862489 -0.022568576 -0.059337765 0.024731234 -0.028823532 -0.1072813 0.0030987114
0.06279077 -0.05626589 0.08087896 0.040376112 -0.04367196 0.11979364 0.036933288 -0.12633252
0.11367157 -0.0188329 -0.015713334 0.06320721 -0.045080528 0.09838699 0.027041033 -0.060938276
-0.03308875 -0.10576801 -0.04264296 -0.074749365 0.088975355 -0.041302808 -0.094331875 0.091297016
-0.043810233 0.09120634 -0.06520842 -0.09876874 -0.022398733 0.112896234 0.043134212 -0.042572506
0.008272335 -0.06351243 -0.07942934 -0.009172827 -0.105039105 0.069229186 0.10567546 -0.114891335
-0.11426592 0.055168375 -0.04392735 -0.10716563 -0.060948804 -0.056501642 0.11703777 -0.07265292
-0.0033148676 0.09482454 0.014378786 -0.06191495 0.071323544 -0.12541156 -0.037363343 0.018954754
-0.053086482 0.027122423 -0.05063115 0.028944701 0.11847375 -0.040835068 -0.01329086 0.08384614
0.028361008 -0.07523924 -0.0575687 0.0147714615 0.11399636 0.09885448 -0.017756917 -0.017877743
0.093976304 0.06898485 0.008905023 -0.019094788 -0.03652963 -0.048512556 0.069508046 -0.118007734
-0.05811938 0.067119226 -0.10679687 -0.016917683 -0.103036836 0.040501237 0.10828756 -0.028409004
-0.058355555 -0.04761585 0.084041655 -0.0662435 0.11207603 -0.008184634 -0.008340761 -0.11029777
0.024950325 0.11198124 -0.055148922 -0.06328688 -0.07521792 -0.12237417 -0.08323545 -0.115085274
-0.06782134 -0.09400187 0.03185679 -0.08246533 0.004369244 0.07901257 0.1085944 -0.022528403
0.08645655 -0.011513412 -0.056165896 0.100939974 -0.12777594 0.0095645785 -0.09962734 -0.02852986
-0.0034201592 0.10056643 0.06807113 -0.11650756 0.03473723 0.08578503 0.019202694 -0.09575941
0.10177998 0.07866998 0.058683515 0.057956755 0.059393644 -0.12731594 -0.09052962 0.059511006
0.116925895 -0.05319135 -0.060389213 0.103231475 0.004083514 0.05722934 0.10391064 -0.06465908
00000000: a66c d2bd 40d2 ca3c b820 ea3c 31ee e0bd
00000010: d8ca 963c fa72 a93d 80cc 4ebd e46d 3fbd
00000020: aef8 e0bd 48ca 253d e885 a1bc 8095 7fbd
00000030: 1c2d ae3d 7496 653d b818 2e3d da80 e9bd
00000040: 8862 6a3d 510e 023e 44a9 fbbc b8fb d23d
00000050: 50be f83c eab5 e03d b072 14bc 3440 c63d
00000060: 3e51 b13d 6bf2 023e 302b d2bd 4438 02be
00000070: 8004 92bd 50ff 143c 3fcf ccbd a2a9 d33d
00000080: 4829 c2bd 160c fd3d 1082 81bc c011 aa3b
00000090: 68a5 2b3d 186a b63c 0048 8c3b 8c50 283d
000000a0: 8e0f 03be 30c3 ba3d 0042 c53c 0892 813d
000000b0: a2cf a93d 62c0 e33d 7039 c63c c087 093b
000000c0: 4b00 efbd 9e87 35bd d4c9 b6bd 7426 e6bd
000000d0: c063 22bb 58f8 883c 48c6 503d 006a b63a
000000e0: 3c4f db3d da95 fb3d 58f8 d93c b602 abbd
000000f0: 6047 e63c 722f 49bd e863 ad3c 36f9 efbd
00000100: 7829 b5bd 8871 973d eccd 64bd 6e5c 8bbd
00000110: 0cd3 083d 5d5d 033e e040 503d f628 a4bd
00000120: 0053 3eba c860 cf3c 00b3 353b 509b c2bd
00000130: 90c9 0f3c e8e1 e1bd 306e 22bd 02f9 68bd
00000140: ee7f ccbd 7054 df3c b01e ab3d 8851 9f3c
00000150: 68de 2ebd 3a52 9abd 900e 7c3d 9aa9 37bd
00000160: c0f2 8b3d 38d7 0fbc 78e7 dc3d cc82 77bd
00000170: 443b 3ebd 684d 783d 7214 b63d 36f4 f93d
00000180: a0ed f43c 1a75 b3bd 4c79 61bd ac96 dcbd
00000190: 604d b8bd 5015 1cbd b466 a2bc 4678 b03d
000001a0: f811 5e3d 3eb6 03be bce1 b8bc 280c 73bd
000001b0: 2899 ca3c 541f ecbc 4cb6 dbbd c013 4b3b
000001c0: 7298 803d 1077 66bd dea3 a53d 6c61 253d
000001d0: 5ee1 32bd 5e56 f53d 5c47 173d 505d 01be
000001e0: a4cc e83d 7447 9abc 40b9 80bc c872 813d
000001f0: 5ca6 38bd 1e7f c93d 2885 dd3c 6a9a 79bd
00000200: 1288 07bd e69c d8bd 62aa 2ebd 3216 99bd
00000210: b638 b63d 222d 29bd 1231 c1bd eef9 ba3d
00000220: 5c72 33bd 64ca ba3d fe8b 85bd 4447 cabd
00000230: 8c7d b7bc 2436 e73d 80ad 303d 8260 2ebd
00000240: b088 073c ce12 82bd daab a2bd a049 16bc
00000250: be1e d7bd 08c8 8d3d 606c d83d 264c ebbd
00000260: 4004 eabd 3cf8 613d 2aed 33bd a779 dbbd
00000270: 74a5 79bd 446e 67bd 80b1 ef3d 0ecb 94bd
00000280: 403e 59bb 5e33 c23d 0095 6b3c 889a 7dbd
00000290: 1412 923d e36b 00be 4e0a 19bd 0047 9b3c
000002a0: 3671 59bd d82f de3c 9c62 4fbd 701d ed3c
000002b0: 5ea2 f23d ac42 27bd e8c1 59bc 86b7 ab3d
000002c0: 5855 e83c 0817 9abd 28cd 6bbd 0004 723c
000002d0: ec76 e93d 3874 ca3d f476 91bc 5874 92bc
000002e0: a676 c03d ee47 8d3d 60e6 113c ac6c 9cbc
000002f0: 18a0 15bd 1ab5 46bd 3c5a 8e3d 0aae f1bd
00000300: 960e 6ebd ce75 893d 51b8 dabd f496 8abc
00000310: fa04 d3bd a0e4 253d dec5 dd3d 00ba e8bc
00000320: 3c06 6fbd d608 43bd 081e ac3d acaa 87bd
00000330: 1e88 e53d d818 06bc b0a7 08bc cce3 e1bd
00000340: a064 cc3c 6c56 e53d d6e3 61bd 8d9c 81bd
00000350: da0b 9abd 4f9f fabd 5977 aabd d4b1 ebbd
00000360: eae5 8abd 0d84 c0bd 447c 023d 95e3 a8bd
00000370: e02b 8f3b 58d1 a13d be66 de3d 7c8d b8bc
00000380: 2210 b13d c0a2 3cbc 360e 66bd 9eb9 ce3d
00000390: b2d7 02be c0b4 1c3c 6b09 ccbd 74b7 e9bc
000003a0: c024 60bb c6f5 cd3d e068 8b3d 849b eebd
000003b0: a048 0e3d 10b0 af3d f84e 9d3c 821d c4bd
000003c0: 0672 d03d ba1d a13d 205e 703d 1064 6d3d
000003d0: c046 733d 1c5f 02be 9867 b9bd d0c1 733d
000003e0: d876 ef3d 2cdf 59bd ae5a 77bd 066b d33d
000003f0: 00cf 853b 5069 6a3d 1acf d43d fb6b 84bd

bias f4 [128]
0.024625763 0.03721088 0.0857206 -0.12174348 -0.11247691 -0.04863569 -0.00941357 0.015864313
-0.034959592 -0.013870165 -0.025361076 0.09473123 0.007533148 0.110891774 -0.070286535 -0.096549705
0.049689263 -0.019499034 0.11360702 -0.029847175 0.012431279 -0.0073055476 0.090224 0.104570284
-0.12434604 0.07095219 -0.030851804 0.018746555 0.06336515 -0.11307174 0.030420884 -0.12228465
0.094594866 -0.11612281 0.04728572 0.10058072 0.045924604 0.075166866 -0.06075631 0.115378395
-0.1028074 -0.010389246 0.018806651 0.05204776 -0.09862673 -0.06814011 0.032142386 -0.04213126
0.024617717 -0.03883777 0.056922495 -0.08860424 0.12398736 -0.025394984 -0.07104899 0.07714474
0.040382937 0.07005811 -0.08713044 0.017444342 0.12522627 0.012346938 0.06839554 -0.056297794
-0.0652687 0.093241826 0.06782217 -0.003297627 -0.095727056 0.08432241 0.0555712 0.0026255846
0.0790391 -0.04731755 0.07623428 0.042479783 0.01993686 0.06299193 0.027526245 -0.083039895
-0.08322021 0.10923652 -0.11055755 -0.0728093 0.12667672 0.02165611 0.11927204 0.045728907
-0.09065962 -0.030596934 0.016153067 -0.121573605 0.03598039 0.1204703 0.10355157 0.04182312
-0.07312065 -0.085445866 0.076636106 -0.08943159 0.085688144 0.08003999 0.09167865 0.05503902
-0.12688461 -0.12545393 0.118022546 -0.032983914 -0.06235528 0.11631952 0.112114504 -0.05130297
-0.043927304 0.019767836 0.017517537 0.05712506 -0.036900572 -0.0052711144 -0.051236823 0.035070628
0.11562392 0.12907623 -0.10092476 0.08722791 0.054097414 0.09200795 -0.040235676 -0.09084041
00000000: f8bb c93c 706a 183d 488e af3d a554 f9bd
00000010: 4b5a e6bd 3836 47bd 603b 1abc e0f5 813c
00000020: ca31 0fbd b03f 63bc 08c2 cfbc 7202 c23d
00000030: a0d8 f63b 3a1b e33d 63f2 8fbd dabb c5bd
00000040: f886 4b3d 70bc 9fbc ccaa e83d 1082 f4bc
00000050: 90ac 4b3c 6063 efbb 5cc7 b83d f228 d63d
00000060: 23a9 febd 624f 913d ecbc fcbc 6092 993c
00000070: 96c5 813d 2892 e7bd 3835 f93c 6070 fabd
00000080: f4ba c13d ccd1 edbd acae 413d 44fd cd3d
00000090: 701b 3c3d 16f1 993d 9cdb 78bd 824b ec3d
000000a0: b08c d2bd a837 2abc 6810 9a3c 0830 553d
000000b0: d0fc c9bd 0b8d 8bbd bca7 033d d491 2cbd
000000c0: 18ab c93c 5a14 1fbd 9027 693d 2476 b5bd
000000d0: 16ed fd3d 2409 d0bc 2282 91bd 10fe 9d3d
000000e0: 9468 253d a07a 8f3d 7271 b2bd 70e7 8e3c
000000f0: 513b 003e d04a 4a3c f612 8c3d 8498 66bd
00000100: 99ab 85bd 92f5 be3d 5ae6 8a3d 001d 58bb
00000110: 8c0c c4bd 3ab1 ac3d a09e 633d 0012 2c3b
00000120: 40df a13d 0cd0 41bd b820 9c3d 48ff 2d3d
00000130: a052 a33c ea01 813d b87e e13c d210 aabd
00000140: 5c6f aabd 66b7 df3d ff6b e2bd 0b1d 95bd
00000150: 8bb7 013e 2868 b13c e644 f43d 3c4e 3b3d
00000160: c0ab b9bd 6ca6 fabc 7053 843c 95fb f8bd
00000170: 2c60 133d 22b9 f63d d812 d43d b84e 2b3d
00000180: 48c0 95bd 3efe aebd 64f3 9c3d e927 b7bd
00000190: 447d af3d 02ec a33d 04c2 bb3d 9870 613d
000001a0: 0aee 01be ff76 00be ceb5 f13d 241a 07bd
000001b0: 4068 7fbd ee38 ee3d 4a9c e53d 1023 52bd
000001c0: 1eed 33bd 28f0 a13c f080 8f3c f8fb 693d
000001d0: 0e25 17bd 50b9 acbb b4dd 51bd 38a6 0f3d
000001e0: 3ccc ec3d 8f2c 043e a4b1 cebd 8ca4 b23d
000001f0: 4095 5d3d aa6e bc3d 2ace 24bd 890a babd

weight f4 [64, 128]
0.07463888 -0.000456132 0.08106626 -0.07801577 -0.007837564 0.075578965 -0.059693478 -0.033293925
0.060963057 0.050060906 0.014835805 0.015863396 -0.06889583 0.036564805 -0.05013205 -0.010841623
0.08393655 0.023010537 0.061093397 0.04473447 0.017648593 0.0026834458 -0.08033016 0.024583891
0.06795674 0.039120562 0.085297175 -0.02418252 -0.011006162 0.036388367 0.05857589 0.0008361712
0.05243004 0.07881101 0.06661967 0.080673344 0.058552243 -0.05502295 0.08028773 -0.0269076
0.084864624 0.06023369 0.07651048 0.07480884 -0.047308605 0.030093811 0.052925043 0.08631728
-0.0082227215 -0.07786528 -0.03681176 -0.087664075 -0.08765345 -0.080730624 -0.004340239 -0.020228423
0.08048419 -0.008502856 -0.06841091 -0.018401071 0.010975048 0.020191178 -0.06375126 0.04190687
-0.06566266 0.025086708 0.063584425 0.082436316 0.022134632 0.048635177 -0.067517005 0.06686122
0.052684598 -0.05200347 0.06980399 0.042965792 0.07373085 -0.006117329 -0.048278224 -0.067997694
0.059981696 0.061423264 0.04938581 0.045038037 -0.07133129 0.027167886 0.016330607 0.006143376
0.07912699 0.08034801 -0.059819356 -0.045332212 -0.02881853 0.017823733 0.030527763 -0.086746514
0.0012183487 0.042713635 -0.019837044 -0.00016210973 0.085919224 0.07055176 -0.06736486 0.0063740164
0.017207138 -0.00059521943 -0.043529075 -0.016934648 -0.07267716 0.07228207 0.0736315 -0.010634892
-0.03187802 -0.02985514 -0.015538901 -0.0019403547 0.08502071 -0.0532527 0.04282502 -0.006913677
-0.08757468 0.08156287 -0.08572355 -0.0035820678 -0.01923731 -0.029286519 0.061133973 0.07167242
0.0559394 -0.029702779 -0.037904177 -0.073337846 0.021101147 0.047394298 -0.06383176 -0.04285165
0.03626091 0.006724529 0.069001846 0.06695711 -0.023883857 -0.077344865 -0.022249691 -0.08368763
0.06820341 -0.053223 -0.0140842125 -0.004389815 -0.08609822 0.072889395 -0.035441328 0.076445706
0.06834466 0.058266334 0.029228427 0.07829178 0.0015689358 0.05840028 -0.03843922 -0.026862599
0.018172488 -0.07279061 0.017609999 0.017702542 0.0056881458 0.04876419 -0.06126906 0.0270354
0.047231965 -0.006869249 -0.031936258 0.06124746 -0.047724288 0.050322793 -0.06932034 -0.062057577
-0.082634404 -0.039745774 0.06737601 -0.06589499 -0.036319636 -0.008653663 -0.040473767 -0.0041747093
-0.07110931 -0.0013420805 0.008179449 -0.04487021 0.056278355 0.012165427 0.011995874 -0.024830386
-0.07933995 0.056528486 -0.0036774576 0.05600553 -0.04271585 -0.027150758 0.034683555 -0.03257434
-0.054468688 0.020358622 -0.027517382 -0.079111226 0.040545844 0.062627815 0.084890954 -0.08347106
-0.07000765 -0.071561664 -0.04634757 -0.049407855 0.08366134 -0.025568172 0.048988648 0.07256793
0.056751974 -0.026872028 -0.013744749 -0.05303401 0.0046780556 0.061612137 -0.055347737 -0.006089933
-0.06307249 0.07411029 0.088301994 -0.066963956 0.013070613 0.030312225 0.03963072 0.08221387
0.050504394 -0.0008233711 -0.03700959 -0.067920595 -0.0722335 0.08653275 0.050329022 0.05667015
-0.020766437 0.08579964 -0.077695556 0.01204592 0.080866 0.07671306 -0.050118364 0.020330489
-0.073734626 0.020100303 0.029886477 -0.00085725635 0.0028175712 0.076403834 0.07784166 -0.07063341
00000000: 45dc 983d 0025 efb9 1106 a63d bbc6 9fbd
00000010: 2069 00bc 25c9 9a3d 2681 74bd 365f 08bd
00000020: 66b4 793d aa0c 4d3d e011 733c f4f3 813c
00000030: 4219 8dbd fac4 153d 4457 4dbd 10a1 31bc
00000040: ede6 ab3d 9880 bc3c 123d 7a3d 7e3b 373d
00000050: c893 903c c0dc 2f3b 2484 a4bd 2864 c93c
00000060: e72c 8b3d e23c 203d 49b0 ae3d 6c1a c6bc
00000070: 3053 34bc f80b 153d 46ed 6f3d 8032 5b3a
00000080: e2c0 563d ab67 a13d e56f 883d 1138 a53d
00000090: 7ad4 6f3d bf5f 61bd e56d a43d 546d dcbc
000000a0: 81cd ad3d 9ab7 763d 87b1 9c3d 6135 993d
000000b0: abc6 41bd 4c87 f63c eec7 583d 1dc7 b03d
000000c0: 98b8 06bc d577 9fbd eec7 16bd 3989 b3bd
000000d0: a783 b3bd 1956 a5bd 9038 8ebb 14b6 a5bc
000000e0: e5d4 a43d 904f 0bbc 051b 8cbd d8bd 96bc
000000f0: b0d0 333c f867 a53c 0590 82bd 8aa6 2b3d
00000100: 257a 86bd a482 cd3c 8d38 823d 5fd4 a83d
00000110: b053 b53c ae35 473d 5b46 8abd 89ee 883d
00000120: cecb 573d 9701 55bd 65f5 8e3d e6fc 2f3d
00000130: 3300 973d e073 c8bb 63bf 45bd 6042 8bbd
00000140: 5eaf 753d f696 7b3d c648 4a3d ce79 383d
00000150: 2416 92bd 308f de3c c4c7 853c 604e c93b
00000160: 550d a23d 7f8d a43d 2405 75bd 45ae 39bd
00000170: d614 ecbc 1403 923c 5c15 fa3c 28a8 b1bd
00000180: 00b1 9f3a 7ef4 2e3d 4c81 a2bc 00fc 29b9
00000190: 6bf6 af3d 717d 903d 96f6 89bd 20dd d03b
000001a0: fcf5 8c3c 8008 1cba 8b4b 32bd 88ba 8abc
000001b0: c3d7 94bd 9f08 943d 1dcc 963d f83d 2ebc
000001c0: 8792 02bd c492 f4bc e096 7ebc 8053 feba
000001d0: 571f ae3d 811f 5abd 4a69 2f3d 208c e2bb
000001e0: 5b5a b3bd 6f0a a73d d48f afbd 20c1 6abb
000001f0: 9097 9dbc 48ea efbc 9e67 7a3d fdc8 923d
00000200: b620 653d 3e53 f3bc 6941 1bbd 2732 96bd
00000210: 50dc ac3c 8620 423d 3aba 82bd 3685 2fbd
00000220: 5286 143d 7059 dc3b d750 8d3d cf20 893d
00000230: 14a8 c3bc fc66 9ebd fc44 b6bc 6c64 abbd
00000240: 3bae 8b3d 5c00 5abd 78c1 66bc 70d8 8fbb
00000250: 4354 b0bd 0947 953d ed2a 11bd 918f 9c3d
00000260: 49f8 8b3d aea8 6e3d 7470 ef3c 7157 a03d
00000270: c0a4 cd3a 2235 6f3d 7272 1dbd f40e dcbc
00000280: 78de 943c 3e13 95bd d842 903c ec04 913c
00000290: a063 ba3b f6bc 473d 44f5 7abd 5879 dd3c
000002a0: 4e76 413d 7017 e1bb 98cf 02bd 9ede 7a3d
000002b0: 8b7a 43bd 461f 4e3d d3f7 8dbd 1630 7ebd
000002c0: 3a3c a9bd 77cc 22bd 6ffc 893d f4f3 86bd
000002d0: e6c3 14bd 18c8 0dbc d2c7 25bd 00cc 88bb
000002e0: c2a1 91bd c0e8 afba 1803 063c d3c9 37bd
000002f0: 2284 663d 8051 473c 588a 443c 1869 cbbc
00000300: fc7c a2bd 6a8a 673d 8001 71bb 0e66 653d
00000310: d1f6 2ebd 446b debc 5810 0e3d ac6c 05bd
00000320: 8f1a 5fbd 20c7 a63c 226c e1bc 1105 a2bd
00000330: 6613 263d 0343 803d 4fdb ad3d e0f2 aabd
00000340: 2c60 8fbd ec8e 92bd f3d6 3dbd e45f 4abd
00000350: a356 ab3d 5874 d1bc 52a8 483d 7f9e 943d
00000360: c274 683d ba22 dcbc a831 61bc 313a 59bd
00000370: 604a 993b 025d 7c3d 4fb4 62bd 108e c7bb
00000380: 262c 81bd 23c7 973d add7 b43d 6624 89bd
00000390: 2026 563c 5851 f83c d253 223d bf5f a83d
000003a0: b2dd 4e3d 80d7 57ba 5e97 17bd f419 8bbd
000003b0: 28ef 93bd 1538 b13d ce25 4e3d f61e 683d
000003c0: 601e aabc b9b7 af3d d91e 9fbd 405c 453c
000003d0: 139d a53d bd1b 9d3d ea48 4dbd 208c a63c
000003e0: 2e02 97bd 64a9 a43c 7cd4 f43c 80b9 60ba
000003f0: 00a7 383b 9d79 9c3d 736b 9f3d 40a8 90bd

bias f4 [64]
-0.070081264 -0.041591257 0.013356939 0.0059495345 0.08486394 -0.06228692 -0.07736261 -0.036356714
0.084306456 -0.078311466 -0.08578188 0.06413495 -0.022636749 -0.052998174 0.032098494 0.0809234
-0.06229186 0.011719719 -0.034270223 -0.007323988 0.055021428 0.032574877 0.07497495 -0.0669466
-0.053537253 -0.07030731 0.08149462 0.024251908 0.07822914 -0.06300117 -0.02579093 -0.063440435
0.0020098463 0.04719875 -0.037716173 -0.07738275 0.031691603 -0.062299784 -0.05890357 -0.019812614
-0.04832621 -0.04410774 0.012539275 0.06440086 0.023261085 -0.03399839 0.07682916 -0.06686604
0.024975382 0.031695366 0.04055088 -0.028038137 -0.0052751526 0.042970873 0.083646156 0.07672084
-0.051595096 -0.052092735 -0.018045977 0.05382634 -0.044866804 -0.019352704 0.027575478 0.06448763
00000000: c486 8fbd 985b 2abd 10d7 5a3c 50f4 c23b
00000010: 25cd ad3d 9220 7fbd 4a70 9ebd c7ea 14bd
00000020: dda8 ac3d c361 a0bd 69ae afbd 2f59 833d
00000030: b470 b9bc 9d14 59bd b679 033d 2bbb a53d
00000040: c025 7fbd 1004 403c ef5e 0cbd 10fe efbb
00000050: 265e 613d 3c6d 053d 778c 993d 4d1b 89bd
00000060: e149 5bbd 47fd 8fbd a7e6 a63d f0ab c63c
00000070: 9936 a03d c206 81bd 8047 d3bc 0fed 81bd
00000080: a0b7 033b 7a53 413d 467c 1abd d97a 9ebd
00000090: 0ecf 013d 0f2e 7fbd df44 71bd 104e a2bc
000000a0: b4f1 45bd 51aa 34bd 8871 4d3c 99e4 833d
000000b0: 088e be3c e541 0bbd 9b58 9d3d 10f1 88bd
000000c0: 2c99 cc3c 00d3 013d ae18 263d 3cb0 e5bc
000000d0: 30db acbb 3a02 303d ad4e ab3d d11f 9d3d
000000e0: 6155 53bd 315f 55bd 28d5 93bc 0279 5c3d
000000f0: 41c6 37bd 9089 9ebc f8e5 e13c 1712 843d

weight f4 [10, 64]
0.07203269 0.109212056 -0.04675947 -0.06719765 0.09554027 0.10522772 -0.08283749 0.12466419
0.08397505 -0.05923319 -0.02666606 -0.027546212 0.06519693 -0.087019205 0.07017392 -0.011238664
0.059481815 0.12059884 -0.11159474 0.017692432 -0.042053595 -0.05415854 0.016919196 0.106717214
0.037289336 0.0885984 0.09957269 -0.06994845 -0.014386773 0.11883949 -0.095045105 -0.060615882
0.051827416 0.12038885 -0.026957408 0.07230303 -0.06626777 -0.07040322 0.0080872625 -0.065479845
0.01357533 -0.11766225 0.0265228 -0.04293911 0.124814525 -0.050014347 0.1135295 -0.0693025
-0.041623667 -0.0321386 -0.021962106 -0.11278628 0.10599972 -0.0019732416 0.046377286 -0.103797466
-0.006823033 -0.048747078 -0.0049357563 0.0010053515 0.06388919 -0.047899455 0.040007383 0.07899766
-0.011961967 -0.037808105 0.05276929 0.018293023 0.005815342 -0.08199769 0.11535902 -0.08735712
-0.113939434 0.036485404 0.1210638 -0.10573238 0.03465016 0.09068312 -0.043310493 0.05655873
-0.0749757 0.0026543438 0.021221697 -0.094444945 -0.08571403 0.08010648 -0.062483013 0.1103138
0.004213974 0.10540207 -0.015730903 0.10244766 -0.11232135 0.09428468 -0.01565981 0.022687748
0.051617086 -0.059417784 -0.034108937 0.07196316 -0.07231344 0.08571096 0.01976481 0.016235024
0.117953554 -0.09784749 0.026074484 -0.059426934 0.029849216 -0.03881909 0.086228296 -0.008574024
0.030263454 -0.0891007 0.12127833 -0.07605988 -0.06803824 -0.048577398 -0.024429888 0.113345936
0.06899381 0.02000691 -0.12153773 -0.007663548 0.09967929 -0.10808158 -0.046937764 -0.1034632
0.057391763 0.08812113 -0.013318673 -0.010789573 -0.07065478 0.057428047 0.06261106 0.014675483
0.021292642 -0.12408242 -0.009136826 -0.095488474 -0.10177541 0.0364895 -0.10568187 -0.091272265
0.037813663 0.07812069 0.064849466 0.121762305 -0.10981193 -0.04794234 -0.07860917 -0.022861764
-0.11528461 0.094209 -0.056793645 0.10183136 -0.056481034 0.112017244 -0.011434257 0.108698964
0.105648175 0.10688938 0.014930546 -0.035679176 0.008642435 -0.028323442 -0.0052444935 -0.09173745
0.08366051 -0.061575174 0.08541931 0.02732028 -0.0009520799 0.037856728 -0.10633373 -0.09291728
0.10459465 0.11208233 0.049397826 -0.08435774 -0.06387496 0.025668934 -0.11011644 0.077040926
-0.011172041 0.03317626 0.03601101 0.0052357614 -0.110092595 0.11595252 0.096059516 0.043601632
-0.11844954 0.07016194 0.013410419 -0.059273466 0.016270608 -0.10101257 -0.032257482 -0.10815728
0.07825871 -0.021263987 -0.022676736 -0.024592102 -0.015011936 -0.086140886 0.11918259 -0.094655335
-0.016771778 -0.022649601 0.11329557 0.020474628 0.026836768 0.11453207 0.008059606 0.023928434
-0.04769565 0.03364475 0.039077967 0.105801865 0.12083596 -0.01841481 -0.095482364 -0.07779674
0.11660415 0.00632897 -0.09118156 -0.08186346 -0.038120866 0.01785928 -0.074545085 -0.09625524
0.08732177 0.063841 -0.027276635 -0.105307266 -0.083963096 -0.06817031 0.07442212 0.113527566
0.118408084 -0.09663351 -0.065460905 0.07735367 0.08527188 0.08903061 0.11402778 -0.09979269
0.0015373975 0.027565584 -0.010164604 0.0051152557 -0.121360436 0.046337306 -0.036562517 -0.076758474
00000000: e085 933d 92aa df3d dc86 3fbd ec9e 89bd
00000010: 9eaa c33d a281 d73d b4a6 a9bd f04f ff3d
00000020: 1cfb ab3d 809e 72bd c872 dabc 98a8 e1bc
00000030: f885 853d 2037 b2bd 58b7 8f3d 6022 38bc
00000040: 34a3 733d 86fc f63d c88b e4bd b8ef 903c
00000050: 6440 2cbd 58d5 5dbd 209a 8a3c 8e8e da3d
00000060: b4bc 183d 1473 b53d c4ec cb3d 2241 8fbd
00000070: 80b6 6bbc 1e62 f33d 02a7 c2bd 5c48 78bd
00000080: fc48 543d 6e8e f63d c8d5 dcbc 9c13 943d
00000090: 66b7 87bd 902f 90bd 7080 043c 4c1a 86bd
000000a0: 106b 5e3c e8f8 f0bd 5846 d93c ece0 2fbd
000000b0: c29e ff3d d8db 4cbd 2882 e83d 78ee 8dbd
000000c0: 947d 2abd c4a3 03bd e0e9 b3bc 7efc e6bd
000000d0: 6216 d93d 8051 01bb 1cf6 3d3d c493 d4bd
000000e0: c093 dfbb 04ab 47bd 20bc a1bb 00c6 833a
000000f0: 56d8 823d 3832 44bd c8de 233d 86c9 a13d
00000100: 20fc 43bc acdc 1abd 9c24 583d 40db 953c
00000110: a08e be3b 68ee a7bd 5a41 ec3d 4ae8 b2bd
00000120: 1459 e9bd b871 153d 4cf0 f73d 388a d8bd
00000130: 54ed 0d3d 12b8 b93d 5866 31bd 20aa 673d
00000140: dc8c 99bd 80f4 2d3b 20d9 ad3c 5a6c c1bd
00000150: d68a afbd de0e a43d 30ee 7fbd 34ec e13d
00000160: 6015 8a3b 0add d73d 18de 80bc 14d0 d13d
00000170: bc08 e6bd 5418 c13d 0049 80bc a8db b93c
00000180: 706c 533d 1060 73bd d0b5 0bbd 6c61 933d
00000190: 1219 94bd 3a89 af3d d0e9 a13c 50ff 843c
000001a0: a291 f13d 4464 c8bd 289a d53c a869 73bd
000001b0: 5886 f43c c400 1fbd 7698 b03d 107a 0cbc
000001c0: 10eb f73c 6e7a b6bd c660 f83d 48c5 9bbd
000001d0: a257 8bbd 18f9 46bd 3021 c8bc ea21 e83d
000001e0: a04c 8d3d 88e5 a33c c6e8 f8bd 801e fbbb
000001f0: a824 cc3d e059 ddbd d041 40bd 84e4 d3bd
00000200: a013 6b3d da78 b43d 9036 5abc c0c6 30bc
00000210: 74b3 90bd ac39 6b3d 3a3a 803d 7071 703c
00000220: e86d ae3c ec1e febd a0b2 15bc 768f c3bd
00000230: a06f d0bd 0476 153d bc6f d8bd f4ec babd
00000240: 80e2 1a3d befd 9f3d cccf 843d 845e f93d
00000250: 14e5 e0bd 305f 44bd d8fd a0bd 9848 bbbc
00000260: 561a ecbd a6f0 c03d 74a0 68bd f68c d03d
00000270: a858 67bd 4c69 e53d c056 3bbc 909d de3d
00000280: 125e d83d d2e8 da3d 409f 743c 5424 12bd
00000290: 0099 0d3c 9006 e8bc 00da abbb d8e0 bbbd
000002a0: 3456 ab3d 4036 7cbd 52f0 ae3d c8ce df3c
000002b0: 0095 79ba a80f 1b3d 80c5 d9bd 6a4b bebd
000002c0: b835 d63d 6c8b e53d 6055 4a3d c0c3 acbd
000002d0: e0d0 82bd a847 d23c ba84 e1bd a2c7 9d3d
000002e0: f00a 37bc d4e3 073d 4880 133d c090 ab3b
000002f0: 3a78 e1bd 8478 ed3d daba c43d a097 323d
00000300: ac95 f2bd 10b1 8f3d 60b7 5b3c bcc8 72bd
00000310: f049 853c aedf cebd 6c20 04bd 9081 ddbd
00000320: 1a46 a03d d031 aebc 90c4 b9bc 6075 c9bc
00000330: a0f4 75bc a26a b0bd 0016 f43d a8da c1bd
00000340: f864 89bc a88b b9bc 8207 e83d 68ba a73c
00000350: c8d8 db3c ca8f ea3d 700c 043c 9005 c43c
00000360: 845c 43bd 14cf 093d 3810 203d a6ae d83d
00000370: d878 f73d a8da 96bc 428c c3bd e653 9fbd
00000380: 28ce ee3d 4063 cf3b 66bd babd 08a8 a7bd
00000390: a024 1cbd a04d 923c 18ab 98bd 7821 c5bd
000003a0: c2d5 b23d 12bf 823d 4073 dfbc 56ab d7bd
000003b0: d8f4 abbd e09c 8bbd a06a 983d 2481 e83d
000003c0: f07f f23d cae7 c5bd 5e10 86bd 9a6b 9e3d
000003d0: 06a3 ae3d ae55 b63d 6687 e93d 1c60 ccbd
000003e0: 8082 c93a 38d1 e13c 7089 26bc e09d a73b
000003f0: d28b f8bd 30cc 3d3d 94c2 15bd 8c33 9dbd

bias f4 [10]
0.047495127 -0.015538916 0.09304492 -0.00815016 -0.10278574 0.1066055 0.097034484 0.050206065
-0.061924458 -0.099976584
00000000: 408a 423d f096 7ebc 568e be3d 4088 05bc
00000010: 5481 d2bd fc53 da3d 04ba c63d e0a4 4d3d
00000020: 80a4 7dbd 86c0 ccbd
