models/model1.onnx (onnx, 67637 bytes, 6 tensors)

linear1.weight f4 [128, 60]
0	0xbdd64360	-0.104620695
1	0x3d7eecd8	0.06223759
2	0xbd6b8fb4	-0.057510093
3	0x3d9de3ac	0.077094406
4	0xbdd921a3	-0.10602119
5	0x3d782c24	0.06058897
6	0xbdf28633	-0.11842003
7	0xbdd2fff3	-0.10302725
8	0xbcd438b0	-0.025905937
9	0xbb925e30	-0.0044667944
10	0x3d40e980	0.047097683
11	0x3daec5b2	0.08533801
12	0x3dd009e4	0.101581365
13	0xbd286ac6	-0.041117452
14	0xbd39c154	-0.045350388
15	0xbd00f86c	-0.031486914
16	0xbdcf1f24	-0.101133615
17	0x3c7dceb0	0.015491173
18	0x3b3b4480	0.0028574765
19	0xbd5c4196	-0.053773485
20	0x3dafcaea	0.08583625
21	0x3d13f944	0.03612639
22	0xbdb95cd9	-0.090509124
23	0x38954800	7.118285e-05
24	0x3c1e52b0	0.009663269
25	0xbd159a24	-0.036523953
26	0x3dbf6c86	0.09346871
27	0x3dcb6784	0.099318534
28	0x3d3bdb9c	0.045863733
29	0xbd82f22a	-0.063938454
30	0x3c842c18	0.016134307
31	0x3d81c16e	0.06335722
32	0xbd85bb7c	-0.065299004
33	0x3d9e7c3e	0.07738541
34	0x3ddb9880	0.107224464
35	0x3e01841d	0.12648053
36	0xbb90f180	-0.0044233203
37	0xbcfb8e64	-0.030707546
38	0xbd42e5a4	-0.047582284
39	0x3e0006f7	0.12502657
40	0xbcbc315c	-0.022972755
41	0xbde2232b	-0.11041864
42	0xbdb88400	-0.09009552
43	0xbe0324d8	-0.12807024
44	0x3dc19f4a	0.0945421
45	0x3db7e762	0.0897968
46	0x3d6951a8	0.05696264
47	0x3df45cbc	0.1193175
48	0xbd7e3aa4	-0.062067643
49	0x3d3879ac	0.04503791
50	0x3cf62b88	0.030050054
51	0xbd1a04b2	-0.037602134
52	0xbd302fc8	-0.043014318
53	0xbbd4ec80	-0.0064979196
54	0xbc8ba4a4	-0.01704628
55	0x3d22d058	0.039749473
56	0x3dd6b748	0.10484177
57	0x3db4e4fa	0.08832736
58	0xbd508fb0	-0.05091828
59	0x3d7675c8	0.06017092
60	0x3bebdda0	0.0071980506
61	0x3d8473ea	0.06467421
62	0xbcb0e014	-0.021591224
63	0xbdae0ad9	-0.08498163
64	0xbd8ebd7e	-0.069697365
65	0xbdff41a3	-0.12463691
66	0x3da2013c	0.07910392
67	0xbdd3958b	-0.103312574
68	0xbd1d2e0a	-0.038373984
69	0x3da6e5c6	0.081492946
70	0xbdfef267	-0.12448578
71	0x3d7efab4	0.062250808
72	0x3dcdbc6a	0.10045703
73	0x3dd67f74	0.104735285
74	0x3d2e342c	0.042530224
75	0x3df7fa9a	0.12108345
76	0x3ded5200	0.11587906
77	0x3d893058	0.06698674
78	0xbdce3099	-0.10067863
79	0x3c6512c0	0.013981521
80	0x3cd97650	0.026545674
81	0x3d70e5e4	0.05881299
82	0x3d85828a	0.06519039
83	0x3d8a28e0	0.067460775
84	0xbd8c54a0	-0.068520784
85	0x3dc3a08e	0.09552108
86	0xbcd98280	-0.026551485
87	0x3c802bc0	0.015645862
88	0x3d3e43ac	0.046451256
89	0xbdb1a2f7	-0.08673661
90	0xbd6bb6c2	-0.05754734
91	0xbd3ad426	-0.045612477
92	0x3d9e5f6e	0.077330455
93	0xbdbb9b20	-0.09160447
94	0x3dd4c8a6	0.10389833
95	0x3de9e6f0	0.11421001
96	0x3cc752d8	0.024331495
97	0x3d869cd0	0.06572878
98	0x3d8a7d08	0.06762129
99	0xbcfc85d8	-0.03082554
100	0xbd1d4288	-0.038393527
101	0xbd1dff22	-0.03857339
102	0x3ce984b8	0.028505668
103	0xbdc331f5	-0.09531013
104	0xbd4e65d6	-0.050390087
105	0x3d5a3bc0	0.05327964
106	0xbdd5ad4a	-0.10433443
107	0x3a58af00	0.0008265823
108	0x3d60af34	0.054854587
109	0xbccb9d6c	-0.024855338
110	0x3b384880	0.0028119385
111	0xbdfa4115	-0.12219445
112	0x3e008a55	0.1255277
113	0x3e02ad23	0.12761359
114	0x3deff862	0.11717297
115	0xbd4b24ba	-0.049595572
116	0xbd688984	-0.05677177
117	0x3ddca3be	0.10773419
118	0x3ccc9968	0.024975494
119	0x3d69e35c	0.057101592
120	0x3c07a4a0	0.008278996
121	0x3a9a3800	0.0011765957
122	0xbdcdf3a4	-0.100562364
123	0xbdc51534	-0.09623185
124	0x3d6cc1fc	0.057802185
125	0xbce60e94	-0.028083123
126	0x3dcfca20	0.10145974
127	0x3d026f20	0.03184426
128	0x3c6946e0	0.014238089
129	0x3dc6458c	0.09681234
130	0xbcee93a8	-0.029123142
131	0xbcd3ff80	-0.025878668
132	0xbdd1c9dc	-0.1024358
133	0xbd0a4b96	-0.03376349
134	0xbdc6adee	-0.09701143
135	0x3daccd02	0.0843754
136	0x3d205584	0.039144054
137	0x3d7e250c	0.06204705
138	0xbd9277aa	-0.0715173
139	0xbdd1dc9d	-0.10247157
140	0xbc39c248	-0.011337824
141	0xbd9db28a	-0.07700069
142	0xbd1a0864	-0.03760566
143	0xbdad7c4c	-0.08470973
144	0x3df406b8	0.11915344
145	0xbdc60fe7	-0.09671002
146	0xbbe13d40	-0.0068737566
147	0x39f78800	0.0004721284
148	0x3dac70e2	0.08419968
149	0xbdfc8914	-0.12330833
150	0x3e00a703	0.1256371
151	0xb9981600	-0.0002900809
152	0x3d788968	0.060677916
153	0x3d0be568	0.034154326
154	0x3dd70e96	0.10500829
155	0x3d009030	0.031387508
156	0x3b9f8360	0.004867956
157	0x3ddab0f0	0.106782794
158	0xbd880563	-0.066416524
159	0x3d8f770c	0.07005128
160	0xbd710690	-0.05884415
161	0x3d84dd8a	0.06487568
162	0xbdb8bf7c	-0.09020898
163	0xbdc0b09c	-0.094086856
164	0xbdcd3836	-0.10020487
165	0xbdf30d7e	-0.11867808
166	0x3d16a4b4	0.036778167
167	0xbdc24faa	-0.09487851
168	0xbc352ae8	-0.011057593
169	0xbbb0d660	-0.0053966492
170	0xbc8a21cc	-0.016861819
171	0xbd800b70	-0.062521815
172	0x3cb377a0	0.021907628
173	0x3d95c45a	0.07312842
174	0x3df8e5ea	0.121532276
175	0xbda19468	-0.07889634
176	0xbb3a3480	-0.002841264
177	0x3e023721	0.12716343
178	0xbb9571b0	-0.0045606717
179	0xbdd2ac81	-0.10286809
180	0xbd398b86	-0.045299076
181	0x3d919e18	0.07110232
182	0x3d98f4d6	0.07468574
183	0xbdabc4ac	-0.083871216
184	0xbd9646bb	-0.073377095
185	0xbc5082a0	-0.012726456
186	0xbde22e39	-0.110439725
187	0xbe00c438	-0.12574852
188	0xbd454c5e	-0.048168533
189	0xbdbafe84	-0.09130576
190	0xbde40d7d	-0.11135385
191	0xbd8f4d32	-0.06997146
192	0x3e030037	0.1279305
193	0x3da8d0da	0.0824296
194	0x3db6248c	0.088936895
195	0x3d5493f4	0.05189891
196	0x3daa60c0	0.08319235
197	0xbce075e0	-0.027399957
198	0x3ceaddb0	0.028670162
199	0x3cf5c638	0.030001745
200	0x3cbbfbf8	0.022947297
201	0xbcd33414	-0.025781669
202	0x3da7e07a	0.081971124
203	0x3d631fc4	0.055450216
204	0x3d5503b0	0.05200547
205	0x3bb59660	0.0055416077
206	0x3d0c15c4	0.034200445
207	0xbdd3c162	-0.10339619
208	0x3b101e00	0.0021990538
209	0x3dbbd1b6	0.091708586
210	0xbdf79642	-0.12089206
211	0x3daf77a0	0.085677385
212	0xbdff2ef5	-0.12460128
213	0x3d746d60	0.05967462
214	0xbdeafca3	-0.11473968
215	0x3e012a07	0.12613688
216	0xbd6f5ae0	-0.058436275
217	0x3df3676a	0.11884959
218	0xbd0b86c8	-0.034064084
219	0xbd8c3d18	-0.0684759
220	0x3d9776d0	0.073957086
221	0xbd940317	-0.07227152
222	0xbe024a14	-0.12723571
223	0x3dad19fe	0.08452223
224	0xbdcf1938	-0.10112232
225	0x3d65dba4	0.05611767
226	0xbd7da290	-0.06192261
227	0x3a80a200	0.0009813905
228	0xbdc66e76	-0.096890375
229	0x3cce3be8	0.02517505
230	0xbda0e4e5	-0.07856158
231	0x3da36e4c	0.07980022
232	0xbdb052fa	-0.086095765
233	0xbdca0f9d	-0.09866259
234	0x3dce2622	0.10065867
235	0x3da1330a	0.07871063
236	0x3de7f9d6	0.11326949
237	0x3d09c25c	0.03363262
238	0xbda0d713	-0.07853522
239	0x3c13a6a0	0.009011894
240	0xbdc209c5	-0.0947452
241	0x3dd92a5a	0.10603781
242	0xbd48bd1e	-0.04900848
243	0xbbf85b70	-0.0075792596
244	0xbde5da62	-0.11223294
245	0x3cf7a0e0	0.030228078
246	0x3b9ee160	0.004848644
247	0x3d084c28	0.033275753
248	0xbdfe4a16	-0.124164745
249	0x3dc362a2	0.09540297
250	0x3d39f6f4	0.04540153
251	0xbd68ed8c	-0.056867167
252	0xbd97695c	-0.073931426
253	0xbda87b7a	-0.08226676
254	0x3d2727c0	0.040809393
255	0x3d91e2c0	0.07123327

linear1.bias f4 [128]
0	0x3dd85a28	0.10564071
1	0xbda9fa23	-0.08299663
2	0x3dd86ed0	0.10568011
3	0x3dbb4380	0.09143734
4	0x3d3df7cc	0.046378896
5	0x3c78f890	0.015195981
6	0x3d0ad178	0.03389117
7	0x3da080d2	0.078370705
8	0xbc10ec58	-0.008845411
9	0x3d719ee4	0.05898942
10	0xbe01155b	-0.12605803
11	0xbdfc7b65	-0.12328223
12	0x3dfa7432	0.12229194
13	0x3c548730	0.012971684
14	0xbdb2c5a8	-0.08729106
15	0x3b380780	0.0028080642
16	0x3cba9be8	0.02277942
17	0xbd29fd9e	-0.041501634
18	0x3de6682c	0.11250338
19	0xbdb7dc09	-0.08977515
20	0xbd61f820	-0.05516827
21	0xbdf22a47	-0.1182447
22	0x3d316758	0.043311447
23	0xbe0139fe	-0.12619779
24	0x3d8dcf94	0.06924358
25	0xbd0698e6	-0.03286066
26	0x3d390b2c	0.04517667
27	0x3cd2fd38	0.02575551
28	0x3d1660f4	0.036713555
29	0xbcc85370	-0.024453849
30	0x3dc2ce82	0.095120445
31	0xbdfee74a	-0.12446459
32	0xbdfcc458	-0.12342137
33	0xbdb67830	-0.08909643
34	0xbddeaecc	-0.108731836
35	0xbd7abb2e	-0.061213665
36	0xbdc5937a	-0.096472695
37	0xbd7c31fc	-0.061571106
38	0xbda37d5c	-0.07982895
39	0x3de770b4	0.11300793
40	0x3d21fe0c	0.03954892
41	0xbd644b46	-0.05573585
42	0xbd8ff232	-0.07028617
43	0x3c509910	0.012731805
44	0x3cf55098	0.029945657
45	0xbde13942	-0.10997249
46	0xbdc91c6e	-0.09819876
47	0x3de756f8	0.11295885
48	0xbbf048d0	-0.0073328987
49	0xbd8d88b6	-0.06910841
50	0x3c8eabc8	0.017415896
51	0xbc544db8	-0.012957983
52	0x3debea64	0.11519316
53	0xbd8a90d5	-0.06765906
54	0xbda5f41c	-0.08103201
55	0x3dd71328	0.10501701
56	0xbd822aff	-0.06355857
57	0xbde96d0d	-0.11397753
58	0x3dd93714	0.106062084
59	0xbe020365	-0.12696607
60	0xbd56ea4c	-0.052469537
61	0xbddadf04	-0.10687068
62	0xbd9c167f	-0.07621478
63	0xbdf65ec2	-0.12029792
64	0x3dbb98d6	0.091600105
65	0xbd8ef21a	-0.06979771
66	0xbce67694	-0.028132714
67	0xbc3037d0	-0.010755494
68	0x3d4bb780	0.049735546
69	0xbd11d518	-0.035603613
70	0xbdf9a52c	-0.12189707
71	0x3dff5142	0.124666706
72	0xbd6f7390	-0.05845982
73	0x3da1a218	0.07892245
74	0xbdef7ab6	-0.11693327
75	0x3deda076	0.11602871
76	0xbdd1e47f	-0.1024866
77	0xbd721438	-0.059101313
78	0x3dd2655e	0.102732405
79	0x3d3095b4	0.043111518
80	0xbdc649d6	-0.09682052
81	0xbd22bee8	-0.039732844
82	0xbdbd433b	-0.09241339
83	0x3c6d28c0	0.014475048
84	0xbdc76662	-0.09736325
85	0x3d9ada1e	0.07561134
86	0xbc9e60f8	-0.019333348
87	0x3d942a06	0.07234578
88	0x3cde48d8	0.027134344
89	0xbdbe804c	-0.093018144
90	0x3d799c04	0.060939804
91	0xbe03dfa4	-0.12878281
92	0xbdb5d7d7	-0.08879059
93	0xbd9b830c	-0.075933546
94	0xbd2ace6a	-0.041700758
95	0xbdb504a6	-0.08838777
96	0xbd823774	-0.06358233
97	0xbcc71b6c	-0.024305068
98	0x3df93a56	0.1216933
99	0x3d22dfb0	0.039764106
100	0xbb55da80	-0.0032631457
101	0xbdeec879	-0.11659331
102	0x3dfa64a6	0.122262284
103	0xbdd90ad4	-0.105977684
104	0xbdd92c60	-0.10604167
105	0x3ce7ea50	0.028309971
106	0xbd91cbd2	-0.07118954
107	0x3e0316b9	0.12801637
108	0x3dae0c0a	0.0849839
109	0x3aaf0700	0.0013353527
110	0x3d69d198	0.05708465
111	0x3de11074	0.10989466
112	0xbd539fe0	-0.05166614
113	0x3cc536c0	0.024073958
114	0xbdea097f	-0.114275925
115	0x3d1c05fc	0.038091645
116	0x3d3c4560	0.0459646
117	0x3df5b118	0.119966686
118	0xbcefdcc4	-0.029280074
119	0x3d81006a	0.06298907
120	0xbdc8b8e3	-0.09800889
121	0x3dae87fe	0.08522032
122	0x3d1208c0	0.035652876
123	0xbdedf37c	-0.116187066
124	0x3dcd3e34	0.1002163
125	0x3df5d1f8	0.12002939
126	0xbdc85ef0	-0.09783733
127	0xbc692900	-0.014230967

linear2.weight f4 [64, 128]
0	0x3d2e1ad6	0.04250606
1	0xbc804a20	-0.015660346
2	0xbd08fde3	-0.03344525
3	0x3c434218	0.011917613
4	0x3cde46f4	0.027133442
5	0xbd28b9c0	-0.04119277
6	0xbcc1ced4	-0.023658194
7	0xbd4a26d3	-0.049353432
8	0xbd322c5d	-0.04349934
9	0xbd07c789	-0.033149276
10	0xbd867d8c	-0.06566915
11	0x3da681ef	0.081302516
12	0x3c22ac78	0.009928815
13	0xbd7cad7c	-0.061688885
14	0x3a89bdc0	0.001050882
15	0xbd4a48ff	-0.04938602
16	0x3d805e9d	0.06268046
17	0xbd2c166e	-0.042013578
18	0x3d9dd4bf	0.07706594
19	0x3d091994	0.03347166
20	0xbd8ee988	-0.06978136
21	0x3cd08680	0.02545476
22	0x3d9ad50f	0.07560169
23	0xbd0c8663	-0.03430785
24	0x3d8f2d69	0.06991083
25	0x3d9b609f	0.075867884
26	0x3c94a7c8	0.01814641
27	0xbd7b0c62	-0.061291106
28	0x3d2ac7da	0.0416945
29	0xbcd6c00c	-0.026214622
30	0xbd26e3d8	-0.040744632
31	0x3cf5b370	0.029992789
32	0x3d3ebe56	0.046568237
33	0xbdb24ba3	-0.08705833
34	0x3b6623c0	0.0035116524
35	0xbc225398	-0.009907626
36	0xbcac9554	-0.021067299
37	0xbda9c084	-0.082886726
38	0x3d967ce3	0.07348039
39	0xba9ff000	-0.0012202263
40	0xbd4cfaec	-0.050043985
41	0xbda4e0f2	-0.080507174
42	0xbd52ad77	-0.05143496
43	0x3d85251d	0.065012194
44	0x3c19efb0	0.009395525
45	0xbd83ded0	-0.064389825
46	0xbcc78e08	-0.024359718
47	0x3c8768c8	0.016529456
48	0x3db28749	0.0871721
49	0x3c5050a0	0.012714535
50	0x3d691336	0.056903087
51	0xbc2ef2e0	-0.010678023
52	0xbd9fc14b	-0.078005396
53	0x3d96f285	0.07370476
54	0x3d626d06	0.055279754
55	0x3cd2dbc8	0.025739565
56	0x3d637ce6	0.055539034
57	0x3d3d6d46	0.04624679
58	0xbd605c24	-0.054775372
59	0x3c0d6be0	0.008631676
60	0xbd77df4a	-0.06051568
61	0x3c958710	0.01825288
62	0xbda70888	-0.08155924
63	0x3d922b8f	0.071372144
64	0xbb278380	-0.0025560558
65	0xbda2026a	-0.07910617
66	0xbda5a534	-0.080881506
67	0x3d64a61e	0.055822484
68	0xbd7697a2	-0.060203202
69	0xbc6a83f8	-0.01431369
70	0x3d8cbca7	0.0687192
71	0xbd9b8845	-0.07594351
72	0xbd961b00	-0.073293686
73	0xbd4deb43	-0.05027319
74	0x3d88bd6f	0.066767566
75	0x3d6cecbe	0.057842962
76	0x3d1cb512	0.03825862
77	0x3ccc39d0	0.02492991
78	0xbcfa3d22	-0.030546729
79	0x3d8d674f	0.0690447
80	0x3c96c91c	0.018406443
81	0x3c621d70	0.013800964
82	0x3c1be8e0	0.009515971
83	0xbda950ab	-0.08267339
84	0x3d86e269	0.06586153
85	0x3d0887e6	0.033332728
86	0xbc070818	-0.008241676
87	0x3d4c1986	0.04982903
88	0xbcfbdd4a	-0.030745167
89	0x3c8a12f8	0.016854748
90	0xbc249a18	-0.010046504
91	0xbda34267	-0.079716496
92	0xbd042ba5	-0.032268185
93	0x3d0ee3a0	0.03488505
94	0xbc075538	-0.008260064
95	0xbc02b700	-0.007978201
96	0x3d4c5822	0.049888737
97	0xba93c080	-0.001127258
98	0xbce9d0fc	-0.028542034
99	0xbccac0f8	-0.024750218
100	0x3d3501d6	0.044191204
101	0xbd919c96	-0.071099445
102	0x3cf9d7f8	0.03049849
103	0x3d668e72	0.05628819
104	0xbd2c4fb2	-0.04206819
105	0x3d0f4ba6	0.034984253
106	0x3cfd2030	0.030899137
107	0xbd962cba	-0.0733275
108	0x3a107000	0.00055098534
109	0x3d00b612	0.031423636
110	0xbd35686b	-0.044289034
111	0x3c6c9848	0.014440604
112	0x3c0fd870	0.00877963
113	0x3da4d72b	0.080488525
114	0xbd4bb501	-0.049733166
115	0xbd6c7369	-0.05772725
116	0x3c034598	0.008012198
117	0xbdb4f0e3	-0.08835008
118	0xbd97b2d4	-0.07407156
119	0xbc8d9760	-0.017284095
120	0x3c1a6af0	0.00942491
121	0x3da9e4c3	0.08295586
122	0x3d2d6b82	0.042338856
123	0xbd701eba	-0.058623053
124	0x3b5a2300	0.0033285022
125	0xbb9dca60	-0.0048153847
126	0xbb199bc0	-0.0023438781
127	0x3d32094a	0.04346589
128	0x3da3b403	0.07993319
129	0x3da07611	0.078350194
130	0x3d949b4f	0.07256185
131	0xbce5ad9c	-0.028036885
132	0x3c8f9200	0.017525673
133	0xbd929887	-0.071579985
134	0x3d21d7e6	0.039512537
135	0x3d8f1b71	0.06987656
136	0x3ca7b2e0	0.020471036
137	0xbcc4c3c0	-0.024019122
138	0x3d6fa5e6	0.058507822
139	0x3c6bd740	0.014394581
140	0xbda1b97d	-0.07896707
141	0xbc4657d8	-0.0121059045
142	0xbdad04d2	-0.08448185
143	0x3d3e42a6	0.04645028
144	0x3db00b5f	0.08595919
145	0x3d8bc449	0.06824548
146	0xbcb0565c	-0.021525554
147	0x3cc46b24	0.02397687
148	0xbc85893c	-0.01630079
149	0xbcbb8bf4	-0.022893883
150	0xbd10f666	-0.035391234
151	0x3d2ff8ce	0.042961888
152	0x3d877e5b	0.06615897
153	0x3c9e6494	0.019335069
154	0x3db1eb1b	0.08687421
155	0x3d6dd4a2	0.05806411
156	0xbd408b63	-0.04700793
157	0xbd8e0748	-0.069349825
158	0xbcecd10a	-0.028908271
159	0xbdaee3fb	-0.085395776
160	0xbda198ca	-0.0789047
161	0xbb43c180	-0.0029869974
162	0xbd375894	-0.04476221
163	0xbd665df4	-0.056241944
164	0x3d42e592	0.047582217
165	0x3da7a0d1	0.0818497
166	0xbce91282	-0.028451208
167	0xbdaff4e1	-0.08591629
168	0x3d9c1005	0.07620243
169	0xbd887e2c	-0.066646904
170	0x3cb0096c	0.021488868
171	0xbcd1be60	-0.025603473
172	0x3d0f0c58	0.03492388
173	0x3cb8ab90	0.022542745
174	0xbd1c13d5	-0.03810485
175	0xbd298ed5	-0.04139598
176	0xbd039080	-0.032120228
177	0x3d82c933	0.06386032
178	0xbdb1030c	-0.08643159
179	0x3d10e55c	0.035374984
180	0x3d71bc2a	0.059017338
181	0xbca838d0	-0.020534903
182	0xbbae5000	-0.0053195953
183	0xbcf37f92	-0.029723916
184	0x3d9e11f5	0.07718269
185	0x3d93bc95	0.072137035
186	0xbce6707c	-0.028129809
187	0xbda424d3	-0.08014836
188	0x3c2a7d80	0.010405898
189	0xbc107f80	-0.008819461
190	0xbd2f1b9c	-0.04275094
191	0x3d052688	0.03250745
192	0x3d9c7e27	0.07641249
193	0x3ce5b990	0.028042585
194	0x3d7cea8a	0.06174711
195	0x3d400a8a	0.04688505
196	0x3b9c8ff0	0.004777901
197	0xbdadeb7a	-0.08492179
198	0x3cbd0a10	0.023076087
199	0x3d0a45c0	0.033757925
200	0x3da7cf7b	0.08193871
201	0xbd7f0c10	-0.062267363
202	0x3c35d928	0.011099137
203	0xbcb7bcb4	-0.022428848
204	0xbc7296c0	-0.014806449
205	0xbda5e726	-0.08100729
206	0xbda4b159	-0.08041639
207	0xbd57ea59	-0.052713726
208	0x3d86363d	0.06553314
209	0xbd339cca	-0.043850698
210	0x3d78ae82	0.0607133
211	0xbd20c748	-0.03925255
212	0xbd8bf81c	-0.068344325
213	0x3d3eab96	0.046550356
214	0x3cd2aef0	0.025718182
215	0xbd25ddf9	-0.040494893
216	0x3d903345	0.07041029
217	0xbda27b32	-0.07933654
218	0xbcd680a2	-0.026184384
219	0x3d9e899b	0.0774109
220	0x3dab0bb9	0.08351845
221	0x3d2f2122	0.042756207
222	0x3d074e88	0.033033878
223	0x3db2ab7f	0.087241165
224	0x3ac46bc0	0.0014985725
225	0xbc957da4	-0.018248387
226	0xbd555d61	-0.052091006
227	0x3c663338	0.014050297
228	0xbb3c7de0	-0.002876155
229	0xbca052b0	-0.019570678
230	0x3d5d72fe	0.054064743
231	0x3abc9cc0	0.0014389977
232	0x3d7b7232	0.061388202
233	0x3d49eff6	0.04930111
234	0xbbccfa20	-0.006255403
235	0x3bc8e070	0.0061302707
236	0xbdb42db8	-0.08797783
237	0x3ca9a598	0.020708844
238	0xbcf0bf94	-0.029388227
239	0x3c1cf6d0	0.009580329
240	0x3d2b857a	0.04187534
241	0x3d643732	0.0557167
242	0xbd52d20c	-0.051469848
243	0x3d40dd4e	0.047086053
244	0x3ba582c0	0.005050987
245	0x3d3d3ca2	0.046200402
246	0xbcce94a0	-0.025217354
247	0x3d910735	0.07081453
248	0xbca28e60	-0.01984328
249	0x3d010e3c	0.031507716
250	0xbd9b9a01	-0.07597733
251	0xbd2e5708	-0.04256347
252	0x3d7c1faa	0.061553635
253	0x3d8295e9	0.06376249
254	0xbbb64600	-0.005562544
255	0xbdada265	-0.0847824

linear2.bias f4 [64]
0	0xbba34d90	-0.0049836114
1	0xbd191dfd	-0.037382115
2	0xbda8a37a	-0.08234306
3	0xbda15ca3	-0.07878997
4	0x3d558702	0.052130707
5	0x3d97c4a1	0.07410551
6	0x3ca8a664	0.020587154
7	0xbc5206d0	-0.012819007
8	0x3d5b6c6a	0.05357019
9	0xbd32f622	-0.04369176
10	0x3cf63310	0.030053645
11	0xbda0588c	-0.07829389
12	0xbd4435d1	-0.047902886
13	0xbd25c835	-0.040474135
14	0xba596000	-0.0008292198
15	0x3d85ac97	0.065270595
16	0xbd04edca	-0.032453336
17	0x3d6ea692	0.058264323
18	0xbd750aab	-0.059824627
19	0x3be3d540	0.0069529116
20	0x3d71f54a	0.059071817
21	0x3db36ff7	0.0876159
22	0x3d8db67f	0.06919574
23	0xbc4361f0	-0.011925206
24	0xbcdbc866	-0.026828956
25	0x3d7f2892	0.06229455
26	0x3d46de1a	0.048551656
27	0x3c494640	0.012284815
28	0xbcffce82	-0.0312264
29	0x3ce3a358	0.02778785
30	0xbda15d66	-0.078791425
31	0xbd4abfe1	-0.049499396
32	0xbcebd90a	-0.028790016
33	0x390a8200	0.00013209134
34	0xbc9c0f0c	-0.019050144
35	0x3d12b1f4	0.03581424
36	0xbcc4b16c	-0.024010383
37	0xbd5f520c	-0.054521605
38	0x3c08bb08	0.008345373
39	0x3db191cf	0.08670389
40	0xbc88c7c4	-0.016696818
41	0xbd0242c2	-0.031801946
42	0xbc1519f0	-0.009100422
43	0x3d15d53e	0.036580317
44	0x3d97b93f	0.0740838
45	0xbdab8603	-0.0837517
46	0x3c97cee0	0.018531263
47	0xbd7df5e4	-0.062002078
48	0x3b998210	0.004684694
49	0x3d47fdde	0.04882609
50	0xbd922324	-0.07135609
51	0xbd982ec7	-0.07430797
52	0x3cd5d248	0.026101246
53	0xbdb46bb6	-0.08809607
54	0xbbebff30	-0.0072020516
55	0x3c39b650	0.011334971
56	0xbdab7280	-0.083714485
57	0x3da3a555	0.07990519
58	0xbbdda2c0	-0.006763786
59	0xbb4ed940	-0.0031562597
60	0x3d1a7b7a	0.037715413
61	0x3d69dac2	0.05709339
62	0xbd9c1987	-0.076220565
63	0xbd915cbc	-0.07097766

linear3.weight f4 [10, 64]
0	0x3d938eec	0.072049946
1	0x3d96dad6	0.073659584
2	0xbdc1a3b0	-0.09455049
3	0xbc0b1a30	-0.00849013
4	0xbcfcb630	-0.030848593
5	0xbc03d690	-0.008046761
6	0x3d3863cc	0.04501705
7	0x3cbac3b0	0.02279839
8	0xbc3924c0	-0.011300266
9	0x3dea2816	0.11433427
10	0x3daecb90	0.0853492
11	0x3ddc0116	0.107423946
12	0xbdc718dc	-0.097215384
13	0xbda49eb6	-0.08038084
14	0x3d346af0	0.044047296
15	0xbd36f1c0	-0.044664145
16	0x3d5cf230	0.053941905
17	0xbd721c24	-0.05910887
18	0xbd035270	-0.03206104
19	0x3dd35bb8	0.10320228
20	0x3d1b8c78	0.03797576
21	0xbdbc6d16	-0.09200494
22	0xbc83cc50	-0.016088635
23	0xbd6e349c	-0.05815564
24	0x3d88b182	0.06674482
25	0x3da5f71e	0.081037745
26	0x3d1571e4	0.036485568
27	0x3db56d1e	0.08858703
28	0xbd9f037e	-0.07764338
29	0xbdcc69b4	-0.09981099
30	0x3cf09ef8	0.029372677
31	0xbdcc1ab0	-0.09966028
32	0x3dd6386c	0.1045998
33	0xbdb744bc	-0.08948657
34	0xbd794470	-0.060856283
35	0xbc7c5bd0	-0.015402749
36	0xbca99888	-0.020702615
37	0x3dc68c64	0.09694746
38	0xba842700	-0.0010082424
39	0xbdc56ab6	-0.09639494
40	0x3ddeaf62	0.10873295
41	0x3db3c064	0.0877693
42	0xbd5fadc0	-0.05460906
43	0xbd63ac84	-0.055584446
44	0xbd586e64	-0.05283965
45	0x3cb836c0	0.022487044
46	0xbca69660	-0.020335376
47	0xbd73ff80	-0.059569836
48	0x3d0e72bc	0.034777388
49	0x3dfbb106	0.12289624
50	0xbd47ba80	-0.048761845
51	0xbc3ca390	-0.011513606
52	0xbd867138	-0.065645635
53	0xbbdfd960	-0.006831333
54	0xbdd2de00	-0.102962494
55	0x3ac11100	0.0014729798
56	0xbc974f68	-0.018470481
57	0x3dc64c50	0.09682524
58	0xbce6cd88	-0.028174177
59	0x3d8fd9fa	0.070239976
60	0xbd5ee9f0	-0.05442232
61	0xbd5a1e88	-0.053251773
62	0x3d7db67c	0.06194161
63	0x3d5fa154	0.054597214
64	0x3d33a9ec	0.043863222
65	0x3d0084e0	0.03137672
66	0xbdcae7dc	-0.09907505
67	0x3da75dd8	0.08172196
68	0x3dfe1d44	0.12407926
69	0xbd9671fe	-0.07345961
70	0xbcb03760	-0.02151078
71	0xbc2512a0	-0.010075241
72	0xbbbb1360	-0.005709097
73	0x3d7baee0	0.06144607
74	0xbd628480	-0.055302143
75	0x3c875d58	0.016524002
76	0xbdcfa568	-0.101389706
77	0x3c7767e0	0.015100449
78	0xbd8381a2	-0.0642121
79	0x3d137288	0.035997897
80	0x3c3b2ee0	0.01142475
81	0xbcd39060	-0.02582568
82	0xbdbdde3e	-0.09270905
83	0x3d9e15b6	0.07718985
84	0xbc603c00	-0.01368618
85	0x3dbaac88	0.09114939
86	0xbd26661c	-0.040624723
87	0x3c5f00b0	0.013611004
88	0x3dd781bc	0.10522792
89	0x3dad7b6e	0.08470808
90	0x3d891480	0.06693363
91	0x3bc5f7e0	0.006041512
92	0x3d82e06a	0.0639046
93	0x3d94e57e	0.07270335
94	0x3c0458e0	0.00807783
95	0x3bb0d0a0	0.005395964
96	0xbd8fc5ee	-0.07020174
97	0xbdf3e5bc	-0.11909053
98	0x3de9da84	0.11418632
99	0x3dd70b84	0.10500243
100	0xbdcbc472	-0.09949578
101	0x3d4c73a0	0.049914956
102	0x3bdb27c0	0.006688088
103	0xbc179050	-0.009250715
104	0xbd84d16e	-0.06485258
105	0xbdfd8142	-0.123781696
106	0x3cd18330	0.02557525
107	0xbdca09b4	-0.09865132
108	0x3975f400	0.00023455918
109	0xbd2ad6e8	-0.041708857
110	0x3d4ed9ac	0.050500557
111	0x3d363170	0.04448074
112	0xbd5d4228	-0.05401817
113	0x3cd7ba40	0.026333928
114	0x3c81bb98	0.015836522
115	0x3ce58778	0.028018698
116	0xbcf7a3d8	-0.030229494
117	0x3d5d6a78	0.054056615
118	0xbdcb50a8	-0.09927493
119	0x3db63d2e	0.08898388
120	0xbd884fca	-0.066558436
121	0xbd5627b8	-0.052283973
122	0x3c88e5a8	0.016711071
123	0x3d81633c	0.063177556
124	0x3d4136d4	0.04717143
125	0x3db0d6da	0.0863473
126	0xbd086a14	-0.03330429
127	0xbdb03c1c	-0.08605215
128	0xbddb7f96	-0.107176945
129	0x3d9d451e	0.07679199
130	0xbcc3ab00	-0.02388525
131	0xbd446fe0	-0.047958255
132	0x3cf91540	0.03040564
133	0xbceee850	-0.02916351
134	0xbd33f3e4	-0.043933764
135	0x3db364e2	0.08759476
136	0x3d284b24	0.041087285
137	0x3db7e5fe	0.089794144
138	0x3b19f880	0.0023494065
139	0x3dc57c1a	0.09642811
140	0x3dfddef2	0.12396039
141	0x3db9e01c	0.090759486
142	0x3d44ab7c	0.048015103
143	0xbd9e98d0	-0.077439904
144	0x3ce21c20	0.027601302
145	0x3d2e3734	0.042533115
146	0x3ce935e8	0.028468087
147	0x3b6a24c0	0.003572747
148	0xbc0a2080	-0.0084306
149	0xbb87fe00	-0.004150152
150	0x3d77c1ec	0.060487673
151	0xbd678168	-0.056519896
152	0x3d6afd68	0.057370573
153	0xbdc092be	-0.09402989
154	0xbd32d148	-0.043656617
155	0xbdbdf916	-0.09276025
156	0x3cb06618	0.021533057
157	0x3d609518	0.054829687
158	0x3c3e4d60	0.011615127
159	0xbd3387cc	-0.043830678
160	0xbd29f16c	-0.041490003
161	0xbd9051f0	-0.07046878
162	0x3da4fd74	0.08056155
163	0xbdea3154	-0.1143519
164	0xbde40bca	-0.11135061
165	0x3d13bef4	0.03607078
166	0xbceed078	-0.02915214
167	0xbd9157ea	-0.070968464
168	0x3de51be0	0.11186957
169	0x3d64fb44	0.055903688
170	0xbbe5b240	-0.0070097744
171	0xbd661ee8	-0.05618182
172	0xbddf4f0a	-0.109037474
173	0x3ce98df0	0.028510064
174	0xbd4d6f18	-0.050154775
175	0xbd83d5b4	-0.06437245
176	0xbd943a10	-0.07237637
177	0xbdf1eb0c	-0.1181241
178	0xbd99e850	-0.07515013
179	0x3dc3c07c	0.09558198
180	0x3be0b020	0.0068569332
181	0x3ccc54b8	0.02494274
182	0x3ccc2510	0.024920017
183	0xbd2bd380	-0.04194975
184	0xbd816ace	-0.063191995
185	0x3cf631f0	0.030053109
186	0xbd616cb0	-0.055035293
187	0xbde62396	-0.11237256
188	0x3d8e97c6	0.06962542
189	0xbca33ac0	-0.019925475
190	0x3d0c4a58	0.034250587
191	0x3cf1e2b0	0.029527038
192	0x3cb13f18	0.02163653
193	0xbb635700	-0.0034689307
194	0x3d9c9324	0.07645252
195	0xbd66de68	-0.056364447
196	0x3c16aa30	0.009195849
197	0xbcaf9be0	-0.021436632
198	0xbd9c866c	-0.076428264
199	0xbd1a0c78	-0.037609547
200	0x3dbde0da	0.09271403
201	0x3bfa2520	0.00763382
202	0x3c2c7300	0.010525465
203	0x3dcf3aee	0.10118662
204	0x3d5436a0	0.051809907
205	0x3d8a5246	0.06753974
206	0xbdd31cac	-0.10308203
207	0xbca01d98	-0.019545361
208	0xbbd9a360	-0.0066417903
209	0xbd12ec44	-0.03586985
210	0xbd881afa	-0.0664577
211	0x3d4805ec	0.048833773
212	0x3d472d08	0.04862693
213	0x3d8f0dd4	0.069850594
214	0x3de9e214	0.11420074
215	0xbc10bbe0	-0.008833855
216	0x3dee22f6	0.11627762
217	0xbd5abff0	-0.053405702
218	0x3d7ecd54	0.062207535
219	0xbdcc8492	-0.09986223
220	0x3d3f1ca0	0.04665816
221	0xbd999a3e	-0.075001225
222	0x3da22f34	0.079191595
223	0x3d183b34	0.037165835
224	0xbd0e1b88	-0.034694225
225	0x3cffae08	0.031210914
226	0xbdd1d8c4	-0.10246423
227	0x3df76fc4	0.120818645
228	0xbc69ece0	-0.014277667
229	0x3d1edf0c	0.038786933
230	0x3d95eb50	0.07320273
231	0x3daf0858	0.08546513
232	0x3c663540	0.014050782
233	0xbd906c20	-0.07051873
234	0x3dad6d62	0.08468129
235	0x3d81c750	0.06336844
236	0xbdd15932	-0.10222091
237	0x3dc8388c	0.097764105
238	0x3dc9df0a	0.098569945
239	0x3d8324e8	0.06403524
240	0x3dfaff90	0.12255776
241	0x3dd08fa2	0.10183646
242	0xbd129438	-0.035785884
243	0xbd79d114	-0.060990408
244	0xbdc77eb8	-0.097409666
245	0x3d1b1980	0.037866116
246	0x3db607f6	0.08888237
247	0xbdac79ba	-0.08421655
248	0xbda9a89a	-0.08284111
249	0xbcd868c0	-0.026417136
250	0xbdab6b4c	-0.08370075
251	0xbd10de0c	-0.03536801
252	0xbd51b48c	-0.051197574
253	0x3dadf804	0.08494571
254	0xbdba2a4c	-0.09090099
255	0xbb3166c0	-0.00270693

linear3.bias f4 [10]
0	0x3dfceb22	0.123495355
1	0xbd917b96	-0.0710365
2	0x3dbb5c88	0.09148508
3	0xbdcf3864	-0.101181775
4	0x3dc1e220	0.09466958
5	0xbdf700d2	-0.12060703
6	0xbb3c6140	-0.002874449
7	0x3df2c0e8	0.118532
8	0x3d7a9d68	0.06118527
9	0x3dae2bbc	0.085044354
