models/model2.onnx (onnx, 68677 bytes, 6 tensors)

linear1.weight f4 [128, 60]
0.11131954 0.031491727 -0.11715209 0.03686367 -0.08108381 -0.12172318 -0.10106843 0.055016547
0.10991156 -0.06601956 0.04220879 0.03396146 -0.008645065 0.07227731 0.05215743 0.12412308
0.09339425 0.10405919 0.0864905 -0.0741546 0.030415505 -0.071612105 0.1094632 0.038603783
-0.10604766 -0.018113874 -0.11009498 0.060620606 -0.049055636 -0.09173775 -0.053551413 0.06941831
-0.08502656 -0.09412223 0.015437886 -0.0071700066 0.027722225 -0.12704562 0.116662696 -0.0019636303
0.12390123 0.07694639 0.035270527 0.09162676 -0.008960031 -0.055985563 0.004033953 0.050899923
0.013389796 0.054481387 0.09656924 -0.06949274 -0.012542933 -0.03806805 -0.047274105 0.07784474
-0.074499354 -0.10262131 0.0047125965 -0.03407886 -0.08320576 0.07202466 0.11612712 0.010884076
0.059651017 -0.026190378 -0.05752022 -0.080827445 -0.05442155 -0.058730572 -0.06330554 0.100973055
0.025610909 0.0027568787 0.01763384 0.109176785 0.12504844 0.10366969 -0.029236332 0.014051735
-0.015383698 -0.013305433 0.039374158 0.11735365 0.023414448 -0.036018692 -0.054466493 -0.054696955
-0.093132526 -0.007956095 0.07952258 0.023520231 0.041113228 -0.089279845 -0.030778348 0.09500097
0.0033385307 0.11195153 -0.05588785 -0.053411037 -0.044652164 0.090336874 0.08932868 -0.11668906
-0.00987044 -0.073251516 -0.020311125 -0.105464876 -0.08245163 -0.11230423 -0.096546136 0.03771557
-0.07421842 -0.03995672 0.04931228 0.11654979 0.0077075213 -0.050991476 -0.08776082 0.123600945
-0.0075794086 -0.07674815 0.0029931962 0.021778762 0.019082412 -0.107990324 -0.02419927 0.04103905
-0.05705723 0.06848553 -0.1165746 0.061923295 0.11359911 -0.12389835 0.061483577 0.086719304
0.055305228 -0.06718063 -0.11307042 -0.073328674 -0.11186798 -0.071917325 0.053223625 -0.109935306
-0.029749952 -0.12340566 -0.050947644 -0.02305054 -0.057817295 0.017565578 -0.05642671 0.068489015
0.056749865 0.034811467 0.12412377 0.102051824 -0.12240115 0.040829346 -0.04458967 0.054530993
-0.084393725 -0.0039546937 -0.08211201 -0.03979653 -0.052004695 0.057717532 -0.06203939 0.09041436
0.09519747 -0.012912609 0.0259493 -0.049154192 0.09351294 -0.08888728 -0.02655498 -0.050275743
0.03365566 0.0892939 -0.016498461 -0.03841138 -0.01858095 0.09482607 0.041459695 -0.06677534
0.00894694 -0.11868016 -0.06821741 0.03805186 0.044624016 0.113795295 0.038235202 0.048082277
0.06393039 -0.021929435 -0.12693755 -0.04658907 0.10856825 0.078415126 -0.12031873 0.119834274
0.12502958 -0.08629164 -0.04528206 0.12542088 0.08333726 0.037243694 0.10736595 -0.10476547
0.050070956 0.043586582 0.02725099 -0.104038574 -0.081983626 -0.065934315 0.09554435 0.05787845
0.109925315 -0.006548047 -0.017136864 -0.038877428 -0.09972043 -0.028935753 -0.04825139 0.02180177
0.05140634 -0.06432651 0.08652192 -0.080745205 0.038639456 -0.024549834 -0.013665408 -0.057529964
-0.1264265 0.048810616 -0.029371873 -0.06776358 0.083177105 -0.050659336 -0.027814634 0.11526547
0.089606285 -0.049439408 -0.058269463 0.04217635 0.08826104 -0.015912957 -0.12868518 0.086392924
-0.048785493 0.06394665 0.11427143 0.05850993 -0.018576384 0.039598748 -0.058261678 0.03607981
00000000: 80fb e33d 78fd 003d 6fed efbd 5cfe 163d
00000010: 450f a6bd 014a f9bd f7fc cebd 0859 613d
00000020: 5019 e13d 4335 87bd 20e3 2c3d 2c1b 0b3d
00000030: 08a4 0dbc 2006 943d 08a3 553d 3e34 fe3d
00000040: 7c45 bf3d fc1c d53d ee21 b13d 5ede 97bd
00000050: f029 f93c 5ea9 92bd 3e2e e03d 001f 1e3d
00000060: 842f d9bd 8c63 94bc 7a79 e1bd 504d 783d
00000070: 90ee 48bd 00e1 bbbd ba58 5bbd 302b 8e3d
00000080: 6822 aebd 28c3 c0bd 30ef 7c3c 60f2 eabb
00000090: b819 e33c 3f18 02be daec ee3d 40b0 00bb
000000a0: eebf fd3d 1296 9d3d d477 103d d0a6 bb3d
000000b0: 18cd 12bc 1e51 65bd 402f 843b 707c 503d
000000c0: e060 5b3c e027 5f3d 18c6 c53d 3652 8ebd
000000d0: e080 4dbc 3eed 1bbd 7ea2 41bd 106d 9f3d
000000e0: 1e93 98bd 1f2b d2bd 206c 9a3b 4696 0bbd
000000f0: c867 aabd aa81 933d 0ed4 ed3d 2053 323c
00000100: a054 743d 348d d6bc 529a 6bbd dc88 a5bd
00000110: 22e9 5ebd 788f 70bd 56a6 81bd f6ca ce3d
00000120: f8cd d13c c0ac 343b d874 903c 1498 df3d
00000130: b30c 003e c650 d43d 0881 efbc 4039 663c
00000140: e80b 7cbc 08ff 59bc cc46 213d 1c57 f03d
00000150: a8cf bf3c 5688 13bd 4218 5fbd ea09 60bd
00000160: 44bc bebd 485a 02bc bcdc a23d 80ad c03c
00000170: 5866 283d 5ad8 b6bd e022 fcbc de8f c23d
00000180: 40cb 5a3b d846 e53d a8ea 64bd 88c5 5abd
00000190: 30e5 36bd 8a02 b93d f4f1 b63d adfa eebd
000001a0: a0b7 21bc e404 96bd 8463 a6bc f8fd d7bd
000001b0: 66dc a8bd c3ff e5bd fbb9 c5bd a47b 1a3d
000001c0: d4ff 97bd a8a9 23bd acfb 493d a8b1 ee3d
000001d0: 608f fc3b 70dc 50bd f2bb b3bd 7e22 fd3d
000001e0: b05c f8bb 222e 9dbd 8029 443b 6069 b23c
000001f0: b852 9c3c 082a ddbd 8c3d c6bc 9018 283d
00000200: d8b4 69bd 2442 8c3d aabe eebd 48a3 7d3d
00000210: a6a6 e83d 6bbe fdbd 34d6 7b3d e499 b13d
00000220: bc87 623d 0096 89bd 7791 e7bd 582d 96bd
00000230: 0a1b e5bd 6449 93bd 0401 5a3d c325 e1bd
00000240: 2cb6 f3bc 1bbc fcbd 7aae 50bd 7cd4 bcbc
00000250: d4d1 6cbd b0e5 8f3c b21f 67bd f843 8c3d
00000260: 8c72 683d 7896 0e3d 9a34 fe3d 8c00 d13d
00000270: 74ad fabd ac3c 273d a8a3 36bd e45b 5f3d
00000280: 9ed6 acbd 6096 81bb 572a a8bd b001 23bd
00000290: e002 55bd 3869 6c3d 041d 7ebd 2a2b b93d
000002a0: e4f6 c23d 688f 53bc a093 d43c e855 49bd
000002b0: b683 bf3d 890a b6bd d489 d9bc f0ed 4dbd
000002c0: 84da 093d b8df b63d c827 87bc 4055 1dbd
000002d0: 1437 98bc 2c34 c23d a4d1 293d 82c1 88bd
000002e0: 3096 123c 950e f3bd 92b5 8bbd 44dc 1b3d
000002f0: acc7 363d 820d e93d 849c 1c3d ecf1 443d
00000300: f0ed 823d 5ca5 b3bc ebfb 01be 2ed4 3ebd
00000310: 0859 de3d 1c98 a03d ab69 f6bd ac6b f53d
00000320: c107 003e acb9 b0bd ae79 39bd 556e 003e
00000330: baac aa3d d88c 183d aee2 db3d 478f d6bd
00000340: 3417 4d3d d887 323d 783d df3c 2d12 d5bd
00000350: 08e7 a7bd 9208 87bd c2ac c33d f411 6d3d
00000360: 8620 e13d 0091 d6bb 9c62 8cbc f03d 1fbd
00000370: 3a3a ccbd ac0a edbc 40a3 45bd a099 b23c
00000380: 748f 523d 9ebd 83bd 6832 b13d be5d a5bd
00000390: 6844 1e3d bc1c c9bc e0e4 5fbc 8aa4 6bbd
000003a0: f375 01be a4ed 473d 489d f0bc a2c7 8abd
000003b0: c258 aa3d 2a80 4fbd 84db e3bc 4e10 ec3d
000003c0: 8083 b73d fa80 4abd f6ab 6ebd 1cc1 2c3d
000003d0: 34c2 b43d e45b 82bc 0cc6 03be c6ee b03d
000003e0: 4cd3 47bd 76f6 823d 2407 ea3d 1ca8 6f3d
000003f0: 802d 98bc 4c32 223d cca3 6ebd 6cc8 133d

linear1.bias f4 [128]
-0.058482595 -0.11734777 -0.10403274 0.045021385 0.108630925 -0.04991725 0.110073686 0.03803438
-0.087852545 -0.120881155 0.03939493 -0.032775737 -0.12071979 -0.036086865 0.019674152 0.12733768
-0.10565761 0.03714703 -0.016873263 -0.031805947 -0.11609596 -0.12616038 0.08016048 -0.064479515
-0.0066282228 0.019678548 -0.11377083 -0.10635524 -0.064757966 0.11550191 0.0291114 0.05992551
-0.08839275 -0.040229417 -0.09537938 0.038618118 0.1169277 0.051136836 0.032580793 -0.09909405
0.013642013 0.12023176 0.12645625 0.053957075 0.035092413 0.05852142 -0.06506119 0.09009303
-0.10077073 -0.015659392 0.029888794 0.10712546 0.030523047 0.12902842 0.0017617047 -0.07647609
-0.03173454 -0.001433745 -0.10711316 0.12175156 -0.05704897 -0.06458934 0.06389907 0.081613705
0.07736777 -0.12370534 -0.06531323 0.11114925 -0.026118353 -0.12886241 0.086358964 0.07941179
-0.03851825 -0.026809327 0.09560196 0.04762037 0.10891539 -0.12458645 -0.040143967 0.037579536
0.113107175 0.09329128 0.014962837 -0.08720968 0.010050312 -0.014934264 -0.11523432 -0.047949612
0.03373532 0.05670522 -0.047631428 -0.096396714 -0.04891455 0.12261917 0.0044852197 -0.100064605
0.06593987 -0.073733345 -0.050672032 -0.10937986 -0.10645363 -0.112655506 -0.08409468 -0.08892248
-0.076592356 0.055593327 -0.00061941147 -0.065587044 0.063931406 0.100361675 0.093374744 0.10227135
-0.08861925 0.06571406 -0.017677352 0.098011255 -0.07516592 -0.010275699 -0.0899979 0.03095135
0.03765574 0.08502366 0.06360766 0.018693313 0.045413524 -0.07841714 0.010802358 0.045268357
00000000: 728b 6fbd 0754 f0bd 1e0f d5bd 5868 383d
00000010: e479 de3d 0876 4cbd 506e e13d f0c9 1b3d
00000020: 09ec b3bd 8a90 f7bd 945c 213d da3f 06bd
00000030: f03b f7bd d2cf 13bd b02b a13c cf64 023e
00000040: 0463 d8bd 7c27 183d cc39 8abc f446 02bd
00000050: b8c3 edbd 3030 01be 2e2b a43d d60d 84bd
00000060: 9031 d9bb e834 a13c ae00 e9bd c7d0 d9bd
00000070: d39f 84bd 448c ec3d 087b ee3c 7474 753d
00000080: 4207 b5bd 9ac7 24bd 4456 c3bd 082e 1e3d
00000090: ca77 ef3d dc74 513d 7073 053d d2f1 cabd
000000a0: c082 5f3c 123c f63d bf7d 013e 1802 5d3d
000000b0: 10bd 0f3d 28b4 6f3d cd3e 85bd b282 b83d
000000c0: e260 cebd 2048 80bc 58d9 f43c 9864 db3d
000000d0: 780b fa3c 0720 043e 00e9 e63a 7f9f 9cbd
000000e0: 14fc 01bd 80ec bbba 255e dbbd e258 f93d
000000f0: 2eac 69bd 6a47 84bd 84dd 823d 1625 a73d
00000100: fe72 9e3d 3a59 fdbd f1c2 85bd 38a2 e33d
00000110: 28f6 d5bc 82f4 03be f8dc b03d a6a2 a23d
00000120: 50c5 1dbd 3c9f dbbc f6ca c33d 940d 433d
00000130: 080f df3d 2e27 ffbd 006e 24bd 00ed 193d
00000140: bca4 e73d 800f bf3d b026 753c fd9a b2bd
00000150: 10aa 243c d8ae 74bc f9ff ebbd d066 44bd
00000160: 0c2e 0a3d bc43 683d 2c19 43bd a46b c5bd
00000170: a05a 48bd c21f fb3d c0f8 923b acee ccbd
00000180: 7c0b 873d 8201 97bd 7a8d 4fbd 8c02 e0bd
00000190: 5c04 dabd eeb7 e6bd d539 acbd fd1c b6bd
000001a0: 74dc 9cbd d4b5 633d 0060 22ba 8052 86bd
000001b0: 78ee 823d 6c8a cd3d 423b bf3d a473 d13d
000001c0: 027e b5bd 1895 863d 18d0 90bc 20ba c83d
000001d0: 97f0 99bd 685b 28bc d250 b8bd b08d fd3c
000001e0: e83c 1a3d e220 ae3d bc44 823d b822 993c
000001f0: 8803 3a3d 2a99 a0bd 60fc 303c 506b 393d

linear2.weight f4 [64, 128]
0.08673187 -0.07927811 -0.0726756 0.07097908 0.065874614 -0.0073046386 0.021947905 -0.026893925
0.0022244975 0.0013591796 0.068027996 -0.05165544 0.035731517 -0.037538826 0.075724475 0.022462323
0.040183686 -0.08773288 0.06670026 -0.05961348 -0.0510965 -0.0018537045 -0.007958993 -0.031232152
-0.0041787997 0.0799697 0.03832186 -0.010275044 0.023807019 -0.052361526 0.06654189 -0.06597777
0.06873984 0.05484157 -0.06575637 -0.081737466 0.02685953 -0.006762564 0.020115554 0.06717191
0.05221962 0.08584011 0.042321928 0.039203696 0.07378877 0.03625635 0.05306428 -0.04926136
-0.019962244 0.038279332 -0.07085722 -0.045648493 0.055105977 -0.03848885 0.027173221 0.05353313
0.06297394 -0.08800477 0.08753272 0.0663451 0.023034476 -0.014863558 0.019428656 0.048920043
0.06346732 0.033342034 -0.05649808 -0.03755931 0.06860437 -0.02639987 0.05917222 -0.066667244
-0.00789848 -0.054522615 -0.02383808 -0.04189085 -0.010887101 -0.023117043 -0.030356236 -0.08690771
-0.03375246 0.04472833 -0.022263348 0.05394929 -0.0023102164 -0.07907646 -0.07141605 0.013998769
-0.06752229 -0.07759307 -0.038534757 -0.062314514 -0.083372004 0.04889714 -0.03995798 0.03283646
-0.048479885 -0.04912587 0.0012526885 0.07946367 -0.007343307 0.023825496 0.08724233 -0.032395847
0.07575267 0.053075828 -0.085495986 0.032742105 0.077216886 0.06964151 -0.06982884 0.02980303
0.0016734824 -0.0012760088 -0.086453594 9.36836e-05 0.039704017 0.0128332 -0.04004782 0.00988429
-0.0017154291 -0.020472623 -0.050590493 -0.006952524 0.06458213 0.0484673 0.056728072 -0.036116634
0.025963292 0.01524891 -0.08694068 0.065700255 0.041704662 -0.03970974 -0.04091914 -0.03655414
0.08131681 0.02139584 0.012902364 -0.08323361 0.05469086 0.0626389 0.080339886 0.050157823
0.02713158 -0.056555863 -0.0054949448 0.07677523 0.04048129 0.01781933 0.044820316 -0.04999752
-0.01586052 -0.056265306 -0.046464067 -0.082580656 -0.031678233 0.012678131 -0.00073330104 0.06397792
-0.042311907 -0.0620661 0.07585982 -0.054490365 0.082343705 0.03384173 -0.08727048 -0.016246475
0.047840156 0.028588474 -0.039968826 0.085287206 -0.039287217 0.069509335 -0.011957049 -0.045779135
-0.08618789 0.033279635 0.052950017 0.06527499 0.02290582 -0.017537154 -0.08683557 -0.02054327
0.037897058 0.04636679 -0.018340267 -0.033530694 0.04701086 0.004354015 -0.022903241 -0.06650015
0.019249126 0.020441182 0.08689473 -0.047583517 -0.061192922 -0.022422448 0.06663825 -0.072718866
0.0059140995 0.07355734 -0.0415811 -0.06092313 -0.023640744 -0.07670899 -0.08334796 -0.07164927
0.086537294 0.018596657 0.012504876 0.005548127 -0.012066454 -0.046783 -0.07260079 -0.06027288
-0.05194132 0.077236526 -0.0491037 -0.021264978 -0.05289776 -0.041529596 0.026769347 -0.030833747
0.039446063 -0.08782283 -0.07433372 0.04604166 0.062328957 0.02107086 -0.01897002 0.02941949
-0.01577393 -0.07477895 -0.06336762 -0.08006306 -0.0329892 0.04330688 -0.05637579 0.02312348
0.010894731 -0.087538056 -0.08535551 0.041447975 -0.04686343 0.025060527 0.0240746 -0.010948241
0.054637812 0.0770612 -0.03653707 -0.08768158 -0.06391231 -0.030376993 0.012699097 -0.05960516
00000000: 7ba0 b13d 905c a2bd f2d6 94bd 7b5d 913d
00000010: 45e9 863d c05b efbb 18cc b33c a650 dcbc
00000020: e0c8 113b 8026 b23a 4352 8b3d a894 53bd
00000030: 365b 123d 50c2 19bd 6f15 9b3d e802 b83c
00000040: a697 243d 4cad b3bd 259a 883d 442d 74bd
00000050: 904a 51bd 00f8 f2ba 7066 02bc 92da ffbc
00000060: 50ee 88bb 27c7 a33d 62f7 1c3d a858 28bc
00000070: f006 c33c 0a79 56bd 1d47 883d 5a1f 87bd
00000080: 79c7 8c3d 8ea1 603d 47ab 86bd f965 a7bd
00000090: 8408 dc3c 8098 ddbb 60c9 a43c 6d91 893d
000000a0: 3ee4 553d f1cc af3d c259 2d3d 0e94 203d
000000b0: 911e 973d 8a81 143d ee59 593d 48c6 49bd
000000c0: dc87 a3bc caca 1c3d 971d 91bd eaf9 3abd
000000d0: ceb6 613d 7ca6 1dbd 609a de3c 8e45 5b3d
000000e0: 7bf8 803d d83b b4bd 5b44 b33d f1df 873d
000000f0: ccb2 bc3c 4886 73bc d828 9f3c 6260 483d
00000100: 27fb 813d a891 083d 886a 67bd cbd7 19bd
00000110: 7380 8c3d 8a44 d8bc 925e 723d d688 88bd
00000120: a068 01bc 1b53 5fbd 1448 c3bc bd95 2bbd
00000130: d05f 32bc f45f bdbc a4ad f8bc abfc b1bd
00000140: 0540 0abd 0e35 373d a061 b6bc eef9 5c3d
00000150: 0067 17bb d7f2 a1bd 9442 92bd 185b 653c
00000160: 2049 8abd 1ee9 9ebd 9fd6 1dbd 813d 7fbd
00000170: f1be aabd 5e48 483d fbaa 23bd 867f 063d
00000180: d892 46bd 3538 49bd 4031 a43a d9bd a23d
00000190: 20a0 f0bb b02d c33c 1bac b23d 82b1 04bd
000001a0: 3724 9b3d 0a66 593d 8518 afbd 961c 063d
000001b0: e323 9e3d 35a0 8e3d 6c02 8fbd 7c25 f43c
000001c0: c058 db3a c03f a7ba 950e b1bd 0078 c438
000001d0: aea0 223d 5842 523c 2f09 24bd b8f1 213c
000001e0: 40d8 e0ba 34b6 a7bc fa37 4fbd 00d2 e3bb
000001f0: a343 843d a685 463d b25b 683d 09ef 13bd
00000200: f8b0 d43c 90d6 793c f50d b2bd db8d 863d
00000210: 82d2 2a3d aea6 22bd d49a 27bd cbb9 15bd
00000220: 6d89 a63d 5446 af3c 7064 533c 6276 aabd
00000230: 8603 603d d348 803d 3d89 a43d 4a72 4d3d
00000240: 0c43 de3c 1fa7 67bd f00e b4bb 553c 9d3d
00000250: b6cf 253d d8f9 913c 8295 373d 33ca 4cbd
00000260: eced 81bc 7376 66bd 1b51 3ebd 0c20 a9bd
00000270: 09c1 01bd f0b7 4f3c 003b 40ba db06 833d
00000280: 404f 2dbd 0639 7ebd 655c 9b3d 4a31 5fbd
00000290: d1a3 a83d a09d 0a3d deba b2bd 5417 85bc
000002a0: 0af4 433d 6032 ea3c 5ab6 23bd 0fab ae3d
000002b0: a2eb 20bd e95a 8e3d 80e7 43bc e782 3bbd
000002c0: 4783 b0bd 3a50 083d 1ee2 583d e5ae 853d
000002d0: fca4 bb3c 14aa 8fbc d9d6 b1bd 5c4a a8bc
000002e0: f239 1b3d 1aeb 3d3d 543e 96bc 7b57 09bd
000002f0: 768e 403d 20ac 8e3b 949f bbbc 3b31 88bd
00000300: 58b0 9d3c 4474 a73c ddf5 b13d efe6 42bd
00000310: 6ea5 7abd 48af b7bc a379 883d a1ed 94bd
00000320: 10cb c13b 3ba5 963d f250 2abd 888a 79bd
00000330: 3caa c1bc 9a19 9dbd 56b2 aabd dabc 92bd
00000340: 773a b13d 0458 983c 40e1 4c3c 10cd b53b
00000350: 60b2 45bc 889f 3fbd b9af 94bd b2e0 76bd
00000360: 6cc0 54bd 2f2e 9e3d f620 49bd e433 aebc
00000370: 52ab 58bd f01a 2abd 644b db3c 0e97 fcbc
00000380: 3292 213d 75dc b3bd 473c 98bd 2e96 3c3d
00000390: a64c 7f3d cc9c ac3c 0467 9bbc 2401 f13c
000003a0: 5438 81bc b525 99bd e2c6 81bd 1af8 a3bd
000003b0: af1f 07bd 8e62 313d 4dea 66bd 746d bd3c
000003c0: d07f 323c 2747 b3bd dfce aebd 5ac5 293d
000003d0: def3 3fbd bc4b cd3c 1838 c53c 4060 33bc
000003e0: e6cb 5f3d 43d2 9d3d e5a7 15bd 6692 b3bd
000003f0: 75e4 82bd 2cd9 f8bc e00f 503c 8a24 74bd

linear2.bias f4 [64]
-0.0643471 -0.0002695918 0.052928053 0.028857648 0.018468864 -0.023118392 -0.040843543 0.04365688
0.07669505 -0.052103326 0.007111922 -0.031758957 0.04518587 0.004672751 -0.08642276 -0.04127759
-0.023616567 -0.027562246 -0.052451614 0.061323382 -0.012243368 -0.019782595 0.052221812 -0.01514627
0.072037764 0.03716915 0.047346823 0.077964626 0.005025938 0.06511248 -0.0055049583 0.029798694
-0.0024564564 -0.063321404 -0.08805414 -0.0121630505 0.06981742 0.054951124 -0.0442509 -0.0013088882
0.073306166 0.044153474 -0.003402464 -0.011509471 0.02493 0.036494404 -0.024190784 0.06361792
-0.07969855 0.046240635 0.041333564 -0.029062863 -0.015721902 -0.06958398 0.057810955 -0.008397646
-0.031615574 -0.0013072714 -0.053755585 0.08069263 0.05231697 0.0767084 -0.07070055 -0.003770426
00000000: 6ac8 83bd 0058 8db9 16cb 583d e066 ec3c
00000010: 044c 973c c862 bdbc 8f4b 27bd 8ed1 323d
00000020: 4b12 9d3d 4c6a 55bd 200b e93b ae15 02bd
00000030: d214 393d e01d 993b 6afe b0bd b112 29bd
00000040: 8877 c1bc 38ca e1bc 81d7 56bd 3a2e 7b3d
00000050: 6898 48bc 1c0f a2bc 8ae6 553d 1028 78bc
00000060: 8988 933d ae3e 183d beee 413d ebab 9f3d
00000070: a0b0 a43b b159 853d f062 b4bb 641c f43c
00000080: 80fc 20bb a7ae 81bd bb55 b4bd 8847 47bc
00000090: 6ffc 8e3d 6e14 613d 6f40 35bd 008f abba
000000a0: 8b21 963d 46da 343d e0fb 5ebb 3892 3cbc
000000b0: 003a cc3c 287b 153d c02b c6bc 1d4a 823d
000000c0: fe38 a3bd d266 3d3d 624d 293d 3e15 eebc
000000d0: 38cb 80bc 0c82 8ebd 2ecb 6c3d 4896 09bc
000000e0: 557f 01bd c058 abba d12e 5cbd 2d42 a53d
000000f0: 524a 563d 4b19 9d3d 73cb 90bd 4019 77bb

linear3.weight f4 [14, 64]
-0.01805824 0.057318226 0.0079630315 0.014572412 0.07392649 -0.09007721 -0.0198697 0.012216523
0.08625449 0.025198564 -0.021481559 -0.102259174 0.093914315 0.0058556944 -0.08119503 -0.124320075
0.095153704 -0.07863739 -0.024158463 -0.005647689 0.1136352 -0.09430125 0.046654418 -0.043361887
-0.033898488 -0.012520537 -0.03683962 -0.0031639189 -0.11301699 -0.050079957 0.08357248 -0.043930605
-0.007191956 -0.024134085 0.021931663 0.117494196 0.013228834 0.06452501 -0.090124264 -0.037004113
0.09391406 0.01686956 -0.0693742 -0.036943227 0.09292996 -0.10752106 -0.10023433 0.12177816
-0.11775032 0.077914014 0.11811407 0.061490566 0.043726742 0.06722462 -0.08754487 -0.05349958
0.07575719 -0.09866625 -0.030980244 0.074182585 -0.11455704 -0.12249769 -0.07155825 0.081884384
0.1248849 -0.1037347 -0.006300539 -0.06313762 -0.02863717 0.05959831 -0.049746826 -0.032973245
-0.07596089 0.050307974 -0.053076014 -0.08360256 -0.0025944263 -0.103299424 -0.07342842 0.09331633
0.07236974 -0.08284603 0.08679183 0.10381755 -0.10331166 0.006398171 -0.08065224 -0.026146486
-0.012081727 -0.111929566 0.041373536 -0.08344498 -0.058099568 0.10416457 -0.10117045 0.08842929
0.08347376 0.04284431 -0.09121756 -0.027013034 0.028488189 -0.030095994 -0.10204241 -0.03139919
-0.08202486 -0.07067834 -0.01936385 -0.10578139 -0.10012366 -0.09077506 0.121416226 0.007814243
0.12492037 0.05003296 -0.01684621 0.01833941 0.01712066 0.11223249 -0.09320921 0.072789565
0.09480783 0.1046505 0.027935669 -0.018926844 -0.04074599 -0.062237576 -0.110896945 0.029024825
0.03493026 0.06443095 -0.02615054 0.11044033 0.0028095543 0.08190033 0.028427333 0.085922614
0.08774005 -0.09278484 0.09933546 -0.04712549 -0.009281963 -0.1165995 0.03517726 -0.07993196
-0.08488698 0.11414622 0.10913952 -0.056516707 0.048728243 0.03555672 0.051328883 0.105874926
0.08576821 0.03178124 -0.03312981 0.053609878 -0.11343971 0.060955837 0.06676096 -0.02984254
0.08297041 0.074029654 -0.060992733 0.054825634 0.02172786 0.034946993 -0.091563284 0.10653497
-0.07774992 0.050526485 0.000102669 -0.062528595 0.12040497 0.07031655 -0.12374911 0.119068846
-0.10139535 0.020173132 0.10556191 -0.10877749 -0.096328974 -0.07123138 0.0562163 0.05490032
0.017756328 0.021729678 -0.11435683 0.016954064 -0.11874808 -0.12430698 -0.031566128 -0.09228578
-0.018488616 -0.0052600056 -0.036882833 -0.04883632 0.060072243 0.014553055 -0.027063325 -0.06771268
0.09417045 -0.005527705 -0.014541656 0.09893772 -0.10645293 -0.026624918 0.028093547 0.08214225
0.08298585 -0.009859338 -0.05969295 -0.02574192 -0.112357184 -0.038879097 -0.0022193044 -0.039663583
-0.020919025 -0.014525235 -0.0811598 -0.059669167 -0.0025208294 0.032251015 -0.033891886 0.12264171
-0.015052661 -0.09471755 -0.034811854 0.025930718 0.02715893 0.075506926 -0.116097555 -0.12436096
0.09710285 -0.09139751 0.009036005 -0.104295045 0.09689589 0.017518729 0.04312937 -0.09253432
-0.0657426 -0.008279175 -0.02225539 -0.030798078 0.108060315 0.034630552 0.05646254 0.02803959
-0.10245104 -0.10052979 0.09008497 -0.010268539 -0.03745626 0.029257342 0.030308679 0.03582421
00000000: e0ee 93bc 84c6 6a3d 6077 023c 20c1 6e3c
00000010: c666 973d 667a b8bd c8c5 a2bc d027 483c
00000020: 32a6 b03d 386d ce3c 18fa afbc 426d d1bd
00000030: 2656 c03d 20e1 bf3b 9449 a6bd 869b febd
00000040: f2df c23d a40c a1bd f8e7 c5bc 4010 b9bb
00000050: 92b9 e83d 0421 c1bd b418 3f3d 3c9c 31bd
00000060: 24d9 0abd f022 4dbc 24e5 16bd c059 4fbb
00000070: 7475 e7bd a420 4dbd 0c28 ab3d 94f0 33bd
00000080: 80aa ebbb d8b4 c5bc 08aa b33c cca0 f03d
00000090: c0bd 583c b025 843d 1293 b8bd a091 17bd
000000a0: 0456 c03d 0832 8a3c 1014 8ebd c851 17bd
000000b0: 1052 be3d 0034 dcbd a847 cdbd d466 f93d
000000c0: 1427 f1bd 6291 9f3d cae5 f13d 88dd 7b3d
000000d0: d01a 333d 10ad 893d ba4a b3bd 6022 5bbd
000000e0: 9626 9b3d 8811 cabd 48ca fdbc 0aed 973d
000000f0: e29c eabd 12e0 fabd 228d 92bd 00b3 a73d
00000100: a8c3 ff3d dc72 d4bd c074 cebb 4c4e 81bd
00000110: 8098 eabc 5c1d 743d 54c3 4bbd f40e 07bd
00000120: 6291 9bbd bc0f 4e3d 3c66 59bd d237 abbd
00000130: 4007 2abb a68e d3bd a461 96bd a21c bf3d
00000140: 9636 943d 2eab a9bd eabf b13d 4c9e d43d
00000150: 1095 d3bd c0a7 d13b 002d a5bd 2831 d6bc
00000160: 70f2 45bc 543b e5bd 4c77 293d 34e5 aabd
00000170: d0f9 6dbd 3c54 d53d 7432 cfbd 6a1a b53d
00000180: 4af4 aa3d 847d 2f3d 46d0 babd 704a ddbc
00000190: 1060 e93c e08b f6bc 9cfb d0bd 709c 00bd
000001a0: a6fc a7bd cebf 90bd f0a0 9ebc eaa3 d8bd
000001b0: a20d cdbd 46e8 b9bd 12a9 f83d 5007 003c
000001c0: 40d6 ff3d 5cef 4c3d 1001 8abc 883c 963c
000001d0: a040 8c3c 26da e53d 78e4 bebd b212 953d
000001e0: 9c2a c23d 0053 d63d 58d9 e43c 780c 9bbc
000001f0: 44e5 26bd d4ec 7ebd f01d e3bd 78c5 ed3c
00000200: 0813 0f3d 60f4 833d a839 d6bc 8a2e e23d
00000210: 8020 383b 5cbb a73d 70e0 e83c 32f8 af3d
00000220: 0eb1 b33d fa05 bebd 6470 cb3d a806 41bd
00000230: 6013 18bc b8cb eebd 0816 103d 5eb3 a3bd
00000240: 3ad9 adbd 7ec5 e93d 8a84 df3d 107e 67bd
00000250: 4497 473d eca3 113d 3c3e 523d f4d4 d83d
00000260: 3ea7 af3d 0c2d 023d 20b3 07bd 0896 5b3d
00000270: 1453 e8bd d4ac 793d f8b9 883d 5878 f4bc
00000280: 64ec a93d dc9c 973d 84d3 79bd d890 603d
00000290: a0fe b13c 9424 0f3d 8885 bbbd 022f da3d
000002a0: 5a3b 9fbd dcf4 4e3d 0050 d738 fe0e 80bd
000002b0: e296 f63d 2002 903d 2c70 fdbd 5eda f33d
000002c0: 5ea8 cfbd 2042 a53c d830 d83d bcc6 debd
000002d0: 2048 c5bd c2e1 91bd 1043 663d 28df 603d
000002e0: b875 913c 7002 b23c ea33 eabd 40e3 8a3c
000002f0: 3232 f3bd a894 febd 7c4b 01bd 5400 bdbd
00000300: 7075 97bc 205c acbb 7412 17bd 9808 48bd
00000310: 500e 763d f06f 6e3c e8b3 ddbc f2ac 8abd
00000320: 70dc c03d c021 b5bb 2040 6ebc dc9f ca3d
00000330: fe03 dabd 801c dabc 7024 e63c 323a a83d
00000340: 7cf4 a93d 1089 21bc 9880 74bd b8e0 d2bc
00000350: 861b e6bd b03f 1fbd c071 11bb 4876 22bd
00000360: 605e abbc 40fb 6dbc 1c37 a6bd a867 74bd
00000370: 8034 25bb a419 043d 38d2 0abd 942b fb3d
00000380: 709f 76bc 46fb c1bd e096 0ebd a86c d43c
00000390: 687c de3c 60a3 9a3d 8ec4 edbd f6b0 febd
000003a0: dcdd c63d 9e2e bbbd c00b 143c a498 d5bd
000003b0: 5a71 c63d 7083 8f3c 6ca8 303d a282 bdbd
000003c0: 0ea4 86bd 60a5 07bc f050 b6bc 404c fcbc
000003d0: ba4e dd3d c4d8 0d3d 4445 673d 48b3 e53c
000003e0: dad1 d1bd 90e2 cdbd 787e b83d 603d 28bc
000003f0: bc6b 19bd 18ad ef3c e849 f83c 68bc 123d

linear3.bias f4 [14]
-0.025788724 0.1086583 0.099745885 0.11925112 0.025155261 -0.0065410584 0.014332652 -0.08841649
-0.07329291 0.0017483234 -0.0992741 0.014189243 -0.11702716 -0.08330841
00000000: e042 d3bc 3e88 de3d 9247 cc3d ee39 f43d
00000010: 6812 ce3c 6056 d6bb 80d3 6a3c b413 b5bd
00000020: 981a 96bd 0028 e53a 3850 cbbd 007a 683c
00000030: f0ab efbd 9a9d aabd
