models/model2.onnx (onnx, 68677 bytes, 6 tensors)

linear1.weight f4 [128, 60]
000000 12 1f 23 bd e4 8d 76 3d 58 ca 69 3d e2 fd 8f 3d
       -0.039824553 0.06019391 0.057077736 0.07030846
000010 72 71 4b bd 62 a6 f8 bd bc 87 f7 3d 10 43 cc 3d
       -0.049668737 -0.1214111 0.12086436 0.09973729
000020 68 87 c2 bc b0 c2 b2 bd 26 2c 0d bd c9 d2 b6 bd
       -0.023746207 -0.0872854 -0.03446593 -0.08926923
000030 d8 8a 18 bc a2 4d 8c bd ec 65 ed bc 1c 3a 48 bd
       -0.009310447 -0.06850745 -0.028979264 -0.048883542
000040 a2 7c f2 3d c0 b0 88 3d 64 6c 41 3d 38 04 ae bc
       0.11840178 0.066743374 0.04722251 -0.021242246
000050 3c bc e8 bc de 12 87 bd 90 da b6 3d 56 7f ea bd
       -0.02841007 -0.065953955 0.08928406 -0.11450069
000060 ec 9d dd bd d2 b7 ed 3d 90 80 c0 3c c0 f0 e4 3d
       -0.10821137 0.116073266 0.023498803 0.11178732
000070 c6 8d 2f bd 1c f7 57 bd 4c 92 dc bc f8 0e a6 bd
       -0.042859815 -0.052725896 -0.026925229 -0.08108324
000080 f4 3c ab 3d f0 7e 90 3c b0 71 28 3c b6 b8 85 bd
       0.08361235 0.017638654 0.010281011 -0.065293714
000090 4c 07 1b bd 68 66 79 3d 68 0b 06 3d 76 56 16 bd
       -0.037848756 0.060888678 0.03272572 -0.03670355
0000a0 78 6e 3e bc 70 9d bf 3c e6 b9 c1 bd 50 b3 d4 3c
       -0.0116230175 0.023390502 -0.094592854 0.02596441
0000b0 cc 16 c5 bd 32 1f eb 3d 50 2f 05 3c 40 c2 e5 bb
       -0.09623489 0.114805594 0.008128956 -0.007011682
0000c0 f8 15 d5 bc 10 cc 17 bd dc 34 ef 3d 30 09 41 3c
       -0.026011452 -0.037059844 0.11680004 0.011781976
0000d0 40 e8 84 3d e8 89 8e 3d ca d0 cc 3d 20 e6 af 3d
       0.06489611 0.06959897 0.10000761 0.08588815
0000e0 84 da 89 3d 6a 13 06 bd 08 f7 e7 bd 58 c1 be bd
       0.06731132 -0.03273336 -0.11326414 -0.09314221
0000f0 4e d3 98 bd c0 0c 8d 3d 1c 2b 20 bd 00 94 64 bd
       -0.07462178 0.068871975 -0.039103612 -0.055805206
000100 20 c1 75 3d 70 b4 af bb ae e1 fc 3d e7 d4 83 bd
       0.05999863 -0.005362086 0.123477325 -0.06437092
000110 68 08 e3 bd 00 d2 ac 3b ee d7 fb 3d f6 3e c2 3d
       -0.11085588 0.0052740574 0.12297045 0.09484665
000120 60 5d 22 bc 00 00 89 bd 2f fe 03 3e 0c 3e cc 3d
       -0.009909958 -0.06689453 0.12889932 0.09972772
000130 58 63 c2 3c 54 4e 46 3d 7e de b6 bd 88 0e dd 3d
       0.023729011 0.048414543 -0.08929156 0.10793787
000140 66 8a b0 3d f2 1f f4 bd b4 06 9d bd da a6 ba 3d
       0.086201474 -0.119201556 -0.07667294 0.09113856
000150 dc b6 03 3d 84 82 e3 3d b0 ec 3b 3c 78 bb b5 bd
       0.03215681 0.11108878 0.011470005 -0.088736475
000160 fc cd 43 3d 83 ff 96 bd 4c 10 9b bc d4 0d b8 3d
       0.047803864 -0.07372954 -0.01892867 0.089870125
000170 40 43 1c 3c d3 59 de bd c0 e3 2a bb ec 32 d9 3d
       0.009537518 -0.10856976 -0.002607569 0.10605416
000180 8c 90 b7 bc 82 84 a6 bd b8 48 de 3c 51 60 83 bd
       -0.022407793 -0.081307426 0.027134284 -0.06414855
000190 94 43 d4 3d 24 82 36 bd b2 c1 c2 bd 20 a1 9c bc
       0.10364452 -0.044557706 -0.09509601 -0.0191198
0001a0 68 af f0 bd f4 8b 2f bd c8 72 37 bd a4 6b 0f 3d
       -0.11752206 -0.04285808 -0.0447872 0.035014763
0001b0 06 42 17 bd d9 cd 02 be 5e f5 25 bd 84 6a a1 bd
       -0.0369282 -0.12773837 -0.040517204 -0.07881644
0001c0 50 97 85 bd 00 5d c3 ba 65 d6 e1 bd 9c f8 1e 3d
       -0.06523001 -0.0014905035 -0.11027221 0.03881131
0001d0 f4 66 e0 bc 00 d0 09 b9 00 4b a4 ba 00 92 ea 3a
       -0.027392842 -0.00013142824 -0.0012534559 0.0017896295
0001e0 57 92 f9 bd ac 1a 6b 3d a5 76 81 bd 41 81 b7 bd
       -0.12186115 0.057398483 -0.06321458 -0.089602
0001f0 00 28 51 3c 60 07 f5 3d 2c 9a 9b bd a4 c1 db bd
       0.012765884 0.11964297 -0.07597765 -0.107302934
000200 f2 9c a2 3d 38 a4 f7 bd 1e 3e c2 3d 4c f1 62 3d
       0.07940091 -0.12091869 0.09484504 0.0554059
000210 58 61 32 3d 90 c5 bf 3d e2 a7 e2 3d 34 d0 a0 3d
       0.043549865 0.09363854 0.11067177 0.078522116
000220 ca 38 fc 3d 50 e4 9e 3d c8 51 e6 3c 12 dd c9 3d
       0.12315519 0.07758391 0.028115168 0.09856619
000230 26 ba 88 3d 80 82 85 3a 70 60 49 3d a2 f0 23 bd
       0.0667613 0.0010185987 0.049164236 -0.040024407
000240 7c a8 d9 3d de ac f5 bd 46 c1 d6 3d d8 69 76 3d
       0.10627839 -0.119958624 0.10486083 0.060159534
000250 f8 ac a1 3d 50 99 e9 3d 7d 0b d3 bd f5 0a 01 3e
       0.07894319 0.11406195 -0.103049256 0.12601836
000260 8e 56 74 bd 3c bf e2 3d a8 33 8d bd 48 c7 88 3c
       -0.059652857 0.11071631 -0.06894618 0.016696587
000270 80 71 1c bb 1e f3 0f bd 52 3d 50 bd a1 54 c3 bd
       -0.0023871362 -0.035143964 -0.05083973 -0.09537626
000280 7c 35 d0 bc c0 86 7b 3d e8 a5 2c bd 38 a1 44 3d
       -0.025416128 0.061407804 -0.042150408 0.048005313
000290 68 3d 38 3d 08 40 40 3d 7a 93 a3 bd 81 b0 c6 bd
       0.044980437 0.046936065 -0.07987113 -0.09701634
0002a0 a0 e0 db bb 66 e0 c0 3d d4 fd 58 3d af f6 f6 bd
       -0.006710127 0.094178006 0.052976444 -0.1205877
0002b0 02 5b db 3d d0 f8 a6 bb 5a 01 de 3d 34 e0 8f 3d
       0.10710718 -0.0050955787 0.108401015 0.07025185
0002c0 6e ee e8 bd e4 af 1c bd 2e d3 10 bd c4 af 5a 3d
       -0.11373602 -0.03825368 -0.035357647 0.05339028
0002d0 76 44 26 bd a0 51 1d 3d 72 84 dc bd c8 78 9d bc
       -0.040592633 0.03840792 -0.107674494 -0.019222632
0002e0 94 8f 28 3d 48 00 90 bc 70 b9 93 3d 40 f3 a2 bd
       0.04115255 -0.01757826 0.07213104 -0.079565525
0002f0 d7 2f 03 3e 66 f6 61 bd 64 8a cf bd 70 b6 4b 3d
       0.12811218 -0.055166624 -0.10133818 0.049734533
000300 04 a0 a8 bd 28 59 b5 3d 3a e0 91 bd 42 39 e4 3d
       -0.082336456 0.08854896 -0.07122846 0.111437336
000310 9e 53 92 bd a3 52 82 bd 08 28 ba 3c 05 b9 f9 bd
       -0.07144855 -0.06363418 0.022724167 -0.12193493
000320 22 dd 53 bd fe 2d d9 3d 50 ac f4 3d 80 2d 25 3b
       -0.05172456 0.106044754 0.119469285 0.0025204122
000330 19 48 cb bd 36 33 ba bd 90 69 47 3c 0c 3a f2 bd
       -0.09925861 -0.09091799 0.012171164 -0.11827478
000340 42 78 93 bd 02 b5 fc bd 3a 03 a7 bd 7c 5f eb 3d
       -0.07200672 -0.12339212 -0.08154912 0.114928216
000350 40 ed 6c bb 40 ba 80 3c 60 d5 99 3d 94 a1 b9 bd
       -0.0036152154 0.01571381 0.07511401 -0.09064022
000360 f8 2a 40 bc 30 96 ea 3c de d5 76 bd 0c a7 62 3d
       -0.011728995 0.028636068 -0.060262553 0.05533509
000370 fc 0f c9 bc 40 e6 5a 3c a8 56 e0 3d 44 56 87 bd
       -0.024543755 0.01336056 0.10954028 -0.06608251
000380 96 2c 02 be 2a d8 f8 3d a0 d5 b6 3d 3c 48 78 3d
       -0.1271232 0.12150605 0.089274645 0.060615763
000390 88 06 84 bc f6 9e 01 be 7e 83 f3 bd d0 88 55 3c
       -0.016116396 -0.12658295 -0.118903145 0.013033107
0003a0 c4 5f d3 bd aa 52 f0 3d a5 d9 a3 bd 67 a7 dd bd
       -0.10321 0.11734517 -0.08000497 -0.10822945
0003b0 79 2b c0 bd 50 99 50 3c b0 10 cf bc 20 ad 81 3d
       -0.09383292 0.012731865 -0.025276512 0.06331849
0003c0 5d a6 f5 bd 84 2e 49 bd c4 01 1a 3d ec 09 cd bd
       -0.11994622 -0.049116626 0.03759934 -0.10011658
0003d0 86 c6 c0 3d 49 ed 01 3e e8 39 c7 3c f3 80 da bd
       0.09412865 0.12688173 0.024319604 -0.10669126
0003e0 78 84 eb bc d8 ad f4 3c 3e 26 8c 3d 40 9b 7f bd
       -0.02874969 0.029868051 0.068432316 -0.062403917
0003f0 18 2c 3b bc 3a 84 ac bd 00 81 17 3d 2a 6a 9b bd
       -0.011424087 -0.08423658 0.03698826 -0.075886086

linear1.bias f4 [128]
000000 c0 6e 7f bb 78 62 a3 bd cd 4f d0 bd e6 78 ec 3d
       -0.0038975924 -0.07977766 -0.10171471 0.11546497
000010 14 3a b3 bc d2 81 8d 3d 60 ab fa 3b 1c 97 fe bc
       -0.02187828 0.06909527 0.007649824 -0.031077914
000020 20 ee 1d 3c 80 7b c6 bd c1 ae a4 bd 48 a7 e5 3d
       0.009639293 -0.096915245 -0.08041144 0.11213547
000030 1c 71 98 bd ee af f7 3d a4 91 48 3d 8c 76 61 3d
       -0.07443449 0.12094103 0.04896702 0.055044696
000040 8a 5c db 3d 60 ab c3 bd 58 52 a8 3c 7f ab 00 3e
       0.1071101 -0.095541716 0.020547077 0.1256542
000050 98 a3 ce 3d 40 3c 3a 3d 3c 9e 9f bd 50 05 8f bd
       0.10089797 0.045467615 -0.07793853 -0.06983435
000060 e5 bd bc bd 00 a3 2a bc 3c 0e c1 bc 30 08 b8 3c
       -0.09215907 -0.010414839 -0.023566358 0.022464842
000070 92 f3 88 3d 84 52 d5 3d f8 17 42 bd d8 03 9b 3c
       0.06687082 0.10416129 -0.04738614 0.018922731
000080 78 df 61 3d cf 7e 83 bd 54 8f c7 bd 5e 83 cb 3d
       0.055144757 -0.06420671 -0.097441345 0.09937166
000090 7a 2a 77 bd 30 97 ef 3d 6c d8 94 3d e0 52 f1 bb
       -0.060343243 0.116987586 0.07267842 -0.007364616
0000a0 a4 2b 0e 3d 00 0f bf bd 5c 7d 9d bd ae 1a 6f bd
       0.034709588 -0.09329033 -0.07689926 -0.058375053
0000b0 c0 09 5c bb a8 1b a6 3d da 4c 8d bd 80 6e b4 bd
       -0.0033575147 0.08110744 -0.06899424 -0.08810139
0000c0 64 a6 0a 3d 52 a3 5d bd f9 d2 c8 bd 40 69 d9 3b
       0.03385009 -0.054110833 -0.09805865 0.006634861
0000d0 60 d0 ce 3b 00 b0 8d 3a f2 99 b6 3d ec 8e c2 bd
       0.0063114613 0.0010809898 0.089160815 -0.094999164
0000e0 59 92 f7 bd 4c 58 b7 3d 9d d6 b7 bd ce dd c0 3d
       -0.120884605 0.08952388 -0.08976481 0.09417306
0000f0 dc 85 e5 3d 2c 15 d3 3d a0 e4 0f 3c 80 2b 18 3d
       0.11207172 0.103067726 0.008782536 0.03715086
000100 5c 11 b8 3d 68 e9 08 bc f0 79 c2 3c 82 87 ef 3d
       0.08987686 -0.00835643 0.023739785 0.11695768
000110 f6 8f fb 3d 80 f8 3e bb 66 1d f1 bd 00 0d 36 bb
       0.12283318 -0.0029139817 -0.117731854 -0.0027778745
000120 1d 61 d1 bd a8 63 77 bc 3e 5c a0 3d bf bf c8 bd
       -0.10223601 -0.0150994435 0.07830094 -0.09802198
000130 6e 1b e2 3d a3 ef e2 bd 0e 8b 1d bd a4 76 9a bc
       0.11040388 -0.11080863 -0.03846269 -0.0188554
000140 8a 9a 99 bd 14 20 22 3d d8 eb ef 3c 54 58 03 3d
       -0.07500179 0.039581373 0.029287264 0.03206666
000150 04 7e c0 3d fc cd c4 3d f6 b8 f2 3d 14 57 8e bd
       0.093990356 0.09609601 0.11851685 -0.069502026
000160 84 04 ce bc 94 cb aa 3d 08 98 2c 3d 84 c5 52 bd
       -0.025148638 0.08339611 0.042137176 -0.051457897
000170 44 66 fa bc 40 db ed 3d 1f 0b ef bd 54 80 f1 bc
       -0.030566342 0.11614084 -0.11672043 -0.029480137
000180 a0 f9 0e 3d 4e bc db 3d 60 4c 85 3b 9a e3 a7 bd
       0.03490603 0.10729276 0.0040679425 -0.081977084
000190 c0 e6 1d 3c bc e5 7b 3d f8 b8 e7 bc b8 bf 00 3d
       0.009637535 0.06149839 -0.028286442 0.031432837
0001a0 3a 13 73 bd fe 58 02 be b4 fd 29 3d 50 bd 0e 3c
       -0.059344508 -0.1272926 0.041501716 0.008712128
0001b0 48 32 83 bc 60 d7 58 3d a0 1a 43 bd ae ac 79 bd
       -0.016015187 0.052939773 -0.047632813 -0.060955696
0001c0 58 24 96 3c b8 1f f5 3d 41 97 d9 bd 24 76 76 bd
       0.018327877 0.119689405 -0.106245525 -0.06017126
0001d0 ca d3 02 be a1 b0 03 be 00 28 bf b9 00 60 95 bd
       -0.12776104 -0.12860347 -0.0003646016 -0.07293701
0001e0 c0 a4 19 3b 80 de 86 3b ca f2 77 bd 12 9b 10 bd
       0.0023444146 0.0041158795 -0.060534276 -0.035304137
0001f0 80 2b c2 3d ea a4 ee 3d 90 e1 88 bb c4 fc 63 3d
       0.09480953 0.116525486 -0.00417728 0.055660978

linear2.weight f4 [64, 128]
000000 3e 97 86 bd a8 22 e9 3c 20 f3 b5 bb 00 a4 67 39
       -0.06571816 0.028458908 -0.0055526644 0.00022090971
000010 78 88 db bc b0 6f 79 bd 02 a5 8f bd 23 6f a0 3d
       -0.026798472 -0.06089753 -0.070138946 0.07833698
000020 bb 66 0f bd 00 31 24 3c 1c c1 30 bd 32 a1 1c bd
       -0.03501008 0.010021448 -0.043152913 -0.038239665
000030 b8 f5 44 3c 26 f7 58 3d 9c 6b ed 3c 6d 0e aa 3d
       0.012021475 0.052970074 0.028981976 0.08303533
000040 10 02 60 3c d9 b5 8c 3d d7 fb 91 bd 08 5e 9b bc
       0.013672367 0.06870622 -0.07128113 -0.018965736
000050 06 d8 6b bd a0 22 0f bd 80 90 fd ba 82 05 52 3d
       -0.057579063 -0.03494513 -0.0019345433 0.051274784
000060 6b ba a1 3d 3e 69 a0 bd dc 5a 10 bd a0 8e 41 3c
       0.078968845 -0.07832573 -0.0352429 0.01181379
000070 b9 eb a4 bd 46 93 7f bd 28 12 0a bd 91 65 97 bd
       -0.08052773 -0.06239631 -0.03370872 -0.07392419
000080 b5 86 83 3d 60 2c 62 bc ba 74 7d 3d 0e 20 7b 3d
       0.06422178 -0.013804525 0.061878897 0.061309867
000090 3c 86 d7 3c b9 b7 8a 3d c5 3a 8e 3d f0 91 75 3c
       0.026309125 0.067733236 0.06944803 0.0149884075
0000a0 ae c3 07 bd 3e c9 34 3d 0e 55 f3 bc a3 72 a9 3d
       -0.0331456 0.044137232 -0.029703643 0.08273818
0000b0 b2 87 dc bc a4 ac c7 bc e4 0c 62 bd 49 97 a6 3d
       -0.026920173 -0.024374314 -0.055188075 0.08134324
0000c0 70 16 85 bc 7d f0 9d 3d 2f 4e 08 bd 50 84 5c bd
       -0.01624605 0.07711885 -0.033277687 -0.05383712
0000d0 ca 3f 65 3d 59 cb 8a bd 66 1a 9e bd 2b 8b 8e bd
       0.055969037 -0.06777067 -0.07719879 -0.06960138
0000e0 08 12 bc bc 61 64 b2 3d 38 41 a1 bd 55 73 8f 3d
       -0.022957817 0.08710552 -0.078737676 0.0700442
0000f0 9c ab 43 bd e6 17 6a 3d 88 c3 98 3c 38 13 13 3c
       -0.04777108 0.057151698 0.018647924 0.00897675
000100 a0 f4 77 3c c0 e4 6f 3c e0 c3 b1 bb 88 f8 8a 3c
       0.015134007 0.014641941 -0.0054249614 0.016964212
000110 e0 6e 9c 3c cd 95 88 3d 62 5d 73 3d 4a 2f 18 3d
       0.019095838 0.06669197 0.05941523 0.037154473
000120 f0 7f fd 3b 70 5d 8a bb f6 b6 52 3d 1a e9 68 3d
       0.0077361986 -0.0042225644 0.051444016 0.056862928
000130 5e 7d 8b bd 80 a0 a5 3b 66 d8 44 3d d4 51 ea 3c
       -0.06811021 0.0050545335 0.048057936 0.028603472
000140 25 19 96 bd 9c 80 45 bd c1 35 95 3d 37 96 ab 3d
       -0.07329015 -0.048218355 0.07285643 0.083782606
000150 a0 70 0f 3b e4 d9 ee 3c 98 83 85 bc 11 4e a9 bd
       0.0021887198 0.029156633 -0.0162981 -0.08266843
000160 3a 22 1c 3d 40 7e 93 bb 6e fc 06 bd 87 39 ad 3d
       0.03811858 -0.004501134 -0.03295558 0.08458238
000170 a0 d2 95 3b b0 08 8b bc dd 04 ab 3d 28 ce 20 bc
       0.0045722276 -0.016971916 0.08350537 -0.0098147765
000180 73 19 99 3d 96 76 2c bd 4d cb b2 3d 00 9b 34 ba
       0.07475557 -0.04210528 0.08730183 -0.0006889552
000190 3c b1 a5 bd ae d3 4e bd 69 2e 0e bd 9b de 8d 3d
       -0.080904454 -0.050494842 -0.03471223 0.06927224
0001a0 68 02 98 bd 2c ff 16 bd 97 db 92 bd ca 7f 7d 3d
       -0.07422334 -0.036864445 -0.0717079 0.061889447
0001b0 6a 87 42 3d 47 92 ad 3d 4e ba 57 3d a8 e7 ae 3c
       0.047492422 0.08475166 0.05266791 0.021350697
0001c0 40 01 91 3b 50 20 bd bb 7b b6 96 3d 38 6b 49 bd
       0.004425198 -0.005771674 0.07359024 -0.049174517
0001d0 c0 7f 11 3b 93 19 b3 3d 93 6a 92 bd a8 9d 62 3c
       0.002220139 0.08745112 -0.07149234 0.0138315335
0001e0 1a e7 7f 3d a8 7a 97 bc d9 c5 97 3d 73 80 9d bd
       0.062476255 -0.018491104 0.07410783 -0.07690515
0001f0 0c 25 78 bd a8 09 94 3c c0 ba 27 bd f1 c5 9d 3d
       -0.060582206 0.01807101 -0.040949583 0.0770377
000200 70 9a ea 3b 30 a5 d9 3b 70 21 c0 bb f0 b8 c3 bc
       0.0071595237 0.0066420063 -0.005863361 -0.023891896
000210 83 f9 17 bd d5 02 a1 3d c2 a8 2e bd d8 1c 60 bd
       -0.037103187 0.07861868 -0.04264141 -0.054715008
000220 93 c9 b4 bd ed ac a0 bd fc 58 a8 bd 02 46 fb bc
       -0.0882751 -0.07845483 -0.082200974 -0.03067303
000230 6b 02 a8 3d d1 dd a5 3d f4 44 33 bd 52 1e 37 3d
       0.08203586 0.08098949 -0.04376693 0.04470665
000240 43 7d 83 3d 0c 2d d3 bc e7 14 a4 3d 81 f1 86 3d
       0.06420376 -0.025778316 0.08011799 0.06589032
000250 81 91 95 3d f2 4d 51 bd d4 41 c0 bc 44 ed d0 bc
       0.07303143 -0.051099725 -0.02346889 -0.025503762
000260 b1 41 10 bd aa d0 2e bd 24 18 a1 bc 72 fd 62 3d
       -0.0352189 -0.042679466 -0.019664831 0.055417486
000270 3d 8d b3 3d f7 3e 57 bd 4e cf 78 bd b1 a1 8a 3d
       0.087671734 -0.052550282 -0.060744576 0.067691214
000280 32 c1 7d 3d c8 55 6f bc 40 f2 11 bd b0 de 1d bc
       0.061951824 -0.014607854 -0.03563142 -0.009635612
000290 d8 14 77 bd 85 c9 94 3d 95 d5 8f 3d 86 06 7f 3d
       -0.060322613 0.07264999 0.070231594 0.06226208
0002a0 10 fe 84 3b 2e 87 00 bd e1 53 99 bd 6a 69 65 3d
       0.004058607 -0.031378917 -0.07486702 0.056008734
0002b0 a6 89 5d 3d 4e 51 5d bd 18 c6 02 bc 96 1f 31 3d
       0.05408635 -0.054032616 -0.0079818 0.043243013
0002c0 00 36 7f b9 4c e4 8b bd a6 43 74 3d 86 fc 70 bd
       -0.00024338812 -0.068306535 0.059634827 -0.058834575
0002d0 64 3c 26 bd 00 27 b4 3a b0 7e 68 bc c5 50 a9 3d
       -0.040584937 0.0013744533 -0.014190361 0.08267359
0002e0 82 4e 39 3d 58 2d d7 3c 0b 96 8d 3d 00 a9 ff 3a
       0.045240887 0.026266739 0.06913384 0.0019505322
0002f0 ff d2 11 bd ce 03 2e bd e0 d4 bd 3b d7 1c 84 bd
       -0.035601612 -0.042484097 0.005793199 -0.06450813
000300 b0 57 8b bd 00 ea 08 3b d7 28 89 3d 00 95 ff 39
       -0.068038344 0.0020891428 0.06697243 0.00048748404
000310 c7 52 63 bd 70 6b b8 bc 70 4f df 3b f8 39 f8 3c
       -0.055498865 -0.022512168 0.0068148896 0.03030108
000320 e0 0d be bb 70 27 ec 3c fc 3a 03 bd 01 10 73 bd
       -0.005799994 0.028827399 -0.032038674 -0.059341434
000330 49 4b 91 bd 28 eb c9 bc b1 b4 96 3d de 61 94 bd
       -0.07094438 -0.024648264 0.07358683 -0.07245229
000340 00 f9 aa 3c 40 7a 26 bc c2 a6 dc bc 13 b4 a3 3d
       0.020870686 -0.010160983 -0.026934985 0.07993331
000350 12 45 17 3d c0 54 11 3b 1c d5 ce bc 42 fa b0 bd
       0.036931105 0.002217576 -0.025248103 -0.08641483
000360 9a 4e 88 bd 2a 04 13 3d 80 a9 24 bc 24 f7 a8 bd
       -0.06655617 0.035892643 -0.010050178 -0.08250263
000370 7f a8 9d 3d 99 3e 97 bd 82 bc 28 3d c0 ca 9b bb
       0.07698154 -0.073849864 0.0411954 -0.0047543943
000380 15 73 22 bd 9b c2 40 bd 6d 95 b0 3d 15 6b a9 3d
       -0.039660532 -0.04706059 0.08622251 0.082723774
000390 02 28 7d 3d b1 3f 8d 3d 6d a6 78 bd 24 a1 c3 3c
       0.061805733 0.06896914 -0.06070559 0.023880549
0003a0 f8 f9 75 3c a0 48 d4 bb c0 23 27 bc 4b 97 75 bd
       0.0150132105 -0.006478384 -0.010201395 -0.059958737
0003b0 7c 90 99 bc c0 3f b8 3b 3a fe 2f 3d 10 11 78 bd
       -0.018745653 0.005622834 0.04296706 -0.060563147
0003c0 3a 52 3b 3d 0f d1 b2 3d ca ef 48 3d 10 25 75 bc
       0.045732714 0.08731281 0.049056806 -0.01496245
0003d0 ca 28 b0 bd 90 b1 e0 3c 38 c6 62 bd 96 74 77 3d
       -0.0860153 0.027428418 -0.055364817 0.06041392
0003e0 c4 10 cf 3c a2 9c 70 3d ab 47 92 bd 24 41 86 3c
       0.02527655 0.058743127 -0.07142576 0.016388483
0003f0 c0 be c4 bc 33 fc 8d 3d 30 d7 6a 3c 48 02 ec 3c
       -0.024016738 0.06932869 0.014333531 0.028809682

linear2.bias f4 [64]
000000 cc b8 9f 3c 9f 43 82 3d 18 b5 73 bc bc 70 b4 bd
       0.019497298 0.06360554 -0.014874719 -0.08810565
000010 50 9e 5c bc e2 28 1d bd 28 d2 15 3d 10 62 d3 3c
       -0.013465479 -0.038369067 0.036577374 0.025803596
000020 7f 60 2d bd c6 0f 2d 3d e4 cf 4c bd ab ec 9c bd
       -0.042328354 0.04225137 -0.050002947 -0.07662328
000030 ff fb 74 bd de 07 5e 3d e0 3a 3b 3b 34 97 8c 3c
       -0.059810635 0.05420672 0.0028569028 0.017161943
000040 92 de 4f bd 64 71 8c bd 0e 1a 75 3d 90 b3 c4 bc
       -0.05074937 -0.06857565 0.0598393 -0.024011403
000050 d0 ba d0 3b 70 60 ff 3b f6 c5 55 3d 92 f0 75 3d
       0.006369926 0.0077934787 0.052190743 0.06004388
000060 63 f8 98 3d 3f 5d 2b bd 1e 62 22 3d 02 83 7d 3d
       0.07469251 -0.041836973 0.039644353 0.061892517
000070 22 5c 77 3d 70 b6 6f bc 9d bd 99 bd a8 fb 9a 3c
       0.0603906 -0.014630899 -0.07506869 0.018918827
000080 ac 59 07 3d 48 6d 3d bd e0 56 07 3b 40 87 41 3c
       0.033044502 -0.046246797 0.0020651147 0.011812031
000090 80 18 1c 3a 9e 54 29 bd a0 6b e4 bb c9 01 a8 3d
       0.00059545785 -0.041340463 -0.0069708377 0.082034655
0000a0 e5 ba 80 bd 74 c0 7b bd 08 07 4f 3c d3 a5 7d bd
       -0.06285647 -0.061462834 0.012635954 -0.06192572
0000b0 32 7b 02 3d 54 ab 9d 3c ef f4 87 3d 02 5b 21 3d
       0.03185577 0.019246735 0.06638514 0.039393432
0000c0 b1 fe 88 3d de 5f 44 3d 92 35 0c 3d 40 09 a3 3a
       0.066892035 0.04794299 0.034230776 0.001243867
0000d0 8f f3 a8 3d dc bf ff 3c c8 d7 69 3c 00 4f 73 bd
       0.0824958 0.031219415 0.014272638 -0.059401512
0000e0 63 66 a1 3d f2 d7 43 3d 11 72 82 bd 18 90 90 bc
       0.07880857 0.047813363 -0.06369413 -0.017646834
0000f0 70 68 af 3b 9f 94 b0 3d de 0a 26 3d 40 a5 0c 3d
       0.005353026 0.08622097 0.040537708 0.034337282

linear3.weight f4 [14, 64]
000000 64 b9 68 3d 70 7c 26 3c 02 1f 84 3d f0 99 6f 3d
       0.056817427 0.010161504 0.06451227 0.058496416
000010 08 44 c7 bd 72 b2 de 3d 00 78 ce 39 82 41 98 bd
       -0.09729773 0.108738795 0.0003938079 -0.074343696
000020 9e 82 ec 3d 9a 65 b8 bd 84 fb 77 bd 92 6d d2 bd
       0.11548351 -0.09003754 -0.0605426 -0.10274805
000030 14 c0 81 bd 48 a7 48 3d b4 ea ff bd c0 d5 ad bc
       -0.06335464 0.048987657 -0.12495938 -0.021220088
000040 44 13 97 bd 22 1d c2 3d 4c 49 4d 3d 90 5a 08 bc
       -0.073767215 0.09478213 0.05011873 -0.008322373
000050 cc a2 41 3d 4c b6 b4 3d a0 14 d5 bc 08 72 bb 3c
       0.047274396 0.08823833 -0.026010811 0.022881523
000060 60 b8 b3 bb c8 5d b2 bc 6c 1c 0d 3d aa 15 bf 3d
       -0.0054846257 -0.021773234 0.034450933 0.09330304
000070 dc 24 eb bd 20 dc 1b bc 0e a1 c8 3d 80 40 36 3c
       -0.1148164 -0.009512931 0.09796344 0.011123776
000080 20 be 85 bc c0 d8 f3 bc 40 5a 3c bb e8 e7 50 3d
       -0.01632601 -0.02976644 -0.0028740317 0.051002413
000090 60 59 6f 3c fe 97 d7 bd 14 67 ed bd 76 c6 a4 3d
       0.014608711 -0.10527037 -0.11591926 0.08045666
0000a0 3a 54 c4 3d 50 a9 1a 3d 08 5d b5 3c c0 90 50 bb
       0.095863774 0.037759125 0.022139087 -0.003182456
0000b0 80 3a d3 3d f8 22 c9 bd e4 6e 72 bd 00 97 6f 3d
       0.10313892 -0.09821123 -0.059187785 0.058493614
0000c0 36 e1 b7 bd 26 ec 93 3d 60 90 87 3b 80 ec 80 3a
       -0.089785025 0.07222776 0.004137084 0.0009836107
0000d0 60 8a 40 3d 4a 33 dd 3d 00 e4 04 bd 90 22 01 bc
       0.047006965 0.10800798 -0.032444 -0.0078817755
0000e0 88 e1 11 3d 60 61 30 bd 1a 73 f2 3d 20 94 81 bc
       0.035615474 -0.043061614 0.1183836 -0.015817702
0000f0 48 fd fb 3d c0 ce 98 3d 00 ed de bd 52 bc a6 3d
       0.12304169 0.074613094 -0.10885048 0.08141388
000100 c4 7d 94 bd c8 c2 63 bd 60 b3 74 bc a4 c8 8b 3d
       -0.072505504 -0.05560568 -0.014935344 0.068253785
000110 a8 13 26 bd 34 1c d1 bd fc 60 9e 3d b2 3f cc 3d
       -0.04054609 -0.102104574 0.07733342 0.099730864
000120 00 2d 6b 3d 20 b3 d3 3d d6 60 c3 bd 3e 78 82 bd
       0.057415962 0.103369 -0.09539954 -0.063705906
000130 f0 62 05 bd f0 17 90 bc 00 f7 7f bb d8 4a b4 3d
       -0.032565057 -0.01758954 -0.0039057136 0.08803338
000140 a4 08 76 3d 02 48 8f bd e4 ca 4e 3d 10 bb ff bc
       0.060066834 -0.06996156 0.05048646 -0.031217128
000150 c0 47 9d 3c 88 48 ae bc a2 5d fd bd 1e ef d3 3d
       0.019199252 -0.02127482 -0.12371375 0.10348342
000160 2c c6 d1 bd e0 53 e9 bc 5c a1 ad bd b2 c8 ef bd
       -0.102428764 -0.028482378 -0.084780425 -0.117082015
000170 80 1e ca 3d 40 92 39 bd f4 92 9f 3d 6a 2e 8e bd
       0.09869099 -0.04530549 0.07791701 -0.069424465
000180 1c b4 a8 bd 60 65 07 3c ac 7c 55 bd ba 7e ee 3d
       -0.08237478 0.008263916 -0.05212085 0.11645265
000190 fc c5 8c bd 08 67 ea 3c 56 52 c6 3d 36 da 99 bd
       -0.068737 0.028613582 0.09683673 -0.075123236
0001a0 e8 30 84 3d b4 12 0b bd 14 97 14 3d b0 46 90 bc
       0.064546406 -0.033953384 0.03627689 -0.017611831
0001b0 fe ce be 3d ec 53 51 3d 58 51 2b bd e0 5d da 3b
       0.093168244 0.051105425 -0.041825622 0.006664023
0001c0 e0 90 51 bc 80 48 d3 bd dc 38 ba bd 00 d0 b5 3b
       -0.012790889 -0.10316563 -0.09092876 0.005548477
0001d0 6a 9d e9 bd 80 b0 9d ba 08 cb f4 bc e0 6d c7 3c
       -0.114069775 -0.001203075 -0.02988197 0.024344385
0001e0 5e 2a ba 3d 20 be 12 bd 94 8f b3 bd 8a c1 cb 3d
       0.09090112 -0.03582585 -0.0876762 0.09949024
0001f0 88 b1 13 bd 6a d3 d2 bd d0 9e 8f bc a4 f3 43 bd
       -0.03605798 -0.1029423 -0.017531782 -0.047839776
000200 8c 49 63 3d 7c 35 9b 3d 60 6d be bc 6e 75 99 3d
       0.05549006 0.07578561 -0.023245513 0.07493101
000210 e0 5e d4 3c 7c 33 bb 3d 1c 7b c9 3d aa 46 b5 3d
       0.025924146 0.09140679 0.098379344 0.08851369
000220 72 a1 d7 bd 70 79 e0 bc 2e e1 9e 3d 48 9f 82 bc
       -0.1052884 -0.027401656 0.07757793 -0.015945092
000230 50 33 db 3c 88 d1 a9 bc d0 da 21 3d a8 dc 81 bd
       0.026757866 -0.020729795 0.039515316 -0.06340915
000240 a0 64 ca 3b bc e9 0a 3d ac dd 04 3d 48 7a ff 3d
       0.006176546 0.033914313 0.032437965 0.12474495
000250 d8 b7 3f 3d 24 48 3f bd 16 da b5 bd 52 73 ed bd
       0.046806186 -0.046699658 -0.08879487 -0.11594261
000260 76 1d bd bd 06 ba ae bd 42 09 9e 3d b0 ee 53 3d
       -0.09234135 -0.08531575 0.077166095 0.051741302
000270 50 5b 4b 3c 40 14 72 3c c4 f8 99 bd 00 67 39 3a
       0.012411907 0.014775336 -0.075181514 0.0007072538
000280 00 f1 49 ba 10 f4 8b bc 92 2e e6 bd 3c 9f a9 3d
       -0.00077034533 -0.017084152 -0.11239351 0.08282325
000290 2c 58 6c 3d 18 1f ab bd 78 5e 8c 3c 00 3b 41 3c
       0.057701275 -0.0835554 0.01713489 0.011793852
0002a0 c0 8d 4b 3d 34 20 39 bd 1a 8f b8 bd 40 bf 43 bb
       0.04969573 -0.045196727 -0.090116695 -0.0029868633
0002b0 88 eb b4 bd cc f9 2c bd c0 36 1f 3b ac ac b8 3d
       -0.088339865 -0.042230412 0.0024294108 0.090173095
0002c0 c0 86 7e 3b c2 89 af 3d 20 8e eb 3c 48 27 f8 bc
       0.0038837641 0.08571197 0.028754294 -0.030292168
0002d0 e0 1d 9d bc b4 25 8f 3d a0 c0 db bd f0 41 f4 bd
       -0.019179285 0.06989613 -0.107301 -0.11926639
0002e0 00 28 81 bd 94 10 ee bd 20 1b aa bc fc 3d 9f bd
       -0.063064575 -0.11624256 -0.020764887 -0.077754945
0002f0 aa c8 a9 3d 44 84 b9 3d 4e 24 de 3d c0 dd 40 bd
       0.08290227 0.09058431 0.10846768 -0.047086477
000300 42 1b 81 bd 94 df 0e 3d dc e3 05 bd 58 fa 21 3d
       -0.06304027 0.03488119 -0.032688007 0.039545387
000310 18 8c 65 bd c4 92 1c 3d e0 3d 8c 3c f8 59 50 bd
       -0.056041807 0.038225904 0.017119348 -0.05086705
000320 b0 ab af 3d 9e a3 f7 3d 18 35 b4 bc 18 fc 49 3d
       0.08577669 0.120917544 -0.021997973 0.04931268
000330 00 35 13 bd 5c 93 86 3d 40 c9 1f 3b 44 8e 55 3d
       -0.035939217 0.06571075 0.002438143 0.05213763
000340 5c 85 14 bd 0c e0 b2 3d 50 00 52 3d b4 97 bf bd
       -0.036259994 0.0873414 0.05126983 -0.09355107
000350 40 0c 9c bd c0 f6 2d 3b 9e bf f9 3d 90 9f b9 3c
       -0.07619524 0.002654478 0.12194751 0.022659093
000360 c0 9e 20 bd 0e b9 e3 bd ae 50 e4 bd 60 a5 89 3d
       -0.039213896 -0.11119281 -0.11148201 0.06720996
000370 70 df 47 3d 78 4c c3 3c 8a 5b f3 bd a0 63 9d 3c
       0.04879707 0.023840174 -0.11882694 0.019212544
000380 62 fd f2 3d a8 75 ea 3d 88 39 3e 3d d6 55 db 3d
       0.11864735 0.114482224 0.046441585 0.10709731
000390 14 09 ad bd 40 be 44 3b 00 96 41 bc a8 16 1c bd
       -0.08448997 0.0030020624 -0.011815548 -0.038107544
0003a0 c2 0a 9a 3d 3e 3f e0 3d d0 1d 01 3d 68 ae a3 bc
       0.07521583 0.109495625 0.031522572 -0.019980624
0003b0 00 10 93 3c a0 41 94 bd ce 51 85 3d ae 38 cc 3d
       0.017951965 -0.072390795 0.06509744 0.09971748
0003c0 70 27 35 bc 4e fe 81 3d 34 11 03 bd 60 39 d5 3b
       -0.011056766 0.06347333 -0.031998828 0.006507084
0003d0 de 0b 9a 3d a0 a8 cb bc 00 76 96 bc 34 3a 5c bd
       0.07521795 -0.02486068 -0.018366814 -0.053766444
0003e0 50 23 60 bc ee 3f ec bd 02 4c 8f bd b8 3f c3 bd
       -0.013680294 -0.11535631 -0.06996919 -0.09533638
0003f0 a6 d8 8e bd 14 e9 a7 3d 98 fb fb 3d d2 e1 a5 3d
       -0.06974916 0.08198753 0.12303847 0.080997124

linear3.bias f4 [14]
000000 64 33 07 bd ae be 95 3d 48 ea c5 bc 70 ca 44 bd
       -0.033007994 0.0731176 -0.024159566 -0.048044622
000010 00 0c bd 3c b4 a5 1a bd 00 0e 1c bb 96 5e 8b 3d
       0.023077011 -0.037755683 -0.0023812056 0.0680515
000020 50 87 09 3d ba 21 e3 3d 80 85 67 3b fc 87 eb 3d
       0.03357631 0.11090417 0.0035327375 0.11500546
000030 40 c9 b5 3c e4 44 ad bd
       0.02219069 -0.084604055
