models/model1.onnx (onnx, 67637 bytes, 6 tensors)

linear1.weight f4 [128, 60]
0	0xbdb7d0b7	-0.08975356
1	0x3dda2334	0.10651246
2	0xbdfe4a76	-0.12416546
3	0x3dc3e118	0.095644176
4	0x3d98a34e	0.07453023
5	0xbd045f0a	-0.0323172
6	0x3de86094	0.11346546
7	0xbd657958	-0.056023926
8	0xbd3712dc	-0.04469572
9	0xbd98c31a	-0.07459088
10	0x3db581f6	0.08862679
11	0x3c02a2d0	0.007973388
12	0x3de6b164	0.11264303
13	0x3d86a7ba	0.0657496
14	0x3bc09940	0.005877644
15	0xbd2b1770	-0.0417704
16	0xbdc77630	-0.09739339
17	0xbda7c285	-0.081913985
18	0xbd54ab5a	-0.051921226
19	0x3d9b4660	0.07581782
20	0xbdc08e1d	-0.09402106
21	0xbd994b7f	-0.07485103
22	0x3cfb6ff8	0.03069304
23	0x3cdbf230	0.026848882
24	0xbc6356a0	-0.0138756335
25	0xbd93b854	-0.07212892
26	0xbca7fde4	-0.020506807
27	0xbd0037aa	-0.031303085
28	0xbde5314d	-0.11191044
29	0xbd71455e	-0.058904044
30	0x3b19ca40	0.0023466498
31	0xbdd0e8b8	-0.102006376
32	0xbd70a0a0	-0.058746934
33	0xbdc391c8	-0.0954929
34	0xbc157798	-0.009122752
35	0x3dcadb98	0.099051654
36	0x3de3f564	0.11130789
37	0x3dff7ac6	0.12474589
38	0xbde10d42	-0.10988857
39	0xbd54fa12	-0.051996298
40	0xbb27b4c0	-0.0025589913
41	0x3dd62b2e	0.104574546
42	0x3dac6476	0.08417599
43	0xbd2ad808	-0.04170993
44	0x3d4dfa6c	0.05028765
45	0x3dde959c	0.108683795
46	0xbd29843a	-0.041385867
47	0xbda50fda	-0.08059664
48	0xbdd75455	-0.10514132
49	0xbdc454e8	-0.09586507
50	0x3d0a7298	0.03380069
51	0xbd78654e	-0.060643487
52	0x3dcbcc96	0.09951131
53	0x3d3e950c	0.04652886
54	0xbbd24060	-0.0064163655
55	0x3de817d8	0.11332673
56	0xbcc88998	-0.024479672
57	0xbe029b15	-0.12754472
58	0xbbe69720	-0.0070370585
59	0xbcd2bba8	-0.025724247
60	0x3c248890	0.010042325
61	0xbc0d9f20	-0.008643895
62	0xbdefce7f	-0.11709308
63	0x3dd88bda	0.105735496
64	0xbda86360	-0.08222079
65	0x3ceb7da8	0.028746441
66	0xbd8a3938	-0.06749195
67	0x3df94b4a	0.121725634
68	0xbcce47e8	-0.025180772
69	0x3d9c02ba	0.076177076
70	0xbce42a80	-0.027852297
71	0x3cf8f148	0.03038849
72	0x3c64e3d0	0.01397033
73	0x3d75bbac	0.05999343
74	0x3dc844bc	0.09778735
75	0x3bc8c220	0.006126657
76	0x3d9ca768	0.07649118
77	0xbd81382f	-0.06309544
78	0xbd28b856	-0.04119142
79	0xbd2d1f94	-0.042266443
80	0x3d4f7d4c	0.0506566
81	0x3a9f5900	0.0012157261
82	0x3a780b00	0.00094620883
83	0xbc80f6f4	-0.015742756
84	0x3d275758	0.040854782
85	0x3db162c2	0.08661415
86	0x3df1d0e0	0.11807418
87	0xbd4bc59a	-0.049748994
88	0x3c139dc0	0.0090097785
89	0x3cff4540	0.03116095
90	0xbced1334	-0.02893982
91	0x3db407b0	0.08790529
92	0xbd705fc0	-0.058685064
93	0x3b820540	0.003967911
94	0x3db0a780	0.08625698
95	0xbdc612b2	-0.096715346
96	0x3dde738c	0.108618826
97	0x3c140c90	0.009036198
98	0xbc8db134	-0.017296411
99	0x3b59c6c0	0.0033230036
100	0x3deefb64	0.11669043
101	0xbd20c7d6	-0.03925308
102	0x3d1bed70	0.038068235
103	0x3db5b202	0.08871843
104	0xbdf23564	-0.1182659
105	0x3dfc4f9a	0.1231987
106	0xbd294dfe	-0.041334145
107	0x3d189950	0.037255585
108	0x3ca00558	0.019533798
109	0xbdfb5e26	-0.12273817
110	0x3db56278	0.08856672
111	0x3dacbb30	0.08434141
112	0x3df607be	0.120131955
113	0xbda7dc82	-0.081963554
114	0xbd185212	-0.037187643
115	0xbe0144eb	-0.12623946
116	0x3deb7706	0.11497311
117	0x3d286360	0.041110396
118	0x3da51dac	0.080623
119	0x3dc36dce	0.09542428
120	0xbd3b7aa0	-0.04577124
121	0xbd583ea2	-0.052794106
122	0x3cf9dfe0	0.03050226
123	0x3c22fc80	0.009947896
124	0xbd639a94	-0.05556734
125	0x3db7de40	0.08977938
126	0x3da31d52	0.07964577
127	0xba461800	-0.0007556677
128	0x3da9d870	0.08293235
129	0x3ce8c6a8	0.02841504
130	0x3d9b3792	0.075789586
131	0x3da3768a	0.07981594
132	0x3da4b764	0.080427915
133	0x3d947210	0.07248318
134	0xbd2b2872	-0.04178662
135	0xbdcadb80	-0.099051476
136	0xbdf5dc35	-0.12004892
137	0xbd47005a	-0.04858432
138	0xbd0e3128	-0.034714848
139	0xba9ce480	-0.0011969954
140	0x3dc57e5a	0.0964324
141	0x3dc56afa	0.09639545
142	0x3dfb1a0e	0.12260829
143	0x3d2d16e8	0.042258173
144	0x3d2023f4	0.039096788
145	0xbcef58a8	-0.02921708
146	0xbd9fa59c	-0.07795259
147	0xbda2385c	-0.07920906
148	0xbd4890e6	-0.04896631
149	0xbcdd0bc4	-0.02698315
150	0x3dba4ae6	0.09096317
151	0xbdb61b60	-0.0889194
152	0xbd802c18	-0.0625841
153	0xbde72e7c	-0.11288163
154	0xbd25888e	-0.04041343
155	0xbb8c3b30	-0.0042795166
156	0x3de18da8	0.11013347
157	0x3d2f4db4	0.042798713
158	0x3caa1918	0.020763919
159	0x3df131a4	0.11777046
160	0xbd95a93c	-0.073076695
161	0x3d4569d4	0.04819663
162	0x3ded2be6	0.115806386
163	0x3de2a758	0.110670745
164	0x3d9151ca	0.07095678
165	0xbd467f38	-0.04846117
166	0xbdf7202a	-0.12066682
167	0xbb4b1f00	-0.003099382
168	0x3d40e134	0.04708977
169	0x3de8f600	0.11375046
170	0x3e00b247	0.12568007
171	0xbd3fbe24	-0.04681219
172	0xbd7ec9a0	-0.062204003
173	0xbdc53caa	-0.096307114
174	0x3dfa8bea	0.12233718
175	0xbd83c51d	-0.06434081
176	0x3dabf556	0.083964035
177	0xbdea7f71	-0.11450089
178	0xbe01387c	-0.12619203
179	0x3e022b79	0.12711896
180	0xbc347c20	-0.011015922
181	0x3d2d929c	0.042376146
182	0xbd002cc6	-0.0312927
183	0xbcf8acf0	-0.0303559
184	0xbca2b49c	-0.019861512
185	0xbd71d730	-0.05904311
186	0xbdca9b65	-0.098929204
187	0x3d4c8c88	0.04993871
188	0x3decd1f0	0.1156348
189	0xbde92a86	-0.11385064
190	0x3dd31b3c	0.10307929
191	0x3d988510	0.07447255
192	0xbdacbfab	-0.08434995
193	0x3cdcb020	0.026939452
194	0xbd7c8a42	-0.06165529
195	0xbd1eaf14	-0.038741186
196	0xbd3a0aca	-0.045420446
197	0xbcbc9818	-0.023021743
198	0x3daa248c	0.08307752
199	0xbdb12b25	-0.08650807
200	0xbc31e560	-0.01085791
201	0xbccb1c40	-0.024793744
202	0x3da74884	0.08168128
203	0xbdf938be	-0.12169026
204	0xbdb93dd9	-0.09045
205	0xbdb4e6f7	-0.088331155
206	0x3dc45fc6	0.0958858
207	0x3d521200	0.051286697
208	0xbdd56c1c	-0.10421011
209	0xbc653868	-0.013990499
210	0xbd77981a	-0.06044779
211	0x3d8b1454	0.06790987
212	0xbdb2b928	-0.08726722
213	0x3e00a1b7	0.1256169
214	0xbdcf3323	-0.101171754
215	0xbd91b7c0	-0.07115126
216	0xbda2d82c	-0.07951388
217	0x3dc8bb4a	0.098013476
218	0x3df209a4	0.11818245
219	0x3d8ff1a6	0.07028513
220	0xbc90b940	-0.01766646
221	0x3d9b96be	0.07597111
222	0xbd15c1c2	-0.036561735
223	0xbd8a8e50	-0.06765425
224	0x3dd6bf30	0.10485685
225	0xbc972ed8	-0.018454954
226	0xbe025b3b	-0.12730114
227	0xbcb5ffa4	-0.022216626
228	0x3e0077c3	0.12545685
229	0xbdc27ca1	-0.09496427
230	0xbcb3657c	-0.021898977
231	0xbdb48e42	-0.08816196
232	0x3da10b98	0.078635395
233	0xbcb7b638	-0.022425756
234	0xbd6a5ba4	-0.0572163
235	0x3dbb7630	0.09153402
236	0x3d8587c0	0.06520033
237	0xbd359b26	-0.044337414
238	0xbdf9615f	-0.12176775
239	0xbd480fd4	-0.04884322
240	0x3c11cdb0	0.008899137
241	0xbdffb7c1	-0.1248622
242	0xbd37dd10	-0.044888556
243	0x3da6f202	0.08151628
244	0x3e01587b	0.12631409
245	0xb9672000	-0.00022041798
246	0x3ccda2b8	0.025102004
247	0x3d7aa67c	0.061193928
248	0x3dddae1a	0.10824223
249	0x3d82070a	0.06348999
250	0xbc2fea98	-0.010737084
251	0xbd0f1f3a	-0.03494189
252	0xbd9350da	-0.071931556
253	0x3de788e8	0.1130541
254	0xbc1f8e78	-0.009738557
255	0xbda14f5a	-0.07876463

linear1.bias f4 [128]
0	0x3cdbb6d8	0.026820585
1	0xbcac1968	-0.021008208
2	0xbd2d0404	-0.042240158
3	0x3d547ebc	0.051878676
4	0x3dc9f416	0.09861009
5	0xbcb56d78	-0.022146925
6	0xbda461d0	-0.08026469
7	0x3d0fd24c	0.035112664
8	0xbde9c5e7	-0.114147
9	0xbd53999c	-0.051660165
10	0xbda94bef	-0.08266436
11	0xbdbe24f4	-0.09284392
12	0xbb88e930	-0.0041781887
13	0xbded5c80	-0.115899086
14	0x3d33c33c	0.043887362
15	0x3cbfad90	0.02339819
16	0x3ca80830	0.020511717
17	0x3cd76498	0.026293084
18	0xbd5353f6	-0.051593743
19	0x3dea83f0	0.11450946
20	0x3dbb7be4	0.0915449
21	0xbd63216c	-0.055451795
22	0xbdfa38e0	-0.12217879
23	0x3dd107da	0.10206576
24	0xbced6cd4	-0.028982557
25	0xbbe3d570	-0.006952934
26	0xbd937302	-0.071996704
27	0x3c1d3c90	0.009596959
28	0xbc8cdd18	-0.01719527
29	0x3d7d58f4	0.06185241
30	0x3d96e214	0.0736734
31	0x3dd0e194	0.101992756
32	0xbd9e666b	-0.077343784
33	0xbc1ba760	-0.0095003545
34	0x3c7bd0c0	0.015369594
35	0xbd954c30	-0.07289922
36	0xbba963e0	-0.0051693767
37	0x3db99042	0.09060718
38	0xbd489b60	-0.048976302
39	0x3d9c7e30	0.07641256
40	0xbd95b896	-0.073105976
41	0x3d487cf0	0.048947275
42	0xbdbe5a8e	-0.09294616
43	0xbdffef7c	-0.1249685
44	0x3dcf688a	0.10127361
45	0xbdc03a90	-0.0938617
46	0x3d5b2188	0.053498775
47	0xbd3b04a8	-0.045658737
48	0x3d89e84e	0.06733762
49	0xbd4cf9ce	-0.05004292
50	0xbcc4975c	-0.023997955
51	0xbce4c210	-0.027924567
52	0xbd522a2e	-0.051309757
53	0x3dc5292e	0.09626995
54	0xbdc86637	-0.09785121
55	0x3db1267c	0.086499184
56	0x3e007f21	0.12548496
57	0x3d9b4f9a	0.07583542
58	0x3dc93ce8	0.0982607
59	0x3df586e6	0.119886205
60	0x3c119750	0.008886173
61	0xbdffb2a3	-0.12485244
62	0xbdb8a1e2	-0.09015252
63	0xbcdbae24	-0.026816435
64	0xbc582d40	-0.013194382
65	0xbdd466d0	-0.103711724
66	0xbdd74a28	-0.10512191
67	0x3c36cfd0	0.011157945
68	0xbc9b8524	-0.018984385
69	0xbd5f9ee8	-0.054594904
70	0x3da21822	0.07914759
71	0xbd1289e0	-0.03577602
72	0x3cc0bd18	0.023527667
73	0xbdce2a63	-0.100666784
74	0xbdddd216	-0.10831086
75	0xbd1932b8	-0.037401885
76	0xbdc70740	-0.0971818
77	0xbc915f1c	-0.017745547
78	0xbc0d5a50	-0.008627489
79	0xbcae0d84	-0.02124668
80	0x3dce3800	0.10069275
81	0x3dbb80aa	0.091554
82	0xbddc4e3f	-0.10757112
83	0xbd50451e	-0.050847165
84	0xbce45d4c	-0.027876519
85	0x3d52c19c	0.05145417
86	0xbccc657c	-0.024950735
87	0x3dd70b8c	0.10500249
88	0xbde4c21f	-0.11169838
89	0x3de5c964	0.11220053
90	0xbdb70de4	-0.08938196
91	0xbd3e4942	-0.046456583
92	0x3e0153b1	0.12629582
93	0x3e02ec69	0.12785496
94	0xbcaf8818	-0.0214272
95	0x3c3df7a0	0.011594683
96	0x3d9ce1c6	0.0766025
97	0xbdb83c96	-0.08995931
98	0x3d15cae4	0.036570445
99	0xbda970de	-0.08273481
100	0xbdbb83e4	-0.091560155
101	0x3da0a7bc	0.07844493
102	0x3c1b3530	0.00947313
103	0x3c241cc0	0.01001662
104	0x3dbd0400	0.092292786
105	0xbd98ef92	-0.074675694
106	0x3cceb7c8	0.025234118
107	0x3dc746c6	0.09730296
108	0x3dd3b50a	0.10337265
109	0xbd86a2c5	-0.065740146
110	0x3d382f94	0.04496725
111	0x3d285f0c	0.04110627
112	0xbd5d96f0	-0.054099023
113	0x3d25fe6c	0.04052584
114	0x3dfeab92	0.12435068
115	0xbd868a83	-0.06569388
116	0x3dac0f9c	0.08401415
117	0xbd4bb8f2	-0.049736924
118	0xbcd6f9d4	-0.026242174
119	0xbd2e9514	-0.04262264
120	0xbd24092a	-0.040047802
121	0xbdd0ff56	-0.102049515
122	0x3cab3208	0.02089788
123	0x3d1774d0	0.036976635
124	0x3e02bda9	0.12767662
125	0x3d2c9b44	0.04214026
126	0xbdc74bbe	-0.097312436
127	0x3dfc032e	0.12305294

linear2.weight f4 [64, 128]
0	0x3d72a09e	0.059235208
1	0x3d236672	0.03989262
2	0x3d8c7e2f	0.06860005
3	0xbd6ab3ec	-0.057300493
4	0xbcea55f8	-0.028605446
5	0xbd678263	-0.05652083
6	0xbd7daf42	-0.061934717
7	0xbd9eff9b	-0.077635966
8	0xbd4fd44e	-0.05073958
9	0x3d8d855f	0.06910204
10	0xbc017f80	-0.0079039335
11	0x3d6d7206	0.05797007
12	0x3cce5b2c	0.025189959
13	0x3d02c924	0.031930104
14	0xbd94f62e	-0.072735175
15	0x3891a400	6.944686e-05
16	0xbd12cf7a	-0.035842396
17	0xbd15458d	-0.036443282
18	0x3cb8c7c4	0.022556193
19	0xbd10b42a	-0.035328068
20	0x3ce942b0	0.028474182
21	0xbd6d7f24	-0.05798258
22	0xbcb9b4a0	-0.022669137
23	0x3d521aba	0.05129502
24	0x3d9059dd	0.0704839
25	0x3d979a1f	0.07402443
26	0x3d3e9032	0.046524234
27	0x3b54c160	0.0032463893
28	0xbca7a0d4	-0.020462431
29	0xbd523339	-0.05131838
30	0x3d97bf51	0.074095376
31	0x3d07f1fc	0.03318976
32	0x3d408d96	0.047010027
33	0x3ce5d9ac	0.028057896
34	0x3d4fc93a	0.050729014
35	0xbd903359	-0.07041044
36	0xbcad56e8	-0.021159604
37	0x3db49151	0.088167794
38	0x3cde68b4	0.027149536
39	0xbd103be4	-0.035213366
40	0xbd5130c9	-0.051071916
41	0xbc2fc6b0	-0.010728523
42	0xbcbe28e0	-0.02321285
43	0xbd2a7af0	-0.04162115
44	0xbd440550	-0.04785663
45	0x3d1a4ac2	0.03766895
46	0x3b7da2a0	0.0038701668
47	0xbd43a366	-0.04776325
48	0xbd1cb532	-0.03825874
49	0x3d81721d	0.063205935
50	0x3d0cd2ca	0.03438071
51	0xbc261388	-0.010136493
52	0xbda118c7	-0.07866054
53	0x3da0d28f	0.07852661
54	0x3d242fca	0.040084638
55	0x3d884fd9	0.06655855
56	0xbd76d5e6	-0.060262583
57	0xbd025355	-0.031817753
58	0xbda5384e	-0.0806738
59	0xbd2d01d2	-0.042238064
60	0xbdace48f	-0.084420316
61	0xbd7ea89a	-0.06217251
62	0x3d44018a	0.04785303
63	0xbd5e3fa5	-0.054259915
64	0xbd644f97	-0.055739965
65	0x3d907cc3	0.070550464
66	0x3d80eb7f	0.06294917
67	0x3da6239f	0.08112263
68	0x3dac4065	0.0841072
69	0xbd199835	-0.03749867
70	0xbcb2c1d8	-0.021820948
71	0x3d97bdb3	0.07409229
72	0x3da9315d	0.082613684
73	0xbccdd688	-0.02512671
74	0x3ce567e8	0.028003648
75	0x3c9edbf0	0.019391984
76	0x3b9932d0	0.004675247
77	0x3c5347a0	0.012895495
78	0xbd22c7b7	-0.039741244
79	0x3c768510	0.015046373
80	0x3c81e368	0.015855506
81	0x3c386f20	0.011256963
82	0xbd88618c	-0.066592306
83	0xbd6db6b1	-0.058035556
84	0xbd200279	-0.039064858
85	0x3d8091b5	0.062777914
86	0x3d927a57	0.07152241
87	0xbda9f268	-0.082981884
88	0xbceee34c	-0.029161118
89	0x3c635e58	0.013877474
90	0x3cb56f9c	0.022147946
91	0xbcdb5ea4	-0.026778527
92	0x3d6d5f96	0.057952486
93	0x3d677e9a	0.05651722
94	0xbd87f4d1	-0.06638492
95	0xbcf9160c	-0.03040602
96	0x3d01b3cc	0.03166561
97	0x3ce3b074	0.0277941
98	0x3d02f454	0.03197129
99	0x3db0c5b5	0.086314596
100	0x3d8f22e7	0.06989079
101	0xbc4c1a10	-0.012457386
102	0xbd01abf5	-0.03165813
103	0xbccc6e50	-0.024954945
104	0x3d9241bb	0.07141443
105	0xbc4583f0	-0.012055382
106	0x3d3c68c6	0.045998357
107	0x3cf9f4e0	0.030512273
108	0xbd98c861	-0.07460094
109	0xbbee4f90	-0.007272668
110	0x3db0b05d	0.086273886
111	0x3cbbc14c	0.02291932
112	0x3d9db4dd	0.077005126
113	0x3d8fbcc9	0.0701843
114	0xbbc81e20	-0.006107107
115	0x3be4ade0	0.0069787353
116	0x3b86a000	0.004108429
117	0xbd2ea94d	-0.042641927
118	0x3cf577bc	0.02996432
119	0xbd0ac4d3	-0.033879112
120	0x3d88f3b5	0.066871084
121	0xbdaeae6d	-0.08529363
122	0x3d69e23a	0.057100512
123	0xbbc51e90	-0.006015606
124	0xbda10d13	-0.07863822
125	0x3d7b3db2	0.061338134
126	0xbdac4874	-0.08412257
127	0xbcf00c00	-0.029302597
128	0x3d2157ea	0.039390482
129	0xbda01fc5	-0.078185596
130	0xbc918590	-0.017763883
131	0x3d1eedc2	0.038800962
132	0xbd316791	-0.04331166
133	0xbdb2476b	-0.08705028
134	0x3d9d974f	0.076948754
135	0xbda2050c	-0.07911119
136	0x3c27dda0	0.010245711
137	0xbd7fe07e	-0.06246995
138	0x3c1ddf78	0.009635799
139	0x3d64949a	0.05580578
140	0xbcd436e2	-0.025905076
141	0xbd853302	-0.065038696
142	0x3c75a618	0.014993213
143	0x3b2fdbc0	0.0026833862
144	0x3d8f7b41	0.07005931
145	0x3d9b58b1	0.07585276
146	0xbd7f1572	-0.06227631
147	0x3cfb68d0	0.030689627
148	0x3c9b081c	0.018924765
149	0x3b433ae0	0.002978973
150	0x3d4f92c2	0.05067707
151	0xbbb8aa70	-0.005635552
152	0xbc81aa7c	-0.015828364
153	0xbd3dd773	-0.046348047
154	0xbd4f12bf	-0.050554987
155	0xbdb3220d	-0.08746729
156	0xbd905b1b	-0.07048627
157	0xbd7f9cd2	-0.062405415
158	0x3d0aff5e	0.033934943
159	0xbd65f8d1	-0.056145493
160	0xbd8dc971	-0.069231875
161	0xbd46e594	-0.048558787
162	0x3d0d1344	0.0344422
163	0x3d6193a2	0.055072434
164	0x3d9bf9a9	0.07615978
165	0x3dace5cd	0.084422685
166	0x3b9865a0	0.0046507865
167	0x3cc97310	0.024590999
168	0xbc077458	-0.008267485
169	0xbc99c548	-0.018770829
170	0xbd92c451	-0.07166351
171	0xbd3fc562	-0.0468191
172	0xbd0949c8	-0.03351763
173	0xbcda1b18	-0.026624247
174	0x3a59d580	0.0008309707
175	0xbb8cbce0	-0.0042949766
176	0xbd8f0af2	-0.069845095
177	0xbda1febc	-0.07909915
178	0xbc0f61c8	-0.00875134
179	0xbd4a3da4	-0.04937519
180	0x3cd2ea4c	0.025746487
181	0x3d964565	0.07337455
182	0xbcdf6364	-0.027269073
183	0x3d7f115a	0.062272407
184	0xbd1243b6	-0.035709105
185	0xbd2606cc	-0.040533826
186	0x3d850559	0.064951606
187	0xbd8947d0	-0.0670315
188	0x3d3ad392	0.045611925
189	0x3d523366	0.05131855
190	0xbd4e4c61	-0.05036581
191	0x3d1bd942	0.03804899
192	0xbd6909b1	-0.056894008
193	0xbd9e1f46	-0.07720809
194	0xbd810373	-0.06299486
195	0xbd7c4e97	-0.061598387
196	0xbd320201	-0.043458942
197	0xbbe21040	-0.00689891
198	0x3d53fad6	0.051752888
199	0xbdaade0b	-0.083431326
200	0x3cdf0990	0.02722624
201	0xbd6e2577	-0.058141198
202	0xbba1aae0	-0.0049337
203	0xbd7b7774	-0.061393216
204	0xbd00b352	-0.031421013
205	0xba1b9d80	-0.000593625
206	0xbd302dbf	-0.043012377
207	0x3c0040e8	0.007827975
208	0x3d54833e	0.051882975
209	0xbd101a2e	-0.035181217
210	0xbd4c1c49	-0.049831662
211	0x3d9acdeb	0.07558807
212	0xbcaa3368	-0.020776466
213	0xbd12d6ec	-0.035849497
214	0xbd2a2b0c	-0.04154496
215	0x3d61d2de	0.05513274
216	0x3c5fd048	0.013660498
217	0xbd494d50	-0.049145997
218	0x3cd5d12c	0.026100717
219	0x3ba70ea0	0.005098179
220	0xbd85326b	-0.06503757
221	0x3c441fd0	0.011970475
222	0x3a2ac780	0.0006514713
223	0xbc80a6b8	-0.015704498
224	0x3d344b9e	0.044017427
225	0x3d39c6d6	0.04535564
226	0xbd430c22	-0.047618993
227	0x3c90e5ec	0.01768776
228	0xbd21b312	-0.039477415
229	0xbd9449e8	-0.07240659
230	0x3d47668a	0.048681773
231	0x3da848ff	0.08217048
232	0xbd12c8d3	-0.035836052
233	0xbc58a980	-0.013224006
234	0x3c097538	0.0083897635
235	0xbd0580c5	-0.032593507
236	0x3d22e2da	0.039767124
237	0xbd924d0b	-0.07143601
238	0xbd7e0fc5	-0.062026758
239	0x3d07e2d0	0.03317529
240	0x3d3b47f2	0.04572291
241	0x3d577b76	0.052607976
242	0xbd9395ed	-0.072063304
243	0xbda85bd6	-0.08220641
244	0xbc0ee108	-0.008720644
245	0x3da4679b	0.08027574
246	0xbd9786a1	-0.07398725
247	0x3d9a637b	0.07538506
248	0xbc86cbac	-0.01645454
249	0x3d3babfa	0.045818307
250	0x3cc5e008	0.024154678
251	0xbd0435dd	-0.03227793
252	0xbcd868b6	-0.026417118
253	0xbd11df94	-0.03561361
254	0xbbb01560	-0.005373642
255	0x3d04d712	0.03243167

linear2.bias f4 [64]
0	0x3c3905b8	0.011292867
1	0xbc80c338	-0.015718088
2	0xbc7244b8	-0.014786892
3	0xbd4ab494	-0.04948862
4	0xbd882286	-0.0664721
5	0xbd705962	-0.058678992
6	0xbdaafcf8	-0.08349031
7	0xbd6b8a93	-0.0575052
8	0xbc875f04	-0.0165248
9	0xbc79e378	-0.015251987
10	0x3d27ddbe	0.040982954
11	0x3d8195b1	0.063273795
12	0xbd43f742	-0.047843225
13	0xbd636ebe	-0.055525534
14	0x3d74d982	0.059777744
15	0x3d24df92	0.040252276
16	0x3d9b8be5	0.07595042
17	0x3d83cd7f	0.0643568
18	0x3d99eecd	0.07516251
19	0xbd8e9038	-0.06961101
20	0x3d323fae	0.04351776
21	0xbdab9a6f	-0.08379065
22	0x3c2218c0	0.009893596
23	0x3d20334a	0.039111413
24	0x3c740928	0.014894761
25	0xbd76809e	-0.060181253
26	0xbcc6504c	-0.02420821
27	0xbd9ec0a4	-0.07751587
28	0x3dae410f	0.08508503
29	0xbca245c4	-0.019808657
30	0x3d62519e	0.055253617
31	0xbc9d6e30	-0.01921758
32	0xbd8d6c5e	-0.06905435
33	0xbd0e5a0a	-0.034753837
34	0xbc8a9c90	-0.016920358
35	0xbd2fb474	-0.042896703
36	0xbd683874	-0.056694463
37	0x3abeb580	0.0014549941
38	0xbd526379	-0.051364396
39	0xbd72356c	-0.05913298
40	0xbd7f9c42	-0.06240488
41	0x3d84396b	0.06456264
42	0xbcf33c38	-0.0296918
43	0x3cd12f20	0.025535166
44	0x3b98cd00	0.00466311
45	0xbd83859a	-0.06421967
46	0xbcc68f80	-0.024238348
47	0x3ce6f04c	0.028190754
48	0x3d4b67b6	0.049659453
49	0x3c8bdfe8	0.01707454
50	0x3d931693	0.0718204
51	0xbc29f590	-0.010373488
52	0xbd3c360c	-0.04594998
53	0x3d1c013e	0.038087122
54	0x3ce2b288	0.027673021
55	0xbda7eeb2	-0.081998244
56	0xbd9b1cd8	-0.07573861
57	0x3d1163c2	0.035495527
58	0x3d742126	0.059601925
59	0xbd137b72	-0.0360064
60	0x3d967d39	0.07348103
61	0xbd1b48fb	-0.037911396
62	0x3da66a97	0.08125799
63	0xbd4ef684	-0.050528064

linear3.weight f4 [10, 64]
0	0xbbb4d1a0	-0.0055181533
1	0x3def59d0	0.11687052
2	0x3d2a49ec	0.041574404
3	0xbd9ddfe8	-0.07708722
4	0x3d26c680	0.040716648
5	0x3cd6f878	0.026241526
6	0x3d32e578	0.04367587
7	0x3da7f89c	0.08201715
8	0xbd3e47a0	-0.046455026
9	0x3dde48f4	0.108537585
10	0x3b9fcb80	0.004876554
11	0xbd82d700	-0.06388664
12	0xbdc484f2	-0.0959567
13	0xbdbaad5c	-0.09115097
14	0x3d7d9e9c	0.06191884
15	0x3dc2998c	0.09501943
16	0xbda9e83a	-0.08296247
17	0x3dc9765e	0.0983703
18	0x3de0c1ca	0.10974462
19	0xbdd388a8	-0.103287995
20	0x3dbec3ae	0.09314667
21	0xbdd2c580	-0.102915764
22	0xbc11fce0	-0.008910388
23	0x3db35d88	0.08758074
24	0xbd418850	-0.04724914
25	0x3bb291e0	0.0054495186
26	0xbca5f598	-0.02025871
27	0xbc6c54e0	-0.014424533
28	0xbdf1d568	-0.11808282
29	0xbdeea146	-0.11651854
30	0x3c572390	0.013131037
31	0xbd8b86fa	-0.06812854
32	0xbd4d59c4	-0.050134435
33	0xbdfa0144	-0.12207273
34	0xbd36310c	-0.04448037
35	0xbb9d0480	-0.004791796
36	0x3d8ce392	0.06879343
37	0xbd1dc53c	-0.038518175
38	0xbd1adacc	-0.037806317
39	0x3cb9ec78	0.022695765
40	0x3dabc408	0.08386999
41	0xbb073c00	-0.0020635128
42	0xbcc27e80	-0.02374196
43	0xbd80e5e0	-0.06293845
44	0x3d08d144	0.033402696
45	0x3dc635e8	0.096782506
46	0x3df58fe2	0.11990334
47	0xbd9fd790	-0.07804787
48	0x3d848702	0.06471063
49	0x3da9df6c	0.082945675
50	0x3d8cd960	0.068773985
51	0xbdb790e0	-0.089631796
52	0xbddc2c80	-0.10750675
53	0x3cb89ad0	0.022534758
54	0xbd384f20	-0.044997334
55	0x3dfa64c4	0.12226251
56	0x3dc4b54c	0.09604892
57	0x3ad3de80	0.0016164333
58	0x3d8ea2c0	0.06964636
59	0x3da6cb6a	0.08144267
60	0xbd810700	-0.06300163
61	0xbd76bcdc	-0.060238704
62	0xbdfc12d4	-0.12308279
63	0xbdbf4974	-0.09340182
64	0xbdcb02ac	-0.09912619
65	0x3db6279e	0.08894275
66	0xbde68f6c	-0.11257824
67	0x3bd0bde0	0.006370291
68	0xbd82a77c	-0.06379601
69	0xbdd7f74c	-0.10545215
70	0xbdaaa446	-0.08332114
71	0x3d92bd0a	0.071649626
72	0xbd321f7c	-0.043487057
73	0x3c458ab0	0.012056991
74	0xbce0dfd8	-0.027450487
75	0xbd98644a	-0.074410036
76	0x3cb5c9c0	0.022190928
77	0x3c8988c0	0.01678884
78	0x3dad86a6	0.08472948
79	0xbd4832b8	-0.048876494
80	0xbc85cae8	-0.016332105
81	0x3d62f23c	0.055406794
82	0x3dcdbe68	0.10046083
83	0xbde742fe	-0.112920746
84	0xbd0fd8ec	-0.035118982
85	0x3c663dc0	0.014052808
86	0x3dcfb334	0.10141602
87	0x3dbb15a2	0.091349855
88	0x3d8553e0	0.065101385
89	0x3dd295de	0.10282491
90	0x3dd2bb04	0.10289577
91	0x3dc9629a	0.0983326
92	0xbdc4d24e	-0.09610425
93	0xbda8c0e6	-0.082399175
94	0xbdd96912	-0.10615744
95	0xbda82fa4	-0.08212212
96	0x3d1e5568	0.03865567
97	0xbc0be5e0	-0.008538693
98	0xbd465c64	-0.048427954
99	0x3d815056	0.06314151
100	0xbd405420	-0.046955228
101	0x3dc2970c	0.09501466
102	0xb94e5400	-0.00019676983
103	0xbdacd2d2	-0.08438648
104	0xbd5e6dac	-0.05430381
105	0xbd74cfa8	-0.05976835
106	0xbccfb428	-0.02535446
107	0xbdd25d4c	-0.10271701
108	0x3cf68f10	0.030097514
109	0xbddddbf2	-0.10832967
110	0xbc9de980	-0.01927638
111	0xbbcdb700	-0.006277919
112	0xbc6897d0	-0.014196351
113	0x3dce1ba6	0.10063867
114	0x3deca1d2	0.11554302
115	0xbcad3798	-0.021144673
116	0x3dcaaaea	0.098958805
117	0x3de30f02	0.11086847
118	0x3d14ff00	0.036376
119	0x3d49c1b0	0.04925698
120	0x3ccdf1f8	0.025139794
121	0x3deab150	0.11459601
122	0xbda39a72	-0.079884425
123	0xbc948ed0	-0.018134505
124	0xbb5fb9c0	-0.0034137815
125	0xbdd05a04	-0.10173419
126	0x3d7d9764	0.061911955
127	0x3ce8ce20	0.0284186
128	0x3ddffbfa	0.109367326
129	0xbdcfcfb4	-0.10147038
130	0x3dfa8650	0.12232649
131	0xbd95c54e	-0.073130235
132	0x3d80512a	0.06265481
133	0x3befd600	0.007319212
134	0x3d8aaee0	0.06771636
135	0xbdde71ba	-0.10861535
136	0x3d972b3a	0.07381292
137	0x3d4b3d30	0.0496189
138	0x3bb49880	0.0055113435
139	0xbc0e2fb0	-0.008678362
140	0xbd15cbc8	-0.036571294
141	0x3c8aef10	0.016959697
142	0xbda7933a	-0.08182378
143	0x3d4b27a8	0.049598366
144	0x3c1412e0	0.009037703
145	0xbc956f58	-0.01824157
146	0x3da106f4	0.07862654
147	0xbda470b4	-0.08029309
148	0x3cf354b0	0.029703468
149	0xbccf3b60	-0.025296867
150	0x3dfe5600	0.12418747
151	0xbd1355f0	-0.03597063
152	0xbc9fb1e0	-0.019493997
153	0x3c5e2720	0.013559133
154	0x3d925072	0.0714425
155	0x3df5f57a	0.120097116
156	0x3cc7a998	0.02437286
157	0xbdc22ede	-0.094815955
158	0xbd6bfb60	-0.057612777
159	0x3d461f40	0.048369646
160	0x3dcb0cf2	0.099145785
161	0x3d13ba10	0.036066115
162	0xbdf124c6	-0.11774592
163	0xbd6f73c0	-0.058459997
164	0xbdec7c3a	-0.11547132
165	0x3d1353ac	0.035968468
166	0xbb9d6700	-0.0048035383
167	0xbd9d4974	-0.07680026
168	0x3df8c9ca	0.12147863
169	0xbd10a6a0	-0.035315156
170	0x3db17a56	0.08665912
171	0x3dbc0f06	0.09182553
172	0x3c74cfe0	0.014942139
173	0xbcf470f0	-0.029839009
174	0xbde28b36	-0.11061709
175	0x3dc70f4c	0.097197145
176	0xbd50ffc8	-0.051025182
177	0x3dfc8a6e	0.12331091
178	0xbca899c0	-0.020581126
179	0xbdc0fb80	-0.0942297
180	0x3dd40962	0.10353352
181	0x3cb4bcb8	0.022062644
182	0xbd775df0	-0.06039232
183	0xbce24f08	-0.027625576
184	0xbdd56de6	-0.10421352
185	0x3d0969cc	0.03354816
186	0x3de720d4	0.11285558
187	0x3cebb420	0.028772414
188	0xbbc38e60	-0.0059679
189	0x3dcc4c4c	0.0997549
190	0xbdebf344	-0.115210086
191	0xbd7ffcf8	-0.06249711
192	0x3dd86638	0.10566372
193	0x3d9cc0e2	0.07653977
194	0xbdd88438	-0.10572094
195	0x3d945040	0.07241869
196	0xbdee7a6e	-0.11644445
197	0xbcd82068	-0.02638264
198	0x3d987b30	0.07445371
199	0xbdbb22a6	-0.09137468
200	0x3c95b218	0.018273398
201	0xbdc45292	-0.095860615
202	0xbdc00460	-0.093758345
203	0x3de1a092	0.110169545
204	0x3daa2894	0.08308521
205	0xbd70b8dc	-0.058770046
206	0x3df39188	0.11892992
207	0xbcac20b0	-0.02101168
208	0xbdc3ebac	-0.09566435
209	0x3d765ad8	0.06014523
210	0x3d66c41c	0.05633937
211	0xbdb50e72	-0.08840646
212	0xbdf92b86	-0.121665046
213	0x3d11a2d0	0.03555566
214	0x3cb5ff98	0.022216603
215	0x3bb5e0a0	0.005550459
216	0x3d4398ec	0.04775326
217	0xba930d80	-0.0011219233
218	0x3decefbc	0.11569163
219	0xbda38ec0	-0.07986212
220	0xbd123c24	-0.035701886
221	0xbdeeb842	-0.11656238
222	0x3dc72dc4	0.09725526
223	0xbda01556	-0.078165695
224	0xbd548850	-0.05188781
225	0xbd61232c	-0.054965183
226	0xbdc4706c	-0.09591755
227	0xbd0b6630	-0.034033
228	0x3d19878c	0.037482783
229	0x3d8d227a	0.068913415
230	0xbcd35a80	-0.02579999
231	0xbd8171be	-0.06320523
232	0x3dcb9ab4	0.09941617
233	0xbd9b2eae	-0.07577263
234	0x3d0b14dc	0.03395544
235	0xbdd719ca	-0.10502966
236	0xbdce824c	-0.10083446
237	0x3cdf2690	0.027240068
238	0x3d340968	0.043954283
239	0x3ca966f0	0.020678967
240	0xbc790b80	-0.015200496
241	0xbdb7b8b2	-0.08970775
242	0x3db6b250	0.08920729
243	0x3d2e1aa8	0.04250589
244	0xbd3cf2b8	-0.046129912
245	0x3dcb6d5e	0.099329695
246	0xbdda8caa	-0.10671361
247	0x3dfb6570	0.12275207
248	0xbc3d6fe0	-0.011562318
249	0x3d8d10cc	0.068879694
250	0xbce75f08	-0.028243557
251	0xbdfabd6e	-0.12243162
252	0xbdbfc0d4	-0.09362951
253	0xbd53f32c	-0.05174558
254	0xbde370d4	-0.11105505
255	0x3ced1c00	0.028944016

linear3.bias f4 [10]
0	0xbd85fbca	-0.065421656
1	0x3db56fb6	0.08859198
2	0x3db5389c	0.08848688
3	0x3def2d2e	0.11678539
4	0x3de375b6	0.11106436
5	0xbdf743bc	-0.12073466
6	0x3d9a73dc	0.0754163
7	0xbdabc51e	-0.083872065
8	0x3d5abcf8	0.05340287
9	0x3c65a0c0	0.014015377
