models/model2.pth (torch, 67415 bytes, 6 tensors)

weight f4 [128, 60]
-0.05109126 0.044757426 -0.032550327 -0.10903523 0.09136817 0.08133535 -0.12384678 0.07628043
-0.12145578 0.052966148 -0.017369308 0.10027395 0.019544572 0.102188244 0.052922875 0.081068054
-0.090846024 0.033998534 0.05041796 0.12759636 -0.11025138 0.12426539 -0.011962444 -0.038551904
-0.07114223 -0.07584557 0.061260268 -0.039229505 0.048078433 -0.028378338 -0.11342477 0.052363515
-0.06350235 0.12677209 0.0070041865 0.018732712 -0.10973975 -0.10629376 -0.053195164 -0.017671429
0.11973344 0.100207925 0.092907354 -0.06607926 0.09329678 0.048324704 0.030903593 -0.032586887
-0.108211845 0.056229725 -0.12004987 -0.035484843 0.12756418 -0.022446498 -0.016232312 -0.052735023
-0.00026984513 0.044998944 0.10796285 0.059796616 0.041686162 0.09778465 0.12547047 -0.12746875
0.069189936 0.021140426 -0.12864013 0.115869746 -0.08970831 0.10924557 0.07203631 -0.1090324
0.03977859 0.056590155 0.002842009 0.06267741 -0.11443365 -0.092859186 -0.008029714 0.024266765
0.09418626 -0.06292251 -0.08359882 -0.016423777 -0.018603966 -0.032362565 -0.11913234 0.026728094
0.008197278 -0.025444508 -0.06897729 0.09904453 0.123162016 -0.09055337 0.04170543 -0.007035777
0.087717056 -0.09383989 0.06912868 -0.038296156 -0.005284384 0.06450409 -0.03708165 0.04549089
0.018637165 0.02935578 -0.10345375 -0.1070656 -0.058995277 -0.0016629547 -0.061670586 -0.02773907
0.08290169 -0.08365272 0.02204813 -0.06699525 0.009144753 0.08777289 -0.025028147 0.031387776
-0.08298223 -0.12160877 0.032281265 0.00984247 -0.06706387 -0.11517444 0.053252757 0.120178595
0.09331538 -0.02356854 -0.013870984 -0.119803265 -0.113942795 0.040104985 0.111410215 -0.10759414
0.0660394 0.0627687 0.033026144 -0.09275166 0.035855234 -0.11075029 0.10773657 -0.011257157
-0.027860284 -0.101153485 0.11625682 -0.12192853 -0.037999935 0.06179312 0.018823087 -0.03805583
-0.069757126 0.018031046 -0.10138406 -0.12178277 0.050751 -0.09064568 -0.0056698695 0.10086371
-0.122427635 0.10265754 0.09423794 0.11627571 -0.06162305 0.02992253 -0.11894317 -0.034444876
-0.09394705 0.10615368 0.070887595 -0.100428425 0.025622338 -0.06543248 -0.04897765 -0.10281896
0.12069847 0.10408327 -0.03359685 -0.061319403 -0.07479508 -0.082432315 -0.040958434 0.06611718
0.11810921 -0.06560953 0.006049454 0.09768386 0.047735035 -0.059145696 0.10546118 -0.07665861
0.100831896 0.092910364 -0.03260573 -0.0900061 0.0010926574 -0.10066674 -0.044663154 0.12116711
-0.12813148 -0.06038201 0.12687857 0.0077988207 -0.04496704 -0.11589579 0.114078 0.040882453
-0.11801672 0.11551583 -0.062896885 -0.06483119 0.0095410645 0.0027318448 0.11601439 0.007407695
0.02998741 -0.0932176 -0.10455173 0.08722991 0.10677025 -0.040871203 -0.11159932 -0.0014547855
-0.11818002 0.012463927 0.05592951 0.10826099 0.11706124 0.06928417 0.12248026 0.06486735
-0.10790597 0.12605517 0.016406104 0.015838355 -0.033005 -0.062005423 0.09252712 0.12432219
0.012427792 -0.012031093 -0.03980373 0.024022803 0.070534825 -0.10147346 0.11815159 -0.051355988
-0.079733476 0.092702776 -0.033241697 -0.04131563 0.04976797 -0.03831613 0.0007701963 0.061278164
00000000: 1245 51bd 9053 373d 7e53 05bd dd4d dfbd
00000010: 3c1f bb3d 2693 a63d 61a3 fdbd ea38 9c3d
00000020: cfbd f8bd 08f3 583d 144a 8ebc 6e5c cd3d
00000030: f01b a03c 1248 d13d a8c5 583d 0207 a63d
00000040: 7b0d babd 0c42 0b3d 1083 4e3d 9fa8 023e
00000050: 7acb e1bd da7e fe3d 20fe 43bc 9ae8 1dbd
00000060: 04b3 91bd ec54 9bbd 0cec 7a3d 1eaf 20bd
00000070: e4ed 443d b079 e8bc 3f4b e8bd 207b 563d
00000080: 850d 82bd 8bd0 013e 6083 e53b 5875 993c
00000090: 3cbf e0bd 8bb0 d9bd 2ce3 59bd acc3 90bc
000000a0: ce36 f53d d039 cd3d 3646 be3d 9054 87bd
000000b0: 6212 bf3d 20f0 453d 8829 fd3c d479 05bd
000000c0: 2c9e ddbd 2451 663d b5dc f5bd 8e58 11bd
000000d0: 2fa0 023e b8e1 b7bc a0f9 84bc ae00 58bd
000000e0: 007a 8db9 d050 383d a01b dd3d 4ced 743d
000000f0: 1cbf 2a3d 5243 c83d 557b 003e 2b87 02be
00000100: 74b3 8d3d b02e ad3c 3dba 03be 1e4d ed3d
00000110: feb8 b7bd 24bc df3d c687 933d 614c dfbd
00000120: e0ee 223d 14cb 673d 0041 3a3b 045d 803d
00000130: 315c eabd f52c bebd 108f 03bc 18cb c63c
00000140: bae4 c03d 84dd 80bd dc35 abbd 288b 86bc
00000150: 5867 98bc 9c8e 04bd a8fb f3bd e0f4 da3c
00000160: e04d 063c 0071 d0bc f743 8dbd dcd7 ca3d
00000170: 5e3c fc3d 0c74 b9bd 50d3 2a3d 608c e6bb
00000180: 00a5 b33d 212f c0bd 5693 8d3d 6edc 1cbd
00000190: a028 adbb b81a 843d eee2 17bd a854 3a3d
000001a0: f8ac 983c 887b f03c 8fdf d3bd 3645 dbbd
000001b0: 08a5 71bd 80f7 d9ba 4c9a 7cbd 0c3d e3bc
000001c0: 5cc8 a93d 1e52 abbd 489e b43c ce34 89bd
000001d0: e0d3 153c 46c2 b33d d407 cdbc 7890 003d
000001e0: 96f2 a9bd 050e f9bd 5c39 043d 5042 213c
000001f0: c858 89bd 94e0 ebbd 901f 5a3d 3220 f63d
00000200: 221c bf3d d012 c1bc 2043 63bc 6a5b f5bd
00000210: d75a e9bd 2045 243d 0a2b e43d 515a dcbd
00000220: aa3f 873d e08c 803d 6c46 073d 95f4 bdbd
00000230: f0dc 123d 0cd1 e2bd fea4 dc3d f06f 38bc
00000240: 403b e4bc 8f29 cfbd 0e18 ee3d aab5 f9bd
00000250: d2a5 1bbd c81a 7d3d e032 9a3c 6ee0 1bbd
00000260: d3dc 8ebd d8b5 933c 72a2 cfbd 3f69 f9bd
00000270: 48e0 4f3d 71a4 b9bd 50ca b9bb a291 ce3d
00000280: 57bb fabd 1e3e d23d d2ff c03d f621 ee3d
00000290: 7468 7cbd 1820 f53c 7a98 f3bd 1216 0dbd
000002a0: 5067 c0bd 1a67 d93d 842d 913d 6bad cdbd
000002b0: f0e5 d13c 7701 86bd ca9c 48bd bf92 d2bd
000002c0: c230 f73d 9c29 d53d da9c 09bd 0e2a 7bbd
000002d0: 2a2e 99bd 46d2 a8bd 08c4 27bd 7268 873d
000002e0: 3ee3 f13d 4a5e 86bd 803a c63b 7a0e c83d
000002f0: d085 433d c242 72bd 08fc d73d 30ff 9cbd
00000300: f480 ce3d ca47 be3d 968d 05bd 1e55 b8bd
00000310: 8037 8f3a 5d2a cebd b6f0 36bd 7626 f83d
00000320: e634 03be 2053 77bd 75ec 013e 408d ff3b
00000330: 5c2f 38bd c65a edbd baa1 e93d 5c74 273d
00000340: c0b2 f1bd 9093 ec3d 15d0 80bd 37c6 84bd
00000350: 2052 1c3c c008 333b f498 ed3d 40bc f23b
00000360: 28a8 f53c dee8 bebd 381f d6bd 98a5 b23d
00000370: 5caa da3d 9068 27bd 2f8e e4bd 80ae beba
00000380: 5e08 f2bd 8035 4c3c 5816 653d f0b7 dd3d
00000390: cebd ef3d dce4 8d3d eed6 fa3d 2cd9 843d
000003a0: cefd dcbd 9b14 013e 1866 863c 70bf 813c
000003b0: 4030 07bd 66f9 7dbd dc7e bd3d a29c fe3d
000003c0: f09d 4b3c 101e 45bc 3c09 23bd 78cb c43c
000003d0: 9074 903d 51d1 cfbd 76f9 f13d a85a 52bd
000003e0: 4e4b a3bd f4da bd3d 7228 08bd 943a 29bd
000003f0: 80d9 4b3d 60f1 1cbd 00e7 493a d0fe 7a3d

bias f4 [128]
-0.08234884 -0.022759177 0.08782558 -0.07556464 -0.11575624 -0.03218109 0.035958573 0.053091183
0.09930913 -0.049381346 -0.060693994 -0.07932545 -0.0150331035 -0.06757569 -0.061725594 -0.11851877
0.099655926 -0.011325993 -0.01179783 0.05981411 -0.09791902 -0.054099225 -0.019076586 0.041260734
-0.0065901056 0.05187656 0.08053571 0.043300033 -0.06386194 0.024441436 -0.03621625 -0.03530135
-0.029830508 0.12590362 -0.028143242 0.0067786127 0.051992998 -0.07096617 -0.1157511 -0.015618004
0.015009671 0.015894726 0.04464601 -0.012087926 0.12440877 0.117314145 0.07578696 0.062171385
0.0242621 -0.03128905 -0.12251962 -0.12384321 0.061294228 0.022108197 0.12870584 -0.08912281
-0.02138488 -4.6283007e-05 -0.047048517 0.073109105 0.0038523525 -0.028136618 0.09271243 -0.04611645
0.03800033 -0.0013263375 -0.039647356 0.0036878586 0.110123575 -0.031034298 0.050978273 -0.12534794
-0.12464701 -0.099470764 0.03105256 0.02639997 0.036625594 0.114879385 -0.09394151 0.048562706
-0.058089077 -0.052352108 -0.11714859 -0.01796662 -0.012274593 0.044360578 0.11395581 -0.03116773
-0.112515435 -0.038005717 0.031760097 0.11411664 0.013743132 -0.1025576 -0.031211898 -0.062694274
0.12269853 0.10886043 -0.024680167 0.02405931 -0.030192658 0.09253062 0.054220483 -0.12659632
0.08682892 0.007772252 0.09910144 -0.050360203 0.12791447 0.066369876 -0.012788996 -0.010711059
0.042762816 0.091791436 -0.09971632 -0.08295567 -0.08283274 0.042583182 -0.039229132 -0.02315636
0.114146754 0.11191711 -0.12434709 0.102690235 -0.0855917 0.090757996 0.12067342 -0.0074177682
00000000: 82a6 a8bd 7471 babc e6dd b33d a2c1 9abd
00000010: 9c11 edbd 52d0 03bd 4c49 133d 2476 593d
00000020: 9662 cb3d 1844 4abd 449a 78bd 6275 a2bd
00000030: 684d 76bc 2065 8abd fad3 7cbd f8b9 f2bd
00000040: 6818 cc3d a890 39bc b04b 41bc a4ff 743d
00000050: c489 c8bd 2697 5dbd 8046 9cbc 0401 293d
00000060: d0f1 d7bb 847c 543d e8ef a43d 605b 313d
00000070: 0cca 82bd 6839 c83c 7e57 14bd 2698 10bd
00000080: 1c5f f4bc e1ec 003e a88c e6bc 201f de3b
00000090: 9cf6 543d b656 91bd ea0e edbd a8e2 7fbc
000000a0: 20eb 753c a835 823c bcde 363d 700c 46bc
000000b0: 06ca fe3d 6642 f03d 3236 9b3d 6ca7 7e3d
000000c0: 50c1 c63c f228 00bd 91eb fabd 82a1 fdbd
000000d0: a80f 7b3d 401c b53c 77cb 033e 0586 b6bd
000000e0: 582f afbc 0020 42b8 f2b5 40bd 3aba 953d
000000f0: c077 7c3b c47e e6bc 04e0 bd3d 9ae4 3cbd
00000100: 3ca6 1b3d 80d8 adba 4465 22bd 00b0 713b
00000110: 7888 e13d a43b febc 98ce 503d 365b 00be
00000120: ee46 ffbd 54b7 cbbd f061 fe3c c044 d83c
00000130: b804 163d e245 eb3d 6864 c0bd b0e9 463d
00000140: d0ee 6dbd 2a6f 56bd 9aeb efbd bc2e 93bc
00000150: 601b 49bc 70b3 353d aa61 e93d 7853 ffbc
00000160: 7e6e e6bd e2ab 1bbd e016 023d fcb5 e93d
00000170: e02a 613c b809 d2bd 18b0 ffbc db65 80bd
00000180: 5e49 fb3d 38f2 de3d 102e cabc 0818 c53c
00000190: 9856 f7bc b280 bd3d 4c16 5e3d 77a2 01be
000001a0: 5cd3 b13d 60ae fe3b b2f5 ca3d 8046 4ebd
000001b0: 03fc 023e eeec 873d f088 51bc 707d 2fbc
000001c0: 1028 2f3d 26fd bb3d 1238 ccbd aae4 a9bd
000001d0: 36a4 a9bd b46b 2e3d baae 20bd 68b2 bdbc
000001e0: c6c5 e93d cc34 e53d b0a9 febd 424f d23d
000001f0: b44a afbd 54df b93d a023 f73d c010 f3bb

weight f4 [64, 128]
-0.061682083 0.058342777 -0.06111845 -0.053514283 0.055885307 0.043292128 0.033038527 -0.0054890066
-0.027069774 0.0061558187 0.009447634 -0.0063062087 0.0724132 0.028881684 0.028875604 -0.008585028
0.013320543 -0.035475444 -0.07180611 -0.01716476 0.07155711 0.043775775 -0.0062657073 -0.02443511
-0.021727167 -0.031938132 0.022399008 -0.021183297 -0.008019768 0.042009585 0.0403981 0.011725366
-0.07999227 0.035485215 -0.04690057 0.060393877 -0.029883347 -0.027632896 0.06455175 -0.039744213
-0.08319067 0.017487288 -0.0032242164 -0.019770198 1.8849969e-06 -0.018067308 -0.05119624 -0.0381247
0.004990779 -0.041036762 -0.06730824 -0.0321509 -0.025977664 0.047681548 0.031714894 -0.0837058
-0.0711519 -0.066103704 0.040847026 -0.054900885 -0.048202917 -0.008472741 0.07575726 -0.000560008
0.035607435 0.04390008 0.043418758 0.055674948 -0.009581044 -0.047752168 -0.022647798 -0.08366965
-0.062852785 0.069336765 0.016291298 -0.07480997 0.060675524 0.06461317 -0.054018445 0.062900014
0.035324685 0.060737334 0.0378185 0.07784713 0.041200154 0.08027322 -0.014742918 0.07548166
-0.0227279 -0.034152053 -0.069508284 0.08204032 0.036101133 0.0014932007 -0.049252193 0.028147496
0.06806151 0.08189895 -0.07736314 0.013403289 0.026661709 -0.039697926 0.07258449 0.03714048
-0.0030712634 0.077702634 0.03621283 -0.038829334 -0.019829527 0.03319513 -0.045121856 -0.01427944
0.02106557 -0.07014613 0.01153598 -0.06380515 -0.07848869 0.03662116 0.036331616 0.044162966
0.018292964 -0.030445546 -0.07112244 -0.08283923 0.05497334 0.053033657 0.058172055 0.014709659
0.001492463 0.087267734 -0.041626807 0.01750169 -0.030729096 -0.08239713 -0.058557976 0.008007936
0.044056155 0.016115561 -0.0064170063 0.06562399 -0.087724626 0.068626575 -0.028908912 -0.07516207
-0.031444963 0.069568045 -0.086603604 -0.007805325 -0.07777581 -0.021650523 0.011979081 -0.07505416
-0.078184724 0.06716441 -0.08630895 0.053361364 0.06661064 -0.042261973 0.070818774 0.039619498
-0.0036533102 -0.04349874 -0.040944546 -0.043032773 0.06306385 0.011577591 0.07625251 -0.004346676
-0.07658924 0.0049311593 0.042923905 0.027930357 -0.022257328 0.0003260374 0.0028633922 0.06985793
0.037842162 -0.047781765 -0.08033575 0.0006804392 0.03667941 -0.016805172 -0.062576756 -0.07756479
0.049899377 -0.03886602 0.009745784 0.0034383535 0.009386733 -0.03006364 0.07767721 -0.06747439
0.0034726262 0.0046186 0.022282667 -0.08802417 -0.06844498 0.047876455 -0.022157729 -0.042917293
-0.02804304 0.0033760592 -0.041402113 -0.03781493 0.040466912 -0.031911496 -0.026251186 -0.024191692
-0.0012424886 -0.046542205 0.04216703 -0.077997506 0.051789336 0.048111536 0.04537577 -0.07082187
0.048412405 -0.07844811 0.0341722 -0.07490794 0.014630951 0.0040612146 0.08146597 0.011731356
0.04672817 0.060252316 -0.0017432049 0.07536597 0.0033092052 0.048705705 -0.0604747 0.043191172
0.06438788 -0.0628403 -0.027154561 -0.08057901 0.009407662 0.07885683 -0.07713282 -0.03865102
-0.06685633 -0.025961034 -0.026319854 0.08679441 -0.007707745 0.028528467 0.08186387 0.03502915
-0.039519772 0.03348176 -0.07830065 0.08211059 0.04098367 0.07028707 -0.067217976 -0.07594291
00000000: 5aa6 7cbd d6f8 6e3d 5757 7abd cb31 5bbd
00000010: fee7 643d 1653 313d 6853 073d 20dd b3bb
00000020: 6ec1 ddbc c0b6 c93b 40ca 1a3c 50a4 cebb
00000030: 5f4d 943d 4899 ec3c 888c ec3c 38a8 0cbc
00000040: 683e 5a3c b34e 11bd 150f 93bd 1c9d 8cbc
00000050: 898c 923d 3a4e 333d 9050 cdbb 242c c8bc
00000060: 2cfd b1bc 8fd1 02bd 207e b73c 9888 adbc
00000070: 5865 03bc 3e12 2c3d 7a78 253d c01b 403c
00000080: fdd2 a3bd f258 113d d01a 40bd 925f 773d
00000090: eccd f4bc 625e e2bc b533 843d d4ca 22bd
000000a0: df5f aabd 8041 8f3c 604d 53bb 1cf5 a1bc
000000b0: 0000 fd35 e401 94bc 26b3 51bd a528 1cbd
000000c0: b089 a33b 2a16 28bd e7d8 89bd aab0 03bd
000000d0: 1ccf d4bc ba4d 433d 7ae7 013d f26d abbd
000000e0: 16b8 91bd 6161 87bd 364f 273d c0df 60bd
000000f0: 6c70 45bd 40d1 0abc 9f26 9b3d 80cd 12ba
00000100: 1ad9 113d 92d0 333d ded7 313d 6a0b 643d
00000110: d0f9 1cbc c797 43bd e087 b9bc fe5a abbd
00000120: f6b8 80bd 6f00 8e3d 5475 853c f835 99bd
00000130: e686 783d e953 843d 7242 5dbd b9d1 803d
00000140: 9eb0 103d b6c7 783d 92e7 1a3d 516e 9f3d
00000150: 7ec1 283d 4966 a43d 488c 71bc 2196 9a3d
00000160: dc2f babc 06e3 0bbd 5c5a 8ebd c104 a83d
00000170: c8de 133d 80b7 c33a abbc 49bd 9495 e63c
00000180: d563 8b3d a3ba a73d 9170 9ebd 7899 5b3c
00000190: a869 da3c 4b9a 22bd 2da7 943d 9e20 183d
000001a0: 4047 49bb 8f22 9f3d e853 143d 820b 1fbd
000001b0: 8871 a2bc 9ef7 073d b2d1 38bd 50f4 69bc
000001c0: b491 ac3c c6a8 8fbd 6801 3d3c 46ac 82bd
000001d0: aebe a0bd 1200 163d 76d0 143d 3ae4 343d
000001e0: 20db 953c f068 f9bc a4a8 91bd 9da7 a9bd
000001f0: ba2b 613d d239 593d d245 6e3d c800 713c
00000200: c09e c33a 6db9 b23d df80 2abd b45f 8f3c
00000210: 96bb fbbc d4bf a8bd 7dda 6fbd b833 033c
00000220: 3a74 343d c804 843c c045 d2bb df65 863d
00000230: f8a8 b3bd 178c 8c3d 62d2 ecbc 92ee 99bd
00000240: 6fcc 00bd b179 8e3d 3b5d b1bd d0c3 ffbb
00000250: ed48 9fbd 705c b1bc e843 443c ffb5 99bd
00000260: 501f a0bd 7f8d 893d bfc2 b0bd 7291 5a3d
00000270: 296b 883d e41a 2dbd 6f09 913d 0e48 223d
00000280: 606c 6fbb bc2b 32bd 78b5 27bd 2243 30bd
00000290: 9f27 813d f0af 3d3c 472a 9c3d 906e 8ebb
000002a0: d2da 9cbd 9095 a13b fad0 2f3d 34ce e43c
000002b0: 0055 b6bc 00f0 aa39 c0a7 3b3b ad11 8f3d
000002c0: 6200 1b3d d0b6 43bd 1287 a4bd 805f 323a
000002d0: 263d 163d 00ab 89bc 3e28 80bd 4ada 9ebd
000002e0: 4a63 4c3d fa31 1fbd c8ac 1f3c 0056 613b
000002f0: d0ca 193c 0648 f6bc 3b15 9f3d 0330 8abd
00000300: 0095 633b a057 973b 248a b63c 0446 b4bd
00000310: e22c 8cbd 1a1a 443d 2084 b5bc 0bca 2fbd
00000320: 84ba e5bc e040 5d3b 4395 29bd d4e3 1abd
00000330: a2c0 253d a1b5 02bd ba0c d7bc a82d c6bc
00000340: 00db a2ba 0aa3 3ebd 56b7 2c3d 28bd 9fbd
00000350: 0e21 543d 9a10 453d f2db 393d 0e0b 91bd
00000360: 164c 463d 67a9 a0bd 26f8 0b3d 5669 99bd
00000370: a8b6 6f3c f013 853b a1d7 a63d e034 403c
00000380: 0a66 3f3d 22cb 763d 407c e4ba 7959 9a3d
00000390: 40df 583b a27f 473d 52b4 77bd 3ae9 303d
000003a0: cbdd 833d 6ab2 80bd 3e73 debc 9c06 a5bd
000003b0: 9822 1a3c b17f a13d d0f7 9dbd 8850 1ebd
000003c0: f9eb 88bd 3cac d4bc bc9c d7bc 45c1 b13d
000003d0: 4091 fcbb 88b4 e93c 3fa8 a73d ba7a 0f3d
000003e0: 7cdf 21bd 2c24 093d 175c a0bd 9929 a83d
000003f0: 7ede 273d abf2 8f3d 94a9 89bd f587 9bbd

bias f4 [64]
0.03921526 -0.03476678 -0.019388765 0.07239317 0.060537465 -0.071658745 0.044261597 0.0012210906
-0.06293503 0.07121646 -0.055608973 0.05306693 -0.02506654 0.052770756 -0.042784054 -0.0717159
-0.03142294 -0.025898386 0.060352035 0.0048971996 0.057735898 0.05699896 0.033621386 -0.06973052
0.049279355 0.04662665 -0.081711814 0.044724934 -0.07838953 -0.014554337 -0.058311787 0.08008311
0.028860994 -0.08726924 -0.07936283 0.003914483 0.016196527 0.014825597 -0.08164387 -0.05915072
-0.055217303 0.06574572 0.051354818 0.045851506 0.054118983 -0.020604677 -0.005412087 0.08764533
-0.04643413 -0.01990445 -0.024337754 0.06363059 0.044704862 0.054995038 0.07631045 -0.056993358
-0.067825355 0.07636405 -0.025456868 0.05956579 -0.042479724 -0.05851937 -0.0105137825 0.04388889
00000000: 2ea0 203d 9c67 0ebd 30d5 9ebc df42 943d
00000010: 22f6 773d d2c1 92bd a64b 353d 000d a03a
00000020: 15e4 80bd efd9 913d 3cc6 63bd b65c 593d
00000030: 5858 cdbc 2626 583d 553e 2fbd c9df 92bd
00000040: 57b5 00bd da28 d4bc b233 773d b078 a03b
00000050: 7a7c 6c3d be77 693d 94b6 093d e0ce 8ebd
00000060: 26d9 493d 96fb 3e3d 8658 a7bd 7e31 373d
00000070: b18a a0bd 5075 6ebc 57d8 6ebd 9d02 a43d
00000080: e46d ec3c 37ba b2bd fb88 a2bd 1045 803b
00000090: 94ae 843c 10e7 723c e734 a7bd 0648 72bd
000000a0: 8a2b 62bd b1a5 863d 6e59 523d cace 3b3d
000000b0: deab 5d3d 24cb a8bc e057 b1bb 657f b33d
000000c0: b731 3ebd a80e a3bc f85f c7bc c150 823d
000000d0: 721c 373d 7a42 613d a748 9c3d de71 69bd
000000e0: 05e8 8abd c164 9c3d ec8a d0bc 42fb 733d
000000f0: 38ff 2dbd 02b2 6fbd 0042 2cbc d6c4 333d

weight f4 [2, 64]
0.033648655 -0.07510783 -0.113287255 0.10228671 0.011668533 -0.08282678 -0.08359514 -0.08929081
-0.11554548 0.09952836 0.0666053 -0.045584753 -0.05856274 0.09390183 0.050051212 -0.11879204
0.086056754 0.058461964 0.022128224 0.06883451 -0.11223826 0.08979753 0.047288075 -0.053443253
-0.08673288 0.11776009 0.07232493 -0.01365824 -0.002539292 0.111493275 0.08363873 -0.095281765
-0.051329955 0.124086455 -0.07892546 -0.06669177 0.090675935 -0.050664797 -0.006012842 0.12187965
0.023685187 0.028354436 -0.024856418 -0.025912926 0.10274568 -0.0005066693 -0.07941769 0.029305786
-0.09850219 0.07023364 -0.046206594 -0.06874518 -0.061280116 0.03437805 -0.124077976 0.026980042
-0.015718132 -0.0378699 0.05040741 0.06455867 0.020969555 -0.050555244 0.0051056296 0.097133696
0.038874984 -0.11896297 -0.03813295 0.104059815 0.01646775 0.019938514 0.051577717 -0.09771857
0.12336093 -0.0033373982 0.1091364 -0.10239901 0.004248008 -0.048521504 -0.01142332 -0.0228315
0.086511105 -0.07618198 -0.013103306 0.024310857 -0.013254508 0.11776832 0.09524378 0.08083886
0.035820425 -0.10639478 -0.048441976 -0.06413412 -0.034034446 0.079072654 0.10069038 0.11997913
0.07306911 -0.032846913 0.122486785 0.09337181 -0.067678496 0.045630693 0.03081432 -0.108805254
0.086029544 0.024908558 -0.07165195 0.047140896 0.067104846 -0.11866374 0.091567084 -0.0104806125
0.10155219 -0.03028883 0.062446684 -0.03563848 0.033522084 -0.045868024 0.054514974 -0.10529113
0.09956643 -0.021025449 -0.11552958 -0.08884537 0.032172292 -0.08593482 0.11148122 0.057348117
00000000: 2cd3 093d 22d2 99bd 2603 e8bd b27b d13d
00000010: 602d 3f3c 16a1 a9bd ee33 abbd 1ade b6bd
00000020: 1ca3 ecbd 86d5 cb3d 5c68 883d 14b7 3abd
00000030: 7cdf 6fbd 9a4f c03d 8002 4d3d 3e49 f3bd
00000040: 863e b03d d075 6f3d 4046 b53c 1cf9 8c3d
00000050: 2cdd e5bd c4e7 b73d 24b1 413d 50e7 5abd
00000060: 02a1 b1bd 342c f13d 181f 943d d0c6 5fbc
00000070: 406a 26bb 9656 e43d c84a ab3d 1623 c3bd
00000080: 5c3f 52bd 0a21 fe3d aca3 a1bd b295 88bd
00000090: 4eb4 b93d e485 4fbd 6007 c5bb 0a9c f93d
000000a0: 7007 c23c 9047 e83c b09f cbbc 5847 d4bc
000000b0: 546c d23d 00d2 04ba bea5 a2bd b012 f03c
000000c0: 84bb c9bd a8d6 8f3d 2043 3dbd 46ca 8cbd
000000d0: dc00 7bbd 00d0 0c3d 981c febd 4005 dd3c
000000e0: 50c3 80bc 781d 1bbd 0078 4e3d 5637 843d
000000f0: 58c8 ab3c 0413 4fbd 204d a73b 08ee c63d
00000100: 603b 1f3d dca2 f3bd 4c31 1cbd 501d d53d
00000110: 60e7 863c 1856 a33c 2843 533d ac20 c8bd
00000120: a8a4 fc3d 40b8 5abb e882 df3d 92b6 d1bd
00000130: e032 8b3b 7cbe 46bd e028 3bbc 2009 bbbc
00000140: bc2c b13d 4c05 9cbd 40af 56bc 9027 c73c
00000150: 7029 59bc 8430 f13d 2c0f c33d d88e a53d
00000160: 70b8 123d 82e5 d9bd 186b 46bd c058 83bd
00000170: b467 0bbd d8f0 a13d c236 ce3d 9eb7 f53d
00000180: 42a5 953d 7c8a 06bd 5ada fa3d b839 bf3d
00000190: 069b 8abd 40e7 3a3d 506e fc3c 4ad5 debd
000001a0: 4230 b03d 080d cc3c 42be 92bd d016 413d
000001b0: 446e 893d fa05 f3bd 8687 bb3d e0b6 2bbc
000001c0: 98fa cf3d 4820 f8bc 18c8 7f3d a8f9 11bd
000001d0: 744e 093d 1ce0 3bbd 184b 5f3d e0a2 d7bd
000001e0: 7ce9 cb3d 903d acbc c69a ecbd 90f4 b5bd
000001f0: 18c7 033d 98fe afbd 4450 e43d dce5 6a3d

bias f4 [2]
0.0063278377 -0.047509998
00000000: c059 cf3b d899 42bd
