models/model1.onnx (onnx, 67637 bytes, 6 tensors)

linear1.weight f4 [128, 60]
-0.12771904 -0.08592403 -0.029058062 0.11478944 -0.07382953 -0.080689594 0.029110476 -0.09939315
-0.05640529 -0.084504604 -0.029389016 0.0404696 -0.0032897294 0.10264632 -0.048875436 0.109999165
0.10669686 0.028621629 -0.048255533 0.036822036 -0.021260947 0.013848484 0.12542675 -0.11553217
-0.014256187 -0.05783134 0.100751996 -0.07720688 -0.12076684 -0.113788 0.029647827 -0.07786523
0.10151434 0.051679075 -0.12611032 0.09950361 -0.0896362 0.008930042 0.097521394 0.08581865
-0.03977292 -0.09884398 -0.056151435 -0.045769654 0.097728685 -0.054392003 -0.06081391 -0.024362274
-0.08704492 -0.03555359 -0.094931416 0.041405782 -0.074998766 -0.0425049 -0.022453427 0.122010544
0.105661705 -0.05588542 0.010867447 -0.0043295175 -0.117385305 -0.08726687 0.11125015 0.071040645
0.101049855 -0.050811507 -0.11774929 -0.0056086034 -0.052217923 -0.018080033 0.09987061 0.05905725
0.00049601495 0.12418561 0.03090839 -0.0438376 0.008220047 -0.013073325 0.09931578 -0.015558943
-0.10056224 0.009867892 0.010889277 0.11761001 0.08108409 -0.05174847 -0.024219736 -0.08370613
-0.03663136 -0.118168294 -0.12361858 -0.12118064 -0.018918395 0.12415673 0.044933677 -0.0634459
-0.102988355 0.015126318 0.07459816 0.054173693 -0.0751705 -0.030924536 -0.04092779 -0.1266599
0.09343651 -0.04184013 0.0004594922 -0.0366505 0.06714085 -0.006371677 0.10148509 0.0066423267
-0.12511717 0.031258807 0.07079084 -0.075165994 -0.046706863 0.026328921 -0.08809267 0.06564382
-0.010014072 0.014055893 0.10836296 -0.082352735 -0.028287292 0.07876073 -0.122480884 -0.019418612
0.00028663874 -0.09404027 -0.046500407 -0.094454825 -0.036873102 0.04628575 -0.043013252 0.03686659
0.0015987754 0.033945575 0.052766144 0.00030207634 -0.06935945 0.07940219 -0.10956649 -0.06461613
0.005623102 0.06519264 0.074398756 -0.09385754 -0.12841274 0.030815423 0.070152774 0.01284039
-0.113570094 0.010096386 0.02587545 0.10440013 -0.034019917 -0.057978794 0.10271761 -0.075797305
0.092415914 0.09586893 -0.0012210459 -0.105180874 -0.113174796 0.08557783 -0.050723158 -0.010526426
-0.03079734 0.0077276975 -0.11182766 -0.03641113 -0.09685924 0.10171372 -0.06988184 0.024397925
-0.102926 0.0015972704 -0.12349135 -0.04144632 -0.03632778 -0.11461247 0.034093708 0.017290264
0.040710628 -0.11864246 -0.012563936 0.12356086 0.040498212 -0.10947934 0.1187927 -0.03625545
0.056972608 0.10541834 -0.019874752 0.02599001 -0.034552976 0.04953572 -0.029394113 0.002317533
-0.11294669 -0.0112914145 -0.11738115 -0.10803689 2.129376e-05 -0.0017153323 0.065425456 0.0048778057
-0.10732474 -0.056544103 0.03753744 0.02782835 -0.02646996 0.056519493 -0.10931628 -0.02025742
-0.089633584 -0.039889254 0.052794456 -0.12586378 0.03677249 -0.12443604 -0.078225315 -0.0633232
0.06115468 0.03547536 0.08304374 -0.021004654 -0.025441043 -0.09870143 -0.10224794 -0.07857458
0.002870679 0.018379495 -0.108791366 -0.06824095 -0.07239542 0.07832681 0.020121872 -0.06973827
0.12521748 -0.1252361 -0.070582144 0.036812156 -0.027444728 0.043253615 -0.08610923 -0.07362284
-0.05623506 -0.11732852 -0.08412235 0.12414946 0.06430116 0.052914515 -0.1093898 -0.10336687
00000000: c8c8 02be f0f8 afbd 2c0b eebc ba16 eb3d
00000010: f033 97bd 9640 a5bd 1879 ee3c a38e cbbd
00000020: 3c09 67bd c010 adbd 3cc1 f0bc 74c3 253d
00000030: 8098 57bb 3c38 d23d 9c31 48bd 3e47 e13d
00000040: e283 da3d e877 ea3c 98a7 45bd b4d2 163d
00000050: 702b aebc c0e4 623c df6f 003e 219c ecbd
00000060: c892 69bc 8ee0 6cbd 1057 ce3d a41e 9ebd
00000070: 9b54 f7bd af09 e9bd 00e0 f23c ce77 9fbd
00000080: c0e6 cf3d 70ad 533d 1023 01be 8cc8 cb3d
00000090: 2f93 b7bd 504f 123c 4cb9 c73d b0c1 af3d
000000a0: eee8 22bd b66e cabd 0cff 65bd f678 3bbd
000000b0: fa25 c83d 26ca 5ebd 0218 79bd 6493 c7bc
000000c0: 9b44 b2bd a4a0 11bd 676b c2bd 1c99 293d
000000d0: f498 99bd 9e19 2ebd 40f0 b7bc aae0 f93d
000000e0: 2a65 d83d 1ce8 64bd 600d 323c a0de 8dbb
000000f0: b567 f0bd f9b8 b2bd 1ed7 e33d c27d 913d
00000100: 3af3 ce3d ba1f 50bd 8a26 f1bd 60c8 b7bb
00000110: 76e2 55bd 941c 94bc f688 cc3d 04e6 713d
00000120: 0007 023a 0655 fe3d 9833 fd3c 0e8f 33bd
00000130: 60ad 063c 8031 56bc 1266 cb3d f0ea 7ebc
00000140: 93f3 cdbd f0ac 213c f068 323c 84dd f03d
00000150: 6a0f a63d 34f6 53bd 7868 c6bc 1f6e abbd
00000160: c40a 16bd 3802 f2bd bd2b fdbd 8e2d f8bd
00000170: c0fa 9abc e245 fe3d 600c 383d edef 81bd
00000180: 8feb d2bd 60d4 773c ecc6 983d 3ce5 5d3d
00000190: fef2 99bd 7455 fdbc e6a3 27bd 22b3 01be
000001a0: a45b bf3d 8e60 2bbd 00e8 f039 d61e 16bd
000001b0: 2481 893d 80c9 d0bb 6ad7 cf3d e0a7 d93b
000001c0: b71e 00be 3c09 003d cafa 903d a1f0 99bd
000001d0: b24f 3fbd c0af d73c ee69 b4bd 4470 863d
000001e0: 1012 24bc b04a 663c 66ed dd3d 8da8 a8bd
000001f0: c0ba e7bc 4e4d a13d 42d7 fabd c813 9fbc
00000200: 0048 9639 2f98 c0bd 3677 3ebd 8871 c1bd
00000210: 4008 17bd 2096 3d3d aa2e 30bd 6c01 173d
00000220: 008e d13a 840a 0b3d 5021 583d 0060 9e39
00000230: 540c 8ebd 9e9d a23d 6564 e0bd 7655 84bd
00000240: 0042 b83b b883 853d 605e 983d 6238 c0bd
00000250: a17e 03be a070 fc3c 42ac 8f3d 8060 523c
00000260: 7097 e8bd 506b 253c c0f8 d33c bccf d53d
00000270: 7858 0bbd 2c7b 6dbd 9c5d d23d 9e3b 9bbd
00000280: 8e44 bd3d ee56 c43d 800b a0ba 1269 d7bd
00000290: 30c8 e7bd 6e43 af3d 16c3 4fbd 0877 2cbc
000002a0: b44a fcbc a038 fd3b e605 e5bd d623 15bd
000002b0: 235e c6bd 484f d03d 361e 8fbd 28de c73c
000002c0: deca d2bd 805b d13a 08e9 fcbd 9ec3 29bd
000002d0: 70cc 14bd f1b9 eabd d8a5 0b3d 50a4 8d3c
000002e0: 30c0 263d d1fa f2bd f8d8 4dbc 7a0d fd3d
000002f0: 74e1 253d b436 e0bd 9649 f33d 9880 14bd
00000300: 1c5c 693d 92e5 d73d 60d0 a2bc 00e9 d43c
00000310: 6c87 0dbd f8e5 4a3d eccb f0bc c0e1 173b
00000320: 9850 e7bd a0ff 38bc 8765 f0bd 7242 ddbd
00000330: 00a0 b237 00d5 e0ba c8fd 853d 00d6 9f3b
00000340: 13cd dbbd ca9a 67bd dcc0 193d 48f8 e33c
00000350: 88d7 d8bc fc80 673d 37e1 dfbd e4f2 a5bc
00000360: d091 b7bd ea62 23bd 003f 583d 6fe2 00be
00000370: c09e 163d 53d8 febd 9834 a0bd 98af 81bd
00000380: 547d 7a3d 9c4e 113d d612 aa3d f411 acbc
00000390: bc69 d0bc fa23 cabd 5e67 d1bd b6eb a0bd
000003a0: 0022 3c3b 9890 963c 02ce debd e9c1 8bbd
000003b0: 0d44 94bd ce69 a03d a0d6 a43c f0d2 8ebd
000003c0: 0339 003e e43d 00be 5f8d 90bd 58c8 163d
000003d0: c4d3 e0bc b42a 313d 095a b0bd 92c7 96bd
000003e0: bc56 66bd ef49 f0bd 5748 acbd 1242 fe3d
000003f0: 54b0 833d e4bc 583d c207 e0bd 02b2 d3bd

linear1.bias f4 [128]
0.05194512 0.12628452 -0.103136174 -0.03179907 -0.08435836 -0.04860068 0.05126044 0.12284933
-0.024174333 0.015591547 -0.015487023 -0.05844035 -0.07969934 -0.12770933 0.075777754 -0.062888436
-0.0049181506 0.10325894 0.07356425 0.029962286 0.12033495 -0.097302034 -0.087136805 0.075161725
0.094831765 0.04916668 0.105444446 0.018563256 0.06367229 -0.07239549 -0.048758857 -0.045840323
0.05916126 0.010817274 0.011821181 -0.0019557923 0.071301356 0.05313854 0.046602815 -0.08112749
0.0033753365 0.07420415 -0.10353564 0.10934006 0.09381591 0.06513043 -0.06677416 0.018539563
0.1194596 0.023479402 0.05168158 -0.0022312552 0.1285957 -0.0104629025 -0.050710887 0.07050343
-0.089299396 -0.0951104 -0.034248732 -0.017167322 0.04967089 -0.09826948 -0.10726206 0.04810168
0.051220253 -0.025241695 -0.018838212 -0.025301889 0.029515505 0.03460607 -0.03861534 -0.022002548
-0.114579275 -0.10419666 -0.001855284 -0.047877923 0.047977418 -0.030110374 0.11797437 -0.06288317
0.03774862 -0.090140894 -0.09505573 0.12867205 0.04541038 0.11782001 0.03950526 -0.06233237
0.022630781 -0.012666188 0.103937164 -0.050755583 0.034343943 0.064576775 0.0057282746 0.079306096
0.0919642 -0.031370908 0.014221773 0.0034258366 -0.05619052 0.06937662 -0.09813401 0.05610755
0.01742813 0.065200046 -1.296401e-06 0.035962805 -0.0044006184 0.11457048 -0.06734535 0.08337079
-0.10536964 0.10332622 -0.022784479 0.110619664 -0.08523384 -0.106758595 -0.033709608 -0.0013157874
0.05646482 -0.118192345 0.018369183 0.023948863 0.036673933 -0.09086952 0.12508 0.11959033
00000000: 68c4 543d bb50 013e 0f39 d3bd be3f 02bd
00000010: 13c4 acbd 8211 47bd 78f6 513d 6e98 fb3d
00000020: 4009 c6bc b073 7f3c 48bd 7dbc 265f 6fbd
00000030: 6839 a3bd 3cc6 02be 5e31 9b3d a7cb 80bd
00000040: 7028 a1bb 6c79 d33d daa8 963d 7873 f53c
00000050: 2c72 f63d 4a46 c7bd c874 b2bd 64ee 993d
00000060: 2837 c23d 0063 493d 42f3 d73d f811 983c
00000070: 9e66 823d 1644 94bd 5eb7 47bd 10c3 3bbd
00000080: 1453 723d f03a 313c a0ad 413c c02c 00bb
00000090: 7206 923d cca7 593d 98e2 3e3d 2b26 a6bd
000000a0: c034 5d3b 58f8 973d 7e0a d4bd aeed df3d
000000b0: 8e22 c03d 1a63 853d e4c0 88bd 48e0 973c
000000c0: 3ca7 f43d e057 c03c 10b0 533d 403a 12bb
000000d0: 97ae 033e 986c 2bbc 38b6 4fbd 1a64 903d
000000e0: 9ae2 b6bd 3ec9 c2bd 6648 0cbd 7ca2 8cbc
000000f0: b473 4b3d 8241 c9bd 36ac dbbd 4406 453d
00000100: 54cc 513d acc7 cebc 9852 9abc e845 cfbc
00000110: 80ca f13c 18bf 0d3d 1e2b 1ebd b03e b4bc
00000120: 8aa8 eabd 0f65 d5bd 002d f3ba a41b 44bd
00000130: f883 443d 08aa f6bc 8c9c f13d e4c8 80bd
00000140: 4c9e 1a3d ca9b b8bd 94ac c2bd 9bc2 033e
00000150: 3c00 3a3d 9e4b f13d 44d0 213d 3a50 7fbd
00000160: 3064 b93c d885 4fbc 02dd d43d 16e5 4fbd
00000170: 3cac 0c3d d440 843d 40b4 bb3b 3c6b a23d
00000180: ba57 bc3d c87e 00bd 7002 693c 0084 603b
00000190: 0828 66bd 5415 8e3d 7cfa c8bd 08d1 653d
000001a0: 70c5 8e3c 9a87 853d 0000 aeb5 bc4d 133d
000001b0: 1033 90bb eea3 ea3d 5cec 89bd 4ebe aa3d
000001c0: 0acc d7bd b29c d33d 84a6 babc 908c e23d
000001d0: 148f aebd 40a4 dabd 1613 0abd 8076 acba
000001e0: a847 673d d40e f2bd f87a 963c 6830 c43c
000001f0: 6837 163d cd19 babd f914 003e c6eb f43d

linear2.weight f4 [64, 128]
-0.076222815 0.054721437 -0.05848758 -0.07684393 -0.059293322 -0.008419864 -0.03263182 0.02084697
0.087453954 0.064168714 0.04226183 0.050058417 0.036887832 0.032777965 0.0064741597 0.03924685
0.020801924 -0.08440096 -0.011620969 -0.07565036 -0.07237775 -0.052243315 0.087935545 -0.08373975
0.024324656 0.023286998 0.07495431 0.061812215 0.02969098 0.069203995 -0.07755041 0.04737187
-0.021444425 0.07420359 -0.07480419 0.04472422 0.030630633 -0.079058215 0.045083813 -0.016290493
0.053277306 0.010661297 -0.058977444 -0.054497432 -0.036533035 0.047478713 0.0104345605 -0.029244192
0.066293485 -0.07786992 0.026762597 0.05099576 -0.010124929 0.025690682 0.08382391 -0.08472127
0.029751956 0.053962655 0.0044991374 -0.082304165 0.08598033 -0.02017358 -0.044521548 -0.052024215
0.036984913 -0.02212131 -0.031605646 -0.06263393 0.0005910173 -0.07284655 0.0066835657 -0.027377285
-0.014332004 0.03552822 -0.08194933 -0.04747879 0.009299561 -0.03652631 0.005429849 -0.016758874
0.029099405 0.02483271 -0.056865856 0.06357335 0.017314494 -0.012300514 -0.035809446 0.050601818
0.016410783 -0.020937718 0.04860162 0.059796013 -0.05877904 -0.01192072 -0.03591568 -0.034761056
0.031259537 -0.07845694 0.0665895 0.071340986 0.03052748 0.049365334 -0.044897668 -0.037446696
-0.015043274 -0.047792725 -0.087732986 0.024076216 0.058987804 -0.07772403 0.08002656 0.025952324
-0.07497056 0.05940094 0.037370823 0.02781561 -0.04761993 0.0015350804 -0.0155032575 -0.078919604
-0.046757754 -0.081735454 -0.067070775 -0.0302831 0.04898236 0.049617223 -0.022078373 0.042194135
0.011984266 -0.056138683 0.00039011985 -0.07411763 -0.0026572421 -0.08766294 0.07782742 0.04177188
0.01873067 -0.027341723 -0.01980906 -0.008464277 -0.025878578 -0.038093418 0.0019707233 -0.071460366
0.06609238 0.0010593161 0.047650136 0.019579507 -0.035545513 -0.06902265 -0.05080756 -0.07404011
-0.048519365 0.010280356 -0.031046085 -0.061670333 0.083937444 -0.03600418 0.063577004 -0.05918273
-0.024473518 -0.03758418 -0.010972887 0.04944717 -0.019022137 0.02453351 0.07217956 -0.02115681
0.023926206 -0.007049471 0.080359705 -0.0670984 -0.07482528 0.068298854 0.045089923 -0.062417142
0.04821264 -0.087909676 -0.05867364 -0.034095313 -0.05348573 0.06394976 -0.03276632 -0.07522011
0.04249621 -0.07008771 0.003564708 0.07750132 0.003629066 0.015681662 0.040344335 -0.057249907
0.036524154 0.06736613 -0.06482972 -0.01282727 -0.058317065 0.00991144 0.07209719 0.028661057
0.00054410845 0.052856453 0.06614537 -0.07185868 -0.08797681 0.038022377 0.068610586 -0.039047834
-0.033453334 -0.025226645 0.074299775 0.06416253 0.05072231 0.038069777 -0.0076718554 -0.061840102
-0.011492677 -0.06427821 0.053030558 -0.036525175 0.027038127 -0.076236054 0.05204376 0.073373206
-0.044169705 -0.08188002 -0.024566114 -0.01350262 0.01026848 -0.0051073954 -0.054112855 -0.07443666
0.040129893 0.05836775 0.034754097 0.030409507 -0.0147362575 0.0028333515 0.028223753 -0.079740606
0.0061002076 -0.047522783 -0.08457899 0.074589096 0.06448191 -0.048980042 -0.08257478 0.02522634
-0.027569707 0.017226025 0.06290657 -0.013509497 -0.038380235 -0.03420127 0.067124896 -0.024514131
00000000: b51a 9cbd 9623 603d ac90 6fbd 5a60 9dbd
00000010: 8edd 72bd 78f3 09bc f1a8 05bd 44c7 aa3c
00000020: 0f1b b33d e36a 833d be1a 2d3d 0e0a 4d3d
00000030: b217 173d 3042 063d 3025 d43b 4ec1 203d
00000040: cc68 aa3c 69da acbd e065 3ebc 93ee 9abd
00000050: c93a 94bd 16fd 55bd 8d17 b43d bf7f abbd
00000060: 8044 c73c 60c4 be3c a581 993d ce2e 7d3d
00000070: 803a f33c d3ba 8d3d c0d2 9ebd 0209 423d
00000080: 38ac afbc 0df8 973d f032 99bd be30 373d
00000090: 18ed fa3c 46e9 a1bd cea9 383d a473 85bc
000000a0: 4e39 5a3d b8ac 2e3c 5592 71bd b338 5fbd
000000b0: aaa3 15bd 0a79 423d b8f5 2a3c 8491 efbc
000000c0: e1c4 873d 447a 9fbd 3c3d db3c eee0 503d
000000d0: 08e3 25bc 4475 d23c dfab ab3d 5882 adbd
000000e0: 60ba f33c f207 5d3d 806d 933b 168f a8bd
000000f0: 7516 b03d 1043 a5bc 3a5c 36bd 5817 55bd
00000100: 7e7d 173d c037 b5bc ec74 01bd 3846 80bd
00000110: 80ee 1a3a 9230 95bd d001 db3b 5446 e0bc
00000120: c8d0 6abc 0a86 113d 0dd5 a7bd 1f79 42bd
00000130: 305d 183c 9d9c 15bd e0ec b13b e849 89bc
00000140: e061 ee3c f86d cb3c 2cec 68bd bf32 823d
00000150: 20d7 8d3c 1888 49bc edac 12bd da43 4f3d
00000160: e86f 863c 9485 abbc 7e12 473d aaec 743d
00000170: 4ac2 70bd 204f 43bc 521c 13bd 9c61 0ebd
00000180: 000a 003d 08ae a0bd 1360 883d 391b 923d
00000190: c414 fa3c 4e33 4a3d 9ee6 37bd b561 19bd
000001a0: 1078 76bc 4ec2 43bd 5aad b3bd 7c3b c53c
000001b0: 329d 713d c72d 9fbd f7e4 a33d f899 d43c
000001c0: 2a8a 99bd 664e 733d 2612 193d 90dd e33c
000001d0: 1e0d 43bd c034 c93a 6001 7ebc 9aa0 a1bd
000001e0: 0f85 3fbd eb64 a7bd 675c 89bd 4414 f8bc
000001f0: baa1 483d 6e3b 4b3d b4dd b4bc c2d3 2c3d
00000200: a859 443c adf1 65bd 0089 cc39 fcca 97bd
00000210: 2025 2ebb a188 b3bd fb63 9f3d fe18 2b3d
00000220: 1071 993c c0fb dfbc 9c46 a2bc c0ad 0abc
00000230: 50ff d3bc d807 1cbd 4027 013b d059 92bd
00000240: 715b 873d c0d8 8a3a ca2c 433d 3465 a03c
00000250: 2c98 11bd bf5b 8dbd 971b 50bd 57a2 97bd
00000260: 3ebc 46bd f06e 283c 5c54 febc 089a 7cbd
00000270: 65e7 ab3d 1e79 13bd a934 823d 9769 72bd
00000280: b07c c8bc def1 19bd a0c7 33bc 1e89 4a3d
00000290: 50d4 9bbc 80fa c83c e1d2 933d 0c51 adbc
000002a0: e400 c43c 40ff e6bb a193 a43d e36a 89bd
000002b0: ff3d 99bd 45e0 8b3d 36b0 383d 1ea9 7fbd
000002c0: 9e7a 453d fd09 b4bd c553 70bd 87a7 0bbd
000002d0: da13 5bbd 17f8 823d fa35 06bd 000d 9abd
000002e0: 8210 2e3d 258a 8fbd e09d 693b 03b9 9e3d
000002f0: a0d5 6d3b d476 803c 1a40 253d e17e 6abd
00000300: 5a9a 153d 41f7 893d 72c5 84bd 7829 52bc
00000310: e0dd 6ebd 9863 223c b1a7 933d 98ca ea3c
00000320: 80a2 0e3a 0280 583d 3977 873d a52a 93bd
00000330: 302d b4bd 5abd 1b3d b583 8c3d 9ff0 1fbd
00000340: 5d06 09bd 1ca8 cebc 7b2a 983d a567 833d
00000350: 32c2 4f3d 0eef 1b3d 3064 fbbb 0c4c 7dbd
00000360: c84b 3cbc 4ba4 83bd 9236 593d 6c9b 15bd
00000370: 107f dd3c a621 9cbd d62b 553d b144 963d
00000380: 4beb 34bd b6b0 a7bd e03e c9bc 183a 5dbc
00000390: 203d 283c f05b a7bb 71a5 5dbd 3f72 98bd
000003a0: 3e5f 243d 0613 6f3d 505a 0e3d 5c1d f93c
000003b0: 5870 71bc c0af 393b 8035 e73c 0b4f a3bd
000003c0: 40e4 c73b 40a7 42bd c037 adbd 2bc2 983d
000003d0: 170f 843d 4c9f 48bd f71c a9bd 78a7 ce3c
000003e0: ded9 e1bc 981d 8d3c 29d5 803d f056 5dbc
000003f0: 9834 1dbd a216 0cbd c778 893d dcd1 c8bc

linear2.bias f4 [64]
-0.07421207 0.02928947 0.05419173 0.03123352 -0.02035132 0.018408291 -0.016994916 -0.020902075
0.081206866 -0.00538747 0.08755142 0.05918861 0.04173789 0.019251503 -0.020456024 0.08655047
0.08785132 0.021131419 0.06830219 -0.048432417 -0.010407455 -0.027391173 -0.028142966 -0.018410884
0.01691512 0.025658093 0.07294869 -0.0821407 0.036204778 -0.00018024445 -0.08459055 0.00866726
-0.07061425 -0.06555804 -0.07409376 0.034220554 -0.005468078 0.0014502704 -0.056261797 -0.049417168
-0.036408238 0.04670199 0.048257254 0.010250717 -0.054480553 0.07535293 0.024756163 0.040882163
-0.08189945 -0.05874437 0.04015141 -0.02631018 -0.05499839 -0.048437465 -0.07749883 -0.051603843
-0.07287465 -0.041882586 0.08776171 -0.04417999 0.07293283 0.02930957 0.00025514513 0.015225187
00000000: 7ffc 97bd 78f0 ef3c 26f8 5d3d 70dd ff3c
00000010: d0b7 a6bc fccc 963c ec38 8bbc d43a abbc
00000020: c94f a63d 6089 b0bb 294e b33d c26f 723d
00000030: 5af5 2a3d 54b5 9d3c 6493 a7bc 5f41 b13d
00000040: 65eb b33d cc1b ad3c 05e2 8b3d 1261 46bd
00000050: 0884 2abc 7463 e0bc 148c e6bc 6cd2 96bc
00000060: 9491 8a3c ec30 d23c 1f66 953d 6239 a8bd
00000070: 764b 143d 0000 3db9 cf3d adbd 2001 0e3c
00000080: 349e 90bd 4b43 86bd 78be 97bd da2a 0c3d
00000090: 902d b3bb 0017 be3a c572 66bd a869 4abd
000000a0: ce20 15bd 964a 3f3d 66a9 453d a0f2 273c
000000b0: 0027 5fbd a352 9a3d 70cd ca3c 0e74 273d
000000c0: e6ba a7bd f09d 70bd ce75 243d 7288 d7bc
000000d0: fe45 61bd 5d66 46bd b5b7 9ebd 8d5e 53bd
000000e0: 4e3f 95bd 138d 2bbd 69bc b33d 14f6 34bd
000000f0: cf5d 953d a01a f03c 00c5 8539 1073 793c

linear3.weight f4 [10, 64]
0.10026005 0.11929439 0.05537671 0.016437337 0.07902992 -0.027737588 -0.06870195 -0.10286327
-0.00064212084 -0.06183517 0.035431504 0.116027564 0.055195287 0.0015283823 -0.038011253 -0.032370478
0.06572206 -0.09424643 -0.013671577 -0.042141855 0.05806531 0.0754364 0.07826425 -0.07940586
0.11618486 -0.04847282 0.07994063 -0.08919917 -0.04576336 -0.005679399 -0.01824826 -0.079021364
-0.09580015 -0.052391052 0.10390283 -0.10418564 -0.059962362 0.005143851 -0.12109557 -0.11623573
-0.07767284 0.00062309206 -0.070424125 -0.115341425 -0.117678225 0.056998283 -0.10637584 0.054420814
-0.005519554 0.07715821 0.060313836 0.10757044 0.048095897 0.12188935 0.10558154 -0.11528005
-0.09568964 -0.09113726 -0.06153141 -0.05010119 -0.08636324 -0.06399518 -0.04305996 -0.037477598
0.08422491 -0.0822749 0.04623528 -0.05872698 0.0280125 0.07372834 -0.092334345 -0.07796718
-0.054530248 0.114636034 -0.108713046 0.064234674 -0.012149066 0.06701207 0.11009155 -0.10182954
0.10872671 0.03067483 0.07379565 -0.021900669 0.03768128 0.041926295 0.01843743 -0.07046214
0.057454184 0.10609537 -0.09500581 -0.032759935 -0.08112496 0.04006362 0.046062693 -0.04767725
-0.08859512 0.08967264 -0.092218265 -0.022507608 0.113129735 0.009923518 -0.070334 -0.07320976
0.100168765 -0.07591921 0.086419 0.030356348 -0.06392227 -0.036263958 -0.020905614 0.022294939
0.09114374 -0.009528413 0.0903687 -0.12235743 0.00025884807 -0.013236985 0.049598247 -0.092084244
0.07981774 -0.06706615 -0.049247086 0.077141255 -0.026197985 -0.057200417 0.014163464 0.041309312
-0.018226087 0.021231726 0.082598254 -0.07515833 0.06285685 0.10368341 0.085397765 0.049634323
-0.040289536 0.056947216 -0.0879325 0.010442331 -0.058797643 -0.013565287 0.02077736 0.06688523
0.02993074 0.040987104 0.04330176 0.07158029 -0.0014998615 -0.01681076 -0.012111336 -0.01077871
0.024989218 -0.088166475 -0.09016645 0.09477377 0.09645204 0.01211454 -0.04064414 -0.06862296
0.04998903 -0.049167946 0.089704216 -0.08613673 -0.041355297 0.030291378 0.02055104 0.024780437
-0.018317297 -0.023015529 0.0941028 -0.031450078 -0.10320404 -0.07941663 -0.044137955 0.032404125
0.091703296 0.12091187 -0.05709824 0.006028414 0.055399194 0.092712045 -0.07050763 0.057995632
-0.030082911 0.03391725 -0.017147139 -0.050172612 -0.06367999 -0.047098815 0.04248579 0.056230262
0.112619534 -0.030307934 0.06578398 0.114503294 -0.0345601 -0.068920135 0.034497857 0.04042302
-0.05460167 0.05809836 0.06156975 0.0718133 -0.078908026 -0.0021256953 0.021224111 0.06139119
0.11461343 0.025997505 -0.059341118 0.046397462 0.014263898 0.067214176 -0.018743113 0.04391183
0.101510465 0.049910977 -0.05498913 0.11703403 0.09148836 -0.017225876 -0.0026187599 0.12417874
0.114960656 0.009715885 -0.03192717 -0.0044100136 -0.033905894 -0.09533852 0.058752716 0.039081797
-0.06980269 -0.100406244 -0.058337867 -0.10789433 0.063103914 0.10264726 0.040190995 0.07773538
-0.11065461 -0.00727129 0.10919528 0.08988245 -0.12480527 -0.08855371 -0.08255106 -0.10293953
0.1021705 -0.0020962358 -0.01405485 0.1071464 0.07470988 -0.094297424 0.025895268 -0.11729525
00000000: 2455 cd3d 9e50 f43d b0d2 623d 98a7 863c
00000010: 70da a13d f039 e3bc 9cb3 8cbd faa9 d2bd
00000020: 0054 28ba e046 7dbd a020 113d dc9f ed3d
00000030: 7414 623d 0054 c83a b0b1 1bbd e896 04bd
00000040: 4a99 863d 4604 c1bd c0fe 5fbc f09c 2cbd
00000050: e4d5 6d3d 667e 9a3d 0249 a03d 8a9f a2bd
00000060: 54f2 ed3d 708b 46bd eab7 a33d 0eae b6bd
00000070: 5c72 3bbd 401a babb 607d 95bc f4d5 a1bd
00000080: de32 c4bd 0098 56bd 02cb d43d 485f d5bd
00000090: 189b 75bd c08d a83b f400 f8bd 000d eebd
000000a0: f012 9fbd 0057 233a 863a 90bd 2038 ecbd
000000b0: 4801 f1bd 0877 693d 94db d9bd 5ce8 5e3d
000000c0: 60dd b4bb 2005 9e3d a40b 773d e44d dc3d
000000d0: 3400 453d 20a1 f93d 223b d83d f217 ecbd
000000e0: eef8 c3bd 2ca6 babd 5c08 7cbd e836 4dbd
000000f0: 36df b0bd e80f 83bd a45f 30bd 1c82 19bd
00000100: 1c7e ac3d be7f a8bd 3461 3d3d b48b 70bd
00000110: 787a e53c e2fe 963d ca19 bdbd 42ad 9fbd
00000120: 1c5b 5fbd 4cc6 ea3d f2a4 debd 788d 833d
00000130: e00c 47bc a03d 893d ae77 e13d 028c d0bd
00000140: 1cac de3d c849 fb3c 2c22 973d 0869 b3bc
00000150: b057 1a3d e8ba 2b3d 180a 973c 744e 90bd
00000160: 1455 6b3d 8848 d93d 6892 c2bd 482f 06bd
00000170: d824 a6bd c019 243d 3cac 3c3d 3849 43bd
00000180: 5c71 b5bd 4aa6 b73d eedc bcbd e061 b8bc
00000190: 90b0 e73d 4096 223c 460b 90bd 00ef 95bd
000001a0: 4825 cd3d 887b 9bbd 72fc b03d e0ad f83c
000001b0: aee9 82bd 8489 14bd 4042 abbc e0a3 b63c
000001c0: 92a9 ba3d 101d 1cbc 3a13 b93d 8896 fabd
000001d0: 00b6 8739 f0df 58bc 8827 4b3d aa96 bcbd
000001e0: 7c77 a33d fa59 89bd 50b7 49bd 3cfc 9d3d
000001f0: 289d d6bc fc4a 6abd e00d 683c f433 293d
00000200: e04e 95bc 28ee ad3c 4629 a93d 9cec 99bd
00000210: 18bb 803d f857 d43d 06e5 ae3d 5c4d 4b3d
00000220: a406 25bd 7c41 693d f415 b4bd 5016 2b3c
00000230: ccd5 70bd f040 5ebc 4835 aa3c 20fb 883d
00000240: 5031 f53c 18e2 273d 305d 313d b098 923d
00000250: 0097 c4ba b8b6 89bc a06e 46bc 3099 30bc
00000260: 30b6 cc3c a090 b4bd 30a9 b8bd c018 c23d
00000270: a688 c53d 107c 463c 787a 26bd 328a 8cbd
00000280: 4cc1 4c3d 5464 49bd d8b6 b73d 7468 b0bd
00000290: 2c64 29bd a025 f83c a85a a83c 5800 cb3c
000002a0: 280e 96bc 108b bcbc f8b8 c03d ccd1 00bd
000002b0: a45c d3bd 30a5 a2bd 00ca 34bd 30ba 043d
000002c0: f0ce bb3d a4a0 f73d d8df 69bd 008a c53b
000002d0: 44ea 623d d0df bd3d 4e66 90bd d48c 6d3d
000002e0: 7070 f6bc d0ec 0a3d 2878 8cbc cc81 4dbd
000002f0: a86a 82bd b0ea 40bd 9405 2e3d b451 663d
00000300: 12a5 e63d 5848 f8bc c0b9 863d b480 ea3d
00000310: e48e 0dbd 0026 8dbd a04d 0d3d 9c92 253d
00000320: 00a6 5fbd 8cf8 6d3d 9030 7c3d da12 933d
00000330: 889a a1bd 404f 0bbb 30de ad3c 5475 7b3d
00000340: 72ba ea3d b8f8 d43c ac0f 73bd 440b 3e3d
00000350: 20b3 693c 96a7 893d 288b 99bc e4dc 333d
00000360: b8e4 cf3d 746f 4c3d 483c 61bd 8aaf ef3d
00000370: 405e bb3d 481d 8dbc 809f 2bbb 6c51 fe3d
00000380: 7e70 eb3d 602f 1f3c 10c6 02bd e081 90bb
00000390: e8e0 0abd d840 c3bd b0a6 703d 3c14 203d
000003a0: b6f4 8ebd caa1 cdbd b0f3 6ebd b4f7 dcbd
000003b0: a03c 813d ba38 d23d 509f 243d ba33 9f3d
000003c0: e29e e2bd 0044 eebb c6a1 df3d 4a14 b83d
000003d0: e899 ffbd a65b b5bd 8810 a9bd f6d1 d2bd
000003e0: c43e d13d 0061 09bb 5046 66bc 926f db3d
000003f0: 7e01 993d 021f c1bd 5022 d43c 7e38 f0bd

linear3.bias f4 [10]
0.07209249 -0.00038203597 -0.07042219 0.06755781 -0.0036791712 -0.073125616 -0.035558328 0.069856316
-0.055229023 0.11716162
00000000: 3aa5 933d 004c c8b9 8239 90bd c05b 8a3d
00000010: 401e 71bb e2c2 95bd 9ca5 11bd d410 8f3d
00000020: d437 62bd 6ef2 ef3d
