models/model1.pth (torch, 69463 bytes, 6 tensors)

weight f4 [128, 60]
00000000: c8cd e0bd 4a5f a23d 202a 8e3c 5a08 70bd
00000010: 14cd 7abd 8446 4f3d b6e5 debd 202e 4c3d
00000020: 2c6b adbc c027 4e3d fea9 c43d f166 cabd
00000030: 5054 7e3c 9093 413d 00a3 06bb 4083 283b
00000040: cc49 0abd 08ed 82bc f80e 4ebd 907b 593c
00000050: cf83 e4bd f052 90bc 2a69 873d b2d4 fa3d
00000060: e8f5 3e3d f058 573c c043 bebd 2fd1 01be
00000070: dfb3 efbd 50eb 3b3c 581a 81bd 297a febd
00000080: 070f 97bd 7a28 27bd e21b eb3d 1206 e53d
00000090: 584c cfbd f084 953d f2c6 dcbd e013 573d
000000a0: fc65 123d 0d5a f9bd dd84 93bd 3a9e d63d
000000b0: 3aaa c73d cb2c 023e 0270 b73d cc54 adbd
000000c0: 9788 ebbd e48f bcbc 38a5 f7bd b09c 3fbd
000000d0: 94e1 8fbd e2ee cabd fbe9 debd 1069 b03c
000000e0: 30bb bebd 2073 f33b a64e eb3d 06dc f83d
000000f0: 0cfe a0bd e896 9f3c 9021 44bc d80a 313d
00000100: 121e 8a3d 7106 ebbd b0a5 723c b85d 233d
00000110: a671 61bd cc7e ffbd 44dd 2fbd 92eb bebd
00000120: 90c0 083d 7035 253c b252 883d 69ec 80bd
00000130: 480b c2bd 6e85 a03d b0cb 7dbc b3e6 03be
00000140: 207b 883c d4e4 98bc d05e ddbb 5003 c23c
00000150: 78b0 16bc 54bd 3d3d c2ca 46bd f0e9 513d
00000160: 0619 e7bd 6688 bcbd 10a2 7f3d 52d4 903d
00000170: 5063 543d 3eb2 f83d 8455 5e3d 125a 933d
00000180: c867 08bc 80ce c7bb 46b1 da3d e086 453c
00000190: 680d 8c3d f0b9 c33c d854 623d 4a10 20bd
000001a0: 22fa a8bd 6885 85bc fce5 01bd b17b 02be
000001b0: 76e8 0bbd b4d8 8dbc 1057 e5bd a571 cfbd
000001c0: a00f 6f3d 1032 bb3d debf 93bd 9e1d c33d
000001d0: 0098 0ebb e41f 73bd d37f 98bd 7e3b 973d
000001e0: 083d 9bbc be5c e7bd d70d 003e 4061 52bc
000001f0: 988d d4bd fefd 9e3d 9e11 f93d 10d2 323d
00000200: cc3f f5bd eaa6 f0bd b406 603d a2b6 64bd
00000210: 6643 a9bd 802b 76bb 24a9 b13d f087 aabc
00000220: 38d2 813d b6a7 f9bd 16e1 d6bd e878 843c
00000230: 9853 d53c 2caf ddbc 446a dabc 08be f5bd
00000240: 1607 c83d 3866 7bbd dcfa 343d 205d a73c
00000250: 1000 44bc 9825 603d 0eea b23d 74a5 d2bc
00000260: daa1 d73d 38ec 9e3d 29b5 e1bd 2482 1e3d
00000270: 2402 123d 79ae efbd e840 b2bc 0068 2eb9
00000280: bbb5 ddbd c8b9 c13c 5085 5dbc 86bb 913d
00000290: ac16 8abd c66a b13d d82e d43c c2ab f6bd
000002a0: ec03 41bd 387b c13d bea4 97bd 2061 87bd
000002b0: a4ef 83bc f862 d4bc 0042 24ba 42ca ee3d
000002c0: 94d3 b5bd 22f3 99bd e4b6 f53d 2fe0 8bbd
000002d0: 0aba 88bd 1ee0 13bd d0ab e2bc a992 debd
000002e0: 78f0 dd3d bdf0 023e 0e6e 44bd 448b d9bd
000002f0: 6c42 8cbc 40c1 45bb 004f 8abd b217 df3d
00000300: bad7 13bd 2ef9 8dbd 8836 b73d 2e3d 9a3d
00000310: 4f62 01be 30a3 bd3c 5af5 fc3d 1aa7 b5bd
00000320: e035 23bd 0430 e6bc a99d f9bd 6851 d23d
00000330: 1021 163c 4847 143d 8c45 b3bd 1825 743d
00000340: 3675 d33d 9428 96bc 945a dbbd 9ed5 933d
00000350: e509 efbd d6b3 c0bd e642 8e3d 0e33 4abd
00000360: 9abb 03be f04d 473d 80cd f7bc 4cfc 2e3d
00000370: ec7f ec3d 14b0 c13d 50a9 79bd a2b9 58bd
00000380: 7499 b5bd 2473 083d 0075 daba e063 a33d
00000390: 7057 03bd fcd9 593d 7cfc e2bd 7498 a6bc
000003a0: db2f e7bd 201d 3c3d 057b b0bd fcd0 683d
000003b0: 75b4 9abd 7c2c 0a3d 4c05 383d 30c8 523d
000003c0: 8475 eb3d 5ea7 a1bd e8b0 613d e85a ce3d
000003d0: f85c 0c3d d040 513d 5838 33bc 0ebd 0fbd
000003e0: 8c9b c8bd 34cf 6d3d 1e15 a13d 20e0 b9bb
000003f0: 186a b6bd 3a97 edbd 643d 8a3d 30c4 b13d
-0.1097675 0.07928331 0.017354071 -0.058601715 -0.061230734 0.05060436 -0.10883658 0.049848676
-0.021169268 0.050330877 0.09602736 -0.09882916 0.015523031 0.047259867 -0.0020543933 0.0025712997
-0.033761784 -0.015982166 -0.050307244 0.0132740885 -0.11157953 -0.017617673 0.06611855 0.122476
0.046621233 0.013143763 -0.09290266 -0.12677453 -0.117042296 0.011469677 -0.06303853 -0.12425644
-0.07375913 -0.040810086 0.114799276 0.111827984 -0.10121983 0.073007464 -0.10780133 0.05250919
0.03574179 -0.12175379 -0.07203076 0.10479398 0.09749265 0.127124 0.08956911 -0.08463439
-0.11500662 -0.023017831 -0.1209206 -0.04678029 -0.070254475 -0.099088445 -0.10884472 0.021534473
-0.09313047 0.0074294955 0.114896104 0.12151341 -0.078609556 0.019481137 -0.011970893 0.043223232
0.06744017 -0.11475838 0.014810011 0.0398843 -0.055040024 -0.124753565 -0.042935625 -0.09322275
0.033386767 0.010083541 0.06656398 -0.06295092 -0.09474808 0.0783795 -0.015490457 -0.12880974
0.016660273 -0.018663801 -0.0067556873 0.02368322 -0.009197347 0.046323135 -0.04853321 0.05124849
-0.1128407 -0.092057034 0.062410414 0.07071747 0.051852524 0.12143372 0.054280773 0.07194914
-0.008325525 -0.0060976148 0.106783435 0.0120560825 0.068384945 0.023892373 0.055256695 -0.039078034
-0.08250834 -0.016298965 -0.03171347 -0.12742497 -0.03415724 -0.017315246 -0.111982465 -0.10129098
0.05836451 0.09140408 -0.0721433 0.095271334 -0.002175808 -0.059356585 -0.074462555 0.07384394
-0.01895 -0.11296986 0.1250528 -0.012840569 -0.10378569 0.07763289 0.12161563 0.043657362
-0.11975059 -0.11750586 0.054693893 -0.055838235 -0.08264808 -0.003756255 0.08674839 -0.020816773
0.06338924 -0.121901914 -0.104921505 0.016170934 0.026040837 -0.027061068 -0.026662 -0.11999136
0.097669765 -0.06137678 0.04418455 0.020430148 -0.0119629055 0.054723352 0.08736049 -0.02571366
0.105289176 0.07759899 -0.11020882 0.03869833 0.035646573 -0.117032 -0.021759465 -0.00016632676
-0.10825678 0.023648158 -0.013520554 0.071158454 -0.067426056 0.086629435 0.025901243 -0.12044479
-0.04712288 0.0944733 -0.07404469 -0.06610322 -0.01610548 -0.025926098 -0.0006265938 0.11659671
-0.08878246 -0.07517077 0.11997774 -0.06829869 -0.06676109 -0.036102407 -0.027669817 -0.10867817
0.108368814 0.12787147 -0.04795652 -0.10622266 -0.017121516 -0.0030175 -0.06753349 0.108931914
-0.036094405 -0.06932293 0.08945948 0.075312 -0.12635158 0.023149103 0.123514846 -0.08869763
-0.0398463 -0.028099068 -0.121882744 0.10269433 0.009163156 0.03620079 -0.087534994 0.059605688
0.103250906 -0.018329896 -0.10710636 0.072184786 -0.11671809 -0.09409301 0.069463536 -0.049365096
-0.12864533 0.04865831 -0.030249357 0.042721078 0.11547837 0.09457412 -0.060952485 -0.05291141
-0.088671595 0.03331293 -0.0016666949 0.07978034 -0.03206581 0.0531864 -0.11083314 -0.020336367
-0.112884246 0.045926213 -0.08617214 0.056839928 -0.07553951 0.03373383 0.044926926 0.051460445
0.11497024 -0.07893251 0.05510035 0.10075933 0.03426835 0.0510872 -0.010938726 -0.035092406
-0.09795293 0.058058932 0.07865356 -0.0056724697 -0.089069545 -0.1160111 0.067499906 0.08679998

bias f4 [128]
00000000: 4aaf d23d 28a5 41bd 7971 bdbd f047 613d
00000010: 6013 dbbb b874 b4bd ee29 f93d ecf5 713d
00000020: c4c2 bc3d 706d 8e3d 0496 7a3d f053 f03d
00000030: 504d cfbd f81b f53c 0c3c 73bd f079 143c
00000040: 5570 afbd 2834 29bc 9c2e 02be 15ec d7bd
00000050: 10c2 1f3c 3658 f83d 2875 6d3d 6eb3 983d
00000060: 14ff 833d 2835 c03c 709d b23c 605b bd3d
00000070: 166c 7dbd 244e 413d 60d7 45bc c2b5 9a3d
00000080: 909a 7ebc 1eda 9dbd b6db bc3d d072 46bd
00000090: 9071 fabc fe78 abbd 6308 033e a865 24bd
000000a0: d00f c53c b806 cd3c be98 adbd 58c0 e43c
000000b0: dc67 333d 7aac 8abd a015 93bd 50c9 c6bd
000000c0: 009c 803a ce63 ab3d bcd9 a13d c0c6 25bb
000000d0: 4e76 38bd cdc7 a6bd 1459 d43d 8c32 343d
000000e0: 1222 02be 2832 883d cc88 72bd 00cb 4fba
000000f0: 482d 113d b857 16bc 54af 9e3d 2e77 a73d
00000100: 5c7d 70bd 9447 a6bd a6bc 3dbd 6a18 06bd
00000110: 1613 df3d c160 a2bd 9cd7 eabd 361c ac3d
00000120: 70c3 dabb e817 0fbc d85c d83d 9494 bdbd
00000130: 5804 9cbd 60c6 1b3c 5ede 61bd b0ca 5bbc
00000140: 00a7 9d3c 96bb 993d 6ec8 e53d 3e66 ac3d
00000150: e215 73bd 8285 e53d c0ad a23b c428 a3bc
00000160: bce0 3e3d 8025 bcbd 6e9e d5bd cc36 ccbd
00000170: 3078 d0bc a09e aa3c e0fd 253d 7107 043e
00000180: 61a0 ecbd a061 de3b baf8 bc3d 7447 e7bc
00000190: 70d6 eebc 90ad 71bc 2a23 e9bd fc6f b23d
000001a0: 2044 d93c ac5c 093d ca82 b23d 6062 b4bb
000001b0: ecac 4d3d 988c c23d 0860 cbbd d87a 17bd
000001c0: 44c2 bd3d e089 e23d c4bb e03d f4a2 aabc
000001d0: 2a2a b93d 64a1 a7bc 944c 4dbd 782f 8a3d
000001e0: 36a0 f93d 8ced 693d 74ea b73d a201 41bd
000001f0: fe16 873d 705d d53d 1886 c93c d7b8 e3bd
0.1028734 -0.047276646 -0.09250159 0.055000246 -0.0066856593 -0.08811325 0.121662006 0.05907242
0.09216836 0.06954467 0.061178222 0.1173476 -0.10122168 0.029920563 -0.059383437 0.009062275
-0.085663475 -0.010327376 -0.12713093 -0.10543076 0.009750858 0.121262 0.057973057 0.074560985
0.06445137 0.023462847 0.021803588 0.09245944 -0.061870657 0.04719366 -0.012075275 0.07554199
-0.01553978 -0.07707618 0.09221594 -0.048449337 -0.030571729 -0.08372687 0.12796168 -0.04013601
0.024055392 0.025027618 -0.08476399 0.027923748 0.04380022 -0.067711785 -0.07181859 -0.09706366
0.0009812117 0.083686456 0.07902858 -0.0025295466 -0.0450347 -0.08143578 0.10368553 0.043993518
-0.1270831 0.066501915 -0.05921249 -0.00079266727 0.035443574 -0.009176187 0.07748285 0.081770286
-0.058713302 -0.08119121 -0.046322487 -0.032738127 0.10892312 -0.079286106 -0.114669055 0.08403818
-0.00667613 -0.008733727 0.105645835 -0.09256855 -0.07618016 0.0095077455 -0.055143707 -0.013415024
0.01924467 0.07506482 0.112198696 0.08417939 -0.05934704 0.11207105 0.0049645603 -0.0199169
0.046601042 -0.0918684 -0.10430609 -0.09971389 -0.025447935 0.020827591 0.040525317 0.12893464
-0.11554027 0.00678654 0.09227128 -0.028232314 -0.029154986 -0.014750853 -0.1138366 0.087127656
0.026521742 0.033535644 0.08716352 -0.0055048913 0.05021374 0.094994724 -0.09930426 -0.036982387
0.09265569 0.11061454 0.109733135 -0.020829655 0.09041245 -0.0204627 -0.05012186 0.06747335
0.12188761 0.057111308 0.08980265 -0.047120698 0.06596182 0.104182124 0.024600074 -0.1111924

weight f4 [64, 128]
00000000: f060 f03c 12f6 b3bd 6991 a63d 46c7 183d
00000010: 20a8 0dbb 2a8b 6b3d 3921 af3d 81a5 b03d
00000020: 686b 683c 40b6 d4ba 50a6 6abc e052 20bd
00000030: 8010 cbbc 6046 0f3b 4424 9fbc a411 c3bc
00000040: 9064 dd3b 98aa 8cbd 34ff efbc 84e4 44bd
00000050: f49b 9fbd 537a a33d 3fa8 8b3d bb9a 68bd
00000060: a407 a93c 1ff9 b03d dbcb b43d 2599 0dbd
00000070: 55e6 88bd 7004 b5bc 94df bd3c 88f8 ff3c
00000080: d8ef 7cbd 6ec0 74bd f08b aebc 30f9 c5bb
00000090: 81bc a63d aa06 113d 50e5 29bc bc1b adbd
000000a0: 696b 833d 4a7e 60bd 0c3c 77bd 3499 89bd
000000b0: ba6c 533d c29a 1c3d 006a 4bbc 80d4 413a
000000c0: d6f3 243d 424a b2bd a33d ab3d c275 6d3d
000000d0: 1a76 1a3d ea0a 783d a89a 35bd 807b 023d
000000e0: 067f 463d 22cf 0cbd 4012 9eba ebaa 68bd
000000f0: b876 903c 980b c2bc 2e01 5a3d 184f 75bc
00000100: cf93 91bd 0ee5 5f3d 33fa b43d 3db9 aebd
00000110: 904d 4fbc 0c20 10bd 26fe 0f3d 44c1 c1bc
00000120: b8ef a23c de05 6c3d 1832 63bd 84f8 bb3c
00000130: 0480 01bd 90d3 9ebd d37c 8d3d d02c 0bbc
00000140: a08e f73c 3496 79bd 328e 773d 3f7b 0fbd
00000150: ce48 4b3d b43d cc3c e461 d53c 2e18 4b3d
00000160: 8474 ecbc 0103 913d f9c1 08bd 6bcc 9b3d
00000170: b353 a43d e8a0 333c db3f 8dbd cc00 f13c
00000180: 9e7b 3d3d 0837 48bc 4ae1 4a3d 4c0f aa3c
00000190: 44cd 803c 327c 72bd d787 a63d c730 5bbd
000001a0: b6e4 493d 385f 66bc 1080 afbb 7001 a03b
000001b0: 90a3 c9bc 1d26 36bd a4d8 a8bc 2436 e83c
000001c0: 2a63 82bd f6b7 aebd 4c05 b7bc b15f b1bd
000001d0: a2c4 383d 14a5 8cbc 4cad 6bbd 01e7 b03d
000001e0: 48b9 b0bd 4abf f9bc 1511 863d e3c4 a83d
000001f0: 338a 9cbd dc12 b33c e0e8 413b a8d1 45bc
00000200: ee6f 05bd b0e8 ac3b 2c81 f9bc e0ef a9bb
00000210: 6711 ac3d 84ed b4bd 936d a03d ba14 793d
00000220: dd1e 49bd a93f b3bd 20d0 5e3c b4c9 e43c
00000230: dceb b73c 4c8f 033d d035 d63c 204c 37bd
00000240: e335 8b3d d5ec b4bd 324c 2ebd de24 7d3d
00000250: 84c3 cdbc 42f2 ddbc 2402 073d bc4f 0b3d
00000260: 0a88 0f3d a0f1 383b 005f 0cba f8bc 003d
00000270: 0b58 1abd bfe1 833d b69d 193d e06f 343c
00000280: 10ba 13bc 50f4 7d3c 788a 26bc d2f6 413d
00000290: dcc3 bcbc 5006 913c 6d7c 9dbd 6c7e d53c
000002a0: 909a d43c 289d b13c cc65 ecbc 77e1 3ebd
000002b0: 4271 b4bd 28a7 99bc 708e f03b 486e a2bd
000002c0: ef1b 43bd 50ea 5fbc 7ee3 f4bc 318f 893d
000002d0: 48a5 fc3c 8f68 9a3d 4801 c53c 193c 04bd
000002e0: 2744 9d3d 8001 a3ba aff6 08bd 4817 a53c
000002f0: 8003 033d 702e fe3b 2ee9 a6bd 3a1f 753d
00000300: f54a 9dbd 7e25 32bd 39a9 a73d b8c9 34bd
00000310: 714e 9cbd f8e5 b5bc 6634 583d a42d 6abd
00000320: 11c4 87bd 56d3 273d 083e 083c 4651 213d
00000330: 80da 16bb dd42 a33d 1073 3a3c 0030 4c3a
00000340: ba87 1e3d b8db 97bd 1ca6 033d 487b debc
00000350: dad9 703d cf0d 973d e0a5 fd3c f2b1 683d
00000360: 3c56 f63c 5ef0 8ebd 0ac4 433d adbb 3cbd
00000370: 336f a7bd c053 7e3b 8059 e53c d420 953c
00000380: 4046 ecba 0076 573b 935e a93d 8294 243d
00000390: 681c c5bc b938 a03d ec85 45bd 8095 2cba
000003a0: 7095 98bb 96e8 7f3d 7a93 183d c8ef 0bbc
000003b0: c88d 6c3c 3de4 42bd 3e1d 3b3d 80ca 5f3b
000003c0: ebca b03d 3087 b6bb 70a0 bf3c fe63 b0bd
000003d0: febe 173d d4f1 b3bd 0afc 603d 347d 9fbc
000003e0: 617a b1bd 6ae7 183d 74b8 bf3c 94e0 4fbd
000003f0: e0ba aa3b 7da7 a83d 1c06 003d 2661 4a3d
0.029343098 -0.087871686 0.081332035 0.037299417 -0.0021615103 0.057505764 0.085512586 0.08625317
0.014185764 -0.0016228631 -0.014321879 -0.039141536 -0.024788141 0.0021862015 -0.019426472 -0.023812123
0.0067563727 -0.06868476 -0.029296495 -0.048069492 -0.077934176 0.07982316 0.068192 -0.056788187
0.020633526 0.08641266 0.08827945 -0.034569878 -0.06684557 -0.022096843 0.0231779 0.031246439
-0.06175217 -0.059753828 -0.021306962 -0.0060416684 0.08141423 0.035406746 -0.010369614 -0.084525555
0.06416971 -0.05480794 -0.06036 -0.06718674 0.05161736 0.038233526 -0.012415409 0.00073940307
0.040271603 -0.0870557 0.08361366 0.05797363 0.037710287 0.060557283 -0.044336945 0.03185606
0.048460983 -0.034377225 -0.0012059882 -0.056803625 0.017634735 -0.023687169 0.05322378 -0.014972471
-0.071082704 0.054661803 0.08836784 -0.08531425 -0.01265277 -0.035186812 0.035154484 -0.023651727
0.019889697 0.057622783 -0.055467695 0.02294565 -0.031616226 -0.07755196 0.06908574 -0.008494571
0.030219376 -0.06093426 0.060438342 -0.035029646 0.04962998 0.024931766 0.026047654 0.049583606
-0.028864153 0.07080651 -0.03338811 0.07607349 0.08023777 0.010963656 -0.06896945 0.029419325
0.04626047 -0.012220152 0.04953126 0.020759247 0.015722878 -0.059200473 0.08131378 -0.053513315
0.04929038 -0.014060788 -0.0053558424 0.004882984 -0.024614125 -0.04446994 -0.020611115 0.028346129
-0.0636657 -0.085311815 -0.022341393 -0.0866083 0.0451094 -0.01716856 -0.057538316 0.086378105
-0.086290896 -0.030486722 0.06546227 0.08240678 -0.07643547 0.021859579 0.0029588267 -0.012073912
-0.032577448 0.005276762 -0.030457102 -0.005186066 0.08401757 -0.08834365 0.078333996 0.060810782
-0.0491017 -0.087523766 0.013599426 0.02792821 0.022451334 0.03211908 0.026148707 -0.044750333
0.067973875 -0.088342346 -0.042553134 0.061802737 -0.025117643 -0.027093057 0.032961026 0.034011588
0.035041846 0.0028220192 -0.0005354732 0.031430215 -0.03768162 0.06439542 0.03750392 0.011013001
-0.009016529 0.015500143 -0.010164849 0.047354527 -0.023042612 0.017703205 -0.07689748 0.02606126
0.025952607 0.021681383 -0.028857134 -0.04660174 -0.08810665 -0.018756464 0.0073411986 -0.07931191
-0.04763406 -0.013666704 -0.029893633 0.06716765 0.030840531 0.07539474 0.024048463 -0.032283876
0.07679015 -0.001243636 -0.03343838 0.020152703 0.03198576 0.0077570006 -0.08149944 0.059844233
-0.076803125 -0.043492787 0.081865735 -0.044137686 -0.07632149 -0.022204384 0.052784346 -0.057172433
-0.066291936 0.04097303 0.008315571 0.03938415 -0.002301842 0.079717375 0.011379972 0.0007789135
0.038703658 -0.07414955 0.032140836 -0.027158394 0.05880151 0.07375681 0.030962884 0.056810327
0.030070417 -0.0697944 0.04779438 -0.04607742 -0.081755064 0.0038807243 0.027996778 0.01820413
-0.0018026307 0.003287673 0.08269992 0.04018069 -0.024061397 0.07823319 -0.04822342 -0.00065835565
-0.004656486 0.06247767 0.03725002 -0.008541055 0.0144381 -0.047580946 0.045682184 0.00341478
0.086324535 -0.005570315 0.023391932 -0.08612822 0.03704738 -0.087863594 0.054927863 -0.019468881
-0.0866592 0.03733007 0.023403384 -0.050751284 0.0052102655 0.08235071 0.031255826 0.049409054

bias f4 [64]
00000000: f6f3 90bd e690 18bd d004 bd3c 4ebc 43bd
00000010: 060c 463d 420b ffbc 1ee8 273d 2839 c33c
00000020: d49e c33c 80b8 bebb eefc 92bd cfde 5ebd
00000030: 526c 663d 90e6 81bc c08f 9fbc 6769 ab3d
00000040: 3b9c a43d a809 22bd 800a ca3b c831 e53c
00000050: bd7d 9b3d e613 b4bd ae1a 2d3d 8264 59bd
00000060: 5a90 383d 4b7d 65bd 6803 21bc aeac afbd
00000070: 4057 233c 7892 7c3c 2090 d7bb a2bd 723d
00000080: 0a2f 7d3d 14af 86bd 3037 f4bb 71a9 a3bd
00000090: dce9 b2bd f9f3 adbd 40e5 fb3a 8d20 933d
000000a0: ee49 263d 06f5 623d 099f 803d 6480 3ebd
000000b0: 0ecc e9bc 7008 56bc 0a00 b1bd c1a3 43bd
000000c0: 682c e03c 38a3 9abc b3d4 803d a04b 1abd
000000d0: 48b0 4abc c03e fdbb ce21 aebd c0f9 a7bc
000000e0: 2720 24bd 30a6 f53c 1e00 a8bd b8b1 c43c
000000f0: 0af8 7e3d 8d35 b1bd 8c46 a7bd 508c 9bbd
-0.07077782 -0.03724756 0.023073584 -0.047787003 0.04835131 -0.031133298 0.04099285 0.023830965
0.023879446 -0.005820334 -0.07177149 -0.054411706 0.056255646 -0.015857011 -0.019477725 0.08369713
0.08037611 -0.03955999 0.0061658025 0.02797784 0.07592342 -0.08792858 0.04226177 -0.053074367
0.04505954 -0.05602769 -0.009827472 -0.08577858 0.0099695325 0.01541578 -0.0065784603 0.05926288
0.061812438 -0.06576362 -0.007452868 -0.07991303 -0.087360114 -0.084938 0.0019218102 0.07183943
0.04059785 0.055409454 0.062803335 -0.04650916 -0.028539684 -0.013063535 -0.086425856 -0.04776359
0.027364925 -0.018876657 0.06290569 -0.037669778 -0.01237113 -0.0077284276 -0.085025415 -0.020504832
-0.040069725 0.029986471 -0.08203147 0.024010524 0.062248267 -0.08652792 -0.081677526 -0.07595122

weight f4 [10, 64]
00000000: 0042 fb3b 589c 08bd 5097 fc3d a62c f0bd
00000010: 1036 263d 5c78 0dbd a022 bfbd aa67 d8bd
00000020: 0c06 a6bd 6cca 5cbd 6000 5b3c 10e1 933d
00000030: 7ef1 ed3d f0dc e8bd f0f1 4abd 142e 1bbd
00000040: 7ce7 97bd 063e a03d b041 65bd 10c1 f43d
00000050: 3ae0 99bd 62bd e43d c8a2 c4bd 582c 393d
00000060: 38fc c93c 543d 10bd 3edd a0bd 0a93 acbd
00000070: 049b 1f3d ac1e 70bd a811 b8bd dc91 123d
00000080: 7050 6ebc 4cc4 19bd 62f0 c2bd bc8e 8d3d
00000090: e0d5 9dbd 487f 893d b85b 33bd 1001 ac3d
000000a0: 388a 5dbd 8cdb be3d f0be debc 307b 0f3d
000000b0: d4d0 9dbd 0889 033d f08f 6dbd d0ab b0bc
000000c0: 60c5 04bc 7211 e43d 482c 273d d078 17bd
000000d0: 88fc 333d 2430 ae3d d070 8b3d c2c4 94bd
000000e0: b8e7 753d b687 cabd d2e9 b7bd ac46 41bd
000000f0: b033 acbd 5436 5ebd 0450 3b3d 2c5a dfbd
00000100: d8ad b63d beff aa3d 96a4 943d 2041 69bd
00000110: c86e a4bc 2a64 8ebd 00b0 1abb 747e e2bd
00000120: e00a 293d 4872 c93d bcd3 57bd 50ca fa3d
00000130: 269d e8bd 8643 9b3d cc4b c13d c00d e7bd
00000140: 2271 92bd 28fb 8dbd 803a 263b 906c 143d
00000150: 2063 873b 269b 933d f014 f53c ccb5 56bd
00000160: 1c6f 4a3d 74b1 4b3d 80b3 85bd c84f 8d3d
00000170: 98c9 fdbd a48e ba3d 3020 b7bd b898 a8bc
00000180: 7cc9 5bbd 56e4 d5bd 4ea5 b1bd c219 88bd
00000190: da31 f23d d4e7 d1bd d815 27bd 2024 f63d
000001a0: d099 7ebc 628e ac3d 803f 8b3b 6048 ae3c
000001b0: 34b7 f43d 605c 0e3d d037 523d 04c6 c23d
000001c0: f849 943d 3089 14bc 0c5c 093d 586d 9a3d
000001d0: dc39 e03d 40ce 373c d8ea d2bd 6047 fd3c
000001e0: 68da 93bd 20cb ebbd 580f 97bd b82e 94bd
000001f0: 10ad ae3d 709c fc3d b8a9 b6bc 80e0 f4bd
00000200: 6892 c73c 2832 05bd 5043 e1bc a421 5b3d
00000210: 9a01 f63d f477 8dbd 8cfb b9bd 0070 8338
00000220: 9659 833d 8897 08bd b03f e2bd 2c05 5ebd
00000230: 80aa dcbb 10b0 1f3c 1ae9 cfbd 88da f6bd
00000240: d2d8 b23d f01e efbc 8877 efbd 2c08 443d
00000250: 40cd 2fbd 88da 84bd dcfe f43d 3c20 a83d
00000260: 20b9 ea3b 2283 e93d 6825 f7bc 7617 b3bd
00000270: 7a1e c33d 787f e2bc acf3 93bd f0f6 6c3d
00000280: d0c2 51bc 50b3 ccbd c07e 12bb 70c4 46bd
00000290: 9c3f 693d 2073 ab3c 6002 ccbd 1abf b6bd
000002a0: 5814 c4bc 8cdf 7e3d 400e 583d c80b 5cbd
000002b0: debd ec3d 94f8 963d b410 783d e80a acbd
000002c0: 687d 3bbd 604a 913b b80d c2bd c027 fa3c
000002d0: f016 003c ba31 fc3d 466b d3bd f0be a9bd
000002e0: c0b3 84bc d813 fd3d 6427 da3d 8c87 53bd
000002f0: f098 c13c 5c38 153d 74ea ba3d 7222 cbbd
00000300: b286 ee3d b4af 69bd 60be 873d d286 b53d
00000310: dca4 4a3d 1481 65bd 6c57 343d 8050 d9bd
00000320: 2462 d9bd 3c3e ed3d 3aa0 9bbd 80d9 033d
00000330: b608 eb3d 8062 f6bb 347e aebd d084 ba3d
00000340: 94f3 0e3d 9240 f03d e024 52bc cabd b5bd
00000350: 8ca8 76bd 7429 e1bd da15 f63d 0ca1 dfbd
00000360: a06f edbd fe02 c23d d027 babd 48dc 893c
00000370: 601c ba3b 42a6 e2bd ca7d ecbd a89f e5bd
00000380: 006b a23a 5094 9bbd da42 cbbd 3c47 65bd
00000390: e8ed 823d e0c3 3c3c ced3 833d 6a5d d8bd
000003a0: fc38 ec3d e0d4 653c 72f5 a33d 1cc2 1abd
000003b0: ea56 b3bd 005a a5bc ec6a ab3d b20d b03d
000003c0: a008 be3c 5000 fb3d ec46 823d 9058 d9bc
000003d0: 8865 2dbd c0ef eebc 00c0 35bd b81d 94bc
000003e0: 9c6f 85bd 58a5 e3bd 24c9 ecbd c6ab dbbd
000003f0: f0c5 dfbc 6e17 e9bd 0a0a cdbd 52dc bdbd
0.00766778 -0.033352226 0.12333548 -0.11727266 0.0405789 -0.03453861 -0.09332776 -0.10566647
-0.08106622 -0.053903982 0.013366789 0.07220662 0.116183266 -0.113702655 -0.049547136 -0.03788574
-0.07417199 0.0782433 -0.055970848 0.11950886 -0.07513471 0.111689344 -0.096013606 0.045208305
0.0246564 -0.035214737 -0.078546986 -0.08426483 0.038966194 -0.058623 -0.08987743 0.035783634
-0.014545545 -0.03754072 -0.09518506 0.0691199 -0.07706809 0.0671373 -0.04378864 0.0839864
-0.054086894 0.09319219 -0.027190655 0.03502959 -0.077058464 0.032113105 -0.057998598 -0.021566302
-0.0081036985 0.1113614 0.040813714 -0.03698045 0.043942004 0.08505276 0.06808627 -0.07264091
0.060035437 -0.09889166 -0.089801446 -0.04718654 -0.08408296 -0.05425103 0.045730606 -0.10905871
0.08919877 0.0834956 0.07257955 -0.056946874 -0.020072356 -0.069526985 -0.002360344 -0.11059275
0.041270137 0.098362505 -0.05269216 0.12245619 -0.11358099 0.075812384 0.09438285 -0.112819195
-0.071504846 -0.0693267 0.0025364459 0.036236346 0.0041316897 0.072073266 0.02991721 -0.05241947
0.04942237 0.04972978 -0.065283775 0.06899983 -0.123919666 0.09109238 -0.08941686 -0.020580634
-0.053658947 -0.10443942 -0.086741075 -0.06645538 0.11825915 -0.10249296 -0.040792316 0.12018609
-0.015539601 0.08425595 0.004249513 0.021274745 0.11949006 0.034756064 0.05132276 0.09510425
0.07240671 -0.009065911 0.03353505 0.07540387 0.10948536 0.011218607 -0.10298699 0.030917823
-0.07219392 -0.115133524 -0.073759735 -0.072354734 0.08529103 0.123345256 -0.022297725 -0.119568825
0.024361804 -0.032518536 -0.027497917 0.05349888 0.12012024 -0.06907645 -0.09081182 6.2674284e-05
0.064135715 -0.033347636 -0.11047304 -0.05420415 -0.0067341924 0.009746566 -0.101518825 -0.120534
0.087327614 -0.029189557 -0.11692721 0.047859356 -0.04292035 -0.06486994 0.11962673 0.08209273
0.007163182 0.11401965 -0.030169204 -0.08744709 0.09527297 -0.027648672 -0.07224211 0.057852685
-0.012802795 -0.09995139 -0.002235338 -0.04852718 0.05694543 0.02092892 -0.099613905 -0.089231685
-0.023935482 0.06222491 0.052747965 -0.053722173 0.11559652 0.07371631 0.060562804 -0.08400518
-0.045773894 0.004433915 -0.09475273 0.030536532 0.007817969 0.12314172 -0.10323195 -0.082883716
-0.016198993 0.123573005 0.106520444 -0.05164294 0.023632497 0.0364307 0.0912675 -0.09918679
0.11646785 -0.05705233 0.06628108 0.088636056 0.04947363 -0.0560313 0.044028684 -0.10611057
-0.10614422 0.11584136 -0.0759892 0.032189846 0.11476271 -0.0075190663 -0.08520165 0.09107363
0.034900263 0.11731066 -0.0128261745 -0.0887409 -0.060219333 -0.10994235 0.120158866 -0.10919389
-0.115935564 0.09473227 -0.09089625 0.016828671 0.005679652 -0.110668674 -0.1154743 -0.11212093
0.0012391508 -0.07596648 -0.0992486 -0.055976138 0.06393033 0.01152131 0.06436883 -0.10564692
0.115343064 0.014027804 0.08005799 -0.037782773 -0.08756812 -0.020184517 0.08370003 0.08596362
0.023197472 0.12255919 0.063611835 -0.026531488 -0.042333156 -0.029167056 -0.04437256 -0.018080577
-0.065154284 -0.11115521 -0.11561802 -0.107261226 -0.027316064 -0.11381422 -0.100116804 -0.092705384

bias f4 [10]
00000000: 2cd4 3abd 8023 87bc c445 7b3d 20c4 633d
00000010: 9461 3cbd 22c7 a73d fe8d 863d 7420 bfbd
00000020: fc97 39bd 947b da3d
-0.0456125 -0.01649642 0.06134583 0.05560696 -0.045991495 0.081922784 0.065700516 -0.09332362
-0.04531096 0.10668102
