models/model1.pth (torch, 69463 bytes, 6 tensors)

weight f4 [128, 60]
-0.0093281865 -0.061253756 -0.016740955 -0.04276585 -0.060421795 0.11917533 0.006871924 -0.07751489
-0.05520585 0.057242364 0.030554265 -0.073498935 -0.10883861 -0.02975984 0.11157769 -0.046214864
0.12691568 0.10541043 -0.030374318 0.012598917 0.05606103 -0.041741557 0.124840215 0.02253668
-0.049387917 -0.008118227 -0.014178529 -0.023689322 -0.057799287 -0.039006263 -0.08625297 -0.09845138
0.050226927 -0.022744 0.022095293 -0.12521726 -0.045512214 0.080457985 0.10474807 -0.053442404
-0.0053131804 0.03821434 0.08651213 -0.013620712 -0.10354519 -0.049213395 0.085598394 -0.06262596
0.09559503 0.03162472 -0.07029113 -0.050163023 0.09520459 0.082530245 -0.007937349 -0.058984615
-0.013468288 -0.0904204 0.123047516 0.10947128 0.029880926 -0.12238077 -0.11075196 0.120214835
0.062748194 -0.017562933 0.077326074 -0.091090724 -0.021360405 0.09288086 0.02412191 0.027744994
0.11626211 0.029344186 0.051949635 0.101861075 0.054491103 -0.10334965 0.042736888 -0.023089446
-0.056596138 -0.07835293 0.030317575 0.10604961 0.056933835 0.12483446 0.012937129 -0.11819164
0.05431293 0.00017553568 0.08034125 -0.10840405 0.052705064 -0.046649426 -0.0040305406 -0.022654295
-0.05771015 -0.113324136 0.048736736 0.100828916 -0.02630537 -0.006505862 0.12228121 0.0385395
0.078578144 0.00024597347 0.060383245 0.09722039 -0.044209063 0.01885508 0.093072504 0.06261706
0.029333249 -0.028410517 0.097310185 -0.037630327 9.532273e-05 0.08663136 -0.101651736 -0.009720877
0.042987898 0.08018528 0.10151942 0.037568897 -0.06760696 0.12862192 0.046980888 0.0036222488
0.1102362 -0.0023486614 -0.06998187 0.037124917 0.10200606 -0.055996522 0.05371745 -0.00062963367
0.107458204 -0.09123328 0.04343611 0.12875311 -0.0937172 0.111043155 0.09699179 0.09802519
0.10976723 0.07211575 0.100673586 -0.06338893 -0.08059672 -0.12765184 0.08707467 0.09111184
-0.09788539 -0.02791167 -0.0036873817 -0.11376689 0.120412424 0.018713191 -0.049166545 -0.1037181
-0.063999146 -0.092866525 0.06871787 -0.037639238 0.08027114 0.09414807 -0.034403786 -0.10503915
0.10625434 -0.015273847 -0.039317578 0.09104325 0.028904378 0.07190932 -0.116138555 0.01332888
-0.11134298 -0.006361507 -0.01668331 0.031817615 -0.064959936 0.12731026 0.0483308 -0.07404895
-0.07311436 0.08442356 -0.09142071 -0.03074465 -0.05995822 0.063690186 0.078454986 -0.0709013
-0.07483949 -0.04797648 0.04240106 0.1234373 0.004001856 0.118827015 0.087665096 0.06477377
0.026373595 0.086118385 -0.061783947 -0.01795894 -0.061370067 -0.07395449 0.055225715 0.059421226
-0.072348036 -0.025577597 0.020861551 0.08148745 0.081340015 -0.007904232 -0.025428116 0.042680606
-0.093314245 0.008136883 0.018913612 0.09347367 -0.093823165 0.12560765 0.0046204627 -0.08303167
-0.12727492 -0.10211637 -0.12757255 0.054565832 -0.057212427 0.122491136 0.06036833 0.06048143
0.04627432 -0.124429144 0.081324756 -0.064783506 -0.09877514 -0.12709835 0.016483366 -0.09860354
-0.019810632 -0.1075625 -0.082016714 -0.002391249 0.0017831028 0.095486626 -0.02472511 -0.07413383
0.09444076 -0.008329973 -0.09158072 -0.01824484 -0.10668211 0.0073735416 0.10910691 0.119375184
00000000: 40d5 18bc 38e5 7abd 5424 89bc 3e2b 2fbd
00000010: d87c 77bd 3212 f43d e02d e13b 20c0 9ebd
00000020: 881f 62bd f876 6a3d f04c fa3c 9c86 96bd
00000030: c7e6 debd e8ca f3bc d882 e43d cc4b 3dbd
00000040: 2ff6 013e 6ce1 d73d 90d3 f8bc b06b 4e3c
00000050: 40a0 653d 32f9 2abd 3aac ff3d d89e b83c
00000060: fc4a 4abd 5002 05bc 104d 68bc 1c10 c2bc
00000070: f2be 6cbd 08c5 1fbd 66a5 b0bd e1a0 c9bd
00000080: c0ba 4d3d a051 babc 3001 b53c f438 00be
00000090: 046b 3abd 28c7 a43d 2886 d63d 6ce6 5abd
000000a0: 301a aebb a486 1c3d 462d b13d 6829 5fbc
000000b0: 800f d4bd fc93 49bd 364e af3d 0a42 80bd
000000c0: 54c7 c33d ec88 013d ccf4 8fbd be77 4dbd
000000d0: a0fa c23d 9e05 a93d a80b 02bc da99 71bd
000000e0: 18aa 5cbc 552e b9bd 5600 fc3d 7a32 e03d
000000f0: d8c8 f43c c5a2 fabd ecd1 e2bd 3233 f63d
00000100: 2082 803d 24e0 8fbc 225d 9e3d c68d babd
00000110: 04fc aebc 5238 be3d 509b c53c 7849 e33c
00000120: d41a ee3d 3863 f03c 24c9 543d 8a9c d03d
00000130: 1032 5f3d fba8 d3bd e00c 2f3d 1426 bdbc
00000140: 5ad1 67bd 8077 a0bd 905c f83c 8a30 d93d
00000150: 7433 693d 36a9 ff3d 40f6 533c 750e f2bd
00000160: 3c77 5e3d 0010 3839 f489 a43d f102 debd
00000170: 44e1 573d 7813 3fbd a012 84bb 8095 b9bc
00000180: 7a61 6cbd 7c16 e8bd 2ca0 473d 647f ce3d
00000190: 5c7e d7bc 202f d5bb 926e fa3d 98db 1d3d
000001a0: 94ed a03d 00f6 8039 6c54 773d 7c1b c73d
000001b0: 9014 35bd f875 9a3c cc9c be3d 603d 803d
000001c0: 484c f03c 2cbd e8bc 904a c73d 4222 1abd
000001d0: 00e8 c738 c86b b13d c92e d0bd 5044 1fbc
000001e0: 1414 303d 2e38 a43d 6ae9 cf3d d8e1 193d
000001f0: 8575 8abd 77b5 033e 086f 403d 4063 6d3b
00000200: 84c3 e13d 00ec 19bb a852 8fbd 4c10 183d
00000210: 8ee8 d03d 9c5c 65bd d406 5c3d 000e 25ba
00000220: 0c13 dc3d 84d8 babd 10ea 313d dbd7 033e
00000230: ceee bfbd 986a e33d a2a3 c63d 6ec1 c83d
00000240: a4cd e03d 6cb1 933d f42d ce3d 0ed2 81bd
00000250: e50f a5bd 2ab7 02be 3454 b23d d898 ba3d
00000260: 2378 c8bd 04a7 e4bc 00a8 71bb 9dfe e8bd
00000270: ca9a f63d 684c 993c dc62 49bd 286a d4bd
00000280: fc11 83bd ce30 bebd f4bb 8c3d 9a2b 1abd
00000290: 3265 a43d b4d0 c03d fcea 0cbd c41e d7bd
000002a0: e09b d93d 283f 7abc 780b 21bd e274 ba3d
000002b0: e0c8 ec3c 3245 933d 0dda edbd 6061 5a3c
000002c0: ca07 e4bd 3074 d0bb 70ab 88bc 3053 023d
000002d0: b709 85bd 9f5d 023e 84f6 453d faa6 97bd
000002e0: fbbc 95bd 42e6 ac3d c83a bbbd 34dc fbbc
000002f0: c096 75bd 0070 823d 02ad a03d b334 91bd
00000300: 7245 99bd fc82 44bd bcac 2d3d b2cc fc3d
00000310: 0022 833b 945b f33d c289 b33d 1ca8 843d
00000320: 700d d83c d65e b03d 2a11 7dbd a01e 93bc
00000330: 2e5f 7bbd 7475 97bd 5c34 623d ac63 733d
00000340: 352b 94bd 1c88 d1bc d8e5 aa3c e4e2 a63d
00000350: 9895 a63d c080 01bc a04e d0bc dcd1 2e3d
00000360: 8a1b bfbd 9050 053c b8f0 9a3c 206f bf3d
00000370: 5c26 c0bd 4b9f 003e 4067 973b 820c aabd
00000380: 5b54 02be 6322 d1bd 61a2 02be 6c80 5f3d
00000390: 9457 6abd a2dc fa3d c844 773d 60bb 773d
000003a0: 248a 3d3d b5d4 febd 988d a63d 37ad 84bd
000003b0: 9f4a cabd 1226 02be 2008 873c a7f0 c9bd
000003c0: e849 a2bc ba49 dcbd 61f8 a7bd 80b6 1cbb
000003d0: 00b7 e93a 7e8e c33d 508c cabc 7ad3 97bd
000003e0: 286a c13d 707a 08bc ac8e bbbd 3476 95bc
000003f0: 267c dabd c09d f13b 7273 df3d fa7a f43d

bias f4 [128]
-0.07658577 -0.018854491 0.068923235 -0.009115547 0.07783033 -0.12073491 0.12718536 -0.028966025
-0.048081256 -0.08965796 0.03970599 0.03664829 -0.08000497 -0.09926903 -0.12892905 -0.1152861
-0.030905284 0.06033741 -0.025440365 -0.12136446 -0.031412072 0.12883733 -0.022104554 -0.06608369
-0.080599904 -0.12215945 -0.079040036 0.050091937 -0.11040879 0.009846404 -0.11440938 0.05984962
-0.0026226938 0.08505325 -0.11724898 -0.05914627 -0.10721199 0.10510218 -0.11096178 -0.0133940205
0.06685971 -0.010482535 -0.113054425 -0.033334285 -0.109615766 0.11540091 -0.050205655 -0.01819864
-0.0854817 -0.12649965 -0.09871854 0.006549433 0.019534469 -0.048822105 0.038039505 0.12865935
-0.06540871 -0.098515235 -0.08420317 0.006142065 0.016733244 -0.07770547 -0.01229123 0.030109227
-0.12804219 -0.09142023 0.010981768 -0.051467143 -0.122702435 0.10440768 -0.008685231 -0.0010528415
0.10979913 0.10438809 0.009717539 0.12666647 -0.123785466 -0.09610616 -0.12844999 -0.06377017
-0.036425225 -0.026937395 0.078666344 -0.10434459 0.07222921 0.11473943 -0.072586134 0.040412545
-0.026813664 0.07216038 -0.07078518 -0.074789315 0.08870435 0.07531895 0.10164435 0.060904026
-0.089736 0.049089015 -0.045377932 -0.029510505 0.008920178 -0.11822379 0.009146318 0.11325008
-0.10612318 -0.06338925 0.115231454 -0.09855944 0.12843321 0.11685662 0.1276332 -0.073934436
-0.04745304 0.037689567 -0.094511285 0.11149737 0.08276887 -0.124896474 -0.04463864 -0.052987307
0.018695861 0.009737939 -0.12404114 0.086771265 0.045413762 -0.004208155 -0.04207076 0.12151016
00000000: 00d9 9cbd bc74 9abc a027 8d3d 6059 15bc
00000010: 8265 9f3d dd43 f7bd e13c 023e 284a edbc
00000020: daf0 44bd 989e b7bd c0a2 223d 841c 163d
00000030: a5d9 a3bd 904d cbbd fa05 04be 1e1b ecbd
00000040: 142d fdbc 5c24 773d 5068 d0bc ee8d f8bd
00000050: f2a9 00bd efed 033e 9c14 b5bc e356 87bd
00000060: 9011 a5bd bc2e fabd bedf a1bd 342d 4d3d
00000070: 011e e2bd d052 213c 774f eabd e024 753d
00000080: 80e1 2bbb 6630 ae3d 3c20 f0bd 5c43 72bd
00000090: f691 dbbd d03f d73d ee3f e3bd 9872 5bbc
000000a0: beed 883d f0be 2bbc 1489 e7bd 8889 08bd
000000b0: 3b7e e0bd 5057 ec3d 72a4 4dbd 5015 95bc
000000c0: 0811 afbd 2089 01be f22c cabd a09c d63b
000000d0: c006 a03c b0f9 47bd 50cf 1b3d 47bf 033e
000000e0: 00f5 85bd 5bc2 c9bd b672 acbd 6043 c93b
000000f0: 2814 893c 0c24 9fbd 2861 49bc a0a7 f63c
00000100: 7e1d 03be 883a bbbd e0ec 333c 36cf 52bd
00000110: 6a4b fbbd b2d3 d53d 804c 0ebc 80ff 89ba
00000120: 5ede e03d 6cc9 d53d 5036 1f3c dbb4 013e
00000130: 3c83 fdbd 4ed3 c4bd 6588 03be ef99 82bd
00000140: 9e32 15bd d0ab dcbc d21b a13d 9eb2 d5bd
00000150: e8ec 933d 82fc ea3d 0aa8 94bd a087 253d
00000160: 54a8 dbbc d2c8 933d d2f7 90bd 242b 99bd
00000170: a0aa b53d d240 9a3d ea2a d03d 8076 793d
00000180: 82c7 b7bd 9011 493d 36de 39bd 04c0 f1bc
00000190: f025 123c 501f f2bd 70da 153c a8ef e73d
000001a0: 1c57 d9bd 39d2 81bd 78fe eb3d 88d9 c9bd
000001b0: ff83 033e 8652 ef3d 47b2 023e f06a 97bd
000001c0: 1e5e 42bd 6060 1a3d 228f c1bd bc58 e43d
000001d0: ba82 a93d b9c9 ffbd 02d7 36bd 3809 59bd
000001e0: 1028 993c e08b 1f3c 4809 febd 22b5 b13d
000001f0: c803 3a3d 90e4 89bb 6452 2cbd 52da f83d

weight f4 [64, 128]
0.042010047 0.0049637854 -0.016866967 0.083291866 0.058858626 -0.014886908 0.06323721 -0.08115826
-0.002381213 0.02912499 -0.04853674 -0.07983583 -0.074307464 -0.0172759 -0.036110945 -0.059720315
0.05978354 -0.04891264 0.08499781 -0.01855217 -0.08046789 -0.025510296 -0.08405472 -0.060560152
-0.060672905 -0.062118404 -0.068939306 0.0135651305 -0.084320225 0.010098964 0.0034312978 0.07767237
0.026143514 -0.028186083 0.004638523 0.044023387 0.007091157 -0.0039369464 0.053587846 0.0026708245
-0.055140868 -0.027880657 -0.06320981 0.04108385 0.08292698 -0.026760623 -0.013682187 0.049131967
0.031234525 -0.03720517 0.040807106 -0.08301872 0.06822061 0.06431409 -0.082391925 0.0051003024
0.08780674 0.038586177 -0.07161045 -0.06984014 -0.024118327 -0.0365475 -0.056010947 -0.02265647
-0.08172259 -0.085725464 0.08470782 -0.076466836 -0.020153694 -0.02970652 0.053289704 0.01683534
0.023430936 0.06841772 0.05226291 -0.047036555 -0.04237047 0.047018938 -0.029490907 0.061405815
0.017097794 -0.017217033 0.0050412267 -0.03277989 -0.037831116 -0.063284054 -0.08067347 -0.064615905
-0.024737626 -0.04890541 -0.045324445 0.06467188 0.062762685 -0.056343507 -0.001009129 0.04271353
0.024028055 -0.011274785 0.08058963 -0.044341404 -0.087384 0.0015770942 -0.078992076 -0.048436083
0.02584681 0.06453239 0.011890829 0.076831706 -0.07564924 0.06879956 0.038255088 0.08382965
-0.06572159 -0.055187482 0.085268624 0.062665634 -0.073348984 -0.06321388 -0.03435615 -0.06481899
-0.016457975 -0.069716066 -0.06605075 -0.010162972 -0.01072979 0.06761073 0.041202717 0.078154184
-0.08303548 -0.0834735 -0.066918835 -0.057924077 -0.08769242 -0.030546274 -0.06390753 0.001193367
-0.044539902 -0.00083171576 -0.08347143 -0.07486791 0.032252453 -0.016332723 -0.08727867 0.073589824
-0.04683733 0.039311506 -0.00060033053 -0.030259624 0.08382919 -0.029331278 -0.031246357 -0.053924385
-0.040948372 -0.023468904 0.07035587 0.07730558 0.005327195 0.08077038 0.014475882 -0.00903625
-0.028054047 0.06779111 -0.015850745 -0.036675207 -0.06941587 0.0013652295 0.082922496 -0.07967867
0.041353785 0.064642005 0.068714164 -0.026045423 0.04317788 0.011089861 0.008598559 0.07863697
-0.02631487 -0.075453654 0.069966145 0.07842193 -0.0038669333 -0.007718459 -0.06694992 0.053887196
0.07199704 -0.053050615 0.056950577 0.062160976 0.0021837875 0.032891557 -0.04259473 0.034896523
0.032129467 -0.01988484 0.0021783784 -0.0152095035 -0.061380923 -0.053523704 0.08408483 0.057386555
-0.06925306 -0.064563565 0.031142443 -0.039637815 0.04239873 -0.052044813 -0.011921182 -0.017720386
-0.010491118 0.06919826 0.044793807 -0.017987683 -0.031121507 -0.077881135 0.030368648 -0.0085528195
-0.06338811 -0.026829273 -0.062432945 -0.02724662 0.008957408 -0.037589163 -0.025972277 -0.012122169
0.047403492 0.08000887 0.06760941 -0.047880284 0.03318665 0.08449573 0.010562204 0.060244046
0.029715016 0.024993956 -0.078736246 -0.06533556 0.0307386 0.070059426 0.0003926307 0.0845707
-0.0066630617 -0.062074278 -0.08722307 -0.052747034 0.07335404 0.08217973 0.030383281 -0.05785478
0.021652162 0.077665426 0.020737074 -0.082714714 -0.07283202 -0.064677596 -0.025054075 0.059981786
00000000: ba12 2c3d 40a7 a23b 982c 8abc ed94 aa3d
00000010: be15 713d 38e8 73bc 8382 813d 4d36 a6bd
00000020: 200e 1cbb 8897 ee3c 76ce 46bd f880 a3bd
00000030: 832e 98bd 3086 8dbc 12e9 13bd 4a9d 74bd
00000040: 96df 743d 9f58 48bd 5513 ae3d b8fa 97bc
00000050: 59cc a4bd f8fa d0bc e224 acbd ec0d 78bd
00000060: 2784 78bd de6f 7ebd 0d30 8dbd 4840 5e3c
00000070: 15b0 acbd 2076 253c a0df 603b b112 9f3d
00000080: ec2a d63c 80e6 e6bc c0fe 973b de51 343d
00000090: f05c e83b 8001 81bb ee7e 5b3d 0009 2f3b
000000a0: 64db 61bd fa65 e4bc 2574 81bd 8a47 283d
000000b0: 9fd5 a93d 1839 dbbc 402b 60bc 9a3e 493d
000000c0: 8cdf ff3c 7364 18bd 5a25 273d b805 aabd
000000d0: 3fb7 8b3d 1bb7 833d 19bd a8bd 7020 a73b
000000e0: 05d4 b33d 8a0c 1e3d 80a8 92bd 5908 8fbd
000000f0: cc93 c5bc d5b2 15bd bc6b 65bd 109a b9bc
00000100: 2c5e a7bd d590 afbd 4b7b ad3d a59a 9cbd
00000110: 5c19 a5bc 165b f3bc 4e46 5a3d 44ea 893c
00000120: 3cf2 bf3c 971e 8c3d a211 563d 67a9 40bd
00000130: a88c 2dbd ee96 403d ea96 f1bc aa84 7b3d
00000140: ac10 8c3c bc0a 8dbc e030 a53b 3544 06bd
00000150: cdf4 1abd 129b 81bd 2238 a5bd 5855 84bd
00000160: 90a6 cabc 0a51 48bd 20a6 39bd b172 843d
00000170: b989 803d 73c8 66bd c044 84ba 62f4 2e3d
00000180: 7cd6 c43c e0b9 38bc 2d0c a53d 559f 35bd
00000190: 62f6 b2bd 80b6 ce3a 99c6 a1bd ea64 46bd
000001a0: b0bc d33c 8f29 843d c0d1 423c f159 9d3d
000001b0: fded 9abd c9e6 8c3d 5eb1 1c3d e1ae ab3d
000001c0: 0a99 86bd 450c 62bd 51a1 ae3d d756 803d
000001d0: fe37 96bd 4776 81bd 09b9 0cbd d2bf 84bd
000001e0: e0d2 86bc 4cc7 8ebd 9e45 87bd 9882 26bc
000001f0: 00cc 2fbc 7f77 8a3d 2ec4 283d 4d0f a03d
00000200: 810e aabd 28f4 aabd be0c 89bd cc41 6dbd
00000210: 1598 b3bd 2e3c fabc f3e1 82bd c06a 9c3a
00000220: 796f 36bd 8007 5aba 12f3 aabd 5954 99bd
00000230: 261b 043d 34cc 85bc 29bf b2bd 43b6 963d
00000240: 80d8 3fbd 1a05 213d 805f 1dba 08e3 f7bc
00000250: a3ae ab3d 2648 f0bc 5cf8 ffbc d1df 5cbd
00000260: 7bb9 27bd dc41 c0bc bd16 903d 6352 9e3d
00000270: c08f ae3b f16a a53d 402c 6d3c c80c 14bc
00000280: 9ad1 e5bc 11d6 8a3d 6cd9 81bc be38 16bd
00000290: e829 8ebd 80f1 b23a 45d3 a93d 922e a3bd
000002a0: 9662 293d 0763 843d 03ba 8c3d 365d d5bc
000002b0: 4adb 303d 40b2 353c f8e0 0c3c 6b0c a13d
000002c0: 4892 d7bc 7287 9abd 694a 8f3d ad9b a03d
000002d0: 606c 7dbb 20eb fcbb 0a1d 89bd d2b8 5c3d
000002e0: 2f73 933d 9a4b 59bd 0245 693d 829c 7e3d
000002f0: e01d 0f3b 4cb9 063d d077 2ebd a8ef 0e3d
00000300: 309a 033d 88e5 a2bc 20c3 0e3b 4831 79bc
00000310: 906a 7bbd ac3b 5bbd ab34 ac3d 2a0e 6b3d
00000320: 8cd4 8dbd e739 84bd 701e ff3c 435b 22bd
00000330: 4aaa 2d3d f12c 55bd 1051 43bc 582a 91bc
00000340: f0e2 2bbc d1b7 8d3d b679 373d e85a 93bc
00000350: 88f2 febc 2580 9fbd acc7 f83c 2021 0cbc
00000360: a0d1 81bd 10c9 dbbc b0b9 7fbd 4e34 dfbc
00000370: 18c2 123c 18f7 19bd d0c3 d4bc 109c 46bc
00000380: 2a2a 423d b1db a33d cd76 8a3d 1e1e 44bd
00000390: baee 073d 190c ad3d 180d 2d3c 76c2 763d
000003a0: e86c f33c 20c0 cc3c 7840 a1bd a6ce 85bd
000003b0: 84cf fb3c 517b 8f3d 00da cd39 6733 ad3d
000003c0: d055 dabb 9941 7ebd 02a2 b2bd 460d 58bd
000003d0: a53a 963d d94d a83d 5ce6 f83c 22f9 6cbd
000003e0: e05f b13c 0d0f 9f3d cce0 a93c 5566 a9bd
000003f0: f428 95bd b075 84bd 343e cdbc 76af 753d

bias f4 [64]
-0.065639816 0.08574114 -0.06287676 0.07355658 0.07598094 -0.061945572 0.07038959 0.043044873
-0.029041138 -0.0012932941 -0.008570477 -0.059126 -0.03986316 0.03064552 0.048434146 -0.04076721
-0.0019695759 -0.055278424 -0.02158866 0.051361047 0.043627955 -0.019095808 -0.0719493 -0.021547273
0.028643675 0.004338458 0.012900963 -0.055607054 0.06537712 -0.0021787807 0.031673796 0.08374862
0.03605862 0.0075715557 0.076406635 0.039366357 0.03115058 -0.05730159 0.012879558 0.07634614
0.074349575 -0.08726834 0.052801095 0.015423231 0.01858811 0.03435319 -0.06364797 0.07166519
-0.03813116 -0.050293192 0.069995366 -0.074158475 -0.07246398 -0.007856026 0.0458759 0.066669084
0.083185054 -0.057107273 0.061425723 0.028344236 -0.07712214 0.012144342 0.017284445 -0.042093374
00000000: 2b6e 86bd 0d99 af3d 88c5 80bd d5a4 963d
00000010: e59b 9b3d a4ba 7dbd 6b28 903d d24f 303d
00000020: aee7 edbc c083 a9ba 306b 0cbc 1b2e 72bd
00000030: 8e47 23bd 500c fb3c e262 463d 85fb 26bd
00000040: 0014 01bb a16b 62bd b4da b0bc f65f 523d
00000050: 3ab3 323d d06e 9cbc 285a 93bd e883 b0bc
00000060: 24a6 ea3c a029 8e3b 905e 533c 39c4 63bd
00000070: 71e4 853d e0c9 0ebb 62bc 013d 6584 ab3d
00000080: 34b2 133d d01a f83b 157b 9c3d 9e3e 213d
00000090: 802f ff3c 12b5 6abd c804 533c 5d5b 9c3d
000000a0: 9744 983d beb9 b2bd f645 583d b8b1 7c3c
000000b0: 1846 983c eeb5 0c3d de59 82bd 33c5 923d
000000c0: 6b2f 1cbd 3c00 4ebd bb59 8f3d 66e0 97bd
000000d0: ff67 94bd 90b6 00bc 5ee8 3b3d cd89 883d
000000e0: ed5c aa3d 51e9 69bd 8a99 7b3d 2c32 e83c
000000f0: 36f2 9dbd 10f9 463c 1c98 8d3c 1a6a 2cbd

weight f4 [10, 64]
-0.034755647 0.10844582 0.02062358 -0.04978293 0.021660477 -0.12191507 0.040880024 -0.041244283
0.115050316 -0.027380794 0.00025835633 0.023565859 0.060280994 0.024894312 0.11991264 -0.123616785
-0.058635473 0.025659159 0.105795845 -0.078580335 0.00085029006 -0.09362459 0.06578012 -0.05293885
0.10686119 0.06886232 0.0077154636 0.09983873 0.04513243 -0.04644464 -0.12216242 0.08250843
-0.004384786 0.106617436 -0.016994685 -0.082325906 -0.10185389 -0.0016679615 -0.05470723 -0.07291059
-0.07329643 -0.018622309 -0.083715454 -0.010452852 -0.0058972687 -0.057268232 0.08784756 0.06962909
0.031734213 0.03446041 -0.061488494 -0.013782263 0.049172476 0.033964485 -0.123196095 -0.10131274
-0.050453544 0.07466258 0.065605596 -0.019399658 -0.049422726 -0.12410779 -0.071422964 -0.12299977
0.049495995 -0.07348247 0.103064984 -0.055038244 0.0146137625 0.11290674 -0.02810587 -0.046013832
0.040033653 0.07351901 0.077428624 0.08660114 0.08625449 -0.06267643 -0.1105105 -0.061063185
-0.00041927397 -0.0059491396 -0.113081545 0.10898237 -0.0053039044 0.12336704 0.08273797 -0.017928928
0.10359733 0.07489759 0.0844471 0.0049630255 -0.092975095 0.07010208 0.1223398 -0.012393951
0.09021823 -0.10903695 0.02039957 0.004025519 -0.08412418 -0.10485056 0.0032965243 0.027145207
-0.011419177 -0.05347541 0.06557505 0.07073173 0.09655142 -0.051024407 -0.07514812 -0.023135707
-0.01759237 0.09947352 0.07719275 0.033002183 0.02212517 -0.035245135 0.100057945 0.014572099
-0.1046108 -0.03897214 -0.029780999 -0.094188705 -0.05469948 0.06396636 -0.10384093 -0.047053322
-0.061790198 0.019379199 0.11794111 0.07160589 -0.009967506 0.044169918 -0.092712745 -0.113515645
0.07023518 -0.07864991 -0.06523031 0.10219261 0.047812954 0.119938895 0.056433648 -0.059649423
0.11919737 0.058878735 0.054641083 -0.055147186 0.017492265 -0.034983844 -0.11930339 0.01234743
0.10905215 -0.10009052 0.12224656 0.040356085 0.10964078 0.11903486 0.0008084774 -0.09680824
-0.0012819916 0.058092773 0.08949642 0.11772469 0.09290999 0.012839317 0.10719377 -0.08571993
-0.049067557 -0.094928026 0.09832269 -0.10451719 0.037309483 0.11631204 -0.03444557 0.1219866
-0.10308279 -0.105435014 -0.10775326 -0.10315333 -0.10769001 -0.10069674 -0.078507036 -0.013866171
-0.012006775 -0.008071348 -0.08568217 0.08357759 0.008698195 -0.03776841 -0.006447464 -0.07208471
-0.07943545 0.05068676 0.018685848 -0.039788544 0.007740304 0.06898248 -0.037953362 -0.043202847
-0.1244123 -0.030913413 -0.0625236 -0.030180514 -0.001125887 -0.0844852 0.108605385 -0.05321607
-0.11326267 0.10336502 0.030890465 0.090308994 0.04663956 0.043569192 -0.029778942 -0.059745386
-0.04715556 0.027036875 0.028007567 0.01924868 0.05622284 -0.109754086 -0.066575795 -0.014526635
-0.059765145 -0.0009191483 0.07698095 -0.04829651 -0.07707892 -0.08731958 0.05785753 0.086847425
-0.08724359 -0.0776601 0.07014795 0.009076908 -0.052665874 0.07266609 0.059361756 0.01727292
0.0653694 0.05358596 -0.10305932 0.11772944 0.061941043 0.05503592 0.08010827 -0.060640678
-0.06348106 -0.07395725 0.03477791 0.043122053 0.099854976 0.04261361 0.010806829 -0.10891722
00000000: f05b 0ebd d818 de3d c8f2 a83c 30e9 4bbd
00000010: 5071 b13c 9cae f9bd d071 273d c4ef 28bd
00000020: 809f eb3d b04d e0bc 0074 8739 300d c13c
00000030: 34e9 763d 28ef cb3c c294 f53d cc2a fdbd
00000040: c02b 70bd 2833 d23c 7eab d83d baee a0bd
00000050: 00e6 5e3a 40be bfbd bab7 863d 68d6 58bd
00000060: 0ada da3d b007 8d3d 00d2 fc3b 4078 cc3d
00000070: c8dc 383d bc3c 3ebd 4a30 fabd 2efa a83d
00000080: 40ae 8fbb 3e5a da3d 7038 8bbc 7c9a a8bd
00000090: c698 d0bd 809f daba b014 60bd 2652 95bd
000000a0: 701c 96bd d08d 98bc 0273 abbd 7042 2bbc
000000b0: e03d c1bb 1892 6abd 6ce9 b33d b299 8e3d
000000c0: bcfb 013d 5c26 0d3d 5cdb 7bbd 00cf 61bc
000000d0: 1469 493d 581e 0b3d 3c4e fcbd 0e7d cfbd
000000e0: 60a8 4ebd b2e8 983d 3a5c 863d 08ec 9ebc
000000f0: 7c6f 4abd 3a2c febd 3446 92bd 4ee7 fbbd
00000100: 50bc 4a3d fa7d 96bd bc13 d33d c86f 61bd
00000110: 906e 6f3c a63b e73d 483e e6bc 0079 3cbd
00000120: 54fa 233d 2291 963d e692 9e3d f05b b13d
00000130: 32a6 b03d 805c 80bd 5453 e2bd 641d 7abd
00000140: 00d2 dbb9 00f1 c2bb 4c97 e7bd 2632 df3d
00000150: 60cc adbb dca7 fc3d 8672 a93d b0df 92bc
00000160: d62a d43d e863 993d 9af2 ac3d e0a0 a23b
00000170: ba69 bebd ae91 8f3d 4a8d fa3d 0010 4bbc
00000180: 56c4 b83d c44e dfbd 001d a73c 80e8 833b
00000190: 4c49 acbd e4bb d6bd 800a 583b a05f de3c
000001a0: 8017 3bbc 0809 5bbd 364c 863d ccdb 903d
000001b0: c0bc c53d f8fe 50bd 42e7 99bd 1887 bdbc
000001c0: e01d 90bc c6b8 cb3d 3c17 9e3d 4c2d 073d
000001d0: d83f b53c 345d 10bd 2eeb cc3d d0bf 6e3c
000001e0: 303e d6bd 40a1 1fbd 48f7 f3bc 02e6 c0bd
000001f0: 900c 60bd cc00 833d 8eaa d4bd fcba 40bd
00000200: b817 7dbd 20c1 9e3c 1c8b f13d 1ca6 923d
00000210: c04e 23bc 84eb 343d 2ee0 bdbd e47a e8bd
00000220: 76d7 8f3d 3413 a1bd 7897 85bd 5c4a d13d
00000230: 84d7 433d 86a2 f53d f826 673d f452 74bd
00000240: c01d f43d d42a 713d 54cf 5f3d 04e2 61bd
00000250: f04b 8f3c 384b 0fbd 5655 f4bd e04c 4a3c
00000260: bc56 df3d 42fc ccbd 685c fa3d 6c4c 253d
00000270: 588b e03d 8cc8 f33d 00f0 533a 6643 c6bd
00000280: 8008 a8ba b0f2 6d3d e649 b73d a419 f13d
00000290: 9847 be3d 005c 523c 6888 db3d ee8d afbd
000002a0: 10fb 48bd a069 c2bd 685d c93d 1c0d d6bd
000002b0: d4d1 183d 0235 ee3d cc16 0dbd 1cd4 f93d
000002c0: 121d d3bd 50ee d7bd bead dcbd 0e42 d3bd
000002d0: 948c dcbd 183a cebd 4cc8 a0bd f02e 63bc
000002e0: 10b8 44bc b03d 04bc 227a afbd ba2a ab3d
000002f0: e082 0e3c 0cb3 1abd 4045 d3bb 26a1 93bd
00000300: 0eaf a2bd ec9c 4f3d 1013 993c 50f9 22bd
00000310: 60a2 fd3b b046 8d3d fc74 1bbd 78f5 30bd
00000320: e0cb febd 203e fdbc 600c 80bd 203d f7bc
00000330: 8092 93ba 9406 adbd 806c de3d 18f9 59bd
00000340: 42f6 e7bd 0ab1 d33d 000e fd3c ecf3 b83d
00000350: 2009 3f3d 9c75 323d f8f2 f3bc 94b7 74bd
00000360: 3026 41bd 707c dd3c 2070 e53c 68af 9d3c
00000370: ec49 663d c0c6 e0bd e458 88bd 2001 6ebc
00000380: 4ccc 74bd 00f3 70ba 30a8 9d3d 90d2 45bd
00000390: 8edb 9dbd 9cd4 b2bd 04fc 6c3d 10dd b13d
000003a0: c4ac b2bd 420c 9fbd baa9 8f3d 50b7 143c
000003b0: 2cb8 57bd f6d1 943d 5025 733d f07f 8d3c
000003c0: 64e0 853d f47c 5b3d c410 d3bd 221c f13d
000003d0: e4b5 7d3d 586d 613d ce0f a43d 5c62 78bd
000003e0: 5c02 82bd e676 97bd 4873 0e3d c0a0 303d
000003f0: c480 cc3d 9c8b 2e3d 200f 313c fe0f dfbd

bias f4 [10]
0.08259325 -0.11635257 -0.05891697 -0.07180159 -0.030122668 -0.03121908 0.0155956 0.028419912
-0.057311475 -0.1161035
00000000: a626 a93d 424a eebd ec52 71bd b60c 93bd
00000010: d0c3 f6bc 28bf ffbc b084 7f3c e0d0 e83c
00000020: 70bf 6abd acc7 edbd
