models/model1.onnx (onnx, 67637 bytes, 6 tensors)

linear1.weight f4 [128, 60]
0.015261099 -0.08220765 -0.10124216 -0.063966416 0.10197647 0.11098628 -0.0620019 -0.05174672
0.06306799 -0.052668728 0.0029205978 0.02188924 -0.052000374 0.06368707 -0.08860012 0.12686236
0.026179627 0.05611524 -0.06816287 -0.02534289 0.12723203 0.04322259 0.112394094 0.009432375
0.013167396 -0.12651822 -0.03764101 0.023562938 0.05499722 -0.054040484 0.028677851 0.06330423
0.06057407 0.021615386 0.04315591 0.045781 0.12481631 0.08216937 0.019500092 0.009140268
0.06301494 -0.11223772 -0.068997055 0.052521616 0.030439511 -0.12580147 -0.05150547 -0.022946179
0.007387802 0.035521507 -0.11216459 0.021640807 -0.11748252 -0.058963664 -0.021450974 -0.07433841
-0.1054045 -0.032250486 -0.015172027 0.1176085 -0.016033992 0.04925704 0.07342069 -0.0402409
0.027439058 0.09119302 -0.07364883 -0.06911673 0.06650865 0.12074998 -0.07199741 0.06617631
-0.0068082213 -0.022035837 -0.048096262 -0.027982153 -0.09759175 0.022835717 -0.053547487 -0.104509704
0.12184493 -0.055996798 -0.0704159 -0.118842304 0.12384342 0.0644985 0.021719888 -0.09119517
0.08925615 -0.0030719787 0.0922859 -0.084335476 -0.023462355 -0.111731626 -0.0035446137 -0.1259069
0.036152497 0.11457014 0.08186884 0.0928033 -0.10298394 0.115250036 0.095796764 -0.05251938
-0.1093966 0.11888698 -0.105319396 0.027088732 -0.06795016 0.11433606 0.07692909 -0.07971655
-0.06680888 -0.05279857 -0.041053206 0.05557193 -0.062481865 -0.033599913 0.05254112 -0.062461413
0.06310755 -0.11774832 0.110760346 0.05586058 -0.010943122 0.0037304163 -0.030484237 0.013844639
0.067923665 0.037692785 0.10602787 0.037558004 -0.10009515 -0.1270312 -0.09536932 -0.10931367
-0.049700588 -0.06518726 -0.04215025 0.0355597 -0.0038697869 0.08394031 0.080813214 -0.1141291
0.050130233 -0.030848898 0.11380081 0.10694583 0.012753636 0.090622604 -0.062094674 0.077167615
-0.04182539 0.0018999577 0.004712209 0.09658833 -0.030023664 -0.09703435 0.06401752 0.042506307
0.06314412 -0.024489827 0.09209518 0.03420107 -0.016835332 0.03718008 -0.017523378 0.0073088706
-0.10143978 0.11112198 -0.07644332 0.04789777 0.009687424 0.064741716 -0.040662408 0.10645211
0.09264965 -0.118969075 -0.0087576285 0.045067236 -0.11588168 -0.08934425 0.12023084 0.058881104
-0.12542209 0.12036462 0.045659214 0.08304605 -0.05698912 0.03452733 0.09885898 0.08981748
-0.08188978 0.09160775 0.07290608 -0.06526255 -0.08377673 0.0073657185 -0.095771946 0.11911574
-0.075586125 0.015110761 -0.06744547 -0.011465751 -0.11175188 -0.12800628 -0.10294296 -0.1057673
-0.10414275 -0.07963049 -0.12871864 -0.07295026 0.0038732588 -0.016514696 -0.106581055 0.039007053
0.052609026 -0.019063875 -0.035890736 0.036319777 0.021761954 0.0493308 -0.0032183975 -0.10174818
0.096681535 0.013715833 -0.012281485 0.11477965 0.068154275 0.016513541 -0.10794903 -0.11028795
0.04661469 0.088274285 0.11202961 0.02756603 0.020195112 0.06682883 0.104365245 0.024730965
0.0996007 -0.08388367 -0.12864396 0.09746441 -0.005271822 0.126691 0.06588784 -0.039922357
-0.007835865 -0.12111992 -0.050113685 -0.119867116 0.109574094 -0.079759635 0.090773985 0.120000154
00000000: b009 7a3c 7c5c a8bd 0d58 cfbd d300 83bd
00000010: 0ad9 d03d c64c e33d b4f5 7dbd 5ef4 53bd
00000020: ca29 813d 2abb 57bd 8067 3f3b 1051 b33c
00000030: 58fe 54bd 5e6e 823d fb73 b5bd 35e8 013e
00000040: a876 d63c 18d9 653d fa98 8bbd e49b cfbc
00000050: 1d49 023e 2c0a 313d e02e e63d 408a 1a3c
00000060: 10bc 573c fe8d 01be 762d 1abd 1007 c13c
00000070: c444 613d 8e59 5dbd d0ed ea3c a6a5 813d
00000080: 841c 783d c012 b13c 40c4 303d dc84 3b3d
00000090: b29f ff3d 6a48 a83d a8be 9f3c 10c1 153c
000000a0: fa0d 813d e4dc e5bd 544e 8dbd e820 573d
000000b0: 485c f93c 1ad2 00be 66f7 52bd a0f9 bbbc
000000c0: 6015 f23b 007f 113d 8cb6 e5bd 1048 b13c
000000d0: ad9a f0bd e283 71bd f4b9 afbc bc3e 98bd
000000e0: 51de d7bd 1619 04bd 1894 78bc badc f03d
000000f0: b859 83bc c0c1 493d 965d 963d a4d3 24bd
00000100: e0c7 e03c 68c3 ba3d 33d5 96bd 128d 8dbd
00000110: b035 883d c44b f73d 6173 93bd 7287 873d
00000120: 8017 dfbb 8084 b4bc 9600 45bd d43a e5bc
00000130: 2fde c7bd f811 bb3c 9c54 5bbd 2f09 d6bd
00000140: d689 f93d e65c 65bd 3636 90bd 9863 f3bd
00000150: 9ea1 fd3d ca17 843d e8ed b13c 89c4 babd
00000160: eecb b63d 4053 49bb 6400 bd3d 14b8 acbd
00000170: 2034 c0bc 8dd3 e4bd c04c 68bb bded 00be
00000180: a414 143d c0a3 ea3d daaa a73d a80f be3d
00000190: 3ee9 d2bd 3608 ec3d 1831 c43d 901e 57bd
000001a0: 530b e0bd 047b f33d b2b1 d7bd 30e9 dd3c
000001b0: 7429 8bbd 0629 ea3d 008d 9d3d 6e42 a3bd
000001c0: 18d3 88bd 5043 58bd 6827 28bd 649f 633d
000001d0: fcec 7fbd 10a0 09bd 5c35 573d 8ad7 7fbd
000001e0: 883e 813d 0826 f1bd 52d6 e23d 10ce 643d
000001f0: c84a 33bc 007a 743b 14ba f9bc a0d4 623c
00000200: 901b 8b3d c063 1a3d 2425 d93d 6cd6 193d
00000210: b0fe ccbd 7814 02be fd50 c3bd d8df dfbd
00000220: d892 4bbd e680 85bd bea5 2cbd 0ca7 113d
00000230: 409c 7dbb e6e8 ab3d 6681 a53d 85bc e9bd
00000240: 5c55 4d3d d4b6 fcbc 6610 e93d 6a06 db3d
00000250: a0f4 503c 5898 b93d fc56 7ebd 0e0a 9e3d
00000260: 1a51 2bbd 0008 f93a e068 9a3b 1ad0 c53d
00000270: 30f4 f5bc f2b9 c6bd 9e1b 833d 181b 2e3d
00000280: b451 813d e49e c8bc 669c bc3d 6c16 0c3d
00000290: 40ea 89bc 244a 183d 308d 8fbc 407f ef3b
000002a0: a9bf cfbd ec93 e33d 518e 9cbd 7430 443d
000002b0: 00b8 1e3c 4e97 843d a08d 26bd 9003 da3d
000002c0: 1abf bd3d 0fa6 f3bd 287c 0fbc 6c98 383d
000002d0: 6053 edbd 1efa b6bd 963b f63d 502d 713d
000002e0: a66e 00be ba81 f63d 2805 3b3d 0c14 aa3d
000002f0: 6c6d 69bd 886c 0d3d 9476 ca3d 3af2 b73d
00000300: d4b5 a7bd d89c bb3d c84f 953d 5fa8 85bd
00000310: 2293 abbd 205c f13b 1524 c4bd f4f2 f33d
00000320: e6cc 9abd 2093 773c da20 8abd d8da 3bbc
00000330: 2bde e4bd 1414 03be c2d3 d2bd 879c d8bd
00000340: cb48 d5bd 4f15 a3bd d2ce 03be f266 95bd
00000350: 80d6 7d3b d449 87bc 2b47 dabd dcc5 1f3d
00000360: 907c 573d d82b 9cbc 2a02 13bd 0cc4 143d
00000370: 2046 b23c 180f 4a3d c0eb 52bb 5a61 d0bd
00000380: f800 c63d 60b8 603c 4838 49bc 9811 eb3d
00000390: 7894 8b3d 6847 873c 6214 ddbd a6de e1bd
000003a0: 0cef 3e3d 26c9 b43d c86f e53d 28d2 e13c
000003b0: 3870 a53c 8edd 883d 72bd d53d 9898 ca3c
000003c0: 74fb cb3d 34cb abbd 3ebb 03be 6c9b c73d
000003d0: 40bf acbb 49bb 013e 34f0 863d a085 23bd
000003e0: 0062 00bc b80d f8bd 0244 4dbd e47c f5bd
000003f0: 6268 e03d 0559 a3bd b6e7 b93d a4c2 f53d

linear1.bias f4 [128]
-0.031023882 -0.11637173 0.1065872 -0.055477478 -0.07221836 -0.12308438 -0.09692617 0.12041189
0.069437385 -0.11274819 0.11657719 -0.094415635 0.10804641 0.088986486 0.04001884 -0.015082471
0.06700677 0.087923095 -0.09239692 -0.08680627 -0.03804964 0.053091437 -0.12713929 0.10058576
0.05303818 0.12718551 -0.06693445 -0.07207826 -0.05039767 0.024561122 0.09848684 0.048945546
0.06955798 0.053055048 0.11589122 -0.061410487 0.018288285 0.07764743 -0.083615534 0.11490318
0.06873147 0.017395422 -0.05977308 -0.07598738 -0.06626966 0.07582569 -0.089647844 -0.0073544756
-0.026912607 0.013938442 0.11443713 -0.06335463 -0.030622423 0.009104952 0.04863313 -0.1268559
0.05929014 0.047525823 -0.11148385 0.05233878 0.058894932 0.08773103 0.026479945 -0.013755679
0.008275881 -0.105032295 -0.10203867 -0.057688892 -0.0795393 0.031209975 0.033915356 0.005576223
0.012314633 0.008886114 0.047709674 -0.021983266 -0.115265734 -0.11050518 0.042724088 0.11238116
-0.002291888 -0.06519488 0.12386547 -0.06838684 -0.048881233 -0.013086066 -0.014608845 -0.003967613
0.061019853 -0.042444877 0.091407776 -0.0204131 0.063145086 -0.104446486 -0.009895749 -0.1071067
0.098658785 -0.020556562 0.066135556 0.074791044 0.04261923 0.10611564 -0.08938396 0.02667749
0.028655142 -0.043371685 -0.12769552 -0.08320547 -0.006790079 0.07387301 -0.12204908 -0.087782964
0.114636734 0.07455833 0.07399577 -0.045348816 0.048889294 -0.067398906 -0.08753322 -0.07263115
0.061623454 0.015682563 0.10037866 -0.03399037 -0.063921325 -0.02139397 -0.031846315 0.055040047
00000000: cc25 febc 4d54 eebd 644a da3d 5a3c 63bd
00000010: 38e7 93bd aa13 fcbd 3a81 c6bd 829a f63d
00000020: 3035 8e3d 86e8 e6bd 06c0 ee3d fc5c c1bd
00000030: 7047 dd3d 8c3e b63d ccea 233d 781c 77bc
00000040: d83a 893d 0611 b43d 993a bdbd 7cc7 b1bd
00000050: f0d9 1bbd 6876 593d cd30 02be e8ff cd3d
00000060: 903e 593d eb3c 023e ee14 89bd c49d 93bd
00000070: ca6d 4ebd 6834 c93c 78b3 c93d 207b 483d
00000080: 6a74 8e3d 4050 593d 6058 ed3d 9089 7bbd
00000090: 50d1 953c 9e05 9f3d 9f3e abbd 5c52 eb3d
000000a0: 16c3 8c3d d880 8e3c 9ed4 74bd 469f 9bbd
000000b0: 63b8 87bd 804a 9b3d 4a99 b7bd d0fd f0bb
000000c0: d477 dcbc 105e 643c 045e ea3d 12c0 81bd
000000d0: e0db fabc f02c 153c 8833 473d 83e6 01be
000000e0: 38da 723d 70aa 423d a551 e4bd 3061 563d
000000f0: d03b 713d 54ac b33d 78ec d83c 805f 61bc
00000100: 9097 073c 2c1b d7bd a6f9 d0bd 304b 6cbd
00000110: 80e5 a2bd 10ac ff3c d4ea 0a3d c0b8 b63b
00000120: 50c3 493c 1097 113c 386b 433d 4016 b4bc
00000130: 7110 ecbd 8a50 e2bd 74ff 2e3d 1828 e63d
00000140: 8033 16bb e584 85bd 2ead fd3d 660e 8cbd
00000150: b037 48bd f066 56bc f059 6fbc c002 82bb
00000160: f4ef 793d aeda 2dbd 0034 bb3d 6039 a7bc
00000170: 3652 813d 0ae8 d5bd c821 22bc c25a dbbd
00000180: 9e0d ca3d 3c66 a8bc 1472 873d 0c2c 993d
00000190: 8091 2e3d 2853 d93d f00e b7bd c08a da3c
000001a0: 30be ea3c 82a6 31bd 9dc2 02be a167 aabd
000001b0: 507f debb bc4a 973d def4 f9bd 8ec7 b3bd
000001c0: aac6 ea3d 0ab2 983d 188b 973d aebf 39bd
000001d0: 2440 483d 7008 8abd 9e44 b3bd a4bf 94bd
000001e0: e068 7c3d b878 803c 5493 cd3d 7c39 0bbd
000001f0: 2fe9 82bd 6842 afbc 4871 02bd ac71 613d

linear2.weight f4 [64, 128]
0.03950549 0.039245524 -0.08165174 -0.07004899 0.051606826 -0.08817558 0.008646488 0.060785584
0.07691636 0.057954572 -0.019661851 -0.015614942 0.068490945 0.059770696 0.07511134 -0.00096315145
0.048496194 0.0429874 -0.018643066 -0.07148505 -0.07408933 -0.036871128 0.085218884 0.034717
0.061009623 -0.06775357 0.08339506 0.052034356 0.009561665 0.038043804 0.028083868 -0.06624535
-0.0035597533 0.062739156 0.019880608 0.008036442 0.039497174 0.04227885 -0.036932796 -0.03474622
-0.051891685 0.08405285 -0.037612963 0.010486484 -0.07598585 0.022048175 0.008119926 -0.07254256
-0.03811469 -0.084782176 0.011852428 0.06317916 0.07826836 0.013424195 0.060601704 0.01806654
0.029851295 -0.07437969 0.030599676 -0.011962719 0.08629546 0.036115117 -0.07238218 0.043048404
0.027225114 -0.073156476 0.06054098 -0.07531773 -0.04768173 0.074202545 -0.060541175 -0.05980315
0.046872683 -0.034261722 -0.0076925606 -0.060957156 0.0110391155 -0.044090174 0.047071494 0.007404737
0.0055784807 0.029654004 -0.052614156 -0.009636842 0.0661285 -0.07579326 0.0053952485 -0.038900413
0.08014589 0.068597145 -0.022349916 0.03542816 -0.082367584 0.010395475 0.034466572 -0.026485607
0.06501473 0.085837044 -0.047157906 0.08520191 0.06507575 -0.023208037 0.08024987 0.08147002
0.033248395 0.004396625 -0.014739662 0.08337919 -0.05717456 0.07352089 0.024187684 0.020655222
-0.07763036 -0.038630094 -0.011659272 0.054344885 0.048920758 0.018952265 -0.0018513426 -0.027970366
-0.017148308 -0.046768915 0.032555424 0.07613269 -0.054054998 -0.008696668 0.023846097 -0.053819124
0.007860355 0.042069428 -0.07653066 0.030968025 0.06596961 0.06287109 -0.0048688874 -0.039873153
0.044985674 -0.02723977 0.023611203 0.08079971 -0.083401576 0.08708011 -0.047204133 -0.017230645
0.037798204 -0.07262198 -0.015328459 0.0486257 0.02343554 -0.00033857673 -0.0026338845 0.0070440695
0.047450908 -0.04798901 -0.079974785 0.0043810457 0.024860494 -0.026214033 0.054757424 -0.05877501
0.047118507 0.037616856 -0.08759883 0.067119576 0.08253618 -0.04417367 -0.0038564876 -0.06546658
0.07313935 0.039866306 0.056627728 -0.038261626 -0.070805155 0.06396256 0.07707357 -0.08820535
0.0015300587 0.028152317 -0.06087423 0.007167116 -0.07077444 -0.05850462 0.083722435 0.020480052
-0.040007465 -0.02585642 -0.030967511 0.031214155 -0.06056071 -0.016880803 0.026517786 0.034983054
-0.03388925 -0.026993211 -0.05530797 -0.08750059 0.007935144 -0.045850385 0.026788466 -0.024226442
-0.029363286 -0.054102413 0.08002802 -0.0070617646 -0.08805312 -0.0037516505 -0.08771429 -0.07417588
0.030794933 -0.07361986 0.06418761 0.009064913 0.07434068 0.040736504 0.013015769 0.06055001
-0.04911335 0.05765929 -0.014128067 -0.022217058 0.0067773685 -0.030868698 -0.07706936 -0.085702136
0.056789108 0.017745622 -0.036050517 0.07881007 -0.08458742 0.045722164 0.022033349 -0.06693687
-0.08611118 0.08206088 -0.017258726 -0.06261186 -0.06737673 0.06481936 -0.014513165 -0.011160545
0.06295631 0.058085255 0.007690273 0.05418407 -0.0067492723 -0.019979246 -0.028090075 -0.03844472
0.038428865 0.03971467 -0.021504343 0.054775916 0.009766787 0.012621835 -0.0059442967 -0.012266576
00000000: 82d0 213d eabf 203d 0739 a7bd d875 8fbd
00000010: ae61 533d 6695 b4bd 00aa 0d3c 4efa 783d
00000020: 5386 9d3d c661 6d3d e411 a1bc d0d5 7fbc
00000030: fb44 8c3d 1ed2 743d f9d3 993d 007c 7cba
00000040: f2a3 463d 8e13 303d 58b9 98bc c166 92bd
00000050: 26bc 97bd 2e06 17bd 3d87 ae3d 6a33 0e3d
00000060: 3ae5 793d 62c2 8abd 07cb aa3d fa21 553d
00000070: 88a8 1c3c d2d3 1b3d 2410 e63c a4ab 87bd
00000080: c04a 69bb 637d 803d a8dc a23c 48ab 033c
00000090: cac7 213d 962c 2d3d d846 17bd 0d52 0ebd
000000a0: 608c 54bd e723 ac3d 0d10 1abd 80cf 2b3c
000000b0: 789e 9bbd 609e b43c 7009 053c 3291 94bd
000000c0: 261e 1cbd 47a2 adbd b030 423c 1364 813d
000000d0: 294b a03d 28f1 5b3c 7e39 783d 4800 943c
000000e0: b48a f43c 6154 98bd 2cac fa3c 48ff 43bc
000000f0: adbb b03d 72ed 133d 1c3d 94bd 8653 303d
00000100: 3407 df3c 10d3 95bd d2f9 773d 2f40 9abd
00000110: eb4d 43bd 81f7 973d 06fa 77bd 26f4 74bd
00000120: 92fd 3f3d 0556 0cbd e011 fcbb 36ae 79bd
00000130: 68dd 343c e697 34bd 0ace 403d 70a3 f23b
00000140: b0cb b63b f4ec f23c f181 57bd d8e3 1dbc
00000150: 616e 873d 7f39 9bbd a0ca b03b 0a56 1fbd
00000160: 8723 a43d a97c 8c3d 2c17 b7bc 1e1d 113d
00000170: 56b0 a8bd c851 2a3c d22c 0d3d 58f8 d8bc
00000180: 7126 853d 55cb af3d a628 41bd 577e ae3d
00000190: 6f46 853d c81e bebc 0b5a a43d c1d9 a63d
000001a0: 782f 083d 9011 903b a07e 71bc b5c2 aa3d
000001b0: df2f 6abd 1f92 963d 4025 c63c 2435 a93c
000001c0: abfc 9ebd 973a 1ebd 8806 3fbc be98 5e3d
000001d0: 2261 483d c841 9b3c c0a8 f2ba 1c22 e5bc
000001e0: 9c7a 8cbc c390 3fbd d658 053d 75eb 9b3d
000001f0: c668 5dbd 787c 0ebc e458 c33c 7171 5cbd
00000200: b8c8 003c fe50 2c3d 1bbc 9cbd a8b0 fd3c
00000210: 131b 873d 8fc2 803d 308b 9fbb 0852 23bd
00000220: e642 383d f025 dfbc 486c c13c 517a a53d
00000230: 72ce aabd 0f57 b23d 1f59 41bd 4827 8dbc
00000240: 4ad2 1a3d d5ba 94bd 3824 7bbc be2b 473d
00000250: e4fb bf3c 0083 b1b9 409d 2cbb f0d1 e63b
00000260: e25b 423d 2090 44bd d2c9 a3bd e08e 8f3b
00000270: 3ca8 cb3c d0be d6bc 5249 603d 11be 70bd
00000280: 56ff 403d 2214 1a3d 0467 b3bd fd75 893d
00000290: bb08 a93d 73ef 34bd 20bd 7cbb 5813 86bd
000002a0: 15ca 953d da4a 233d 7af2 673d 39b8 1cbd
000002b0: 4b02 91bd cdfe 823d bfd8 9d3d 02a5 b4bd
000002c0: 408c c83a b09f e63c 4257 79bd 20da ea3b
000002d0: 31f2 90bd 8aa2 6fbd ab76 ab3d c8c5 a73c
000002e0: dede 23bd d8d0 d3bc 94af fdbc d4b4 ff3c
000002f0: 820e 78bd 9c49 8abc d43b d93c 644a 0f3d
00000300: 74cf 0abd de20 ddbc 9c8a 62bd 8233 b3bd
00000310: 6802 023c 9dcd 3bbd 7c73 db3c 8876 c6bc
00000320: 468b f0bc 7e9a 5dbd bbe5 a33d 6066 e7bb
00000330: 3255 b4bd 40de 75bb 8da3 b3bd 86e9 97bd
00000340: a845 fc3c 02c6 96bd cb74 833d 0085 143c
00000350: ed3f 983d 52db 263d 1840 553c 4a03 783d
00000360: 152b 49bd 262c 6c3d 6879 67bc 8c00 b6bc
00000370: b014 de3b 5ae0 fcbc 8ad6 9dbd 9a84 afbd
00000380: b29b 683d 445f 913c b5a9 13bd 2d67 a13d
00000390: 2b3c adbd 2a47 3b3d 487f b43c 3316 89bd
000003a0: 0f5b b0bd 890f a83d 2c62 8dbc a63a 80bd
000003b0: d0fc 89bd 03c0 843d a0c8 6dbc b8da 36bc
000003c0: 3def 803d ceea 6d3d b0fe fb3b 1ef0 5d3d
000003d0: 0029 ddbb 84ab a3bc 281d e6bc 3678 1dbd
000003e0: 9667 1d3d daab 223d e029 b0bc b65c 603d
000003f0: e004 203c d0cb 4e3c 60c8 c2bb c0f9 48bc

linear2.bias f4 [64]
0.019304924 -0.07750809 -0.080510944 -0.059315324 -0.059556372 -0.055138856 0.076384924 0.084440775
0.08532537 0.022369891 -0.038622655 -0.086096145 -0.03427994 -0.08027258 -0.07648151 -0.0033391565
0.0881815 -0.069313325 -0.05693605 0.010860391 -0.08463045 0.021152198 -0.069572106 -0.069261625
0.027828857 -0.06857638 -0.034905534 -0.014413439 0.019783035 -0.041136734 0.007936031 0.06755168
0.02072528 -0.012996189 0.037416868 -0.08554978 0.03139682 0.0015461147 0.017425321 -0.07667246
0.06675758 0.051898308 -0.053861186 0.027547568 0.0221764 0.016749367 0.012343042 0.05781547
-0.07927952 -0.05092709 0.041037045 0.08523584 0.0147757605 -0.071470484 -0.017700888 0.011167027
-0.01844132 0.06582185 0.001167275 -0.0845599 0.03436034 0.06528633 0.011534706 -0.013507284
00000000: 5c25 9e3c 90bc 9ebd ece2 a4bd a0f4 72bd
00000010: 62f1 73bd 48d9 61bd b36f 9c3d 49ef ac3d
00000020: 11bf ae3d 1041 b73c ca32 1ebd 2d53 b0bd
00000030: 1f69 0cbd f365 a4bd 57a2 9cbd c0d5 5abb
00000040: 8198 b43d 25f4 8dbd c735 69bd c8ef 313c
00000050: bb52 adbd 6047 ad3c d27b 8ebd 0ad9 8dbd
00000060: 58f9 e33c c671 8cbd 1bf9 0ebd 5826 6cbc
00000070: 0810 a23c fe7e 28bd 2006 023c 8958 8a3d
00000080: 10c8 a93c f8ed 54bc 6e42 193d b934 afbd
00000090: f499 003d 00a7 ca3a 8cbf 8e3c 7306 9dbd
000000a0: 33b8 883d 5293 543d 8c9d 5cbd 70ab e13c
000000b0: 48ab b53c f835 893c 783a 4a3c eacf 6c3d
000000c0: 4d5d a2bd ed98 50bd 7616 283d 2190 ae3d
000000d0: 0816 723c 1e5f 92bd 7401 91bc e8f5 363c
000000e0: 4012 97bc 9bcd 863d 40ff 983a be2d adbd
000000f0: 6ebd 0c3d d7b4 853d 10fc 3c3c a84d 5dbc

linear3.weight f4 [10, 64]
0.0026100576 -0.028845266 -0.051133037 0.0034843087 0.021840855 -0.100278705 -0.10287264 -0.03421873
0.09987201 0.019821927 -0.011004716 0.011555225 -0.105924964 -0.046953693 0.119087905 -0.069616765
-0.035962284 0.039247587 -0.08981511 0.050413787 0.046812266 0.09302005 -0.067001835 -0.0137126595
0.076838195 -0.042676806 -0.053897902 -0.09493138 -0.05584809 -0.114406735 -0.008648887 -0.03764932
-0.009279177 -0.08102703 -0.08339922 -0.098581195 -0.009115577 0.049662158 -0.025328696 0.0043542385
0.016473979 -0.11325537 -0.12123847 0.07983251 -0.02990152 0.09438683 -0.06879562 0.045790434
-0.02912797 0.051430732 -0.060990676 0.03306508 -0.00058200955 -0.11622538 0.05181822 -0.075920075
0.035293594 0.047815084 0.024204895 -0.036455557 0.047850102 0.10076651 0.06039004 0.041613743
-0.12344353 0.054093093 -0.08903724 -0.023711309 0.042790502 -0.07312368 0.042922914 0.07907303
-0.09920733 -0.030507043 -0.08706507 0.00044333935 -0.11222553 -0.0050878227 -0.112633765 -0.052514225
-0.0889495 -0.07040942 -0.0494124 -0.04956706 -0.011591524 0.029651865 0.0041065216 -0.12402451
0.022238448 -0.10938609 0.039698675 -0.06263913 -0.08668642 0.08592147 0.06380272 -0.013280973
-0.04707262 -0.02364093 0.11766507 0.11734675 -0.058374375 -0.06943768 -0.10289712 0.05016181
0.037977517 -0.09768318 0.08488986 0.029692069 0.08452064 -0.0031827688 -0.052507058 -0.11863974
-0.0075425804 -0.035273433 -0.124474764 -0.11742444 0.12283905 -0.086933374 0.017305225 -0.12168425
-0.03473015 0.09913167 0.100596175 -0.11349335 -0.07609227 -0.027814046 0.04679583 0.12386349
-0.060144946 0.041273847 0.0211052 -0.094117045 0.0020100325 -0.074869454 0.09461412 -0.041512012
0.054771632 0.007175654 -0.0035021156 -0.11487703 -0.106817216 0.027086958 -0.07073176 0.10939136
0.015559062 -0.033704832 0.020596787 0.091036305 -0.0778622 0.014399841 -0.06336202 0.02836831
0.045958012 0.044356704 0.07879034 -0.10623132 0.051028207 0.102129266 -0.037442118 0.08670257
0.07057707 0.022150785 0.11348511 -0.024974883 0.005294472 0.04023379 0.009038091 0.02586399
-0.0043423474 -0.104999945 -0.021386668 -0.115256056 -0.045315817 0.11121887 0.031176612 0.0814884
0.036452636 -0.017431855 0.08538225 0.008556753 0.08080688 -0.07079567 0.038587168 -0.12382996
0.0458951 0.111751735 -0.02177304 -0.10967021 -0.03172803 -0.10706489 -0.009378672 -0.02404584
0.02630414 -0.034819856 0.09345567 0.11150791 0.0061092824 0.0046059936 -0.039173827 -0.07659668
-0.07819143 -0.09735814 0.04614471 0.050000146 -0.1225587 0.12480269 0.07450293 0.07580654
-0.017530411 -0.09598839 0.099169105 -0.09837082 0.08129683 -0.10469882 0.005322188 0.11761473
-0.0471019 0.05117485 -0.07225022 0.0029658377 0.064434305 0.11967319 -0.12403619 -0.011048451
-0.010374844 0.018061712 0.110734954 -0.041579127 0.08116001 0.012763038 -0.120192185 -0.107609734
0.0991085 0.10855065 0.11264934 0.05110711 -0.046032637 0.035020888 0.107452095 0.08112207
0.07094209 0.08966777 -0.06049089 -0.08110432 -0.058737755 0.09640643 -0.0028485507 -0.022333533
0.093617454 0.117843345 -0.056198865 -0.120352715 -0.045068607 -0.0865511 0.036276236 -0.018773794
00000000: 800d 2b3b e84c ecbc e070 51bd 0059 643b
00000010: 98eb b23c ec5e cdbd e4ae d2bd f028 0cbd
00000020: b289 cc3d 9861 a23c 204d 34bc 2052 3d3c
00000030: 30ef d8bd 8452 40bd 5ce4 f33d 3c93 8ebd
00000040: 304d 13bd 14c2 203d fcf0 b7bd b07e 4e3d
00000050: 38be 3f3d 4c81 be3d 4238 89bd 10ab 60bc
00000060: 585d 9d3d e0cd 2ebd 0cc4 5cbd 626b c2bd
00000070: f8c0 64bd 144e eabd 10b4 0dbc 2c36 1abd
00000080: b007 18bc 80f1 a5bd 36cd aabd f0e4 c9bd
00000090: 8059 15bc 8c6a 4b3d 207e cfbc 00ae 8e3b
000000a0: 70f4 863c 6ef2 e7bd e04b f8bd 3a7f a33d
000000b0: 08f4 f4bc e24d c13d b8e4 8cbd c08e 3b3d
000000c0: c89d eebc 08a9 523d 5cd1 79bd 406f 073d
000000d0: 0092 18ba 9207 eebd 583f 543d fc7b 9bbd
000000e0: 0490 103d c0d9 433d 5849 c63c 6c52 15bd
000000f0: 78fe 433d ac5e ce3d 8c5b 773d 2c73 2a3d
00000100: f6cf fcbd b890 5d3d 2859 b6bd 383e c2bc
00000110: 1845 2f3d dec1 95bd f0cf 2f3d 0af1 a13d
00000120: 362d cbbd e8e9 f9bc 2c4f b2bd 0070 e839
00000130: 80d6 e5bd c0b7 a6bb 88ac e6bd 2819 57bd
00000140: 282b b6bd d032 90bd a864 4abd d406 4bbd
00000150: 60ea 3dbc 78e8 f23c 0090 863b 9000 febd
00000160: 682d b63c d005 e0bd 149b 223d f248 80bd
00000170: a688 b1bd 98f7 af3d 00ab 823d 7098 59bc
00000180: 38cf 40bd a0aa c1bc 62fa f03d 7e53 f03d
00000190: f819 6fbd 5835 8ebd babb d2bd 7876 4d3d
000001a0: 508e 1b3d 1e0e c8bd bcda ad3d c83c f33c
000001b0: 2819 ad3d 0096 50bb a411 57bd 64f9 f2bd
000001c0: c027 f7bb e07a 10bd a0ec febd 3a7c f0bd
000001d0: 0a93 fb3d 200a b2bd b0c3 8d3c 9835 f9bd
000001e0: 3441 0ebd 8c05 cb3d 5e05 ce3d 346f e8bd
000001f0: 44d6 9bbd 48da e3bc fcac 3f3d 24ac fd3d
00000200: 8c5a 76bd c40e 293d d0e4 ac3c 70c0 c0bd
00000210: c0ba 033b 2855 99bd 0cc5 c13d 8008 2abd
00000220: 3858 603d c021 eb3b c083 65bb a644 ebbd
00000230: fcc2 dabd 78e5 dd3c d0db 90bd 9408 e03d
00000240: 70eb 7e3c 140e 0abd 98ba a83c 3e71 ba3d
00000250: 3876 9fbd 50ed 6b3c f2c3 81bd a864 e83c
00000260: 783e 3c3d 60af 353d d45c a13d ce8f d9bd
00000270: f402 513d 2629 d13d e85c 19bd 1e91 b13d
00000280: b68a 903d 9075 b53c e26a e83d 2098 ccbc
00000290: 407d ad3b 30cc 243d 8014 143c b8e0 d33c
000002a0: 404a 8ebb 360a d7bd 1833 afbc 5e0b ecbd
000002b0: 149d 39bd b8c6 e33d 1866 ff3c 64e3 a63d
000002c0: 5c4f 153d 40cd 8ebc e4dc ae3d a031 0c3c
000002d0: 147e a53d 52fd 90bd 940d 1e3d 909a fdbd
000002e0: 80fc 3b3d 18de e43d 605d b2bc c69a e0bd
000002f0: 40f5 01bd d644 dbbd 00a9 19bc c8fb c4bc
00000300: c87b d73c 449f 0ebd b065 bf3d 425e e43d
00000310: 6030 c83b e0ed 963b bc74 20bd b8de 9cbd
00000320: d422 a0bd b463 c7bd 3c02 3d3d f4cc 4c3d
00000330: 0e00 fbbd 8e98 ff3d fe94 983d 7640 9b3d
00000340: f09b 8fbc 9095 c4bd 2c19 cb3d a476 c9bd
00000350: f47e a63d 566c d6bd c065 ae3b fedf f03d
00000360: eced 40bd b89c 513d ecf7 93bd 805e 423b
00000370: 22f6 833d 3817 f53d b006 febd 9004 35bc
00000380: 40fb 29bc 28f6 933c 02c9 e23d e04e 2abd
00000390: 3837 a63d 101c 513c 5227 f6bd 7e62 dcbd
000003a0: 66f9 ca3d ce4f de3d b2b4 e63d b055 513d
000003b0: b88c 3cbd 1072 0f3d d80f dc3d 5423 a63d
000003c0: 164a 913d bca3 b73d 4cc5 77bd 061a a6bd
000003d0: 0097 70bd bc70 c53d c0ae 3abb d0f4 b6bc
000003e0: 82ba bf3d da57 f13d c830 66bd 7c7b f6bd
000003f0: dc99 38bd b441 b1bd 6496 143d 80cb 99bc

linear3.bias f4 [10]
0.04878193 0.07385376 0.07655844 0.064431444 -0.11697915 0.065766156 -0.021111831 0.06855972
-0.023245737 0.0004579425
00000000: 90cf 473d a440 973d acca 9c3d a2f4 833d
00000010: c492 efbd 68b0 863d b8f2 acbc 0a69 8c3d
00000020: d86d bebc 0018 f039
