models/model2.pth (torch, 70487 bytes, 6 tensors)

weight f4 [128, 60]
00000000: 5e44 2cbd 2019 efbb a57c c8bd 3aff c9bd
00000010: 5c0b cabd f2eb ddbd 5697 a53d 420a aebd
00000020: 986c e63d 400f dd3d 7c12 88bd 206c c8bb
00000030: 8266 fe3d 40ca 063b 144a 86bd c601 ba3d
00000040: 2681 b7bd 3af0 67bd 56e1 cebd b369 cabd
00000050: ccca 043d d461 e83d 80da b23d ac65 3f3d
00000060: a8ae 40bd c429 283d 79b1 013e 560b a93d
00000070: 1248 bb3d 9029 adbd b816 56bc f897 68bd
00000080: 96f9 51bd 39bd c3bd 8055 9fbd c23f a9bd
00000090: 1036 a6bd 946e 2b3d 54f7 9a3d c850 a3bd
000000a0: 402d 223d 5047 893c 649a 73bd 9c93 d3bc
000000b0: 84e2 ef3d ec42 703d 972c 9ebd 247e 70bd
000000c0: 79d6 d3bd 0a3c f8bd 2682 8bbd 32a6 dc3d
000000d0: 1abd a13d fb3b a5bd be4f bc3d f836 d73d
000000e0: f66d 6ebd ce2f fb3d e04e d53c c0fe e13c
000000f0: 1e4f d73d e634 66bd 6c52 1fbd 58ec df3c
00000100: 2c70 f3bc c8c4 0abd 50a0 723d 2cf1 d2bc
00000110: 00a8 1b3c a013 ce3c cc70 bebc 00fb 993b
00000120: 5c74 2fbd ecf6 1d3d 6cb3 9bbc c503 83bd
00000130: e074 a3bb 9680 d13d ea4b cdbd e2cb 16bd
00000140: b84d ad3d f4f7 4c3d 8c47 ecbc 74b1 8cbc
00000150: 3811 d13d 1cc5 77bd 20d7 ebbc b04c a03d
00000160: 6f6a 033e 1844 363d 286e 15bc b274 45bd
00000170: 2080 d6bd 589c 983d dc75 85bd 0090 ee38
00000180: d476 be3d f4a8 6c3d 1b7c b5bd d279 dd3d
00000190: 9260 dabd 4abd c63d 86d0 57bd c032 48bc
000001a0: d09b 7cbd 006e 703a 10e4 7e3c 0848 e13c
000001b0: 184d 913c 7469 1dbd 1c72 e73d 9214 b23d
000001c0: d4f5 363d c644 fb3d e0d5 753c acf0 093d
000001d0: dca4 dd3d 0a0a 63bd 8653 57bd ec88 30bd
000001e0: 9e68 e2bd 60b0 9c3d 02c1 8dbd 701d 4f3d
000001f0: 2894 40bd 2cf0 a93d 2412 e43d 8a0d 853d
00000200: 77e8 d5bd c02d 813b a767 cebd 58bb 7c3d
00000210: a046 7b3c 42f1 ce3d 2651 a8bd 8865 2c3d
00000220: ae24 813d b0c1 ab3c f0c2 2b3c 489a 9cbd
00000230: ccd4 52bd 44f8 01be 9445 5f3d a8ac df3d
00000240: d09b 843d 004e e53c 7644 b03d d47d 433d
00000250: 85c9 00be e7e1 bdbd 60ec 363d d8dc 5dbc
00000260: 060f 30bd 0093 c5bc 285d 0c3d 9c03 cbbd
00000270: ac0a e63d 6462 bdbd 4806 dc3c 040b aa3d
00000280: fab5 fbbd 8cc2 743d 2e4c 10bd 7a20 cc3d
00000290: 0014 993b ce3f d7bd 83e9 dabd 7ef5 833d
000002a0: 5be2 033e 229e fb3d 9067 843d d38d fabd
000002b0: 00e1 953a daab 7abd db77 d6bd 2298 91bd
000002c0: 7ecc ab3d 5ceb cc3d a0c6 78bd 26bb c53d
000002d0: 6281 27bd 506f 91bc 56df 863d 80a8 04bd
000002e0: 90d2 3e3d 88f9 423d 1861 a63d fc8d 843d
000002f0: eae2 1fbd 2395 f1bd 7adf 7fbd ea28 fb3d
00000300: bc38 aebc ac63 59bd 483b 08bd 0855 87bd
00000310: e003 e23c 382f b1bd a653 a13d 1021 223d
00000320: 802f e6bc baab 813d b47e 233d 9a18 a73d
00000330: 6429 ef3d 763e 7dbd 687a 4fbc 83bc bfbd
00000340: a62f e5bd 607d d5bb d865 513d ac16 403d
00000350: 4033 75bc 5c90 8abc 4070 55bc cc30 4c3d
00000360: 18d1 92bd 1ead ec3d 78a2 a13d 98fe adbc
00000370: 5c85 ef3d 202c 213c 0ee9 8c3d 4eaa d1bd
00000380: 6ea6 893d 03d1 d7bd 8cbc 8b3d 564e cbbd
00000390: 5e1f 09bd ba4d e23d 4085 1a3b 9400 733d
000003a0: 40f6 48bc 6090 563c 4619 a8bd 5e95 f93d
000003b0: 8616 d0bd 32b0 b63d b805 e23d 4c76 e1bc
000003c0: dc6f 843d 76b8 e73d 7414 3d3d 2ede 843d
000003d0: 1eff 6bbd 000f 7c3d 4cc5 e13d 9609 9c3d
000003e0: bef6 a7bd a032 313d b27e 53bd 8431 5dbd
000003f0: 7897 7e3d b0ed 863c 7295 47bd b6a3 bebd
-0.042057388 -0.0072966963 -0.09789399 -0.09863134 -0.09865448 -0.108360186 0.08085506 -0.0849805
0.11251181 0.10793924 -0.066441506 -0.006116405 0.124218956 0.0020567328 -0.06557098 0.090823695
-0.0896018 -0.056625582 -0.10101573 -0.09883442 0.032419965 0.11346784 0.08733082 0.04672782
-0.047041565 0.041055456 0.12665357 0.08254115 0.09144606 -0.08455193 -0.01306694 -0.056785554
-0.051263414 -0.09557576 -0.0777998 -0.08264114 -0.0811578 0.041853502 0.07566705 -0.07974392
0.039593935 0.016757637 -0.05947341 -0.025827222 0.11713126 0.05865757 -0.077233486 -0.058714047
-0.10343642 -0.121208265 -0.06811933 0.10773887 0.078973964 -0.08068081 0.09194897 0.10508531
-0.058210336 0.122649774 0.026038587 0.027587295 0.10513137 -0.05620279 -0.038896963 0.027334377
-0.029716574 -0.03387907 0.059234917 -0.025749765 0.009500504 0.025155842 -0.023247145 0.004699111
-0.04283558 0.03856556 -0.019006453 -0.06397203 -0.004988298 0.10229604 -0.10024245 -0.03681553
0.08462089 0.050041154 -0.02884271 -0.01717446 0.10208362 -0.060490713 -0.028789103 0.07827127
0.1283357 0.044498533 -0.009120502 -0.048206992 -0.10473657 0.07451695 -0.065166205 0.000113755465
0.093000084 0.057778314 -0.08861562 0.10814251 -0.106629506 0.09704073 -0.052689098 -0.012219131
-0.061672032 0.0009171665 0.015557304 0.027500167 0.017736956 -0.038430646 0.113010615 0.0869533
0.044668034 0.12268977 0.015004605 0.03367679 0.1082246 -0.055429496 -0.05256989 -0.04309933
-0.110551104 0.07650828 -0.06921579 0.050565183 -0.047016293 0.08297762 0.111362725 0.06496723
-0.1044473 0.0039422214 -0.10078364 0.061702102 0.0153366625 0.1010461 -0.08218603 0.042089015
0.06305824 0.02096638 0.010483488 -0.07646614 -0.05147247 -0.12692362 0.054509714 0.109216034
0.064750314 0.027991295 0.08606808 0.04772742 -0.12576874 -0.09271603 0.04465902 -0.013541423
-0.042983077 -0.024117947 0.03426853 -0.09912798 0.11232504 -0.09247282 0.026858464 0.08302882
-0.12290569 0.059755847 -0.0352289 0.09967132 0.0046715736 -0.10510217 -0.1068907 0.06443308
0.12879317 0.12286021 0.064650655 -0.12234082 0.0011434853 -0.061199047 -0.10472079 -0.07109095
0.08388613 0.10005829 -0.0607363 0.09654836 -0.040894873 -0.017753273 0.06585567 -0.032387257
0.046587527 0.047601253 0.08123988 0.06472394 -0.03903476 -0.11796024 -0.062468983 0.12263663
-0.021267287 -0.05307357 -0.03325966 -0.06608015 0.027589738 -0.086515844 0.07877283 0.039582312
-0.028098822 0.06331582 0.039915755 0.08158989 0.116778165 -0.061827146 -0.012663461 -0.09362128
-0.11190729 -0.00651519 0.051122516 0.04689662 -0.014965832 -0.016914539 -0.013027251 0.049851224
-0.07168788 0.11556457 0.078923166 -0.021239564 0.11695358 0.00983718 0.06880389 -0.10237561
0.06721197 -0.10537913 0.06823072 -0.09927051 -0.03347718 0.110499814 0.0023577958 0.059326723
-0.012265742 0.013095945 -0.082079455 0.12186693 -0.10160546 0.08920325 0.11036247 -0.027522229
0.06466648 0.1131448 0.046162084 0.0648769 -0.057616346 0.061537743 0.110239595 0.07619016
-0.08201359 0.04326117 -0.051634498 -0.0540023 0.06215617 0.01647076 -0.048726507 -0.09308569

bias f4 [128]
00000000: d43f 903d 00b8 e6b8 5e1b db3d 4202 ed3d
00000010: f4dd b4bd 7d0c 88bd 4298 f83d 43fb 8bbd
00000020: 54bd ca3d 8027 573c e04d a5bd e646 f73d
00000030: 0e39 f83d 745f 4fbd 28a2 08bd 2b8b e8bd
00000040: e0b9 f63b 4053 8ebc 4222 c03d 7474 c53d
00000050: acc6 97bc 10c4 c1bd faec 39bd 9c11 99bd
00000060: bc2d b53d 1ada 2ebd 2842 bfbd 5e04 47bd
00000070: dc65 353d 8c03 663d 5a70 c83d acb9 94bd
00000080: 68e7 583d d2a1 953d d608 4abd fa55 48bd
00000090: ebb1 dcbd 00a7 053d 52e0 5dbd 2597 b9bd
000000a0: c43f 56bd 5c2e cfbd 2cc9 d0bd 3427 cc3d
000000b0: 7a5a e3bd f029 75bd e025 8f3c 2ab3 fe3d
000000c0: 81d5 9bbd 9495 5d3d 6026 413c 140f 453d
000000d0: ee47 00bd f84e d73d 595a a0bd e8f1 513d
000000e0: e479 9e3d 80d4 f93c d0da 123d b411 723d
000000f0: eca8 57bd 441b 6dbd d8ca 62bd 76a7 f5bd
00000100: f933 003e a094 ed3c 30ee b13c a417 35bd
00000110: 6046 9f3d 3e53 b33d 4cd4 46bd ead8 b8bd
00000120: 8062 733b ec1b 273d dcc5 bb3d e0cf c23b
00000130: 5071 dabd b2a4 823d e0c2 a2bd ce3c 35bd
00000140: a048 b93d ce5a e33d 566e c43d 9739 efbd
00000150: 1658 8c3d 61aa 83bd e8cb 29bc 20e8 5cbd
00000160: 1cb8 4c3d 5834 0a3d df69 81bd f642 27bd
00000170: b2d4 d73d b060 633d e057 053d 2099 1abd
00000180: a017 debc e985 e5bd e86c c93c da1b acbd
00000190: 5464 273d b8a6 413d 7a73 80bd 7419 3e3d
000001a0: 40c8 69bb 1b5b efbd 4442 debd 5cfc 303d
000001b0: 3852 7b3d 6461 963d dc73 2d3d e057 ebbb
000001c0: 5022 2ebd 99f6 a0bd d3b0 82bd 8cb8 933d
000001d0: 583d cd3d e439 afbc 9423 5f3d e830 103d
000001e0: fcb3 483d e874 46bc 2e5e fd3d 480b 433d
000001f0: b2e3 9bbd bce6 4f3d 82c3 07bd 2830 a83d
0.07043424 -0.00011001527 0.10698579 0.11572696 -0.08831397 -0.06643007 0.12138416 -0.06835034
0.09899393 0.013131976 -0.08071494 0.1207407 0.12120257 -0.05062814 -0.03335777 -0.11354669
0.0075294822 -0.017373681 0.09381534 0.09641352 -0.018527351 -0.09461224 -0.045392014 -0.07474062
0.08846614 -0.042688467 -0.0933879 -0.04858815 0.044286594 0.056155726 0.09787054 -0.072619766
0.05295506 0.073062554 -0.049324833 -0.04891012 -0.10776123 0.032629967 -0.054169007 -0.09062032
-0.052306905 -0.10116264 -0.101946205 0.09968415 -0.111012414 -0.059854448 0.017474115 0.124365166
-0.07609082 0.054097727 0.0117889345 0.048110083 -0.031318597 0.10513109 -0.078297324 0.05125609
0.077380925 0.030496836 0.035853207 0.059098914 -0.05265133 -0.05788733 -0.055369228 -0.11994831
0.12519826 0.029001534 0.021720022 -0.044212 0.07777095 0.087561116 -0.048542306 -0.09025748
0.0037137568 0.040798113 0.09168598 0.005945191 -0.10666144 0.063790694 -0.07947326 -0.04424744
0.09047055 0.11101304 0.095913574 -0.11680906 0.068527386 -0.064289816 -0.010363556 -0.05393231
0.049980268 0.033741325 -0.063190214 -0.040835343 0.10538615 0.05551213 0.032554507 -0.037743688
-0.027110875 -0.11207182 0.024588063 -0.0840375 0.040867165 0.047278136 -0.062720254 0.046410993
-0.0035672337 -0.11687299 -0.10852483 0.04320942 0.061357707 0.073427945 0.04234682 -0.0071821064
-0.04251319 -0.07859535 -0.06381383 0.07212934 0.10021466 -0.02138991 0.05447729 0.03520289
0.04899977 -0.012112834 0.12371479 0.04761818 -0.07611789 0.050757155 -0.033145435 0.0821231

weight f4 [64, 128]
00000000: 6424 87bc 204a d33b 8ad2 603d 9a06 263d
00000010: d010 9cbc f0be e03c de62 f7bc b6b1 6a3d
00000020: e3f6 84bd 6e52 523d 1eac f7bc bb97 8d3d
00000030: 66b0 85bd f08b b13b 1f3d 0bbd ccd4 bc3c
00000040: 6c6c 43bd 5adc 6b3d 2b5a 67bd 10f5 d4bb
00000050: 168f 723d dd69 af3d b418 f33c 9a49 7e3d
00000060: 4ddb a63d a108 993d 589c 97bd b56b 51bd
00000070: ce63 6e3d ae51 8dbd 2763 56bd 84b3 043d
00000080: 6015 6abb 11f2 aa3d 787f 02bd 116d 14bd
00000090: 43a5 35bd 508c 48bc 422a 96bd 3bed a63d
000000a0: 8308 a13d 3876 a4bd f859 05bc b096 9d3c
000000b0: 9847 8bbc fa35 363d 7532 97bd af17 98bd
000000c0: 7056 d03c 8cbf 8ebc d4a3 a93c a0ab f03b
000000d0: b402 a3bd d105 833d 08fc f6bc 4c25 84bc
000000e0: 9ac9 583d a02a a0bc 1ac6 56bd 5a99 7e3d
000000f0: b631 e1bc 58a8 0f3c 386b 67bc 4040 5bbb
00000100: adf0 1bbd 64f2 3cbd 8860 92bc 2d5b 5abd
00000110: a805 ce3c 0087 c739 2015 3d3c 5427 043d
00000120: 8286 123d b0e8 4fbd d813 663c 40d5 bd3b
00000130: 5e23 6a3d f32f 8dbd e103 a73d 6657 683d
00000140: 8051 693a 1e9d 503d b1cd 80bd 93c0 adbd
00000150: 8b3e 59bd c111 af3d 4449 7abd 8983 823d
00000160: 0c54 eabc 4c39 cbbc a8d2 a4bd 00c8 283a
00000170: 1852 7a3c 00d4 593b 6b08 b2bd 2424 c3bc
00000180: bcf4 cb3c babc 3a3d 23d7 ac3d d52b 15bd
00000190: 307e aa3c b89f 303c e889 093d a860 063c
000001a0: fbb4 8abd 0e37 9cbd 38d1 c4bc 6838 67bc
000001b0: 73be 9f3d ee6e 30bd d5c9 afbd 0baf a23d
000001c0: a9c8 923d 08bd 9abd 11e8 b23d b6d2 79bd
000001d0: b7c0 893d 807e 643a 40aa 143b f05d 63bc
000001e0: b817 12bc a1d1 62bd ba97 3ebd 21f2 b33d
000001f0: 8010 ebba c066 88bc 40a7 2fbc 0a01 6b3d
00000200: 97c0 41bd 62c0 9fbd fc55 8dbc a862 0abd
00000210: 6502 903d 847d f33c 9e8d 4a3d e1e5 a33d
00000220: 1c74 65bd 6f2c 2dbd dc65 063d 6687 543d
00000230: 83b2 9d3d c0ae ac3b 0049 77ba 6351 933d
00000240: b4a6 b3bc 24da fe3c 2cef a2bd f8ac 3d3c
00000250: 3ad2 f5bc 2ae3 533d f50e 1cbd ac46 0a3d
00000260: ac88 8dbd 2c82 0bbd 62f0 233d 2e49 633d
00000270: d8ba febc 04d0 cbbc 5539 863d 0611 20bd
00000280: 0b50 a63d d02e b4bd 4087 8fbd a302 96bd
00000290: e4f7 f33c 97a0 903d 3040 f1bc fedc 763d
000002a0: f29a 8abd 3001 db3c 42db 033d 4853 f83c
000002b0: 50c4 f03c a852 82bd d47d 86bc b8a3 b53c
000002c0: 64dc 87bc d079 583c 12cb 94bd 705f d63c
000002d0: 8131 79bd 34dc 85bc 00fd 913c e0c8 b23b
000002e0: cbfc 80bd 3cf5 023d c14e a33d dca2 ea3c
000002f0: 9486 a23c b81a 66bc c159 49bd 8082 feba
00000300: 1cf5 8abd b23f 453d 2050 a53c f27c 693d
00000310: 339b 823d a098 6e3b 6e9e e9bc e2d2 703d
00000320: 7071 afbc fddd aa3d 00bc c3b8 f0c7 ef3b
00000330: 7737 9b3d 2756 0cbd 5879 753c 0137 8f3d
00000340: f256 443d 1832 a5bc 38ea cfbc 48fc 07bd
00000350: 2882 52bc 44f6 ccbc 7872 c83c 166e 563d
00000360: 2242 613d 6022 f3bb dd79 ab3d 969c 4e3d
00000370: 66e4 1f3d ceec 493d 151d 2cbd 681a 5dbc
00000380: 9cbb bbbc 4c9c a4bc f40e cc3c 0afc 4a3d
00000390: de86 72bd b0a9 efbc a7b3 aa3d d45b 833c
000003a0: 10a8 1d3c 5055 343c 9cd5 adbc cecc 86bd
000003b0: a0a9 f73c 26dc 0cbd 6a25 5f3d 660c 163d
000003c0: 0cd9 81bc 504e 2ebc c549 35bd 54a9 f8bc
000003d0: b83b 57bc bae3 80bd fa9f 4c3d cf9e b33d
000003e0: 3ad6 1e3d f713 20bd 4070 adbd 9052 d1bb
000003f0: 4272 25bd 724a 223d 07ff ae3d 7513 a63d
-0.016496845 0.0064480454 0.054888286 0.04053364 -0.019050986 0.027434796 -0.03019851 0.057298385
-0.064924024 0.051348142 -0.030233439 0.06913706 -0.06527786 0.005418293 -0.033993836 0.023050688
-0.04771082 0.05758319 -0.056482475 -0.0064989403 0.05921849 0.08565114 0.029674865 0.06208191
0.08147297 0.07472349 -0.07402867 -0.051128108 0.05820065 -0.06900345 -0.052340653 0.032397762
-0.0035718307 0.08346952 -0.031859845 -0.036236826 -0.04434706 -0.012240484 -0.07332279 0.08150717
0.078629516 -0.08030361 -0.008139126 0.019236892 -0.017001912 0.04448507 -0.07382671 -0.07426392
0.025431842 -0.017425321 0.020708002 0.007344678 -0.079595 0.06397594 -0.030149475 -0.016131066
0.052926637 -0.019551575 -0.052435018 0.062157966 -0.027489524 0.008768164 -0.014124684 -0.0033455044
-0.038071323 -0.0461296 -0.017868295 -0.05330961 0.025149181 0.0003805682 0.011540681 0.03226407
0.035772808 -0.050759017 0.014042817 0.0057932436 0.057162635 -0.06893911 0.08155037 0.056723975
0.0008900389 0.05093109 -0.062892325 -0.08483996 -0.05303816 0.08548308 -0.061105028 0.063727446
-0.02860453 -0.024807595 -0.08047992 0.0006438494 0.015278362 0.0033237934 -0.08693012 -0.023820944
0.024896972 0.04559014 0.084394716 -0.036418755 0.020812124 0.010780267 0.033578783 0.008201756
-0.067728005 -0.07627688 -0.024025545 -0.014112569 0.07799997 -0.04307454 -0.08583418 0.07943543
0.07167179 -0.07555586 0.087356694 -0.060991965 0.067262106 0.000871636 0.0022684485 -0.013877377
-0.008916788 -0.0553757 -0.046531416 0.08786417 -0.0017933995 -0.016650558 -0.010721028 0.057374038
-0.04730281 -0.07800366 -0.017252915 -0.033785492 0.07031707 0.029722936 0.049451463 0.0800283
-0.056018934 -0.042278703 0.032811984 0.05188694 0.07700064 0.0052698553 -0.000943318 0.07193258
-0.021930076 0.031109877 -0.07955775 0.0115768835 -0.03000747 0.051730312 -0.0381002 0.033758804
-0.06910834 -0.03405969 0.04002417 0.05548971 -0.031094953 -0.024879463 0.06553904 -0.039078735
0.08120736 -0.08797991 -0.07008219 -0.07324722 0.02978129 0.0706188 -0.029449552 0.06026935
-0.06767835 0.026733965 0.032191522 0.03031315 0.029390484 -0.06363422 -0.016417421 0.022172794
-0.016584583 0.013212636 -0.07265295 0.026168555 -0.060838226 -0.016340353 0.017820835 0.005456075
-0.062982164 0.031972155 0.079740055 0.02864211 0.019839562 -0.014044456 -0.04915786 -0.0019417554
-0.06785032 0.048156448 0.020179808 0.057003923 0.06377258 0.003640689 -0.028517928 0.058794864
-0.021416396 0.08343122 -9.333342e-05 0.0073175356 0.075789385 -0.03426185 0.014982544 0.06992913
0.04793448 -0.020165488 -0.025380239 -0.03319958 -0.0128484145 -0.025019772 0.024468645 0.05235108
0.05499471 -0.0074198693 0.08372853 0.0504423 0.039036177 0.0492981 -0.042019922 -0.013495065
-0.022916608 -0.02009406 0.024909474 0.04955677 -0.05921065 -0.029255718 0.08335047 0.016034998
0.009622589 0.011006668 -0.021220021 -0.06582032 0.03023225 -0.034389637 0.05447904 0.036632918
-0.015850566 -0.010638788 -0.044259805 -0.03035418 -0.013136797 -0.062934354 0.049957253 0.08770525
0.03877852 -0.03908154 -0.084686756 -0.006388016 -0.040392168 0.039621778 0.08544736 0.0810918

bias f4 [64]
00000000: 66fc 563d 0205 6a3d d7a6 ae3d 06d6 82bd
00000010: 26ab 5f3d 4205 713d 999a acbd ca81 273d
00000020: 8cce a03c 4bd6 49bd ba7f 7dbd fe26 3c3d
00000030: 6b93 b23d be73 503d 7930 28bd 70f3 c43b
00000040: c8f5 b1bc 0d22 0dbd 3392 993d a077 c23c
00000050: 00f3 2aba 4858 fd3c a631 053d 607d 4f3c
00000060: 13bc 51bd f48e 2fbd 0042 4d39 35e2 39bd
00000070: e95e 8d3d 87c0 8b3d 80ff 953c e1ef a83d
00000080: 285b 8a3c 3a96 2a3d 06ee 563d c664 1ebd
00000090: 006c 1fb9 7425 a33c e902 803d 1088 a8bd
000000a0: f816 133d 8204 d6bc 3cf6 84bd bcf2 95bd
000000b0: c0ca 613b 9daa 26bd 1624 2e3d 346b a7bc
000000c0: 4c3e e13c 51fb b13d 4966 2bbd de01 ddbc
000000d0: 2c7d 133d c085 023b 0417 cfbc 3e0b 213d
000000e0: b48d 9dbc bf3e 04bd 5062 a6bd 51ef 8d3d
000000f0: 68d2 77bd 07f0 31bd d8af 97bd d449 b53c
0.0524868 0.057133682 0.08527916 -0.06388478 0.05460658 0.058842905 -0.08427925 0.04089526
0.01962974 -0.04927663 -0.061889388 0.045935623 0.08719524 0.05089163 -0.041061852 0.0060104653
-0.021723643 -0.0344563 0.074985884 0.023738682 -0.0006521195 0.030925885 0.03251805 0.012664169
-0.051204752 -0.04286094 0.0001957491 -0.045381743 0.06902868 0.06823831 0.018310308 0.08248878
0.01688917 0.041647173 0.05247309 -0.038670324 -0.00015203655 0.01991532 0.06250555 -0.08229077
0.035910577 -0.026125196 -0.06492278 -0.073216885 0.0034453124 -0.040690053 0.042514883 -0.02043686
0.027495526 0.08690513 -0.041845594 -0.02697843 0.036008045 0.0019916147 -0.02527953 0.039317362
-0.019232608 -0.0322864 -0.0812422 0.069304116 -0.060503393 -0.0434418 -0.074065864 0.02212993

weight f4 [14, 64]
00000000: 9260 95bd 00ab b8bc 46ca 8e3d dc47 b33d
00000010: 081f 053d 805c acba 0063 4a3b b438 593d
00000020: f4c4 3b3d 6c3f 9c3d ac3a e03d 70b4 453d
00000030: 08c3 e63c b410 c53d 303f 11bd 9264 abbd
00000040: 648b 8b3d 40b7 643c 8c7f c93d 380d fa3c
00000050: c07d 333c 12a5 89bd c0c9 89bc 389b 8a3d
00000060: e078 9dbd d82e cfbc 6e14 f63d 3488 83bd
00000070: 6eca c73d 602c 6cbd 989b b7bd 4653 8fbd
00000080: 3c74 103d c05a 7f3c 92b1 e8bd 80bc 463b
00000090: 8017 de3a 78ad e33d 70fa cbbd 303a 47bc
000000a0: 5809 a23d 34bf 963d 4845 6d3d 4ae2 803d
000000b0: 50d8 01bd d074 163d 8859 bc3c 90a2 dabd
000000c0: fc49 aa3d 4035 a8bb e456 e7bd 70af 7c3c
000000d0: a8a3 a73d a0a4 f9bc 408f 533c a021 b13d
000000e0: 72cb d1bd 02e3 a3bd a88a 64bd 64db c1bd
000000f0: 0841 bd3d e079 333c f0ac 163c 542a 273d
00000100: 4803 293d 50c2 47bd 4e21 823d e02f d7bd
00000110: f4cd 3e3d 828d d93d f49a 793d 7e30 b23d
00000120: 7000 723d ac16 acbd 36b0 91bd 6687 af3d
00000130: a0c4 c6bb f693 bfbd 0451 113d 9003 fdbc
00000140: 706d fbbd 90cd 193d 5ca2 943d b0d8 533c
00000150: 0050 83b9 b212 823d ba75 cc3d 3883 013d
00000160: c05b debd e815 9f3c 528f a73d f075 543d
00000170: 60b9 5a3c 60cd b2bd 00f3 eaba 029f c83d
00000180: b4e8 793d 808d 043c b493 133d 803c f63c
00000190: 903c 1f3d 30aa da3d b053 ed3c a8de 9a3d
000001a0: a8b6 dabc 0028 34bb 202e a7bd 002b 60bc
000001b0: 08d0 ecbc 549a b93d 00bd 15bb 9c26 5bbd
000001c0: b066 763c 6cb3 103d c8ee c83d 58c3 fc3c
000001d0: 687b 68bd a0bc ce3b ce50 bd3d 4a07 f73d
000001e0: 6483 403d 80ec 1b3d c0a6 88bb e4f8 03bd
000001f0: 808a fdbb b89d c03c 2a5e 943d d4e0 023d
00000200: 00de f43a 5cad c93d 4052 0a3c bcda 96bd
00000210: cc06 eabd a4e4 5a3d a4d9 463d 6023 c0bc
00000220: 48f7 14bd 4479 b1bd 00d5 06bb e841 043d
00000230: d26b e0bd f8e7 df3c 7845 8ebc 60ee 5abc
00000240: e01d cc3c f22f dbbd 4e37 a4bd 0c0b fa3d
00000250: 702a dbbd 9e5c df3d b055 e83c ca1c 98bd
00000260: 20be 0c3c 8004 7ebd 9a0f b63d 80f7 d3ba
00000270: d4d1 143d 74e4 9c3d b249 973d daaa bd3d
00000280: 40e6 fe3c d8ae cfbd a802 edbc 02da fdbd
00000290: e4b5 cfbd 7aec 80bd f62c abbd d05a efbd
000002a0: 46bc c5bd 3422 ea3d f05f a33d a02f 9c3b
000002b0: 90d0 723c 9c1d a93d 6c90 c83d a057 6abd
000002c0: c08b 5e3c 20bb c4bb 00cb cd3c 2423 8b3d
000002d0: 50e3 423d c0d3 003d 7091 933c 2c4d 5cbd
000002e0: 6e8f f6bd 9a1c e7bd e211 f6bd a8fa 483d
000002f0: 98dc f13c 3887 b1bc 620f a33d 5437 52bd
00000300: 54da d0bd ded1 d3bd bee8 f9bd fe9b ac3d
00000310: 00a0 5c3a 0095 f83d c853 f73c c829 683d
00000320: e05b d23d 8ab3 e1bd a050 ab3c f261 fa3d
00000330: 787b d1bc 6c3e d2bd 760c c1bd 00c4 e0bc
00000340: a071 c9bb a078 703d e0f2 243d 8078 8b3c
00000350: 9e83 d03d 747f 76bd 7c04 033d 9e2e dd3d
00000360: b0ef f43d 6a1c c33d 40e1 733c f637 ef3d
00000370: 58e2 f5bd 30f0 9c3d 4032 e93d 60a1 b5bd
00000380: 541a db3d f0f2 1f3c 5495 eb3d a0ad fe3d
00000390: 5012 313c 1413 c13d 9c14 4dbd 0ed3 e33d
000003a0: ec86 b6bd 0045 69ba a253 a4bd 1aea e5bd
000003b0: 20f2 3e3d 802f 61bb 8004 ef3c 68cf f93c
000003c0: 5c88 dabd b057 023d b89b 0dbd 6866 e33d
000003d0: 4ccb 613d 1425 453d a8cf ef3d ace1 75bd
000003e0: 306b 753d 68d6 f5bd a021 9abb 7078 d53c
000003f0: 4884 613d 8603 f93d f66f 8cbd 8a6f 9dbd
-0.0729381 -0.022542477 0.06972174 0.087539405 0.032500297 -0.0013150126 0.0030881763 0.053032592
0.045842126 0.07629284 0.10948691 0.04826778 0.02816917 0.096223265 -0.03546065 -0.08368792
0.06813696 0.013959706 0.09838781 0.030523881 0.010955274 -0.06720938 -0.016819835 0.06767887
-0.07689071 -0.025290892 0.120156154 -0.06422463 0.09755407 -0.057659507 -0.08965224 -0.06998305
0.0352671 0.015585601 -0.11361994 0.0030324757 0.0016944259 0.11117071 -0.099598765 -0.012159869
0.079119384 0.07360688 0.0579274 0.06293161 -0.031700432 0.036732495 0.02299191 -0.106755376
0.08314893 -0.005133301 -0.1129587 0.015422687 0.08185512 -0.030474007 0.012912571 0.086489916
-0.10243882 -0.08002283 -0.055796295 -0.094656736 0.09240919 0.01095435 0.009196505 0.04081185
0.041262895 -0.048769295 0.063540086 -0.10507178 0.04658313 0.106226936 0.06093879 0.087006554
0.05908245 -0.08402762 -0.07113688 0.08570747 -0.00606592 -0.09354393 0.035477653 -0.030885488
-0.12276733 0.037549555 0.0725753 0.01293008 -0.00025045872 0.06351222 0.09983392 0.03161928
-0.10857344 0.019419625 0.08181633 0.051870286 0.013349861 -0.087305784 -0.0017925203 0.09795953
0.06101294 0.008090377 0.036029533 0.030058146 0.038876116 0.10676992 0.02897057 0.075619996
-0.026698425 -0.0027489662 -0.081630945 -0.013682127 -0.02890779 0.09062639 -0.0022848248 -0.053503618
0.015039131 0.03532736 0.09811169 0.030854866 -0.056758314 0.006309107 0.09243928 0.12061937
0.047000304 0.03806734 -0.004170269 -0.032219782 -0.0077374578 0.023512706 0.07244523 0.031952694
0.0018681884 0.09847519 0.0084424615 -0.07365939 -0.11427078 0.053440705 0.048547402 -0.023454368
-0.03636864 -0.08665708 -0.0020573735 0.032289416 -0.10958065 0.027332291 -0.01736711 -0.013362497
0.02491659 -0.10702504 -0.08018361 0.12209138 -0.10701454 0.10906337 0.028361171 -0.07427366
0.008590251 -0.06201601 0.088896945 -0.0016171783 0.03633292 0.076607615 0.07387103 0.09261103
0.031115651 -0.10140771 -0.02893193 -0.12395097 -0.10142115 -0.06295104 -0.08358185 -0.11687243
-0.09655051 0.11432305 0.07977283 0.0047664195 0.014820233 0.08257601 0.09793171 -0.057212472
0.013583124 -0.0060037524 0.025121212 0.06793812 0.047580063 0.03145194 0.018013686 -0.053784534
-0.12039076 -0.11284752 -0.120151296 0.04906717 0.029524133 -0.021670923 0.079619184 -0.051322296
-0.10197893 -0.10342763 -0.12202595 0.08428191 0.0008416176 0.121377945 0.030191317 0.05668047
0.1027143 -0.110205725 0.020912468 0.12225713 -0.02557157 -0.10265812 -0.09426205 -0.02743721
-0.0061475784 0.058708787 0.040270686 0.017025232 0.10181354 -0.060180143 0.0319867 0.10799907
0.11959779 0.09526904 0.014885247 0.116805956 -0.12006062 0.07663 0.113865376 -0.088686705
0.10698381 0.009762511 0.115030915 0.1243546 0.010807589 0.09427467 -0.050068483 0.1112424
-0.08912453 -0.00088985264 -0.08023764 -0.11226292 0.046617627 -0.0034360588 0.02917695 0.030494407
-0.1067054 0.031821907 -0.034572333 0.11103517 0.05512552 0.048131064 0.11709529 -0.06002967
0.059916675 -0.12003785 -0.0047037154 0.026058406 0.055057794 0.12158875 -0.06857292 -0.0768729

bias f4 [14]
00000000: f826 973c 403f 03bc 8400 f6bd 34dd ccbd
00000010: a85d 92bc c8ef b83c 609c 95bb b44a c3bd
00000020: 8464 cbbd f40c 72bd c0e0 3abb 60d3 babd
00000030: c8d2 aebd 8499 2cbd
0.018451199 -0.008010685 -0.12011817 -0.10003129 -0.017866924 0.022575274 -0.0045657605 -0.09535733
-0.09931281 -0.059094384 -0.002851531 -0.09122348 -0.08536297 -0.04213859
