models/model1.onnx (onnx, 67637 bytes, 6 tensors)

linear1.weight f4 [128, 60]
000000 3c 5f db bd fe 07 b5 3d c2 d4 98 bd 20 2b f3 3b
       -0.10711524 0.08839415 -0.07462455 0.0074209124
000010 b5 d9 c9 bd 34 c6 5b 3d 00 fe 98 3d 14 05 cf 3d
       -0.098559774 0.053655818 0.07470322 0.101083905
000020 0c 50 f5 bd 7c 6c 21 3d a4 f3 8a bc 6a 7f c5 3d
       -0.11978158 0.0394101 -0.01696188 0.09643443
000030 e2 aa f8 3d 52 3b 21 bd b0 a3 9f bd 74 db c5 bc
       0.12141968 -0.039363213 -0.07794893 -0.024152495
000040 e0 fa c1 bc c0 04 5a 3c 20 ef 07 3d 80 e3 78 3c
       -0.023679197 0.013306797 0.03318703 0.015190959
000050 47 0e cd bd f4 af 12 3d 6a 50 83 3d a0 ca c8 bb
       -0.10012489 0.035812333 0.06411822 -0.0061276704
000060 44 78 55 3d 9e de dc bd a2 14 ff 3d dc 50 77 3d
       0.052116647 -0.10784648 0.12455107 0.060379848
000070 cc fd e9 3d c0 ea d4 3d 08 f0 cd 3d a8 f3 e8 3d
       0.11425361 0.103963375 0.10055548 0.11374599
000080 2e ed d1 bd a9 c6 9a bd 68 d9 3d 3d 50 83 7b 3c
       -0.102503166 -0.07557423 0.046349913 0.015351132
000090 80 7e d6 3c 82 93 b5 bd a4 b3 96 bd 30 2f 2c bc
       0.026183367 -0.088660255 -0.073584825 -0.010509297
0000a0 f6 0f e2 3d 38 9f 99 3c a0 83 cb bb 00 56 89 bd
       0.110382006 0.01875268 -0.0062107593 -0.06705856
0000b0 38 d8 6b 3d d8 71 ea 3d d8 bf 57 bc 00 aa cc 39
       0.05757925 0.11447495 -0.013168298 0.00039036572
0000c0 62 74 97 3d de fb e2 3d 88 cd 25 3d 00 7a be bb
       0.07395245 0.11083196 0.040479213 -0.0058128834
0000d0 2f 2d 00 3e 88 87 0c 3d 04 f9 64 3d 4d ea 9c bd
       0.12517236 0.03430894 0.055901542 -0.07661877
0000e0 88 44 05 bd 56 75 d4 bd a6 7f 8c 3d a2 b7 bf 3d
       -0.03253606 -0.103739426 0.068602845 0.09361197
0000f0 b0 c6 47 bc 74 70 f3 3d 00 b8 af 3c c0 60 b6 3d
       -0.012193367 0.11886683 0.021450043 0.08905172
000100 34 60 78 3d a2 09 7a bd c8 83 a9 3d 9c c7 84 3d
       0.06063862 -0.061044343 0.082770884 0.06483385
000110 98 11 35 bd aa ce 9f 3d ec fc 9a bd 4a b9 eb 3d
       -0.04420623 0.0780309 -0.07567772 0.115099505
000120 f9 74 c8 bd 9a a4 b4 3d 9c ad fe bc 17 22 ee bd
       -0.09787936 0.08820458 -0.031088643 -0.11627596
000130 2e 03 96 bd ca d0 80 3d 00 1e 53 ba da 6e 2d bd
       -0.07324825 0.06289823 -0.00080534816 -0.042342044
000140 34 ae c7 3d 80 8a 3c bb 4c 78 32 bd e4 16 c3 3d
       0.097500235 -0.0028769076 -0.043571755 0.095258504
000150 20 27 3a bc 4c d0 3f 3d 48 01 ed 3d 88 bb 49 bc
       -0.011361867 0.046829507 0.1157251 -0.012312777
000160 00 bc 85 3a 30 e5 ee bc 90 b8 0f bc a0 70 cd 3d
       0.0010203123 -0.02916202 -0.0087720305 0.10031247
000170 48 ee a0 bc 9a 80 f8 3d d2 8f 01 be 16 6e fc 3d
       -0.019644871 0.12133904 -0.1265252 0.12325685
000180 f5 d0 f1 bd a8 9c 59 bd 6e 50 44 bd 64 07 8b bd
       -0.118074335 -0.053127915 -0.047928266 -0.06788519
000190 7c 14 3a 3d 00 f0 17 3c 78 f8 32 3d 8e e8 fb 3d
       0.04542969 0.009273529 0.04369399 0.12300216
0001a0 c2 07 d9 3d 74 9f bc bd 4a 72 3a bd 4e b2 eb 3d
       0.10597183 -0.09210101 -0.04551915 0.11508618
0001b0 7a 74 52 bd 38 76 43 bc c0 b2 eb bd 32 ee b6 3d
       -0.051380612 -0.011930041 -0.11508703 0.08932151
0001c0 d2 fa d4 3d fe 5b 93 bd 33 c5 e7 bd 38 65 c3 3d
       0.10399403 -0.071952805 -0.1131691 0.0954079
0001d0 98 0c 1b bc d8 83 3c bd 00 4d b8 3d 2c 74 88 3d
       -0.009463452 -0.046024173 0.089990616 0.06662783
0001e0 d0 02 51 3d e0 03 fd 3c 4c ac 1e bd 30 44 56 3c
       0.051028073 0.030885637 -0.038738534 0.013077781
0001f0 40 60 42 bd bc b4 25 bd a2 27 c2 bd 6a c7 9b bd
       -0.047455072 -0.040455565 -0.094802156 -0.076063946
000200 40 58 af 3b 9a 47 e3 3d 3c ff b8 bc 60 5d b6 3b
       0.0053510964 0.11097641 -0.022582643 0.0055653304
000210 a8 58 62 3d 80 21 84 bd 4a 27 85 3d b9 8e dc bd
       0.05526033 -0.06451702 0.065016344 -0.1076941
000220 80 45 01 3b f0 50 3d 3c 70 bd fa bd bc d6 90 bd
       0.0019725263 0.011554942 -0.122431636 -0.07072207
000230 d6 73 d7 3d d4 9c a8 bd 74 b6 e4 3d 07 b1 94 bd
       0.10520141 -0.082330376 0.11167613 -0.07260328
000240 d2 67 a1 bd b8 42 4c 3d 30 bd d7 bc c2 d6 e5 bd
       -0.0788113 0.049868315 -0.026335329 -0.112226024
000250 2d e2 ce bd e8 23 81 3c c8 e9 af 3d f0 64 aa bd
       -0.10101733 0.015764192 0.08589512 -0.083200336
000260 38 40 a7 bd 48 6a bc 3c a8 f2 e2 bc 80 21 6b bd
       -0.08166546 0.022999898 -0.027703598 -0.057404995
000270 2e 65 a3 bd b0 ee e6 bd d3 49 93 bd 8e 11 bd 3d
       -0.07978283 -0.11275995 -0.07191815 0.09231864
000280 87 f6 8f bd 64 d7 90 bc 58 97 ba 3c 2c a8 49 bd
       -0.07029443 -0.017680831 0.022777244 -0.049232647
000290 ec 33 ad bd b6 01 94 3d 9a 13 01 be 60 f5 a7 3d
       -0.08457169 0.07226889 -0.12605134 0.082010984
0002a0 52 71 32 bd d4 7d cc bc 68 9d d8 3d dc 95 4a bd
       -0.043565102 -0.024962343 0.10576898 -0.049459323
0002b0 6a c7 aa bd 6c 05 e6 bc e8 23 81 bd 5a be f7 bd
       -0.083388165 -0.028078757 -0.06305677 -0.120968536
0002c0 fc 07 60 3d 0e ad a4 3d de 11 a0 3d 6c c6 2d 3d
       0.054695114 0.0804082 0.07815908 0.042425558
0002d0 bc 9b 71 bd f6 e5 85 bd 3e f7 fa bd c9 6b d4 bd
       -0.05898641 -0.06538002 -0.12254189 -0.10372121
0002e0 b4 6b 99 3d a4 d3 fa bd 11 51 01 be 08 89 e6 3c
       0.07491246 -0.122473985 -0.1262858 0.028141513
0002f0 1f 51 be bd 66 30 c1 3d 80 d0 3d 3b f0 e5 91 bd
       -0.09292816 0.094330594 0.0028963387 -0.07123935
000300 6c 1b 44 3d 66 e2 db 3d da 9f 5e bd 4a dc 9f bd
       0.047877714 0.107365415 -0.054351665 -0.07805689
000310 0a 85 94 3d 96 c3 67 bd 4e 7f f1 bd 40 b9 34 3d
       0.07251938 -0.05658301 -0.117918596 0.04412198
000320 00 e4 e3 b9 34 e4 0f 3d c5 67 db bd dc 3a 42 3d
       -0.00043466687 0.03512974 -0.10713152 0.047419414
000330 a0 11 bb bc 40 9d a1 bb 88 91 52 3d b0 c6 1f 3d
       -0.022835553 -0.0049320757 0.05140832 0.039007843
000340 be ab fe 3d f6 a1 c6 3d 28 e1 14 3d 50 58 2a 3c
       0.12435101 0.0969886 0.03634754 0.010397032
000350 ba 5f 8a 3d b0 b8 39 3d 20 05 b9 3d 9a 21 cf bd
       0.0675654 0.045342147 0.09034181 -0.10113831
000360 46 01 f4 3d ae 2e 34 bd 80 2d b5 bd c2 d2 04 bd
       0.119143054 -0.04398983 -0.08846569 -0.032427557
000370 b4 78 02 3d c8 40 aa bc 96 ab a4 bd 00 69 3c 3b
       0.031853393 -0.020782843 -0.0804054 0.0028749108
000380 84 59 3e 3d 18 97 06 bc 00 36 03 ba 15 0c c3 bd
       0.046472088 -0.0082147345 -0.00050053 -0.09523789
000390 1e 62 85 3d 44 23 ae 3d 98 77 d6 3c e8 8a 91 3c
       0.06512855 0.0850282 0.026180074 0.017766431
0003a0 10 1b 00 3c ec 65 09 bd 70 44 0a bd f4 62 c6 bc
       0.007818952 -0.033544466 -0.033756673 -0.024217106
0003b0 a8 91 ca 3d 48 1b c5 3c bc 92 a6 bc 3a 0f 4e bd
       0.09891063 0.02406086 -0.02033364 -0.05030749
0003c0 30 8d cf 3d bc 1a c8 3d 1c a7 9c bd 60 d7 4a bd
       0.10134351 0.09770724 -0.07649061 -0.049521804
0003d0 80 55 23 bd f2 e4 d2 bd e2 c6 61 bd a0 d0 bf bb
       -0.03987646 -0.10297574 -0.05512131 -0.0058537275
0003e0 9c e5 ad bd d0 6f 9b bb 06 a6 dd bd 34 8f 46 3d
       -0.0849106 -0.0047435537 -0.10822682 0.048476413
0003f0 e4 65 53 3d 8c 8f 13 3d 44 43 02 be 04 09 0a 3d
       0.051610842 0.03602557 -0.12720972 0.033700004

linear1.bias f4 [128]
000000 d8 2b 20 3d ae 2c 9f 3d 5c 6a 7e 3d 26 f1 ce 3d
       0.039104313 0.07772194 0.06211315 0.10104589
000010 1a 66 d6 bd d0 f5 ab bd ca 07 d4 3d 78 cb 53 3d
       -0.10468693 -0.083964944 0.10353048 0.051707715
000020 09 63 83 bd ce 74 f8 3d 98 54 0a bd 0c ba 31 3d
       -0.06415374 0.12131654 -0.03377208 0.04339032
000030 b2 cd aa 3d 84 89 a7 bd 08 32 30 3d b0 9e 45 3d
       0.083400145 -0.08180526 0.043016464 0.04824704
000040 b8 88 b3 bc 7a e2 e5 3d 28 5c 93 bd 5c 7e c0 bc
       -0.021915779 0.112248376 -0.07195312 -0.023497753
000050 10 81 09 3d f0 f4 c5 bb 1c 86 b9 bc 10 b5 6e bd
       0.03357035 -0.0060411617 -0.022646956 -0.058278143
000060 d0 e7 fb bc 10 16 88 3d ee fa e8 3d 90 60 d5 3d
       -0.030750185 0.06644833 0.11375986 0.104188085
000070 56 66 ce 3d 6a 81 75 bd 36 fb 87 3d f2 db 27 bd
       0.10078113 -0.059937872 0.066397116 -0.04098124
000080 de f8 bb 3d 0e 6b b6 bd e1 80 03 3e 50 f8 e3 3c
       0.09178327 -0.08907138 0.12842132 0.027828366
000090 80 32 11 3d f0 ba cc 3c 2a 96 9f bd a0 29 1b 3d
       0.03544855 0.024991482 -0.077923134 0.037881494
0000a0 cc 90 32 3d 80 16 d2 3d dc ef 18 3d 8c d0 d2 3d
       0.04359512 0.10258198 0.037338123 0.102936834
0000b0 b0 7b 6f 3d 4c e2 f8 bd 40 90 1b 3d 78 d2 f6 3d
       0.058467567 -0.12152538 0.037979364 0.120518625
0000c0 b7 7c f7 bd c0 5d 62 3c 20 e1 1b 3c 2b 7d ea bd
       -0.12084334 0.013816297 0.009514123 -0.11449655
0000d0 dc 6b 69 3d 0e ea 16 bd 50 ed 81 3c ee c4 a5 bd
       0.05698763 -0.036844306 0.01586023 -0.08094202
0000e0 20 74 6a 3d b0 07 c1 bc 0e 77 ef bd 6a 1c a4 bd
       0.05723965 -0.023563236 -0.1169263 -0.08013232
0000f0 92 58 f4 3d 00 4b 59 3a 74 b9 0f 3d 90 64 cc bd
       0.11930956 0.0008289069 0.03508897 -0.09980118
000100 0a 19 11 bd 5a 67 fe bd 88 48 2e 3d 40 bc 89 bc
       -0.03542427 -0.124220565 0.04254964 -0.016813397
000110 50 ec 35 3d a8 81 b3 bd cc db 13 bd 90 0e 01 3d
       0.04441482 -0.08764964 -0.036098287 0.03150803
000120 9d 29 91 bd 78 f6 7e 3d f8 8e 0b bc 4f 8b 00 be
       -0.07088015 0.06224677 -0.008517973 -0.12553142
000130 18 eb d7 bc 00 42 3d 3d f0 2d 32 3d 40 b6 49 3c
       -0.026357219 0.04620552 0.04350084 0.012311518
000140 c0 eb 1d bb c0 a4 c3 bd b6 af a5 3d c7 a8 e4 bd
       -0.0024096817 -0.09552908 0.08090155 -0.11165004
000150 34 a3 a1 bd d0 b0 4a bc 58 9c 39 bd 20 23 b0 bd
       -0.07892457 -0.012371257 -0.045315117 -0.086004496
000160 08 8a f7 3c ec 1b 55 bd aa 6c 8e 3d cc 6f 21 3d
       0.030217186 -0.05202858 0.0695432 0.03941326
000170 80 37 75 3b cc da 81 3d 80 83 63 bb a4 1c 3d 3d
       0.0037417114 0.0634056 -0.0034715831 0.046169892
000180 b4 1e ce 3d 49 73 01 be ee 73 cb bd 9c c2 cc bd
       0.1006445 -0.12641634 -0.09934221 -0.09998056
000190 00 51 ee bd ac 4f a0 3d 15 ce a3 bd 9e 30 cc bd
       -0.11636543 0.07827696 -0.079982914 -0.099702105
0001a0 b0 80 d2 bd b4 1c 75 3d 00 90 e2 bd d0 8c f9 3c
       -0.102784514 0.059841827 -0.11062622 0.030462652
0001b0 a2 cc 06 bd 0e 2e b7 3d 50 ec cf bc 83 f3 a5 bd
       -0.032909997 0.08944331 -0.025381237 -0.08103087
0001c0 63 4b b5 bd f8 de d7 bd c8 50 82 3c 40 e4 ce 3d
       -0.088522695 -0.10540575 0.01590766 0.10102129
0001d0 fa f3 57 bd a8 ea e3 3d 4c d0 b6 3d 80 9f 52 3c
       -0.05272291 0.111287415 0.08926448 0.012855411
0001e0 6e 59 ac 3d 41 41 02 be d7 d8 ef bd e0 ee 93 3d
       0.08415495 -0.12720205 -0.11711281 0.07223296
0001f0 90 fc 21 3c 90 58 bd bd 7e eb 62 bd 9c bd 2b bd
       0.009886876 -0.092454076 -0.055400364 -0.041928872

linear2.weight f4 [64, 128]
000000 17 a5 b2 bd 1d 77 82 3d 23 e2 92 bd 23 21 ad bd
       -0.08722895 0.06370375 -0.071720384 -0.08453586
000010 e4 5d 93 bd f6 88 16 3d 44 b0 0d 3d 0f ed 8f bd
       -0.071956426 0.03675171 0.034591928 -0.07027637
000020 67 7a 8d 3d f9 ce 80 bd 70 d3 2c bd 4e 51 51 3d
       0.06908112 -0.06289477 -0.04219383 0.05110293
000030 09 46 85 bd e4 27 03 3d 13 89 a2 bd 80 14 56 bc
       -0.06507499 0.032020465 -0.07936301 -0.013066411
000040 21 ad 80 3d 07 57 82 3d 99 6b 80 3d f5 e2 a9 3d
       0.06283022 0.063642554 0.062705226 0.08295242
000050 e3 be ab 3d bb a8 8b 3d 70 c3 63 bc 4c 48 d8 3c
       0.08386018 0.06819292 -0.013901576 0.026401661
000060 c4 b1 89 3c 17 19 83 3d a0 37 26 bb 77 95 8c bd
       0.016808398 0.0640127 -0.0025362745 -0.06864446
000070 68 0d aa 3c 70 28 43 3c 6b cb 34 bd 32 1e 21 3d
       0.020758346 0.0119114965 -0.044139307 0.039335437
000080 74 cc 86 bc 8a db ea bc 5a a2 78 3d 0e 6a 68 3d
       -0.016454913 -0.028669138 0.060701706 0.056741767
000090 f0 3f 42 bc 39 9a 2b bd 57 a0 82 bd e8 95 45 bc
       -0.011856064 -0.041895125 -0.06378239 -0.012059666
0000a0 c1 3d a1 bd a0 cb 15 3b 0a e5 ab bd 6a fb 37 3d
       -0.07873107 0.0022856966 -0.08393295 0.0449175
0000b0 e0 8e d3 bb 10 c3 ed 3b a8 7f 7e 3c e3 de a8 3d
       -0.006456241 0.0072559193 0.015533365 0.08245637
0000c0 ae 50 75 bd 40 50 ed bc 0c 9a ff bc 84 d9 82 bd
       -0.059891395 -0.02896893 -0.031201385 -0.06389144
0000d0 5b e3 a7 3d ca 00 58 3d 71 0c 5f bd 7f 39 9c 3d
       0.081976615 0.052735128 -0.054455224 0.07628154
0000e0 82 c9 30 bd 3a 98 1d 3d 98 87 8b bd 25 a8 b2 3d
       -0.043160923 0.038475253 -0.06812972 0.08723477
0000f0 50 b6 b9 bb e8 7e 3f bc 0a 46 4f 3d 00 a6 ac 3b
       -0.0056674853 -0.011687972 0.050603904 0.005268812
000100 d2 d3 69 3d 22 47 71 3d 0b b9 a2 3d 70 74 75 bd
       0.057086773 0.05890573 0.079454504 -0.059925497
000110 fe ad 1b 3d 2d ee 8b 3d 16 95 24 3d 28 7f 12 3d
       0.03800773 0.06832538 0.040181242 0.035765797
000120 4d 6c 88 bd d1 37 0f bd da b1 7a bd 3e 18 f4 bc
       -0.06661282 -0.03496534 -0.06120477 -0.029796716
000130 e6 49 14 3d 68 63 cb 3c f6 19 1b 3d 66 80 74 3d
       0.036203288 0.024827674 0.037866555 0.059692763
000140 71 8a a9 3d 77 ef 33 bd 1e 36 41 bd 44 d0 4c bd
       0.08278359 -0.043929543 -0.04717075 -0.050003305
000150 4a f7 91 bd b2 7b 26 3d d2 17 61 bd fc 51 9a bd
       -0.07127245 0.04064531 -0.054954357 -0.075351685
000160 ee fb 9e bd 80 07 18 bb 62 95 38 3d c2 e4 74 3d
       -0.077628955 -0.002319783 0.045064338 0.059788473
000170 39 ff 8a 3d 2d 80 99 3d cb 3e a4 3d 51 be 8f 3d
       0.06786961 0.07495151 0.08019789 0.07018722
000180 fe 40 6f bd 5f 6d a9 3d e7 1b a2 3d 20 59 a6 bb
       -0.05841159 0.08272814 0.07915478 -0.0050765425
000190 22 93 40 3d 88 59 30 bc 90 6c 77 3c 2a 7f 37 3d
       0.047015317 -0.010763533 0.015101567 0.044799007
0001a0 62 3b ee bc dc de b8 bc 27 48 1d bd 90 83 c3 bb
       -0.02908105 -0.022567205 -0.038398888 -0.005966611
0001b0 48 8d 77 bd da 34 e8 bc d8 c9 5b bd 4d a1 b4 3d
       -0.06043747 -0.028345514 -0.05365929 0.08819828
0001c0 80 58 f4 3a 20 ba 04 3c 00 df 62 ba b4 e5 45 bd
       0.0018642098 0.008101016 -0.00086544454 -0.048314765
0001d0 2f bd a9 3d 00 f7 44 bd 30 84 a3 3b db fc 87 3d
       0.08288037 -0.04808712 0.004990123 0.06640025
0001e0 13 4d 81 3d 6f 55 53 bd f3 25 a7 3d a0 e4 75 bc
       0.06313529 -0.051595148 0.08161535 -0.015008122
0001f0 fe 50 60 bd 1b 71 8f 3d 0a 08 94 bd 50 d3 01 3c
       -0.05476474 0.07003995 -0.07228096 0.007923916
000200 8a c5 79 3d b0 e4 12 bd b0 2d 98 bc b0 49 d8 bc
       0.060979404 -0.035862625 -0.018576473 -0.026402324
000210 60 24 2b 3b f0 03 b5 bc 21 9e 9c bd b0 35 02 3d
       0.002611421 -0.022096604 -0.07647348 0.03178948
000220 28 ee 6a 3c 0e 07 34 bd fd b7 57 bd fc f7 e1 bc
       0.014339007 -0.04395204 -0.0526657 -0.027584068
000230 28 5c f9 3c 80 65 ae 3c 97 30 8b bd 48 5e 85 bd
       0.030439451 0.021288633 -0.06796377 -0.06512123
000240 ae 43 32 3d 00 89 00 3c 20 fe 45 bc 75 ae 81 bd
       0.043521576 0.007845163 -0.012084514 -0.06332103
000250 72 27 77 3d 69 4d 6b bd 64 35 9e bd 58 cf 8a bc
       0.060340352 -0.05744687 -0.07725027 -0.016944572
000260 90 88 0a bd 4f e0 35 bd ea ee 3d bd b6 8e ee bc
       -0.033821642 -0.04440337 -0.046370424 -0.029120784
000270 64 f9 50 bd e0 22 a1 bd d4 29 05 3d 82 9d 09 3d
       -0.051019087 -0.0786798 0.032510594 0.033597477
000280 29 36 b3 3d 92 24 a2 bd cb d4 9f bd b2 b9 9a bd
       0.087505646 -0.079171315 -0.07804259 -0.0755495
000290 e4 31 93 3c 0d 61 84 3d a2 48 0f bd 3a 69 8b bd
       0.017968126 0.064638235 -0.034981377 -0.0680718
0002a0 c0 41 5b 3b 60 20 2c 3b 31 f4 99 bd bd 5b 81 bd
       0.0033455938 0.0026264414 -0.07517279 -0.06316326
0002b0 ae a8 3a 3d 44 bc d3 bc 3b 4e a6 3d ec de de bc
       0.04557102 -0.025846608 0.0812039 -0.027205907
0002c0 5b e0 5a bd e0 22 7c bc 68 1f 80 3c 9b ef 27 bd
       -0.05343662 -0.015389174 0.015639976 -0.04099999
0002d0 7f 6c b3 bd 0a c2 1c 3d 74 f9 d6 3c 60 bf 8e bd
       -0.08760928 0.038270988 0.026241995 -0.06970096
0002e0 98 79 9c 3c 76 6c 31 3d ea 25 7a 3d bc 02 fa 3c
       0.01910095 0.043316327 0.061071314 0.030518882
0002f0 ca 78 38 3d 06 c0 07 bd 8a ba 73 bd 8a b6 64 bd
       0.04503707 -0.033142112 -0.05950407 -0.055838145
000300 d5 2e 7b bd e9 c7 0d bd 8c 1d b4 3c 50 64 bf bb
       -0.06132396 -0.034614477 0.021986745 -0.0058408156
000310 61 40 a4 3d 1a 2f 3f 3d ee dd 42 3d 80 7b 94 3b
       0.08020092 0.04667578 0.04757493 0.004531324
000320 ee af 38 3d a6 be 74 3d 02 7b 6e 3d bb 95 b3 bd
       0.045089655 0.05975213 0.05822278 -0.08768793
000330 c0 79 52 3c 2e 93 2d 3d 72 65 16 3d 11 4c a7 bd
       0.01284641 0.04237669 0.03671784 -0.081688054
000340 e0 5a aa bb 46 fc 5c 3d 30 05 c6 3b 6b cf 98 3d
       -0.0051988214 0.053951524 0.006043099 0.07461437
000350 08 30 a6 3c da 57 1f 3d 60 44 93 bc 41 99 9f bd
       0.020286575 0.03890214 -0.01797694 -0.07792903
000360 55 65 ab 3d 6a 53 5a 3d 85 2b b2 bd 5e a7 a4 bd
       0.08368937 0.053302206 -0.08699707 -0.08039735
000370 ac d4 c9 3c 19 46 91 3d ed bf 9a 3d e8 b0 25 bc
       0.024637543 0.07093448 0.07556138 -0.0101129785
000380 cf 62 91 3d 24 35 89 bd 7c 1d c0 bc 46 bf 3b bd
       0.07098924 -0.06699589 -0.02345156 -0.04583671
000390 5a d7 31 3d 56 cf 15 3d 80 99 30 bc 20 f2 25 3b
       0.043418266 0.036574684 -0.010778785 0.002532132
0003a0 1e b2 2a 3d 73 cb 9a 3d a6 92 7a bd 1e 9f 2e 3d
       0.041673772 0.07558336 -0.06117501 0.042632215
0003b0 f0 ab 69 3c c2 2a 61 bd 5c e8 84 3c 2f d7 9b bd
       0.0142621845 -0.054972418 0.016224079 -0.076094024
0003c0 f0 e8 bd bb 8c be 0a 3d 6b ff 33 bd da 26 b3 bd
       -0.0057955906 0.033873126 -0.043944757 -0.08747645
0003d0 b4 ed 1f bd a0 74 d6 3c b1 9a 80 bd 13 64 a8 3d
       -0.03904505 0.026178658 -0.06279505 0.08222213
0003e0 51 53 a9 3d 1c 39 e5 3c 12 6f 2f 3d 54 11 86 3c
       0.082678445 0.027981333 0.042830534 0.016365685
0003f0 c4 f2 f7 3c 70 e7 6b bd 9a fa 29 3d 22 76 67 bd
       0.030267127 -0.057593763 0.041498758 -0.056509145

linear2.bias f4 [64]
000000 2c 56 df 3c c1 5d 93 3d 7b a7 9a 3d c0 12 a5 bb
       0.02726277 0.071956165 0.075514756 -0.0050376356
000010 96 53 3f 3d 6e 5e 73 3d 6a 5c 40 3d 75 99 a6 3d
       0.046710573 0.059416227 0.046963133 0.08134738
000020 92 eb 70 3d b8 4c 3b 3c c0 d5 1c bc bc 54 a9 3c
       0.058818407 0.011431865 -0.009572446 0.020670287
000030 c2 ab 71 3d 14 a3 e7 3c 80 c7 4a bb f8 a3 ef 3c
       0.05900169 0.028276004 -0.0030941665 0.029252991
000040 18 38 2b 3c 18 9a a2 bc 20 0c 50 bb c0 68 9e 3c
       0.0104503855 -0.019848868 -0.0031745508 0.019337058
000050 b5 65 1d bd 8c 3b 9c 3c e8 4d 11 3d c4 57 f1 bc
       -0.038427074 0.019071363 0.035474688 -0.029460795
000060 6c 13 9c bd 31 39 38 bd 64 14 d0 bc b7 24 8c bd
       -0.07620892 -0.044976417 -0.025400348 -0.0684294
000070 08 5b 45 bc 20 a8 89 bc e2 88 78 3d 40 1f c6 bb
       -0.012045629 -0.016803801 0.060677417 -0.0060462058
000080 d5 91 82 bd a0 a0 40 3b 78 76 34 bd 50 9d c4 bc
       -0.063754715 0.0029392615 -0.044058293 -0.024000794
000090 e8 d1 ac bc 90 9f a9 bc 92 10 0f 3d f0 d0 c6 3b
       -0.021096185 -0.020705968 0.034927912 0.0060673878
0000a0 d8 5b 7d 3c 60 ba 06 3b 26 0c 2a 3d df 4b 8e bd
       0.015463792 0.0020557866 0.041515492 -0.06948065
0000b0 f0 08 9a bb cb 9f 86 bd 4f 93 81 3d c3 92 a4 3d
       -0.0047007725 -0.06573447 0.06326925 0.08035805
0000c0 9e 43 63 bd 96 42 9a bd af ab 89 3d f3 4a b3 3d
       -0.055484407 -0.075322315 0.06722199 0.0875453
0000d0 20 9f 34 bc fc a5 39 bd 0a 5b 3a 3d a0 c6 85 bb
       -0.0110242665 -0.04532431 0.045496978 -0.004082516
0000e0 56 79 a5 bd 92 74 d9 bc 0a b8 13 3d 83 97 b4 bd
       -0.080797836 -0.026544843 0.036064185 -0.08817961
0000f0 ce a8 1e 3d e4 62 0c bd 02 17 65 3d 36 8d 4e bd
       0.038735203 -0.034273997 0.055930145 -0.050427638

linear3.weight f4 [10, 64]
000000 60 c0 94 bc cc fe ea 3d 46 6c e0 bd 00 4a 54 3a
       -0.018158138 0.1147438 -0.109581515 0.0008098185
000010 be e8 e3 bd 7a a0 91 3d 20 1d 80 3c 80 fb c6 3c
       -0.111283764 0.071106866 0.015638888 0.024289846
000020 1a 18 ad bd 90 e6 25 3c 40 2f be 3b c8 b6 f0 3c
       -0.08451863 0.010125771 0.0058039725 0.029384032
000030 60 08 a3 3d 78 d4 9d bc 60 82 81 bd a0 28 7f bc
       0.07960582 -0.019266352 -0.06323695 -0.015573651
000040 dc 14 17 bd b2 0a a5 bd 42 fa 9b bd d6 17 dd bd
       -0.036885127 -0.080586806 -0.07616092 -0.10795562
000050 e8 ca cc 3d d0 dd 19 3c b4 5f da bd 20 15 35 3c
       0.09999639 0.009391263 -0.10662785 0.0110524
000060 80 70 33 3d 58 79 76 3d 1e e5 8d 3d 40 fc 76 3b
       0.04380846 0.060174316 0.06928466 0.0037686974
000070 92 f7 a7 bd 48 67 d4 3d 16 06 d4 3d 16 2b a5 3d
       -0.08201517 0.10371262 0.10352723 0.080648586
000080 4c a6 57 bd e0 8c b4 3c 8e db ec 3d 88 79 84 bd
       -0.052648827 0.02203983 0.11565314 -0.06468493
000090 b6 fc b9 3d 38 57 ff bc 64 28 ed bd 02 a2 c2 3d
       0.09081404 -0.031169519 -0.115799695 0.09503557
0000a0 70 a1 9c 3d d8 48 b3 3d 1c 45 85 bd f0 3a d2 bc
       0.07647979 0.08754128 -0.06507322 -0.02566287
0000b0 84 21 6f bd 72 15 85 3d ce ea a8 bd e4 5a e6 3d
       -0.058381572 0.06498231 -0.082479104 0.11247805
0000c0 50 26 03 bd 48 89 91 3c c4 5f b6 3d a8 a5 f1 bd
       -0.03201896 0.017765656 0.089049846 -0.117991745
0000d0 7a b6 de 3d 7c 2a 3e 3d 88 12 bd bd 0c 5f 4c 3d
       0.108746484 0.046427235 -0.0923205 0.04989533
0000e0 f4 0a ec 3d 86 24 b5 bd 88 1e 90 bc a0 10 96 3c
       0.11525527 -0.08844857 -0.017592683 0.018318474
0000f0 10 7b b0 3d 80 5d f4 3d d2 60 b3 3d 60 61 72 3c
       0.08617222 0.11931896 0.087587014 0.014793724
000100 dc 76 b5 3d 08 83 de bc 0c dd 7b 3d 00 28 b3 bb
       0.08860561 -0.02716209 0.061490104 -0.005467415
000110 a0 9d 6e bd 9c c9 1f 3d 08 92 98 bd ba ac b9 bd
       -0.05825579 0.03901063 -0.07449728 -0.09066148
000120 3a 3b 86 bd 6c a1 af 3d a0 76 ff bc b8 b7 ba 3c
       -0.06554265 0.08575711 -0.031184494 0.022792682
000130 10 19 20 bd 4c a3 a8 3d 1e eb 9a 3d a8 23 69 3d
       -0.0390864 0.082342714 0.07564376 0.05691877
000140 90 59 f8 bc 28 21 c7 bc cc 2e 33 3d 5c 45 1e bd
       -0.030316144 -0.024307802 0.0437458 -0.038640365
000150 98 a5 bf bd 2c 07 d9 3d 80 a9 7a 3c 38 e5 f4 3d
       -0.093577564 0.10597071 0.015299201 0.119577825
000160 00 65 06 bd ce 05 a5 bd 80 4e 9a 3a 72 d2 b3 3d
       -0.032811165 -0.08057748 0.0011772662 0.08780374
000170 40 26 07 3b fc 53 94 3d 74 6b dc bd 9e f7 89 3d
       0.0020622164 0.07242581 -0.107626826 0.06736682
000180 a0 bf a1 bc f0 2d 10 bd 3e 39 e0 bd 38 4f a4 3c
       -0.019744694 -0.03520006 -0.10948418 0.020057306
000190 5e cd 8b 3d 1c 66 e5 3d 6a 0d ad 3d c0 9d 82 bc
       0.0682628 0.112011164 0.08449824 -0.015944362
0001a0 98 3f 1b 3d 80 f6 91 3c 60 e2 e7 bc f8 cc 32 bd
       0.037902445 0.017817736 -0.028306186 -0.043652505
0001b0 62 4b 8b 3d ac 60 fa 3d 72 1c e3 bd 5c 0b e4 3d
       0.068014875 0.1222547 -0.1108941 0.11134979
0001c0 a8 c0 b8 3d e0 bf 1c bc 6a b2 a4 bd e0 45 79 bc
       0.09021121 -0.009567231 -0.08041842 -0.015214413
0001d0 0c b2 05 bd f0 4a fd bd 68 1e 4e 3d 38 db 11 3d
       -0.0326405 -0.12367809 0.050321966 0.035609454
0001e0 5a b3 e7 bd 3e 70 c8 bd 78 a4 80 3c d0 78 0c bc
       -0.113135055 -0.097870335 0.015703425 -0.008573726
0001f0 00 81 90 3a 72 e6 e6 bd ac dd 7e bd 38 01 b7 bc
       0.0011024773 -0.11274423 -0.06222312 -0.022339448
000200 98 28 ee bd ec 67 a2 3d b0 04 73 3d ce 2d 91 bd
       -0.116288364 0.07929978 0.059330642 -0.07088815
000210 f8 e5 ec 3d 82 53 f4 bd b4 a1 e9 3d f0 60 2e 3c
       0.115673006 -0.1192999 0.114077955 0.010643229
000220 98 3f ad bc 12 62 e7 3d 34 a7 8b 3d 34 c9 e0 bd
       -0.021148488 0.11298002 0.06819001 -0.109758765
000230 f6 3b 98 3d a8 d1 71 bd 9c ed da 3d 98 c2 eb bd
       0.07433312 -0.059037834 0.10689852 -0.11511725
000240 40 2a 64 3c 06 f3 84 bd 72 db ad 3d 58 ea b8 3d
       0.013926089 -0.064916655 0.084891215 0.090290725
000250 44 9b d4 3d 8c 50 35 3d 78 18 a3 3c 80 94 be ba
       0.10381177 0.04426627 0.019909129 -0.0014540106
000260 a2 d3 bd 3d 7c f1 e2 3d 58 a1 e8 3c f4 20 4f 3d
       0.092688814 0.11081216 0.028397247 0.050568536
000270 00 38 89 ba 64 52 ec bd 80 bb f7 3d a0 30 8e bb
       -0.001046896 -0.11539152 0.1209631 -0.0043392926
000280 a0 8e b1 3c 58 f4 df bd 60 ac eb bd dc eb 84 3d
       0.021674454 -0.10935277 -0.11507487 0.06490299
000290 14 9d 74 3d d0 dc 08 bd e6 d8 fc 3d 60 1a 74 3d
       0.059720114 -0.03341371 0.123460576 0.059595466
0002a0 52 37 81 bd a4 f9 c4 3d e4 b9 39 3d 00 21 16 bd
       -0.0630938 0.09617928 0.045343295 -0.036652565
0002b0 88 7c b8 3d 42 28 ed bd 00 b8 cd bb 8a c2 f9 3d
       0.090081275 -0.11579944 -0.006278038 0.121953085
0002c0 fc 9c 9d bd ca 28 eb 3d 02 04 f4 3d e4 42 28 bd
       -0.07695958 0.11482389 0.11914827 -0.041079417
0002d0 30 88 83 3d c4 43 fc bd aa 38 b0 bd 9a 2c ae bd
       0.0642246 -0.12317613 -0.08604558 -0.08504601
0002e0 94 eb e7 bd d8 df b4 3d 64 f5 9f bd 60 8f 10 bd
       -0.1132423 0.08831757 -0.078104764 -0.035292983
0002f0 e6 19 88 3d c8 3c c3 3d 90 df ec bd b2 0b d5 3d
       0.06645565 0.095330775 -0.11566079 0.10402621
000300 32 51 fa 3d c0 70 ef bd 30 1c e8 3d 32 1e c5 3d
       0.12222518 -0.11691427 0.11333501 0.096249
000310 c6 e5 cb bd 20 4e 62 3c a0 66 d6 3c a0 d3 68 bd
       -0.09955935 0.013812572 0.026171982 -0.056842446
000320 14 55 56 3d d8 95 d2 bd 00 d9 a9 3d a4 1b 0a bd
       0.05232723 -0.10282487 0.082933426 -0.033717766
000330 e0 50 e9 bd 30 23 38 bc c8 6e be 3c 2e 10 e8 bd
       -0.11392379 -0.011238858 0.023246184 -0.11331211
000340 4c 89 35 bd f0 ab df bd ea 07 c4 bd e6 be a0 3d
       -0.04432039 -0.10921466 -0.09571822 0.07848911
000350 b4 60 c3 bd 24 31 98 3d 3c c3 53 3d e8 b0 b9 3d
       -0.09539929 0.07431248 0.051699862 0.09066945
000360 d8 a7 fb bd c6 5b c7 3d 80 d4 cf 3a fe b2 f8 3d
       -0.12287873 0.09734301 0.0015856177 0.12143515
000370 e0 23 c7 3b d6 37 9c bd fc 56 c7 bd e0 3d ac 3b
       0.0060772747 -0.07627837 -0.09733388 0.0052563995
000380 80 ec 79 bc 74 64 14 bd 70 85 ae bd 66 e4 eb 3d
       -0.01525414 -0.036228612 -0.08521545 0.11518173
000390 e8 48 bf 3c 10 ec 02 bc 3c 69 96 3d 52 8e dd 3d
       0.023350194 -0.007990852 0.073442906 0.10818161
0003a0 78 0e b6 bd 78 0d f9 bd 7e ec 90 3d c4 d7 12 3d
       -0.088894784 -0.12160772 0.07076357 0.0358503
0003b0 70 7e 01 bd 12 19 e4 3d 52 77 8a bd 60 c8 bf 3d
       -0.03161472 0.11137594 -0.0676104 0.093643904
0003c0 a8 85 a0 bd 7a 05 ba 3d 98 29 bf 3c 44 bc 34 3d
       -0.07837993 0.09083076 0.023335263 0.044124857
0003d0 d0 6f ec bc 5a 20 af 3d fe 3f f5 bd 80 27 60 3d
       -0.02886191 0.085510924 -0.11975096 0.05472517
0003e0 20 2c 7e bd c0 c9 ad bd ec d2 0e 3d 60 59 8d 3c
       -0.0620538 -0.084857464 0.03486912 0.017254531
0003f0 f0 9b 89 bc 3e 3c 86 3d 72 84 ce bd 80 09 46 3b
       -0.01679799 0.06554459 -0.10083856 0.0030218065

linear3.bias f4 [10]
000000 f0 fa 91 3d c4 d3 41 3d 9a 37 d6 3d 00 b3 79 ba
       0.07127941 0.047321096 0.10459824 -0.0009525269
000010 ca 64 e7 3d a4 5d 0f 3d 62 f9 cc 3d 8e 35 ec 3d
       0.11298521 0.035001412 0.100085035 0.11533652
000020 48 14 87 3c be 2d a7 bd
       0.016489163 -0.081630215
