models/model1.onnx (onnx, 67637 bytes, 6 tensors)

linear1.weight f4 [128, 60]
000000 94 1f 96 3d c6 8b 02 be 24 59 97 3d 00 50 37 3b
       0.07330242 -0.12748632 0.07390049 0.0027971268
000010 a0 ab f2 3c 0c 89 27 3d cd 78 b0 bd 80 61 7b 3d
       0.029622853 0.040902182 -0.08616791 0.06137228
000020 c2 b8 6a bd b0 1d 0f 3c e2 16 6b bd 58 4a c9 3c
       -0.057305105 0.008735105 -0.05739487 0.024571583
000030 f0 57 3f bc fe b8 55 bd c8 01 c2 3d 14 0c cf 3d
       -0.011678681 -0.052178375 0.09472996 0.101097256
000040 6a 71 c3 3d 70 06 e3 3d d0 1a de 3d 00 f4 25 bb
       0.095431164 0.11085212 0.10844958 -0.0025322437
000050 60 fc 0b 3d dc 21 0f 3d 8d a9 c5 bd 43 6d c9 bd
       0.03417623 0.0349444 -0.0965148 -0.09835293
000060 58 99 a7 3c 86 75 01 bd 00 5d 33 3d 00 7a 87 bd
       0.020458862 -0.03160622 0.043789864 -0.066150665
000070 0c b7 c2 bd be 45 8e 3d 20 35 0c 3d 00 a9 8e bc
       -0.0950757 0.06946896 0.03423035 -0.01741457
000080 90 48 ba 3d 28 a7 59 bd 84 c8 d8 3d 34 91 b2 bc
       0.090958714 -0.05313793 0.1058512 -0.021797754
000090 5e 82 3f bd 9e 77 d7 bd 9c 82 fa bd a9 61 b6 bd
       -0.046755187 -0.10520862 -0.12231943 -0.08905346
0000a0 3d a0 9e bd 26 c7 6d bd 28 81 08 3d f8 41 cf 3d
       -0.07745407 -0.05805125 0.033326298 0.101200044
0000b0 d0 a4 f1 bb 06 ac a0 3d 5a 28 59 bd 16 e2 5b bd
       -0.0073743835 0.07845311 -0.053016998 -0.05368241
0000c0 00 bf 42 3b 9a 4a 91 3d c4 c0 33 3d 20 64 f0 bd
       0.0029715896 0.07094307 0.043885008 -0.11737847
0000d0 38 69 bf 3d a0 8f 0b bc de 69 a3 3d 00 92 65 3a
       0.09346241 -0.00851813 0.07979177 0.00087574124
0000e0 50 2d ba 3d 80 a5 85 3b c2 6a 85 bd 6a 87 60 bd
       0.09090674 0.004078567 -0.06514503 -0.05481664
0000f0 a0 e9 12 3c 84 c6 eb bc 4e ed 9d 3d 78 20 f2 bd
       0.008966833 -0.028781183 0.07711278 -0.11822599
000100 6c 02 a1 3d c0 30 48 bd 83 ec 00 3e 02 5e 4e bd
       0.0786179 -0.048874617 0.12590222 -0.05038262
000110 64 f9 83 bc bc 60 ed 3d ff 0f 01 3e 74 3a d2 3d
       -0.01611013 0.11590716 0.12603758 0.10265055
000120 90 dd 5c 3c 2a 0e f2 3d f0 34 62 3c ee 89 bc 3d
       0.013480559 0.11819108 0.013806567 0.092059955
000130 6a 66 c6 bd a0 82 71 3c 10 bb f2 3d d6 14 36 bd
       -0.09687503 0.014740616 0.118520856 -0.044453464
000140 74 6a 6e bd b8 df ae 3d 7c 03 e9 3d 1e 70 d2 3d
       -0.05820699 0.08538765 0.11377618 0.10275291
000150 0c ea af 3d 74 3a 3a bd b6 27 e2 bd 98 58 85 3c
       0.08589563 -0.0454659 -0.110427305 0.016277596
000160 ce ce bc bd 56 3e 94 3d d8 48 23 bc 40 68 5b 3b
       -0.09219132 0.07238452 -0.009966098 0.0033478886
000170 f0 8b 26 bc 76 fb df bd f4 f5 73 3d f0 c8 cf bc
       -0.0101652 -0.10936634 0.05956073 -0.02536437
000180 3d 4b 03 be d0 a3 f6 bb eb 63 d8 bd 80 a8 88 ba
       -0.1282167 -0.007526852 -0.10565933 -0.0010426193
000190 bc 89 21 bd 47 22 b3 bd f7 f8 86 bd 80 51 e5 3d
       -0.039437994 -0.08746772 -0.06590455 0.111971855
0001a0 5a 8b b5 3d 2e 02 8f bd 38 58 37 3d 00 62 cd 3b
       0.0886447 -0.069828376 0.044761866 0.006267786
0001b0 00 2d d0 bc 60 f5 ab bb 00 04 76 39 d8 4d c4 3c
       -0.025412083 -0.005247757 0.00023461878 0.0239629
0001c0 2a de c4 bd 51 42 02 3e 50 00 3c 3c 74 bf ee bd
       -0.09612687 0.1272061 0.011474684 -0.116576105
0001d0 70 26 0c 3d 04 47 85 3d 0e 8a ae 3d 48 ff 45 3d
       0.034216344 0.06507686 0.085224256 0.04833916
0001e0 80 a1 e8 3b 6a ca d7 3d 42 a7 ae bd d2 df fe 3d
       0.0070993304 0.10536654 -0.08527996 0.12445034
0001f0 d4 13 c7 3d 40 cf 18 bb 64 ab 32 3d 28 82 fc bc
       0.09720579 -0.002331689 0.043620482 -0.030823782
000200 19 38 95 bd d7 45 80 bd 3c 2e 27 3d 8c 01 99 bc
       -0.072860904 -0.06263321 0.040815577 -0.018677495
000210 e8 a8 80 3d b4 fb 4c 3d 1c 5a ef 3d 8a 03 fa 3d
       0.06282216 0.05004473 0.11687109 0.12207706
000220 d8 1a a5 bd 72 91 c6 bd f6 46 45 bd 9e 0d 92 bd
       -0.08061761 -0.0969571 -0.048163377 -0.071315035
000230 4a 69 d4 bd be bc 35 bd 08 84 cd 3c 22 bb e8 bd
       -0.10371645 -0.04436945 0.025087371 -0.11363818
000240 0b 22 01 3e a0 18 a0 3c 50 db b2 bd de 7f bf bd
       0.12610643 0.019542992 -0.08733237 -0.093505606
000250 80 34 dd 3b 46 b0 ac 3d 84 12 ef 3d 5a 51 9a 3d
       0.0067506433 0.08432059 0.116734535 0.07535048
000260 88 17 d2 3d b6 f6 c3 bd 98 01 88 bd 2b 47 f5 bd
       0.102583945 -0.09568541 -0.06640929 -0.11976465
000270 22 ae fa 3d 30 de ea bd c0 ce 46 3c 00 5f 49 3b
       0.122402444 -0.1146816 0.012134254 0.003072679
000280 b8 c5 c3 3d f8 81 75 3d 30 55 09 3c 98 d2 6e bc
       0.09559196 0.0599384 0.008382127 -0.014576577
000290 6c a7 72 3d 3b a5 dd bd 66 24 a5 bd 84 ff 63 3d
       0.059241697 -0.10822531 -0.08063583 0.0556636
0002a0 72 2f c2 3d a2 cf 9d 3d a8 17 b5 3c 50 b5 dd bd
       0.09481706 0.077056184 0.022106007 -0.10825598
0002b0 c2 11 99 3d 71 c0 fe bd c0 34 7f 3b 56 1f 5f bd
       0.0747409 -0.12439049 0.0038941354 -0.054473244
0002c0 70 88 b3 3d c0 06 05 3c 24 28 a5 bd 21 e6 cc bd
       0.08766258 0.008119285 -0.08064297 -0.10004831
0002d0 f4 2f b3 bd 8c e2 30 bd 36 32 ae 3d 8c 0c f6 bd
       -0.08749381 -0.043184802 0.08505671 -0.12014112
0002e0 64 89 76 3d 8c d9 19 3d 64 11 f5 3d 20 01 89 bc
       0.06018962 0.037560984 0.119662076 -0.01672417
0002f0 25 7f 9d bd 44 64 53 3d 66 04 36 bd 88 84 dc bd
       -0.076902665 0.051609293 -0.04443779 -0.10767466
000300 2c 66 6f bd 9b 73 d5 bd a8 07 4a bd d0 0b d7 bd
       -0.058447048 -0.104224406 -0.049323708 -0.105003
000310 b4 45 ac 3d 7e d4 f9 bd de 19 21 bd e2 7e 01 be
       0.08411732 -0.12198733 -0.03933131 -0.12646058
000320 80 63 41 bc e4 08 2d bd 32 8a c1 3d 98 75 ed 3d
       -0.011803508 -0.042244807 0.09450187 0.11594695
000330 a6 34 81 bd 46 9b 94 bd a8 0e 22 3d e8 55 72 bc
       -0.0630887 -0.072561786 0.03956476 -0.014790989
000340 c8 62 d8 3c a7 6c d9 bd 70 5e 0e bd c8 57 23 3d
       0.02641429 -0.10616427 -0.03475803 0.039878637
000350 bc 45 6c 3d 70 ad 57 3d f0 b0 96 3c 00 da 45 3b
       0.05768369 0.052655637 0.018394917 0.0030189753
000360 38 bd ff 3c e8 65 15 3d b2 b5 a0 bd f6 89 90 3d
       0.031218156 0.03647414 -0.07847156 0.07057564
000370 78 f0 4a 3d f0 8d d4 3d 19 e9 fc bd 78 c9 3b bc
       0.049545735 0.10378635 -0.12349147 -0.011461608
000380 98 34 47 bc 38 d3 dc 3d be 09 dc bd d1 d6 ac bd
       -0.012158535 0.10782474 -0.10744046 -0.084394105
000390 90 d7 22 bc a0 c3 73 bc 72 75 e9 3d e2 2a fd 3d
       -0.009939089 -0.014878184 0.11399354 0.12361695
0003a0 5a e0 bb bd 06 aa 87 3d 8e 13 c4 3d 68 06 81 bd
       -0.09173651 0.06624226 0.09574042 -0.0630005
0003b0 00 73 3f bc 1b ad 03 3e 42 b7 fb 3d 10 ba 6e bc
       -0.011685133 0.12859003 0.12290813 -0.014570728
0003c0 c0 70 ec 3b a6 ba 4c bd 2a fb e3 bd 58 48 6e 3d
       0.0072155893 -0.04998269 -0.1113189 0.05817446
0003d0 4c 34 01 3d 00 74 28 3b f2 5a 8f bd 65 f1 f9 bd
       0.031544015 0.0025703907 -0.06999768 -0.122042455
0003e0 e6 cb af bd 30 c7 79 3c af 8e c5 bd 5f 03 01 3e
       -0.085838124 0.015245244 -0.09646355 0.12598942
0003f0 6a 9d fe 3d 80 2f 39 bc 3b 3e 93 bd 9d 4c d2 bd
       0.12432368 -0.011302829 -0.07189604 -0.10268519

linear1.bias f4 [128]
000000 a8 0d 1f bc 40 2c 12 bc 89 1c c7 bd 1c 5c 22 3d
       -0.009707846 -0.008921683 -0.097222395 0.039638624
000010 dc 0e 08 3d c8 98 d6 bc 0e 3c 2e bd ab 32 e8 bd
       0.033217296 -0.026195899 -0.04253774 -0.11337789
000020 48 4e 79 3d 44 50 c9 bd 28 d5 de bd a5 80 b2 bd
       0.06086567 -0.098297626 -0.108805 -0.08715943
000030 bc 91 92 3d 90 40 97 3c 40 8b 65 bb 88 7d ba 3d
       0.07156703 0.018463403 -0.0035025626 0.091059744
000040 70 29 34 3c 2a f2 94 3d 88 d7 7d 3d 98 00 7b bc
       0.010996208 0.07272752 0.061973125 -0.015319966
000050 a8 95 af 3d 30 db 4c 3c 5c f4 cf bd f0 1f 74 bc
       0.085734665 0.01250343 -0.1015403 -0.014900193
000060 38 d6 9e bc 10 14 4d bd 30 6c d7 3d e0 e6 ab bb
       -0.019389257 -0.05006796 0.10518682 -0.0052460283
000070 40 69 17 bd f6 1a 1c bd 88 10 93 3c 0b 54 03 be
       -0.03696561 -0.03811165 0.017952219 -0.12825029
000080 28 df 60 bd 7e 94 e6 3d 9e d6 fa 3d cc 7f 8e bd
       -0.05490032 0.112587914 0.12247966 -0.06957969
000090 e1 7e 88 bd 7a 35 86 bd 30 56 e6 3c 4d 45 90 bd
       -0.06664825 -0.065531686 0.02811727 -0.07044468
0000a0 80 48 f0 3c 64 5b 91 bd f0 1f 0b bd c4 26 5d 3d
       0.029331446 -0.070975095 -0.033966005 0.053992048
0000b0 ba 06 09 bd 26 1d 8e 3d 58 d9 b5 3d 3b f3 fa bd
       -0.03345368 0.069391534 0.08879346 -0.12253424
0000c0 a0 a2 92 3d e2 f3 95 3d 08 10 de 3c 0c 4e 2e bd
       0.071599245 0.073219076 0.027107254 -0.0425549
0000d0 d2 09 33 bd c8 90 5e 3d 00 0e 6f ba 5c bd bb bc
       -0.043710537 0.054337293 -0.00091192126 -0.022917442
0000e0 a0 90 af 3d 04 e3 83 bd 70 8b e9 bc 06 54 99 3d
       0.08572507 -0.06439784 -0.028508872 0.07486729
0000f0 60 14 b0 3b 40 6c 90 bb d3 96 c5 bd b2 cf f2 bd
       0.0053735226 -0.0044074357 -0.09647908 -0.11856021
000100 3c 8a ac 3d 08 0d a2 3c df 78 e3 bd ea 1c 5e bd
       0.084248036 0.019781604 -0.11107039 -0.054226793
000110 b8 d6 a9 3d 20 53 fa bd 76 fe 08 bd fa 63 99 3d
       0.082929075 -0.12222886 -0.033445798 0.07489772
000120 7c 5b 32 bd 6c 5c d3 bc ee 1f 28 bd fe 3e e0 3d
       -0.043544278 -0.025800906 -0.041046076 0.10949515
000130 2e 1f ce bd af e0 ef bd 5c 00 76 3d 7b f4 f6 bd
       -0.10064541 -0.11712777 0.060058936 -0.1205835
000140 00 ae ca 3a 00 dc 33 3d a6 60 38 bd c8 d0 de bc
       0.0015463233 0.04391098 -0.045014046 -0.027199164
000150 74 80 d1 bc bc cf ca bc 50 2d 30 3d 52 15 d0 bd
       -0.025573947 -0.024757259 0.043011963 -0.101603165
000160 ee 57 69 bd 72 e9 9a bd 72 21 74 bd c2 6b bd 3d
       -0.056968622 -0.075640574 -0.05960221 0.09249069
000170 a8 fa eb 3c c0 d6 4c 3c 9e ca d1 bd d2 70 90 3d
       0.028806046 0.012502372 -0.10243724 0.07052769
000180 47 25 83 bd 4c ac 19 bd 6c 08 b5 3d 18 a7 97 bd
       -0.064035945 -0.03751783 0.08839497 -0.074049175
000190 56 f5 fa 3d 6c 1d 5d 3d 60 aa 65 3d 14 fb 66 bd
       0.12253825 0.053983137 0.056070685 -0.05639179
0001a0 b4 3d f7 bd 58 6c ef bc 0e fe 87 bd 18 cd 44 3d
       -0.12072316 -0.029226467 -0.06640254 0.048047155
0001b0 26 d9 a1 3d 20 13 1b bd a8 e7 5a 3d b8 58 99 3d
       0.07902746 -0.037860036 0.05344358 0.07487625
0001c0 bc 1e 03 3d 3e 53 4a bd 18 95 c4 bc 00 c0 a7 b9
       0.032011732 -0.049395792 -0.023996875 -0.00031995773
0001d0 02 7f ec bd ce e3 88 bd 74 89 af bc aa 1f 77 bd
       -0.11547662 -0.06684075 -0.021427847 -0.06033293
0001e0 0c 51 2e bd a0 34 d9 3c a4 0a 23 bd 14 d2 02 be
       -0.04255776 0.026514351 -0.03980507 -0.12775451
0001f0 70 0f 4f 3d 04 3d 63 3d 66 58 bc 3d e1 d0 e6 bd
       0.05055183 0.05547811 0.09196548 -0.11270309

linear2.weight f4 [64, 128]
000000 2c 0a 89 3c 5e e4 4f 3d c3 fd 97 3d 47 00 90 3d
       0.016728483 0.050754897 0.07421448 0.07031303
000010 f9 d9 89 3d 7f 59 15 bd 3e ea 67 bd 8a cc 3e 3d
       0.06731028 -0.036462303 -0.056619875 0.046581782
000020 b0 6d 13 bc b2 53 80 bd b8 ed 15 3d 60 53 2f bc
       -0.0089983195 -0.062659636 0.03660366 -0.0107010305
000030 e7 2c 9f 3d df 31 80 3d d4 cd 98 3c 18 5d a0 3c
       0.07772236 0.06259512 0.018652834 0.01957564
000040 70 b7 12 bc 05 7a aa 3d 98 a6 2a 3c e4 56 cd bc
       -0.008954868 0.08324055 0.010415696 -0.025065847
000050 94 a4 db bc f9 eb a2 3d a8 83 64 bc b5 08 8b 3d
       -0.026811875 0.079551645 -0.013947405 0.0678877
000060 3b d9 9e bd e6 3c 1e bd e3 12 b1 bd dc 3c 8f bc
       -0.07756277 -0.038632296 -0.086461805 -0.017485075
000070 0e f2 87 bd 00 73 98 39 e0 61 66 3b 56 09 23 3d
       -0.06637965 0.0002907738 0.0035153553 0.039803825
000080 43 4f 94 3d c2 73 a7 bd 94 6f 11 3d 6b d5 87 3d
       0.072416805 -0.08176376 0.0355068 0.06632503
000090 5c f1 36 bd 28 b6 f2 bc 30 2d ae bb f0 7d 53 bd
       -0.044663772 -0.029627874 -0.0053154454 -0.051633775
0000a0 d9 a6 9f 3d dd f3 5d bd 17 06 ac bd df b4 96 3d
       0.077954955 -0.054187644 -0.08399599 0.07358717
0000b0 b6 b8 51 3d cc f3 ba 3c 4c f0 af bd 27 05 a7 3d
       0.051201545 0.02282133 -0.08590755 0.081552796
0000c0 ab 7d 37 bd 7e c2 5b 3d 93 73 8e bd 88 41 8d 3c
       -0.04479758 0.05365228 -0.06955638 0.017243162
0000d0 b4 60 c9 bc 80 18 c8 3c ac 1d c3 3c b0 1b 43 3c
       -0.024582244 0.024425745 0.02381786 0.011908457
0000e0 7e 5d 65 3d a6 86 26 bd 30 28 2e 3c 5a 53 37 3d
       0.055997364 -0.040655755 0.010629699 0.044757225
0000f0 d1 7f 9d 3d 46 ae 60 3d f0 91 d1 bb c8 73 dc 3c
       0.07690395 0.0548537 -0.006395571 0.026910678
000100 7c 0f f2 3c 27 8e 4e bd 46 36 08 3d bb 96 8d 3d
       0.0295484 -0.050428536 0.033254884 0.06913515
000110 18 28 d4 3c 06 aa 47 3d 50 71 32 bc de 7a 5f 3d
       0.025898024 0.04874613 -0.010891274 0.054560535
000120 88 bd 44 bc 0a e7 a1 bd 6f 5f 81 3d d2 37 0c bd
       -0.012008078 -0.07905395 0.06317031 -0.034232922
000130 3c 71 fb bc 90 40 dc 3c 73 ca 2b bd fa e9 26 3d
       -0.030693643 0.026886255 -0.041941117 0.04075048
000140 90 9e 52 bc bb 09 8b 3d c0 95 0f bc 80 cb 71 3c
       -0.012855187 0.06788965 -0.0087637305 0.014757991
000150 28 e6 fe bc 55 06 99 3d 96 eb 44 bd 40 a4 39 3c
       -0.031115606 0.07471911 -0.048076235 0.011330664
000160 d3 ee 97 3d 8b d8 9b 3d 80 2d c3 3a a0 a7 b0 3b
       0.07418599 0.07609662 0.0014890879 0.005391076
000170 cb ed 98 3d 33 46 9e 3d 3d d6 66 bd 03 03 98 bd
       0.074672304 0.07728233 -0.056356657 -0.074224494
000180 8d 05 9f bd e4 77 fb 3c 80 3a 4f bc 8e 8a 48 3d
       -0.077647306 0.030696817 -0.012648225 0.04896026
000190 d6 d7 81 bd 81 6a 8a 3d 01 02 b0 3d 54 53 86 3c
       -0.063399956 0.06758595 0.08594132 0.016397156
0001a0 08 67 f4 3c e4 df c0 bc 73 77 8d 3d 94 af 75 bd
       0.029834285 -0.02354426 0.06907549 -0.059981897
0001b0 ca 7a 86 bd d1 12 35 bd 58 15 11 bc 78 1c 98 bd
       -0.06566389 -0.044207398 -0.008855186 -0.07427305
0001c0 8a cb f8 bc 2e 5b 1b 3d 98 75 b2 3c 88 c1 7a 3c
       -0.030370492 0.037928753 0.021784589 0.0153049305
0001d0 26 24 5a 3d 8c 53 84 3c f1 f5 b1 3d 4d 73 ad 3d
       0.05325713 0.01615312 0.08689488 0.084692575
0001e0 30 fb 61 bc 8b 1d b3 bd 9b 49 a6 3d 6e 9c 75 bd
       -0.013792798 -0.08745869 0.08119508 -0.059963636
0001f0 05 03 8e 3d 93 13 8c 3d 23 4b 29 bd 20 78 a8 bb
       0.0693417 0.06839671 -0.04133142 -0.005141273
000200 f7 89 a3 3d 77 c5 a6 3d c0 f3 c7 bc 25 f1 8d 3d
       0.07985299 0.08143132 -0.024408221 0.0693076
000210 d0 c8 87 bc 96 8d b3 bd 12 ac e8 bc f2 ed 0e bd
       -0.016575247 -0.0876724 -0.028402362 -0.03489489
000220 d8 db 7a bc ce 9c 11 3d 74 60 cd 3c b0 af 05 bc
       -0.015311204 0.03554993 0.025070406 -0.008159563
000230 50 b9 e2 3c 62 d0 5f 3d 40 a3 2a 3c 42 ce 60 3d
       0.027676255 0.05464209 0.010414898 0.054884203
000240 52 ea 6a 3d 71 ab 63 bd f0 0e 79 bc ae 30 71 3d
       0.05735237 -0.05558342 -0.015201315 0.058884315
000250 10 e4 53 bc 0e 63 68 3d a4 85 16 bd bf 68 53 bd
       -0.012932792 0.05673509 -0.036748543 -0.051613566
000260 60 45 23 bc 44 1e 04 bd b0 f9 49 3c 32 d2 69 3d
       -0.009965271 -0.032255426 0.012327597 0.057085223
000270 a2 04 54 3d 84 27 68 bd 43 13 9e bd cc ce bb 3c
       0.05176223 -0.05667831 -0.07718518 0.022925757
000280 04 2c a4 3c d2 fc 7f 3d a0 0f 29 3c 63 7b 2b bd
       0.02004052 0.062496968 0.010318667 -0.041865718
000290 49 e2 a7 3d 28 cd 8a bc 49 15 89 3d 92 06 a6 bd
       0.08197457 -0.01694353 0.06693513 -0.08106722
0002a0 b6 16 8e bd c0 59 42 3c 72 a8 7f bd cb 20 9b 3d
       -0.069379255 0.011862218 -0.0624165 0.07574614
0002b0 7c aa 8c bd df a3 a6 3d ba 3f 16 3d 1d 19 a9 bd
       -0.06868455 0.08136725 0.036681868 -0.08256743
0002c0 d7 08 3f bd 02 61 44 3d bb d2 7a bd 10 9e 86 3c
       -0.04663929 0.047944076 -0.061236124 0.016432792
0002d0 f0 ff 57 3c e8 45 2c bc 92 b6 68 3d 88 3b c4 3c
       0.013183579 -0.010514714 0.056814738 0.023954168
0002e0 e2 67 1b bd b4 da 86 3c 2c e2 e7 3c 60 d9 36 bb
       -0.037940867 0.016461708 0.02830609 -0.0027900562
0002f0 08 c5 9c 3c c0 8b ac bc 37 78 64 bd ee 12 18 3d
       0.01913692 -0.021062732 -0.05577871 0.037127428
000300 1a c2 6d bd d6 ff 7c 3d e8 91 b9 3c f4 34 2f bd
       -0.058046438 0.06176742 0.022652581 -0.04277511
000310 b3 10 8f 3d 5f a7 88 3d 0d 9e 52 bd 58 95 0c bc
       0.06985607 0.066725485 -0.05142026 -0.008580528
000320 c2 77 8a bd a1 b6 25 bd 16 13 46 3d ee f5 4c bd
       -0.06761123 -0.04045737 0.048358046 -0.050039224
000330 26 a5 4c 3d 52 27 59 3d 38 95 b4 bc 76 53 75 3d
       0.049962185 0.053016014 -0.02204381 0.059894048
000340 1e c7 61 3d 06 10 9c bd d8 c8 82 3c c0 1f 1c bb
       0.055121534 -0.07620244 0.01596491 -0.0023822635
000350 1e 5c 7e 3d 26 a3 16 3d 79 c0 29 bd 20 6b d9 3b
       0.06209957 0.036776684 -0.04144332 0.0066350847
000360 d0 ab 8a bd a8 46 d0 3c 24 b4 6f bd 90 a2 c8 bb
       -0.06771052 0.025424317 -0.058521405 -0.0061228946
000370 f8 47 39 3c c5 e7 81 3d e0 8c 88 3b 9c 4d a5 bd
       0.011308663 0.06343035 0.0041671842 -0.080714434
000380 3a 2c 21 3d 80 c5 ae bd 20 9f ab 3c 6f f5 a1 bd
       0.03934882 -0.08533764 0.0209499 -0.07908141
000390 2d c0 09 bd 6c 28 a0 bc 7b a8 9a 3d 26 18 74 3d
       -0.03363054 -0.019550525 0.07551666 0.059593342
0003a0 2e bc 98 bd 95 73 84 bd a6 d7 64 3d 10 18 fc 3b
       -0.074577674 -0.06467358 0.05586972 0.007693298
0003b0 82 49 70 bd 29 88 ae 3d 1e ea 71 3d 48 0a bb bc
       -0.058663853 0.08522064 0.059061162 -0.02283205
0003c0 7b 0f 61 bd 20 16 7b bc 00 25 bf 3b 42 a8 50 bd
       -0.054946404 -0.015325099 0.005833268 -0.050941713
0003d0 ca b9 10 3d 83 80 77 bd a6 17 e6 bc 88 3e cf 3c
       0.035333432 -0.060425293 -0.028087448 0.025298372
0003e0 64 d6 8d bc b4 dd 50 bd 1e df 98 bd 37 7c 88 3d
       -0.017314143 -0.050992683 -0.07464431 0.06664317
0003f0 e0 8d c4 bb 40 4b ea 3b 2a 82 27 3d e5 e2 19 bd
       -0.005998358 0.007150084 0.04089562 -0.0375699

linear2.bias f4 [64]
000000 f8 95 23 bc e0 34 c8 bb f6 01 19 3d c0 94 6e 3b
       -0.009984486 -0.006109819 0.037355386 0.003640458
000010 21 ac a3 3d 0c df 89 bd ea 93 28 3d 14 7a 02 bd
       0.07991815 -0.06731996 0.041156687 -0.031854704
000020 00 fe d2 ba 88 54 3f 3c b2 73 6b bd 28 20 12 3d
       -0.0016097426 0.011677869 -0.057483383 0.035675198
000030 23 ba 95 bd 7e 6d 55 3d 06 d8 62 3d 08 1a ce 3c
       -0.073108934 0.052106373 0.055381797 0.025158897
000040 72 db 44 bd e8 db 90 3c 58 96 40 bc 98 3e 2a bd
       -0.04806084 0.017682984 -0.011754595 -0.0415636
000050 f1 bb 34 bd 2a 31 03 3d 38 45 58 3c 72 7d 92 bd
       -0.044124547 0.03202931 0.013200097 -0.07152833
000060 e7 ef a1 bd 3b 8a 69 bd 21 70 8d 3d 77 53 a3 bd
       -0.07907086 -0.057016592 0.069061525 -0.07974904
000070 78 22 91 bc 4c c2 0b 3d 94 c6 a2 bc b0 ae 69 3c
       -0.017716631 0.034120843 -0.01987008 0.01426284
000080 8b 55 9e 3d 97 3e 4c bd f4 97 fe bc 31 55 3c bd
       0.0773116 -0.049864378 -0.031078316 -0.045979682
000090 02 c5 ae bd 37 dc 95 3d 64 fc 1e bd 3c 88 03 3d
       -0.0853367 0.07317393 -0.038814917 0.032112345
0000a0 05 8f 7d bd 0d 51 46 bd f2 e4 44 bd e0 5c b9 3c
       -0.061903972 -0.04841714 -0.0480699 0.022627294
0000b0 1b a0 91 3d 77 0a 9a 3d 85 c0 6c bd 10 48 91 bd
       0.07110616 0.07521527 -0.05780079 -0.07093823
0000c0 7b 37 73 bd 8f aa 8e 3d 4a b1 38 bd 93 06 a0 3d
       -0.059379082 0.06966125 -0.04509095 0.07813754
0000d0 88 71 25 bd 3a 85 06 bd 08 01 e0 bc 7b 67 83 3d
       -0.040391475 -0.0328419 -0.027344242 0.06416222
0000e0 f4 16 db 3c 3a 54 27 3d 7a af 5e 3d d8 6f 24 bd
       0.026744343 0.04085181 0.054366566 -0.040145725
0000f0 0c bb ed 3c b8 13 68 3c 62 b5 32 3d 40 34 fc 3b
       0.029019855 0.014164858 0.04363001 0.0076966584

linear3.weight f4 [10, 64]
000000 4a 9d b1 3d 9a 1a f7 3d b0 dd e3 3d 14 ac 97 bd
       0.08672579 0.12065621 0.11126268 -0.07405868
000010 8e 56 d9 3d f2 25 8c bd 90 ea 4a bd c0 e8 81 3d
       0.10612212 -0.06843175 -0.049540102 0.06343222
000020 60 9d 2c bc 06 1f d4 3d 00 cd 67 bb f2 29 d9 bd
       -0.010535568 0.1035748 -0.0035369992 -0.106037036
000030 50 ef 24 bc 10 cd 22 bc fa a4 a1 bd e2 f1 e4 bd
       -0.010066822 -0.009936586 -0.07892795 -0.11178948
000040 22 73 c9 3d a0 ea aa bc 68 e6 b4 bc 18 b2 a1 bd
       0.09836413 -0.020863831 -0.022082523 -0.07895297
000050 c0 7e db 3b 4c a3 b3 3d 00 2e 6b 3d 44 bd 8a bd
       0.0066984594 0.08771381 0.057416916 -0.06774381
000060 e8 2d 4c 3d 80 04 a5 bd e6 01 84 bd 82 76 9c 3d
       0.049848467 -0.08057499 -0.064456746 0.07639791
000070 5c 72 37 3d 10 4b 08 3c 40 c2 a3 3b d8 48 6f bd
       0.044786796 0.008318678 0.0049975216 -0.05841908
000080 5c 8b 9e 3d 52 e0 c7 bd a2 3b e9 bd b8 32 bb bd
       0.077414244 -0.097595826 -0.11388327 -0.09140533
000090 fc a2 7b bd 90 b0 93 3c 18 15 84 bc 40 88 4f bc
       -0.06143473 0.018028527 -0.01612334 -0.012666762
0000a0 80 af af 3a 7c d4 8e bd 10 2b a3 bc f0 fd d9 3d
       0.0013403744 -0.06974122 -0.019917995 0.10644138
0000b0 98 00 ab bc ac bb ba bd d2 43 bb 3d ac 2e 87 3d
       -0.020874307 -0.09117827 0.09143795 0.06600699
0000c0 38 56 15 bd e4 e2 1d 3d 08 1e 4e bd 00 79 8b 3b
       -0.036459178 0.038546458 -0.05032161 0.0042563677
0000d0 74 77 dc 3d c0 40 d9 3c ce 5d a3 bd e4 4f 4c 3d
       0.107649714 0.026520133 -0.07976876 0.049880877
0000e0 f0 ae 2a 3c 20 8d b6 bc de 31 9b bd 4e 69 91 3d
       0.010417685 -0.02228409 -0.07577871 0.071001634
0000f0 c0 17 ed bd 8e 75 de bd 54 d7 e8 bd f2 39 e6 3d
       -0.115767956 -0.108622655 -0.113691956 0.11241521
000100 b0 47 01 3c 20 b6 c5 3b 86 0f a9 3d 30 a1 fc 3c
       0.007890627 0.006033674 0.08254914 0.030838579
000110 c4 f7 e7 bd 32 dd b5 3d cc fa 31 3d 68 7c e3 3c
       -0.113265544 0.0888008 0.04345207 0.027769282
000120 e0 97 f8 3b e2 83 fe bd b0 bf df bc 82 bc b9 bd
       0.0075864643 -0.124274984 -0.027313083 -0.09069158
000130 4c 33 9e bd 94 83 82 bd 74 c9 fb bd cc 02 df bd
       -0.07724628 -0.06372753 -0.122942835 -0.10889205
000140 80 03 4c bb bc bf 1d 3d bc 77 71 bd f8 33 b4 3d
       -0.0031130016 0.03851293 -0.05895208 0.08798975
000150 9c fd d9 bd 40 33 29 3b 40 04 83 bc d8 fe a3 bd
       -0.10644075 0.00258179 -0.015993237 -0.08007592
000160 80 99 5b bc 0c 69 f8 3d 30 5a 56 bc 00 de c4 bd
       -0.0134032965 0.12129411 -0.013083026 -0.09612656
000170 b6 6d b6 bd 34 7c 7c bd 1c df ad bd b4 0a 0a bd
       -0.089076445 -0.061641887 -0.0848982 -0.033701614
000180 18 b3 37 bd 4a 09 96 bd e4 72 4c 3d ca b0 98 bd
       -0.04484853 -0.073259905 0.049914256 -0.07455595
000190 e0 96 b5 3c 28 a1 ac bd 50 d5 fc bd ae b4 dc 3d
       0.02216667 -0.084291756 -0.12345374 0.107766494
0001a0 0c 0d 34 bd 84 48 5e bd 80 eb d3 bb 30 75 1d 3d
       -0.043957755 -0.054268375 -0.006467283 0.038441837
0001b0 e0 d0 28 3c 98 a4 cd 3d 94 d1 92 bd 38 68 6e bd
       0.010303706 0.100411594 -0.0716888 -0.05820486
0001c0 00 d2 77 bd 6c 2e 4f 3d 18 9b e8 bc 5e 0d 87 bd
       -0.060503006 0.05058138 -0.028394267 -0.065943465
0001d0 94 3e fb bd 20 d3 b5 bd 8a 0b f4 3d 0c a9 71 3d
       -0.12267795 -0.088781595 0.119162634 0.058999106
0001e0 d8 fc f0 3c c0 b3 9e bc 28 9b 82 bd 64 76 c2 3d
       0.02941744 -0.01937282 -0.0637725 0.094952375
0001f0 42 a8 c2 bd 28 52 6a 3d 3a c6 fb bd d2 4d 94 bd
       -0.09504749 0.057207257 -0.12293668 -0.072414055
000200 f6 2d b1 bd 04 d6 c3 3d de 94 bc bd 00 5a 33 bb
       -0.086513445 0.095623046 -0.09208082 -0.0027366877
000210 98 34 94 bc 40 0b 16 bc 3e db fe 3d 02 26 8b bd
       -0.018091485 -0.009157956 0.12444161 -0.06794359
000220 da c0 aa 3d 5a 6f c3 3d 1c 7f 7c bd a0 c6 8c bd
       0.08337565 0.09542723 -0.06164466 -0.06873822
000230 b0 3b ea bd da 55 8d bd 00 69 ae ba c0 59 20 bc
       -0.11437166 -0.069011405 -0.0013306439 -0.009787023
000240 98 a8 e5 bc 54 a0 60 3d ca 60 ce bd 6c e3 51 bd
       -0.028034493 0.0548404 -0.10077055 -0.051242277
000250 c8 ae d2 3c 7c 48 fe 3d 10 17 2a 3d 40 88 5b 3b
       0.025718108 0.12416169 0.0415259 0.003349796
000260 7c 4e 0a bd d0 d8 08 bc c4 0c 3d bd 50 5c 6a bd
       -0.033766255 -0.008352473 -0.046154752 -0.057216942
000270 94 b1 6e bd 58 bf db 3d c4 04 ce bd aa c3 f5 bd
       -0.05827482 0.10729855 -0.10059503 -0.120002106
000280 00 72 c5 3b c6 96 cb 3d a4 48 8b bd a0 83 d0 3b
       0.0060255527 0.09940867 -0.068009645 0.006363347
000290 02 d7 e4 3d 50 d8 f6 bc 50 3e 28 bd f4 a1 94 3d
       0.11173822 -0.030132443 -0.04107505 0.072574526
0002a0 50 58 8d 3c 4a b8 e3 3d 1e 13 d8 3d be 23 b9 bd
       0.017254025 0.11119135 0.10550521 -0.090400204
0002b0 80 f4 50 bc c2 07 f7 bd 90 d7 61 3c b0 91 a0 bd
       -0.012753606 -0.120620266 0.013784304 -0.07840288
0002c0 7a a3 a3 3d 70 b4 d0 bc b0 2c 31 3c 78 b4 0c bd
       0.07990165 -0.025476664 0.010813877 -0.034351796
0002d0 68 ac c3 3d 08 8a d9 bc c0 c6 9a bc b4 bb cb 3d
       0.09554368 -0.026555076 -0.0188936 0.09947911
0002e0 b4 53 05 bd c0 ce f7 bc 98 20 cc bc e0 53 21 3c
       -0.03255053 -0.030249953 -0.024917886 0.0098466575
0002f0 1a 5a e1 3d bc 0c f0 3d 28 24 32 bd a0 37 a9 bb
       0.11003514 0.11721179 -0.043491513 -0.0051641017
000300 5e 8e b7 bd a8 9c 5a bd ce fb bf 3d 3a 18 fe bd
       -0.08962701 -0.053372055 0.093742 -0.124069646
000310 4c 89 03 bd 0c 80 29 bd 2c 40 72 bd 32 e0 97 3d
       -0.03211336 -0.04138188 -0.05914323 0.07415809
000320 84 5d 3e bd 00 55 09 3b 10 e6 96 3c 90 8e b1 bd
       -0.046475902 0.0020955205 0.01842025 -0.0866977
000330 ae ac b8 3d 3c 85 0a bd d0 dd 58 3c f6 21 8e bd
       0.09017311 -0.03381847 0.013236478 -0.06940071
000340 ca 94 cd 3d 88 05 45 3d d2 be f2 bd b0 53 39 3c
       0.10038145 0.048100978 -0.11852802 0.011311457
000350 e4 88 b5 bd dc 65 23 bd 4c 22 4f 3d ac c8 7b bd
       -0.088640004 -0.039892063 0.050569817 -0.061470672
000360 30 43 43 3d e8 99 9b 3d 40 65 79 3c 0c 11 40 bd
       0.047671497 0.07597715 0.015221894 -0.046891257
000370 64 3f cb 3d ba e1 95 3d 68 95 b8 bd d0 5b d6 3c
       0.099242 0.073184446 -0.09012872 0.026166826
000380 40 cb 58 bc ba bc b6 bd 40 9d 9a bc 38 0e d9 bd
       -0.013232052 -0.089227155 -0.01887381 -0.10598415
000390 a8 b8 94 3c 10 a6 db bc ee 7f af 3d d0 5a 0d bc
       0.018154457 -0.026812583 0.085693225 -0.008627608
0003a0 b0 0f 80 bd bc 79 a0 3d 32 e3 98 bd b0 05 45 bd
       -0.06252992 0.07835719 -0.07465209 -0.048101127
0003b0 c0 be fd 3c 2c d8 3c bd 60 28 a6 3d d4 50 18 bd
       0.030974746 -0.046104595 0.0811317 -0.03718646
0003c0 58 d3 c5 3d 84 f7 b1 3d 00 d5 8f 3d 8a 80 bc bd
       0.09659451 0.08689788 0.070230484 -0.092042044
0003d0 f0 a1 04 bd c8 a5 67 bd 6e 70 d9 3d 80 42 dd ba
       -0.032380998 -0.056554586 0.106171474 -0.001688078
0003e0 94 8f 07 bd 64 06 e9 3d fc c6 b3 3d be 34 c1 bd
       -0.03309591 0.11378172 0.08778188 -0.09433888
0003f0 e0 bf f2 3b 1a bb ac bd 2a 1a cc bd 96 d0 96 bd
       0.007408127 -0.08434124 -0.09965928 -0.07364003

linear3.bias f4 [10]
000000 38 b3 a5 bd 3e d0 d0 3d dc 4a 3d 3d 9c 26 a9 3d
       -0.08090824 0.10195969 0.04621397 0.08259317
000010 76 fa d9 3d 60 b8 2e bd 30 9f c6 3d 00 39 e3 3c
       0.10643475 -0.042656302 0.09698331 0.02773714
000020 e8 0c c6 3d ec c9 6e bd
       0.096704304 -0.058298036
