models/stock_forecast1.pth (torch, 69463 bytes, 6 tensors)

weight f4 [128, 60]
-0.100885846 0.018434783 -0.021503016 -0.057897408 -0.1537627 0.03041523 -0.14014849 0.029113878
0.04074658 -0.09157562 0.0030974476 0.06588148 0.03391025 0.02704802 -0.07648809 -0.08769999
0.0056814943 -0.030776171 -0.11191387 0.030058902 0.016001442 -0.0064287176 -0.12071427 0.08470264
-0.031884577 -0.050076608 -0.024457878 -0.02984841 -0.15385933 0.082201585 0.19799505 0.14732943
0.0415625 -0.02606288 -0.020195244 0.046983622 0.11663751 0.14223483 0.05805602 0.1306629
-0.08185417 0.0047137127 0.18065156 -0.09145679 0.007882771 0.0015520849 0.16467404 0.08221244
0.038018554 0.15574145 -0.06338903 -0.018408153 -0.16135249 -0.027932936 0.07814653 -0.110601924
0.020255782 -0.053346444 0.09691843 0.03633322 -0.050399654 0.026642777 -0.08769901 -0.0434457
0.017499313 -0.0150280185 -0.05808202 0.043492593 0.14486474 0.022142649 -0.07111656 0.054434747
-0.09502772 0.0043100496 0.13274005 -0.057759225 0.15184136 -0.103789814 0.05131888 -0.012765643
0.108049594 -0.029776873 -0.081964016 -0.11137881 -0.08099132 0.015263048 0.06552573 0.14570417
-0.029454129 0.010954764 -0.046677813 -0.13562348 -0.062091704 -0.09570954 -0.2073165 0.06086257
-0.0736625 0.053019997 -0.12024333 -0.17700191 0.043396953 -0.16161434 -0.1742067 0.3410194
0.066838086 -0.24948762 -0.015632335 0.16982673 -0.22616598 -0.00560449 0.035655912 0.11491146
0.13054523 0.07344134 -0.038636364 0.48360938 0.22030315 -0.012936379 -0.08454271 -0.039380923
0.103803985 -0.10815468 0.0011149403 0.093216114 0.048844494 0.021481464 0.012504354 -0.12076685
0.030303838 0.078020975 -0.034101926 -0.12370062 -0.043487277 -0.04595576 -0.1279659 0.014711004
-0.022792207 0.09681906 -0.03046874 0.053555924 0.055393033 0.0056926794 -0.040891025 -0.11454934
0.05504058 -0.018948462 -0.083234794 -0.025694717 -0.11115152 6.4735505e-05 -0.28606775 0.012968311
-0.038843703 -0.09141074 -0.17127493 -0.008980645 -0.01758719 -0.07656855 0.06703807 -0.20535772
-0.0062896023 -0.23289143 -0.14852105 0.053218354 0.010801102 -0.24640237 -0.09857992 0.032204572
-0.023573777 -0.20502196 -0.011619889 0.15114734 0.33526292 0.009832762 0.08918652 0.40315327
0.28696787 -0.17422721 -0.106442936 0.14584711 -0.017733475 -0.022139413 -0.10820484 0.07796028
-0.038195807 -0.016433332 -0.052160658 0.11995174 0.04122475 -0.021730604 -0.062792525 -0.014768534
0.051478174 0.023322277 0.087077595 -0.11900012 -0.0051158317 0.035329003 -0.051236995 -0.09696509
0.09425969 0.1163041 0.060576882 0.0040117814 0.05071296 0.10424204 0.113048114 -0.022400273
0.042652845 0.13953242 -0.26733595 0.042585507 -0.33852264 0.17581938 -0.3412237 -0.3541389
0.20207785 0.38807034 -0.014321052 0.1613141 0.071953505 0.1521495 0.10320999 0.14239052
-0.046772026 -0.16220906 0.44357127 0.3845968 -0.12705779 0.20321967 0.0054272297 0.0706967
-0.05264429 0.010909526 0.091325305 0.32159296 0.23770733 0.16322137 0.31886196 -0.6563855
-0.012230086 -0.10914259 0.085861005 -0.119750045 0.050481267 0.055274498 -0.11269935 0.06632692
0.102667145 -0.08000252 -0.09085942 0.07684079 0.081209995 0.07160762 -0.002655985 -0.02608711
00000000: 3d9d cebd 8b04 973c 1827 b0bc d525 6dbd
00000010: f873 1dbe 5c29 f93c 1683 0fbe 3a80 ee3c
00000020: e3e5 263d 008c bbbd 8cfe 4a3b dfec 863d
00000030: 79e5 0a3d cf93 dd3c caa5 9cbd 0d9c b3bd
00000040: d42b ba3b 4f1e fcbc 1933 e5bd 163e f63c
00000050: 7515 833c fea7 d2bb 0b39 f7bd 9478 ad3d
00000060: 6799 02bd 211d 4dbd e35b c8bc a784 f4bc
00000070: 4d8d 1dbe 4e59 a83d 37bf 4a3e 87dd 163e
00000080: 713d 2a3d d281 d5bc 7f70 a5bc e671 403d
00000090: a6df ee3d 02a6 113e 26cc 6d3d 7fcc 053e
000000a0: 29a3 a7bd 7d75 9a3b b9fc 383e b34d bbbd
000000b0: bd26 013c 546f cb3a 50a0 283e ff5e a83d
000000c0: 58b9 1b3d b07a 1f3e 1cd2 81bd b2cc 96bc
000000d0: 9639 25be 9dd3 e4bc 4a0b a03d 4383 e2bd
000000e0: 74ef a53c cd81 5abd 2b7d c63d 24d2 143d
000000f0: de6f 4ebd f441 da3c 8a9b b3bd 1ef4 31bd
00000100: b85a 8f3c 1438 76bc 6ae7 6dbd 4a25 323d
00000110: 6c57 143e 8064 b53c 8fa5 91bd f8f6 5e3d
00000120: e59d c2bd 513b 8d3b 02ed 073e f094 6cbd
00000130: 4d7c 1b3e c18f d4bd bf33 523d fd26 51bc
00000140: 1b49 dd3d a1ee f3bc c0dc a7bd 931a e4bd
00000150: c7de a5bd dd11 7a3c 5b32 863d 7933 153e
00000160: c949 f1bc 9c7b 333c 3c31 3fbd e2e0 0abe
00000170: df53 7ebd 5d03 c4bd c74a 54be 084b 793d
00000180: 5ddc 96bd 7f2b 593d 2342 f6bd fd3f 35be
00000190: 01c1 313d 3b7e 25be 3e63 32be 189a ae3e
000001a0: 68e2 883d af79 7fbe 620f 80bc 0fe7 2d3e
000001b0: 0e98 67be dfa5 b7bb ef0b 123d b356 eb3d
000001c0: a6ad 053e 6a68 963d 2a41 1ebd a69b f73e
000001d0: 2697 613e 1bf3 53bc ba24 adbd e44d 21bd
000001e0: 2f97 d43d 3380 ddbd 3023 923a 17e8 be3d
000001f0: 2a11 483d e5f9 af3c 10df 4c3c 9c54 f7bd
00000200: c13f f83c 76c9 9f3d 76ae 0bbd c056 fdbd
00000210: b71f 32bd 1b3c 3cbd 7e09 03be 6c06 713c
00000220: b9b6 babc 1249 c63d 9499 f9bc 755d 5b3d
00000230: cee3 623d a889 ba3b 597d 27bd d898 eabd
00000240: 3b72 613d ce39 9bbc 0177 aabd ba7d d2bc
00000250: 68a3 e3bd 9cc2 8738 7977 92be 0a79 543c
00000260: 931a 1fbd 8e35 bbbd b262 2fbe 8e23 13bc
00000270: 0313 90bc f9cf 9cbd 414b 893d 4b49 52be
00000280: 0219 cebb 177b 6ebe e715 18be 7dfb 593d
00000290: 1bf7 303c e750 7cbe 45e4 c9bd f1e8 033d
000002a0: cb1d c1bc 47f1 51be 5961 3ebc 5ec6 1a3e
000002b0: 95a7 ab3e 9819 213c 6ca7 b63d 1b6a ce3e
000002c0: 74ed 923e 9e68 32be c1fe d9bd f258 153e
000002d0: cb45 91bc b75d b5bc 809a ddbd a4a9 9f3d
000002e0: 3573 1cbd 329f 86bc 6aa6 55bd 42a9 f53d
000002f0: 49db 283d 6104 b2bc 5e99 80bd b9f7 71bc
00000300: c7da 523d 5c0e bf3c bd55 b23d 56b6 f3bd
00000310: b5a2 a7bb 25b5 103d e2dd 51bd a295 c6bd
00000320: 390b c13d d830 ee3d 771f 783d 4375 833b
00000330: 65b8 4f3d da7c d53d c585 e73d c780 b7bc
00000340: c0b4 2e3d 96e1 0e3e 42e0 88be 246e 2e3d
00000350: d752 adbe ff09 343e dfb4 aebe b251 b5be
00000360: 7fed 4e3e 28b1 c63e d8a2 6abc 862f 253e
00000370: 5c5c 933d 14cd 1b3e c25f d33d d2ce 113e
00000380: 0694 3fbd 221a 26be c61b e33e dfe9 c43e
00000390: 701b 02be d118 503e e7d6 b13b 6ec9 903d
000003a0: 8aa1 57bd debd 323c c308 bb3d d5a7 a43e
000003b0: 8d69 733e 8123 273e e041 a33e e108 28bf
000003c0: b360 48bc 2686 dfbd e5d7 af3d 833f f5bd
000003d0: 72c5 4e3d 8367 623d ebce e6bd 69d6 873d
000003e0: 2743 d23d 5cd8 a3bd 8114 babd b45e 9d3d
000003f0: 6d51 a63d 04a7 923d 0910 2ebb a3b4 d5bc

bias f4 [128]
0.07705427 -0.13406383 0.036257915 0.041118674 0.054518983 -0.018336732 -0.1440089 0.051633958
0.0100446455 0.042714722 -0.06256814 0.042563275 0.008386828 -0.09427629 -0.0986326 -0.14048758
0.085019775 0.10684024 -0.014190957 0.015349073 0.10182851 -0.007237751 0.04358248 0.07374881
-0.009252303 0.092062294 0.09310746 -0.10830568 -0.08108738 0.111605845 -0.10524951 -0.029659308
-0.052113626 -0.111598104 -0.1248202 0.012162299 -0.12097083 -0.056246832 -0.007914204 0.09354472
0.06299603 0.11278595 -0.16907163 0.05733378 -0.08309921 -0.039402887 0.065763384 -0.075210206
-0.052587926 -0.02295342 -0.14325926 0.06645767 0.027502332 -0.0429183 -0.11880965 -0.010089759
-0.12544629 -0.030168531 -0.100141466 0.042079642 -0.08873648 -0.0071125343 -0.09255898 0.011330882
0.07941138 -0.12383813 -0.023264887 -0.053251002 0.15247042 -0.0077108457 0.033717874 -0.03341098
-0.10343466 0.04872806 0.11190476 0.02368069 -0.03669994 0.08646938 0.08240245 -0.14023332
-0.10124036 0.062485963 -0.005147996 0.043115947 0.05774674 -0.01423252 0.07159757 0.014450455
0.017773008 -0.045965713 -0.050876632 -0.10166767 0.044949003 0.111762375 0.03382398 0.03707008
0.07333437 0.074458145 -0.12491206 -0.0512526 -0.13552848 -0.008604352 0.11037774 0.07171326
-0.10124246 -0.025855012 -0.022236979 0.07489708 -0.13600712 0.09251979 0.13208745 0.05249864
0.039530635 0.0007899678 0.028018804 -0.019357463 -0.08525706 -0.10832021 -0.0047870805 0.09897098
0.029391969 -0.02434189 -0.08478514 0.07290043 0.056500077 0.076233834 -0.077978194 -0.11020357
00000000: a1ce 9d3d 0748 09be 2e83 143d 0e6c 283d
00000010: 4c4f 5f3d ea36 96bc 1277 13be 217e 533d
00000020: 4c92 243c a2f5 2e3d ba23 80bd d456 2e3d
00000030: e868 093c ed13 c1bd e3ff c9bd fadb 0fbe
00000040: d91e ae3d 0ecf da3d 3081 68bc ae7a 7b3c
00000050: 778b d03d a82a edbb 8b83 323d 9e09 973d
00000060: f996 17bc 288b bc3d 20af be3d 5ecf ddbd
00000070: 2411 a6bd 9b91 e43d 0e8d d7bd 14f8 f2bc
00000080: 1975 55bd 8c8d e4bd bca1 ffbd 6144 473c
00000090: 8ebf f7bd 1463 66bd 94aa 01bc 6094 bf3d
000000a0: 1004 813d 52fc e63d 1d21 2dbe d3d6 6a3d
000000b0: eb2f aabd ec64 21bd f4ae 863d cf07 9abd
000000c0: 7066 57bd d008 bcbc 8eb2 12be f51a 883d
000000d0: 924c e13c 19cb 2fbd 7952 f3bd 844f 25bc
000000e0: fe74 00be ff23 f7bc f816 cdbd b45b 2c3d
000000f0: 79bb b5bd 4310 e9bb 908f bdbd 2aa5 393c
00000100: 6fa2 a23d d89e fdbd 0196 bebc b91d 5abd
00000110: 3521 1c3e 43ab fcbb c11b 0a3d f4d9 08bd
00000120: 8dd5 d3bd 1397 473d 532e e53d 02fe c13c
00000130: ad52 16bd dc16 b13d 9ec2 a83d 5399 0fbe
00000140: 1b57 cfbd 48f1 7f3d 85b0 a8bb 599a 303d
00000150: d887 6c3d 842f 69bc bfa1 923d 9ac1 6c3c
00000160: b398 913c 8b46 3cbd 0464 50bd 2437 d0bd
00000170: 721c 383d ace3 e43d 038b 0a3d ccd6 173d
00000180: 5530 963d 837d 983d e5d1 ffbd 3fee 51bd
00000190: fac7 0abe 45f9 0cbc b90d e23d 67de 923d
000001a0: 3558 cfbd e4cd d3bc 532a b6bc a463 993d
000001b0: 7345 0bbe 047b bd3d ef41 073e d008 573d
000001c0: e0ea 213d d715 4f3a b187 e53c 8b93 9ebc
000001d0: 419b aebd fcd6 ddbd f1dc 9cbb 4cb1 ca3d
000001e0: 6dc7 f03c a568 c7bc d5a3 adbd d24c 953d
000001f0: a06c 673d 7c20 9c3d 08b3 9fbd 69b2 e1bd

weight f4 [64, 128]
0.05538048 -0.061194915 0.008615297 0.011410121 -0.04005536 -0.06520256 -0.10053394 -0.11626079
-0.10214647 0.055590857 0.012456763 0.013538868 -0.030362379 -0.06126757 -0.054672945 -0.04950718
-0.09545175 0.024424508 -0.05840475 -0.022294238 -0.40734264 -0.060737193 -0.00027385989 0.052928947
0.0086879805 -0.103406094 -0.11177383 0.019653168 -0.11071601 -0.12556167 -0.12535116 -0.10570393
-0.03736898 -0.030569386 0.038548097 -0.021069454 0.06982554 -0.010924584 0.00929546 0.056939635
-0.04239183 -0.13540189 -0.111958645 -0.106321126 0.13557394 0.13935857 0.0068188906 -0.023085335
0.120443515 0.019107612 -0.12875807 0.04938934 0.012405641 0.0836049 -0.07388191 -0.11612639
-0.08777611 -0.024524054 -0.087783635 -0.13831462 -0.0644263 -0.02589211 -0.101292536 0.039146602
0.20378159 -0.027715376 0.09546432 -0.103522226 0.1771241 -0.064731665 -0.14947407 -0.10309511
0.12457317 -0.028546745 -0.118941925 -0.010650623 -0.0039708237 -0.07685142 -0.021742536 -0.13456957
-0.008650247 0.017070537 -0.03063944 0.013574299 -0.12473865 -0.11738424 -0.04303859 -0.14100625
-0.09657249 0.1421335 0.012414245 -0.08263679 -0.06041684 -0.30805027 -0.035720754 -0.05938567
-0.32508454 -0.090452366 -0.13321185 -0.005023759 -0.1283621 0.11343252 0.004234037 0.12365508
-0.05252083 0.07503163 0.050688516 -0.073582314 -0.15967193 0.15470192 -0.49628997 -0.04104938
-0.25432524 -0.03437847 0.116231784 -0.05231001 -0.11801993 0.036014665 -0.051155876 -0.13442531
-0.116190724 -0.11194222 0.06805821 -0.03131375 0.038090587 0.08158137 -0.09080013 0.027879825
0.061636377 -0.017973218 -0.054253608 -0.1563131 -0.16872872 -0.1519148 -0.12047353 -0.08127679
-0.1307214 0.047624584 -0.12108035 -0.08022877 0.04327725 -0.02739862 -0.08996661 -0.043178238
-0.012079837 0.08662302 -0.15234427 -0.0844193 0.17751117 -0.052157715 0.043128017 0.0040091206
0.11460217 -0.0004967348 0.085984364 -0.021113567 0.11246607 -0.1327121 0.024231827 -0.07364647
-0.17001988 -0.10588057 -0.0865577 -0.0512897 -0.25668 0.021951893 -0.07891322 0.07458864
-0.14439856 -0.1386308 -0.07767763 -0.027645202 0.092159756 0.09156862 0.0859956 0.17639902
-0.054393727 -0.10109559 -0.13485566 0.065872125 -0.06441826 0.17294136 -0.013994163 0.022332922
-0.08837818 0.035593446 -0.12554793 0.06173581 -0.015617112 -0.06748493 -0.12503752 0.06626388
0.1529429 -0.007812843 0.2642796 -0.16076516 0.07149306 -0.06918635 -0.1143813 -0.07004771
0.12895723 0.023095137 -0.025395295 -0.04060191 -0.12758066 -0.005461227 0.1030491 -0.08283533
0.01519536 -0.1414651 -0.094113655 -0.07971857 -0.036048785 -0.13540937 -0.09313427 -0.08947484
-0.057474736 -0.03312478 -0.0025057495 -0.036851883 -0.021495447 -0.1061728 0.049556594 -0.08058472
0.26345694 0.06572984 -0.14646944 -0.052633435 0.04390609 0.17249618 0.274107 0.052349765
-0.2599827 0.03386169 -0.06895861 -0.051797803 0.07515344 0.2808669 0.408726 -0.007836846
0.1368858 -0.08211837 0.12416668 -0.029670471 0.030662661 0.0058477484 -0.15599045 -0.14460285
-0.051761474 -0.014186666 0.17789842 -0.14624539 -0.014103356 0.10329345 -0.08363479 -0.025993176
00000000: a4d6 623d 85a7 7abd 2d27 0d3c 84f1 3a3c
00000010: 1711 24bd eb88 85bd bde4 cdbd 231a eebd
00000020: 2b32 d1bd 3db3 633d 7317 4c3c 21d2 5d3c
00000030: 86ba f8bc b4f3 7abd bdf0 5fbd 0ac8 4abd
00000040: 357c c3bd e815 c83c d239 6fbd 68a2 b6bc
00000050: 378f d0be 90c7 78bd da94 8fb9 06cc 583d
00000060: 0858 0e3c 93c6 d3bd aee9 e4bd aeff a03c
00000070: 13bf e2bd 3d93 00be 0e5c 00be 4d7b d8bd
00000080: 3710 19bd a66c fabc 9ce4 1d3d d999 acbc
00000090: b100 8f3d 07fd 32bc fc4b 183c 8939 693d
000000a0: 0ea3 2dbd cba6 0abe 934a e5bd e4be d9bd
000000b0: e5d3 0a3e 03b4 0e3e 0071 df3b 751d bdbc
000000c0: 17ab f63d 9187 9c3c 28d9 03be 7a4c 4a3d
000000d0: 0841 4b3c 0c39 ab3d 664f 97bd acd3 edbd
000000e0: f6c3 b3bd abe6 c8bc e8c7 b3bd 59a2 0dbe
000000f0: f0f1 83bd b11b d4bc 7672 cfbd 3058 203d
00000100: 1fac 503e 5b0b e3bc cc82 c33d 7603 d4bd
00000110: 0560 353e 0992 84bd bb0f 19be 8723 d3bd
00000120: 3820 ff3d ddda e9bc d397 f3bd f37f 2ebc
00000130: af1d 82bb 4764 9dbd 671d b2bc 9bcc 09be
00000140: c4b9 0dbc 83d7 8b3c 90ff fabc bd66 5e3c
00000150: fa76 ffbd 2667 f0bd 3c49 30bd f163 10be
00000160: ccc7 c5bd 728b 113e 1e65 4b3c 7a3d a9bd
00000170: a677 77bd c4b8 9dbe ed4f 12bd 633e 73bd
00000180: 7b71 a6be 173f b9bd b068 08be 589e a4bb
00000190: 5b71 03be 4f4f e83d adbd 8a3b e03e fd3d
000001a0: 1520 57bd 2faa 993d c39e 4f3d 53b2 96bd
000001b0: 0a81 23be 2e6a 1e3e b819 febe 6523 28bd
000001c0: eb36 82be 70d0 0cbd ee0a ee3d 0543 56bd
000001d0: 6fb4 f1bd 1d84 133d d388 51bd caa6 09be
000001e0: 67f5 edbd f641 e5bd 1a62 8b3d d942 00bd
000001f0: e004 1c3d 2214 a73d 6bf5 b9bd 3b64 e43c
00000200: 6d76 7c3d 923c 93bc 0839 5ebd 8b10 20be
00000210: 39c7 2cbe 8e8f 1bbe d3ba f6bd 7274 a6bd
00000220: d5db 05be ff11 433d f9f8 f7bd fb4e a4bd
00000230: 7c43 313d 1273 e0bc 6a40 b8bd aadb 30bd
00000240: 82ea 45bc 6967 b13d 2300 1cbe 07e4 acbd
00000250: 7dc5 353e 54a3 55bd 01a7 303d f15e 833b
00000260: 8bb4 ea3d 4f37 02ba 9218 b03d 5cf6 acbc
00000270: 9c54 e63d aee5 07be d381 c63c f6d3 96bd
00000280: b119 2ebe ead7 d8bd 2a45 b1bd 2615 52bd
00000290: 906b 83be 75d4 b33c 419d a1bd eec1 983d
000002a0: 37dd 13be 3cf5 0dbe 7315 9fbd 3178 e2bc
000002b0: 41be bc3d 5488 bb3d 761e b03d f2a1 343e
000002c0: f5cb 5ebd 340b cfbd 9a17 0abe f7e7 863d
000002d0: b8ed 83bd 8a17 313e c647 65bc 88f3 b63c
000002e0: 9fff b4bd 6fca 113d a38f 00be b0de 7c3d
000002f0: eade 7fbc 8a35 8abd d609 00be 5bb5 873d
00000300: 109d 1c3e 7001 00bc a84f 873e 9f9f 24be
00000310: f46a 923d 93b1 8dbd be40 eabd 2c75 8fbd
00000320: 5d0d 043e 0332 bd3c cb09 d0bc 304e 26bd
00000330: 81a4 02be 18f4 b2bb 680b d33d 92a5 a9bd
00000340: f6f5 783c 3adc 10be a9be c0bd 7d43 a3bd
00000350: e4a7 13bd c1a8 0abe 2ebd bebd 963e b7bd
00000360: a16a 6bbd d9ad 07bd 8037 24bb 00f2 16bd
00000370: 3817 b0bc 2071 d9bd dbfb 4a3d 9a09 a5bd
00000380: d4e3 863e 5e9d 863d 16fc 15be 2896 57bd
00000390: dfd6 333d d7a2 303e c157 8c3e b56c 563d
000003a0: 741c 85be 8eb2 0a3d 2c3a 8dbd ef29 54bd
000003b0: 0cea 993d c9cd 8f3e 8944 d13e 1d66 00bc
000003c0: cb2b 0c3e ad2d a8bd 1a4b fe3d 7d0f f3bc
000003d0: 4330 fb3c 789e bf3b f6bb 1fbe c512 14be
000003e0: d703 54bd 316f 68bc 012b 363e 5ac1 15be
000003f0: c311 67bc 848b d33d b748 abbd a4ef d4bc

bias f4 [64]
-0.014824684 -0.0041171256 -0.039491933 0.05182694 0.048560366 -0.09574254 -0.074982174 -0.07545061
-0.03740221 0.10106823 -0.09892589 -0.031014873 0.032538436 0.03832301 0.04798516 -0.08530474
-0.05743825 -0.06851093 -0.04574771 0.07993492 0.025050385 0.013645703 -0.09745955 -0.014511686
-0.002864687 0.014098823 -0.011802837 0.023838177 -0.020702315 0.0069697313 -0.0775773 -0.022696923
-0.08717354 0.032635104 -0.0025187791 0.046553764 0.009637739 0.008976285 -0.0076480135 -0.046246286
-0.041612543 -0.08256319 -0.010518576 0.012575951 -0.054016177 0.01553007 -0.03326518 -0.11263505
-0.06748637 -0.038247164 -0.03318425 0.04265203 -0.08557291 0.047567014 0.047751963 -0.13221644
0.08622705 0.0152226435 -0.09537646 -0.011914052 -0.045355882 -0.06313071 -0.08121218 -0.061400596
00000000: 3be3 72bc f4e8 86bb 4bc2 21bd 7c48 543d
00000010: 3ce7 463d aa14 c4bd 4190 99bd d985 9abd
00000020: 0f33 19bd dcfc ce3d a899 cabd e712 febc
00000030: 0647 053d 97f8 1c3d 168c 443d 40b4 aebd
00000040: 5f44 6bbd 754f 8cbd f361 3bbd ebb4 a33d
00000050: 7736 cd3c 3a92 5f3c df98 c7bd 6cc2 6dbc
00000060: 79bd 3bbb c0fe 663c b060 41bc 4848 c33c
00000070: e797 a9bc 5862 e43b d9e0 9ebd e6ee b9bc
00000080: 0a88 b2bd 63ac 053d 1a12 25bb 29af 3e3d
00000090: 9be7 1d3c 4511 133c 309c fabb bf6c 3dbd
000000a0: ea71 2abd e416 a9bd 1b56 2cbc 5d0b 4e3c
000000b0: 1140 5dbd d671 7e3c 1241 08bd 35ad e6bd
000000c0: 4b36 8abd 0fa9 1cbd 35ec 07bd e5b3 2e3d
000000d0: da40 afbd a1d5 423d 9097 433d bf63 07be
000000e0: cf97 b03d 6568 793c bc54 c3bd 2833 43bc
000000f0: 17c7 39bd ac4a 81bd 9252 a6bd 317f 7bbd

weight f4 [10, 64]
0.17685437 0.21549611 0.13067517 0.03591039 -0.13091192 -0.13950312 0.021139797 -0.06968845
-0.10609257 0.14789428 -0.12630647 0.11497653 0.042225383 0.14483376 0.10441972 0.0062016547
-0.17262876 0.053906724 -0.15786631 -0.011284262 0.117100954 -0.11323957 -0.18307741 0.12864146
-0.16369979 0.16788527 0.03078849 -0.019695222 -0.18972307 -0.2076149 -0.2255643 -0.02297602
0.09095604 -0.19711603 -0.2209625 -0.1429907 -0.10354752 -0.16694364 -0.005222437 -0.2192549
0.109883755 0.10020124 -0.011906506 -0.08748316 -0.13546944 -0.03795909 -0.1997066 -0.008514557
-0.17860617 -0.13107623 -0.21575668 -0.0055079604 -0.08664878 -0.14762269 0.01720671 -0.11237057
0.06471143 -0.10894313 -0.16765103 0.04315475 0.16280426 -0.2505189 -0.2303326 -0.07887428
0.044054285 0.17546716 0.08992233 -0.012239123 -0.11201383 -0.10717513 0.12913571 -0.07263643
0.0846033 0.11055739 0.04414228 -0.030413046 0.05739949 0.08318584 0.14670458 0.08363811
-0.07832871 -0.03221817 -0.16020624 0.056056272 0.0404227 -0.19027373 -0.1535617 0.056097116
-0.18775283 0.0038077303 -0.15867892 -0.1820473 -0.16896453 -0.060248714 -0.15572503 -0.031784236
0.021832189 0.0024486925 -0.080958374 -0.18848403 -0.03621731 -0.008104988 -0.030004553 -0.0043176655
0.1323268 -0.06476759 -0.11354167 -0.045347705 -0.044708557 0.052592035 0.025445875 -0.11746026
-0.13695598 -0.18656266 -0.017816862 -0.06035922 -0.05953974 -0.12840976 0.091451064 -0.18297584
0.16151457 -0.03609889 -0.08861243 -0.112227716 -0.040301114 -0.06447107 -0.031289626 -0.10083713
0.09129793 -0.20053847 0.09980051 -0.16494079 0.11416457 -0.06686551 -0.092521004 0.13692398
0.011317741 -0.0449488 0.020106595 -0.040421348 0.13030341 -0.19338144 -0.046642024 -0.02733742
0.0536161 -0.16452135 0.035119463 -0.10461567 0.20832568 -0.01935279 -0.04265472 -0.14885601
0.033597685 -0.030887814 0.013925192 -0.031488366 0.0726294 0.04306753 -0.06669731 0.14985806
-0.0960182 -0.027441135 -0.061055858 -0.08336423 0.00044760463 -0.07514818 0.14233153 -0.060464576
0.16141587 -0.11743142 0.17775813 0.073687665 0.082257435 0.14511347 0.004118064 -0.08264649
0.043441936 0.03627486 -0.048962604 -0.03397431 0.051526204 0.11064135 0.06661655 0.04580556
-0.14746872 -0.09795708 -0.06543768 -0.027830878 -0.14046481 0.004975378 -0.046184994 -0.08521745
0.02431607 -0.008086144 -0.05010277 -0.07501954 0.015127375 0.04666485 -0.005692395 -0.044273388
-0.095319614 -0.102774166 0.15486474 0.00071546726 -0.004119055 -0.12953211 -0.13271992 -0.104038216
-0.017066307 -0.035902247 0.08309518 0.020362925 0.006919815 0.0803608 0.083226606 -0.040930204
-0.03113635 -0.01493725 0.06375209 0.010365944 0.18289351 -0.009840758 -0.005787541 0.20057422
0.016343633 -0.03198692 0.002673275 0.0957784 0.13857117 0.03134445 0.048947375 -0.018987257
0.053379837 0.11367951 0.069210485 0.15127473 0.20068254 0.11568035 0.11202193 -0.045328397
-0.01830707 0.18392104 0.090661764 -0.02017218 0.13744257 0.012798046 0.1405322 0.19505471
-0.093774535 -0.0054585217 0.08256283 0.034016903 -0.10977597 0.14595978 0.1460913 0.08709722
00000000: 5019 353e 03ab 5c3e b6cf 053e c616 133d
00000010: c60d 06be e8d9 0ebe 5e2d ad3c d1b8 8ebd
00000020: 1047 d9bd 9971 173e 7c56 01be d178 eb3d
00000030: 86f4 2c3d 4d4f 143e 02da d53d 4037 cb3b
00000040: 98c5 30be 4ccd 5c3d b5a7 21be a0e1 38bc
00000050: a0d2 ef3d 26ea e7bd a578 3bbe 96ba 033e
00000060: eba0 27be 1eea 2b3e 2538 fc3c e057 a1bc
00000070: c446 42be 0099 54be 54fa 66be 3538 bcbc
00000080: 2947 ba3d c9d8 49be fe43 62be 276c 12be
00000090: b910 d4bd 46f3 2abe fa20 abbb 5b84 60be
000000a0: bc0a e13d 4f36 cd3d 8113 43bc 5f2a b3bd
000000b0: 80b8 0abe fe7a 1bbd e37f 4cbe a480 0bbc
000000c0: 89e4 36be d938 06be 52ef 5cbe 1f7c b4bb
000000d0: ea74 b1bd 672a 17be 16f5 8c3c 8b22 e6bd
000000e0: 6d87 843d 931d dfbd b6ac 2bbe 09c3 303d
000000f0: 29b6 263e 0344 80be 4fdc 6bbe d788 a1bd
00000100: 4472 343d aaad 333e 3329 b83d 9a86 48bc
00000110: 8267 e5bd a27e dbbd 273c 043e 69c2 94bd
00000120: 7f44 ad3d ea6b e23d 89ce 343d c824 f9bc
00000130: ba1b 6b3d 565d aa3d ba39 163e 754a ab3d
00000140: cd6a a0bd 33f7 03bd 1b0d 24be 439b 653d
00000150: 4692 253d 1ed7 42be 473f 1dbe 17c6 653d
00000160: 4742 40be 1d8b 793b ba7c 22be 9b6a 3abe
00000170: 0a05 2dbe 5bc7 76bd 6276 1fbe 3030 02bd
00000180: 6bd9 b23c 3e7a 203b 81cd a5bd f501 41be
00000190: 9a58 14bd c9ca 04bc 1ccc f5bc 347b 8dbb
000001a0: ad80 073e dfa4 84bd 8988 e8bd 84be 39bd
000001b0: 5220 37bd bf6a 573d de73 d03c 018f f0bd
000001c0: 303e 0cbe 480a 3fbe abf4 91bc 3b3b 77bd
000001d0: f1df 73bd d97d 03be b24a bb3d 055e 3bbe
000001e0: 1364 253e 6edc 13bd 6f7a b5bd a5d7 e5bd
000001f0: c812 25bd 6909 84bd 8d29 00bd b283 cebd
00000200: 69fa ba3d f559 4dbe 3664 cc3d 3de6 28be
00000210: 1dcf e93d c9f0 88bd a77b bdbd cd35 0c3e
00000220: 0c6e 393c 3c1c 38bd 96b6 a43c db90 25bd
00000230: 426e 053e c905 46be b50b 3fbd baf2 dfbc
00000240: 8e9c 5b3d 4978 28be 6dd9 0f3d be40 d6bd
00000250: 5453 553e be89 9ebc b7b6 2ebd b66d 18be
00000260: ba9d 093d 7108 fdbc 7d26 643c f2f9 00bd
00000270: b9be 943d 9467 303d 9998 88bd 6474 193e
00000280: 31a5 c4bd 3bcc e0bc b515 7abd deba aabd
00000290: 7aac ea39 4ae7 99bd 5bbf 113e b4a9 77bd
000002a0: 344a 253e e27f f0bd 3a06 363e 8fe9 963d
000002b0: 9676 a83d a098 143e d3f0 863b 9042 a9bd
000002c0: 2cf0 313d f394 143d 038d 48bd a528 0bbd
000002d0: 240d 533d ef97 e23d 426e 883d 9c9e 3b3d
000002e0: 0a02 17be b99d c8bd 3104 86bd 95fd e3bc
000002f0: 02d6 0fbe 7f08 a33b 7a2c 3dbd 7d86 aebd
00000300: 7f32 c73c bf7b 04bc 9038 4dbd d8a3 99bd
00000310: cfd8 773c a423 3f3d 4587 babb 0358 35bd
00000320: ee36 c3bd 437b d2bd dd94 1e3e 328e 3b3a
00000330: 23f9 86bb 11a4 04be bbe7 07be fd11 d5bd
00000340: a4ce 8bbc 3c0e 13bd ce2d aa3d 26d0 a63c
00000350: 9ebf e23b 3494 a43d b672 aa3d 6ea6 27bd
00000360: a911 ffbc 5ebb 74bc 7590 823d ecd5 293c
00000370: 7048 3b3e 213b 21bc 6aa5 bdbb 5463 4d3e
00000380: 15e3 853c b704 03bd 1d32 2f3b 7727 c43d
00000390: 9ae5 0d3e 0a63 003d 0b7d 483d 2a8b 9bbc
000003a0: d1a4 5a3d ced0 e83d 3abe 8d3d c3e7 1a3e
000003b0: b97f 4d3e d2e9 ec3d c16b e53d 45aa 39bd
000003c0: b5f8 95bc cc55 3c3e e0ac b93d 2140 a5bc
000003d0: bfbd 0c3e e5ae 513c ace7 0f3e 6cbc 473e
000003e0: dd0c c0bd 66dd b2bb b316 a93d 4f55 0b3d
000003f0: 39d2 e0bd 7b76 153e f598 153e 0760 b23d

bias f4 [10]
-0.0502226 0.05102667 -0.09617794 0.1099407 0.15275562 0.18192507 -0.009189657 0.01165135
-0.14322896 -0.0813514
00000000: 37b6 4dbd 5701 513d f1f8 c4bd 9728 e13d
00000010: f86b 1c3e 914a 3a3e 3790 16bc 4ee5 3e3c
00000020: 9daa 12be 909b a6bd
