models/stock_forecast_1.pth (torch, 69911 bytes, 6 tensors)

weight f4 [128, 60]
0	0x3e48107d	0.1953754
1	0x3e7d48ce	0.24734804
2	0x3e121028	0.14263976
3	0xbeb49920	-0.35273075
4	0xbe108241	-0.14112188
5	0xbdbe738a	-0.09299381
6	0xbe1513c6	-0.14558324
7	0xbe0e225e	-0.13880298
8	0xbef7c054	-0.48388922
9	0xbefd8360	-0.49514294
10	0xbf1912eb	-0.5979449
11	0xbe521999	-0.20517577
12	0xbe4df494	-0.2011283
13	0xbeae5b93	-0.3405424
14	0xbdd11d6d	-0.10210691
15	0x3e3c74ef	0.18403982
16	0xbe2902cb	-0.16504972
17	0xbd8efdbe	-0.06981991
18	0x3e97342d	0.29531994
19	0x3d21bc7b	0.03948639
20	0xbd83d6d7	-0.06437462
21	0xbeabfe5f	-0.33592507
22	0xbe4e50ca	-0.20148006
23	0xbec328e1	-0.38117126
24	0xbc9d51c0	-0.01920402
25	0xbde6e3e6	-0.11273937
26	0xbc9adea3	-0.01890499
27	0xbe61bf90	-0.22045732
28	0xbc3e66f4	-0.011621226
29	0xbe201796	-0.15633997
30	0xbde5ff0a	-0.112302855
31	0x3ee04757	0.43804428
32	0x3f252412	0.64508164
33	0xbf396b7c	-0.72429633
34	0x3f8e6334	1.1124024
35	0xbe898070	-0.26855803
36	0x3fa53eb1	1.2909757
37	0xc0199ea1	-2.400307
38	0xc02d2662	-2.7054677
39	0xbf15b712	-0.5848247
40	0x3f6a3289	0.9148336
41	0x3fcb05d8	1.5861158
42	0x3d848fe5	0.06472758
43	0x400c0670	2.187893
44	0xc01204df	-2.2815473
45	0xbd1e80c8	-0.038697034
46	0xc00b8585	-2.1800244
47	0x3f3b89c7	0.73257107
48	0xc0a49aea	-5.1439104
49	0x3fb045b9	1.3771278
50	0x3d4b959a	0.049703218
51	0x406922fd	3.6427605
52	0x4021e611	2.5296671
53	0x3fdf2222	1.7432292
54	0x404e2e0d	3.2215607
55	0x401b428b	2.4259365
56	0x3eda08c1	0.42584804
57	0xbf43d475	-0.7649606
58	0x4088e039	4.277371
59	0x3fb16cd0	1.3861332
60	0x3e5c8121	0.21533634
61	0x3ead6514	0.3386618
62	0x3e8f5362	0.27993304
63	0x3ed87b3c	0.4228152
64	0x3e86120d	0.26185647
65	0x3ebd56de	0.36980337
66	0x3de80bd5	0.11330382
67	0x3d9aa539	0.07551045
68	0x3ebc819a	0.36817628
69	0x3d500340	0.05078435
70	0x3e0142ea	0.12623182
71	0x3de7ba0c	0.113147825
72	0xbd909fad	-0.07061706
73	0x3e10600e	0.14099142
74	0xbe5f4248	-0.21802628
75	0x3df410f7	0.11917298
76	0x3ea87be1	0.32907012
77	0xbd717a3b	-0.05895446
78	0x3eeb9994	0.46015608
79	0x3ed79dc8	0.42112565
80	0x3dd78e53	0.10525193
81	0x3d08b964	0.033379927
82	0xbec344d8	-0.3813846
83	0xbe926abe	-0.28597063
84	0x3e1d89f9	0.15384664
85	0x3ddd6b8c	0.108115286
86	0x3eb6608f	0.35620543
87	0x3d4528e3	0.048134696
88	0xbd44b024	-0.048019543
89	0x3d0b5265	0.034014124
90	0xbfbe3885	-1.4860998
91	0xbf65d134	-0.89772344
92	0x3fee7eac	1.8632407
93	0x40213781	2.5190127
94	0x3fea4241	1.8301469
95	0x3f5a91fa	0.8537899
96	0x3f3561e2	0.7085248
97	0xbf804d21	-1.0023538
98	0xc02f91de	-2.743278
99	0x3f0afaed	0.5428913
100	0xbf497b7d	-0.78704053
101	0xbfe17637	-1.7614201
102	0xc00d9764	-2.2123652
103	0xbe665ecc	-0.224971
104	0x3fb00569	1.3751651
105	0x3ff8acc0	1.9427719
106	0x3ec761fb	0.3894194
107	0x3e7628f0	0.24039054
108	0x3f98f4a4	1.1949658
109	0x3f230013	0.6367199
110	0xbfbed4d2	-1.4908698
111	0xc034cf2b	-2.8251445
112	0xbf9931cf	-1.1968325
113	0x3e9798a1	0.29608634
114	0xbf01c788	-0.50695086
115	0xc00a67ac	-2.1625776
116	0x3f223a4e	0.63370216
117	0xbf978841	-1.1838456
118	0xbfe601e4	-1.7969327
119	0xbf2670c7	-0.65015835
120	0x3e2824e3	0.16420321
121	0x3edf3345	0.43593803
122	0x3e8aead1	0.27132276
123	0xbcf51e24	-0.029921599
124	0xbd5bf539	-0.05370066
125	0x3e1ecc7d	0.15507694
126	0xbd9660c0	-0.07342672
127	0x3e9bef95	0.30456224
128	0x3e3776c8	0.17916405
129	0x3e511737	0.20419012
130	0xbe64cc44	-0.22343546
131	0x3ef3249e	0.47488874
132	0xbd043d17	-0.032284822
133	0xbe43ed49	-0.19133486
134	0xbd448394	-0.047977045
135	0xbe81a1a5	-0.25318637
136	0xbd5f9865	-0.054588694
137	0xbe957b75	-0.29195753
138	0xbe925c89	-0.28586224
139	0xbc9bbe4b	-0.019011637
140	0x3eaa2587	0.33231756
141	0x3ca40a9a	0.020024586
142	0x3d75e970	0.060037076
143	0xbeadd985	-0.33955017
144	0xbf180866	-0.59387815
145	0xbf227220	-0.6345539
146	0xbf81b636	-1.0133731
147	0xbeb4ab69	-0.35287026
148	0xbf15df7e	-0.58544147
149	0xbf67f126	-0.9060234
150	0x3d57aaaa	0.052652992
151	0x4070b026	3.7607512
152	0xbd67f4b6	-0.05662986
153	0x4081cefb	4.056516
154	0x3f68a0f4	0.90870595
155	0xbfe9f3b1	-1.8277494
156	0x3fd86274	1.6905046
157	0xbff4bd8a	-1.9120343
158	0xc01661b7	-2.349714
159	0xbf931400	-1.1490479
160	0xc024e668	-2.576563
161	0x3fa68ba1	1.3011361
162	0x3f2c7b08	0.6737523
163	0xc015badb	-2.3395298
164	0xbfb00343	-1.3750995
165	0x3f29b061	0.6628476
166	0xc01d029a	-2.4532838
167	0x3fe25ec8	1.7685175
168	0x3eeec931	0.46637872
169	0x3c2601a1	0.010132224
170	0x401a9426	2.4152923
171	0x402b8969	2.6802619
172	0x3fb54011	1.4160177
173	0xbfc89272	-1.5669692
174	0xbfd075dc	-1.6285968
175	0xc00258a7	-2.036661
176	0xc015945c	-2.3371801
177	0x403da8ff	2.9634397
178	0xbf8a3295	-1.0796686
179	0x3f9c6a63	1.2219967
180	0xbe1a03dd	-0.15040536
181	0x3e79cf1c	0.24395412
182	0x3da58fb9	0.080840535
183	0xbe098ce7	-0.13432656
184	0x3e9cc7d8	0.3062122
185	0x3e8aafcf	0.27087256
186	0x3eca592e	0.39521164
187	0x3d8cd3ac	0.06876311
188	0x3f1e5165	0.6184295
189	0x3ef781ec	0.4834131
190	0x3de6636e	0.112494335
191	0x3d3da3c5	0.04629876
192	0x3e30dfe6	0.1727291
193	0x3e736bc6	0.23771581
194	0xbd794b21	-0.060862664
195	0x3dd37b1b	0.10326215
196	0xbdddfca2	-0.108392015
197	0xbe36e738	-0.1786164
198	0xbe003e25	-0.12523706
199	0x3ea09bfb	0.31369004
200	0xbe60a21a	-0.21936837
201	0xbee33fbc	-0.44384563
202	0xbe41a217	-0.18909489
203	0xbf1f6ffd	-0.62280256
204	0xbe5efe39	-0.21776666
205	0xbdba3296	-0.0909168
206	0x3cf76333	0.030198669
207	0x3e2b11d3	0.16706018
208	0xbdc87807	-0.097885184
209	0xbe0f13fc	-0.13972467
210	0x40a0a411	5.0200276
211	0x3fdbcafa	1.7171319
212	0xc079bba7	-3.9020784
213	0xc047ece1	-3.123833
214	0xbfee279f	-1.8605841
215	0x40579e8f	3.3690526
216	0x3fa366df	1.2765769
217	0xbfefff1c	-1.8749728
218	0x3ffdfce8	1.9842806
219	0x3f0a9b33	0.54143065
220	0xc06a94e2	-3.665337
221	0xbf915ad8	-1.1355848
222	0xc0940d82	-4.626649
223	0xbfa5d043	-1.2954181
224	0xc087f146	-4.2482023
225	0xc0d6bac6	-6.7102995
226	0xbfab09c9	-1.3362361
227	0x3ead3921	0.33832648
228	0xc02cd07e	-2.7002254
229	0xc009d364	-2.1535273
230	0x3e96f291	0.29481938
231	0xbff4cf8d	-1.912584
232	0xbf3f1e53	-0.74655646
233	0xbfbaea01	-1.4602662
234	0xbfcd332e	-1.6031244
235	0xbf74adc7	-0.95577663
236	0xc02ac06a	-2.667994
237	0x405eefce	3.4833865
238	0xbf0bb50c	-0.5457313
239	0x3ffa8d16	1.9574306
240	0xbccca069	-0.024978833
241	0x3e060130	0.1308639
242	0x3e99dbb4	0.30050433
243	0xbd7cc0ba	-0.061707236
244	0x3e8930aa	0.2679494
245	0x3e7a4b85	0.24442871
246	0x3b48a994	0.0030618655
247	0x3df740ee	0.12072931
248	0x3ee39056	0.44446057
249	0x3e463f24	0.19360024
250	0x3ed93e94	0.42430556
251	0xbe1b4faf	-0.15167116
252	0x3e96ab7d	0.2942771
253	0xbcf18fca	-0.02948751
254	0x3cca1bc8	0.02467145
255	0x3cd2beef	0.02572581

bias f4 [128]
0	0x3ec04de5	0.3755943
1	0x3df7c06e	0.1209725
2	0x3e33a93d	0.17545028
3	0xbe44d760	-0.19222784
4	0xbf37da7a	-0.71817744
5	0x3e44bd88	0.19212925
6	0x3d9e32a2	0.07724501
7	0x3d3b573f	0.0457375
8	0x3ed88deb	0.42295775
9	0xbf178f42	-0.5920297
10	0xbda1a82c	-0.07893404
11	0x3c2b813c	0.010467824
12	0xbd8ef577	-0.069804125
13	0x3e9a7cce	0.30173343
14	0xbecb16f9	-0.39665964
15	0xbe7aec0a	-0.24504104
16	0xbe7fb71f	-0.24972199
17	0xbeb49623	-0.35270795
18	0xbf13a5f5	-0.57675105
19	0x3d346686	0.044043086
20	0xbe25b0db	-0.16180746
21	0xbef8eb6c	-0.48617113
22	0x3dd7baa0	0.10533643
23	0xbe05d5dd	-0.13069864
24	0xbf1bf1ab	-0.6091563
25	0xbee92968	-0.45539403
26	0x3e68ee15	0.22747071
27	0x3e3c3983	0.18381314
28	0x3c9fc1e8	0.019501641
29	0x3c2a0ea8	0.010379471
30	0xbc83f590	-0.016108304
31	0x3e1c209a	0.15246812
32	0xbe0feca0	-0.14055109
33	0x3db15bdc	0.08660099
34	0xbea2fc87	-0.31833288
35	0xbc406bbd	-0.011744437
36	0x3e25f430	0.16206431
37	0xbf2b5a63	-0.66934794
38	0xbf02a8fc	-0.510391
39	0x3e2a718f	0.16644882
40	0xbf40a482	-0.7525102
41	0x3e75ae43	0.23992257
42	0x3ef53abf	0.47896382
43	0x3e8e12c8	0.27748704
44	0xbc38b86b	-0.011274437
45	0x3e7d30d2	0.24725655
46	0xbf62d53e	-0.8860663
47	0xbe5aaaa2	-0.21354154
48	0x3d5ac8bb	0.053414088
49	0x3dd0ae24	0.10189465
50	0xbd991eb2	-0.07476558
51	0x3e8ff360	0.28115368
52	0xbe54affc	-0.20770258
53	0xbd8ea4a2	-0.06964995
54	0xbe8a353e	-0.26993746
55	0xbd0f2fe2	-0.034957774
56	0xbf09afdc	-0.53783965
57	0xbe661cbb	-0.22471897
58	0x3e7f0313	0.24903516
59	0xbeb58246	-0.35450953
60	0x3e7379d9	0.2377695
61	0xbe02145a	-0.12703076
62	0xbdbab829	-0.09117157
63	0x3d3d12e2	0.046160586
64	0x3efeda94	0.49776137
65	0xbd2e745d	-0.04259144
66	0x3ea91ef6	0.33031434
67	0x3f011bf7	0.50433296
68	0x3e311b57	0.17295586
69	0x3e452292	0.19251469
70	0x3e7c8b2c	0.24662465
71	0x3e228cfc	0.15874094
72	0x3e111808	0.14169323
73	0xbea0b230	-0.31385946
74	0xbec51c03	-0.38497934
75	0xbe2f1051	-0.17096068
76	0xbca03f90	-0.019561559
77	0x3dd03757	0.10166805
78	0xbd2ec881	-0.042671684
79	0x3e34cdac	0.17656583
80	0x3f56de40	0.83932877
81	0x3e9327c9	0.2874129
82	0xbe4fd4e7	-0.2029606
83	0xbc185c2b	-0.009299318
84	0x3d9191ba	0.07107873
85	0xbd1fac08	-0.03898242
86	0xbe7b70e7	-0.24554788
87	0xbebbad8e	-0.3665585
88	0x3de5eafb	0.112264596
89	0xbf42f8c5	-0.7616084
90	0xbee527d1	-0.4475694
91	0xbdcabfd1	-0.09899867
92	0xbd985d5e	-0.074396834
93	0x3f189244	0.59598184
94	0x3dbb9335	0.09158937
95	0x3e6fb2d1	0.23408057
96	0xbea83201	-0.3285065
97	0x3f0f4571	0.55965334
98	0xbd765e69	-0.06014863
99	0xbdda8991	-0.1067077
100	0xbe7ee2c4	-0.24891192
101	0x3eb31f5e	0.3498487
102	0x3e7097c3	0.23495393
103	0xbd628319	-0.055300806
104	0xbe5182db	-0.20460074
105	0x3e222c0c	0.15837115
106	0xbea24f2e	-0.31701034
107	0xbe819110	-0.25305986
108	0xbeea8057	-0.4580104
109	0xbf08c5c0	-0.5342674
110	0xbe6b9567	-0.23006211
111	0xbdedcf42	-0.11611797
112	0xbe91eef8	-0.2850263
113	0x3e27130a	0.16315857
114	0x3e0fec3a	0.14054957
115	0xbe8f0c89	-0.2793925
116	0xbf333105	-0.6999667
117	0xbedfdd5d	-0.43723574
118	0xbf39a997	-0.725244
119	0x3cbf2fd6	0.02333824
120	0x3e9dee2f	0.30845782
121	0x3e9e1b96	0.3088042
122	0xbed8b871	-0.42328218
123	0x3c333fe8	0.010940529
124	0xbe149871	-0.14511277
125	0xbeef49a2	-0.46735865
126	0xbe6a1e1c	-0.22863048
127	0x3e02f6a2	0.12789395

weight f4 [64, 128]
0	0xbf90b0aa	-1.1303914
1	0x40f1a31c	7.551161
2	0xbee10a25	-0.43953052
3	0xc05e6d2d	-3.4754136
4	0x3fd07844	1.6286702
5	0x3f047926	0.5174736
6	0x3f70e9ae	0.94106567
7	0xc01530b1	-2.331097
8	0xbdd206a6	-0.10255174
9	0xbffcc9b8	-1.974906
10	0xbf870853	-1.0549415
11	0x3fbad0fd	1.4595028
12	0xc094a7a6	-4.645465
13	0xbf80afc9	-1.0053645
14	0x3fe98db9	1.8246375
15	0x40b6177d	5.690367
16	0x401d785e	2.4604716
17	0x402545f1	2.582394
18	0xbf3ab8c6	-0.7293819
19	0xc015f264	-2.3429193
20	0xbe7efa90	-0.2490027
21	0x3f5d8d99	0.86544186
22	0xbf84015c	-1.0312915
23	0x3fc48e47	1.535592
24	0x4094c6db	4.6492743
25	0xbf39ecd3	-0.7262699
26	0x3f07375a	0.52818835
27	0xbefa58a9	-0.48895767
28	0xbf6b10ed	-0.918227
29	0xbf995242	-1.1978228
30	0x3f932d73	1.1498245
31	0x3f20a91b	0.62758034
32	0x402eb82f	2.7299917
33	0xbf9f5cff	-1.2450255
34	0x40641a23	3.5640953
35	0x3f6b039a	0.9180237
36	0xbf7ff856	-0.99988306
37	0xbfc9fde3	-1.5780605
38	0xc0011ead	-2.0174973
39	0xbfcf3a7d	-1.6189724
40	0x401fce99	2.4969847
41	0xbf6b44ec	-0.9190204
42	0xbe3d8518	-0.18507802
43	0xbdcd89e6	-0.10036068
44	0xbfe84ac2	-1.8147814
45	0x402735f0	2.612667
46	0x3fbb2a20	1.462223
47	0x40618a84	3.5240793
48	0xbe037dbc	-0.12840933
49	0x3fd57521	1.667637
50	0x402a9f13	2.6659591
51	0x3fa8f399	1.319934
52	0x401ed6d5	2.4818623
53	0x40a80186	5.250186
54	0x3d163009	0.036666904
55	0xbfa08cde	-1.2542989
56	0xc082a90f	-4.083137
57	0x4023c487	2.55887
58	0xbfbea062	-1.4892695
59	0xbfdc633a	-1.7217782
60	0xbe195673	-0.14974384
61	0x3fc5a0cf	1.54397
62	0x3d4d306a	0.050095
63	0xbfae6594	-1.3624749
64	0xbfb743a9	-1.4317523
65	0xbfc0f05f	-1.5073355
66	0x3fa49d50	1.2860508
67	0xbfdccbb4	-1.7249665
68	0x3e961e00	0.29319763
69	0x3f8ff61e	1.1246984
70	0xbfee0732	-1.8595946
71	0xbfc1f65b	-1.5153307
72	0xbf2be2ba	-0.6714283
73	0xbfef5261	-1.8697015
74	0x408a9e6b	4.331838
75	0x40165cbc	2.34941
76	0xbed0ca62	-0.40779406
77	0xbfd9ec43	-1.7025226
78	0xc00e265f	-2.221092
79	0xbef74094	-0.48291457
80	0xbe6a1fcb	-0.2286369
81	0xc0211d38	-2.5174084
82	0xbd74bb0c	-0.059748694
83	0x3fc53da2	1.5409434
84	0xbeb3b91e	-0.3510217
85	0xc03753f8	-2.8645
86	0x3fa25cb0	1.2684536
87	0x406a0225	3.656381
88	0x3e83e103	0.25757608
89	0x3f0cc46f	0.54987234
90	0xbfa2c573	-1.2716507
91	0x3f23cad0	0.6398134
92	0xbbb0f384	-0.005400123
93	0xbf3696ae	-0.7132367
94	0xbfcb4358	-1.5879927
95	0x3e945674	0.28972208
96	0x4020fef4	2.515561
97	0x3f84d468	1.0377321
98	0xbe530adc	-0.20609611
99	0x3f602c5a	0.87567675
100	0x3f5b5b4d	0.8568619
101	0xbe87a1e9	-0.26490715
102	0x3f8e8633	1.1134704
103	0x3f491adf	0.7855663
104	0x3f741774	0.95348287
105	0x3ebdee8e	0.37096065
106	0x3f81b529	1.0133411
107	0x3fb158f2	1.3855269
108	0x3f8b1758	1.0866499
109	0x3f9b37ad	1.2126366
110	0x3ffac08c	1.9590011
111	0xc01e3d3d	-2.4724877
112	0x3ec77e32	0.38963467
113	0xbfee6c97	-1.8626889
114	0xbff49c4a	-1.9110196
115	0xbf2835eb	-0.6570727
116	0x3fbd8498	1.4806089
117	0x3fa5d138	1.2954473
118	0x3fd9a163	1.7002376
119	0xbd38b258	-0.045091957
120	0x3e9d24c9	0.30692127
121	0xbd2ea0a9	-0.042633686
122	0xbcb7e098	-0.022445962
123	0xbfafce8e	-1.373491
124	0x4041c289	3.0274985
125	0x40721bf5	3.7829564
126	0xbfeca19f	-1.8486823
127	0x3f7d1818	0.9886489
128	0xbec25a93	-0.37959728
129	0xbf32ba16	-0.69815195
130	0x3e823884	0.25433743
131	0x402b9e05	2.6815197
132	0x408d1368	4.408619
133	0xbfbaba1b	-1.4588045
134	0xc0007ec5	-2.0077374
135	0x3f927895	1.1443049
136	0x3e0a01d8	0.13477266
137	0xc0493fcd	-3.144519
138	0x40145ebd	2.3182824
139	0xbeb592a6	-0.35463446
140	0x403485be	2.820663
141	0xbe705042	-0.23468116
142	0xc089197d	-4.2843614
143	0xc0b1bc29	-5.554219
144	0xc112f95e	-9.185881
145	0x406ba770	3.6820946
146	0xbe4e79ec	-0.20163697
147	0xc07c4db6	-3.942243
148	0xbd1f413c	-0.03888057
149	0x4063a0b9	3.5566847
150	0xbd9e237a	-0.0772161
151	0x3dec434f	0.115362756
152	0x409eaf2c	4.9588833
153	0x3f94126b	1.1568121
154	0x3f932459	1.1495467
155	0x3f550598	0.8321166
156	0x4036e3d2	2.857655
157	0xbdf78ed9	-0.12087793
158	0x4032e4b4	2.795209
159	0x4004e26a	2.0763192
160	0x3f7e1fa6	0.9926704
161	0x3f404263	0.751013
162	0xc13e222a	-11.883341
163	0x40104e56	2.2547812
164	0x3fe447dd	1.7834431
165	0x40118c56	2.2741904
166	0xc0336bc8	-2.8034534
167	0xbedb2fba	-0.4280985
168	0xbe81948d	-0.25308648
169	0xbf4e36f6	-0.80552614
170	0x3e126976	0.14298043
171	0xbf02c0fb	-0.51075715
172	0xc01ec47a	-2.480742
173	0xbecba518	-0.39774394
174	0xbd995b95	-0.07488171
175	0xc00a1e97	-2.158117
176	0x3f70b75e	0.94029796
177	0xbfb889d5	-1.4417063
178	0xbfb519ce	-1.41485
179	0x3f2147e3	0.63000315
180	0xbfef9530	-1.8717403
181	0xc09de865	-4.9346185
182	0x400b77c4	2.179185
183	0xc028f476	-2.6399207
184	0x3e941590	0.289227
185	0xc08a32e5	-4.3187127
186	0x3f4e50a1	0.8059178
187	0xbff18704	-1.8869328
188	0xbf2c92f3	-0.67411727
189	0xc019912a	-2.399485
190	0x3e9bbc30	0.30417013
191	0x3fa89e13	1.317324
192	0x3f3517cf	0.70739454
193	0xbfd02418	-1.6261015
194	0xbfdec21e	-1.740299
195	0x3fa1e9e2	1.26495
196	0x3fa7f3d7	1.3121289
197	0xc11610ab	-9.379069
198	0x3eba51f2	0.36390644
199	0xbdb618a6	-0.0889142
200	0x3f9cfe0c	1.2265029
201	0x400418fc	2.064025
202	0xc092d4a9	-4.5884595
203	0xbfb892bb	-1.4419779
204	0x3f976366	1.1827209
205	0x3eb1666f	0.34648463
206	0xbfa123fa	-1.2589104
207	0x3ee7ca00	0.452713
208	0x4047d649	3.122454
209	0x400f003a	2.2343888
210	0xbfcefc9e	-1.6170843
211	0x3e86de60	0.26341534
212	0xbeb5d61b	-0.35514912
213	0xc107959e	-8.474028
214	0xbfc79c6d	-1.5594612
215	0x3fb35702	1.4010928
216	0xbe4b5f69	-0.19860615
217	0xc0ca0df2	-6.3142023
218	0x401655f8	2.348997
219	0xbe955923	-0.29169568
220	0xc0ba90e1	-5.8301854
221	0x3f406777	0.75157875
222	0xc01eb488	-2.4797688
223	0x3f321b7a	0.69573176
224	0x4085b519	4.1783566
225	0xc00310f5	-2.04791
226	0x404d29cd	3.2056763
227	0x4088ef61	4.279221
228	0xbc19e4ba	-0.009392912
229	0x3fecf0d8	1.8511
230	0xbfefd9cf	-1.8738345
231	0x3f448b11	0.767747
232	0xc0128b5b	-2.2897556
233	0xbfaa71d8	-1.3315992
234	0xbfb75cdd	-1.4325215
235	0xc095f063	-4.685594
236	0x3f180377	0.59380287
237	0xbf111baf	-0.56682867
238	0xc0bd1e4e	-5.9099493
239	0xbe94dece	-0.29076236
240	0xbeb0978b	-0.34490618
241	0x3ddb2c30	0.107017875
242	0x40054e8f	2.0829198
243	0x3fad8196	1.3555171
244	0xbf656e74	-0.89621663
245	0xbf039543	-0.5139963
246	0xbf91799a	-1.1365235
247	0x3f95deeb	1.1708654
248	0x3fbcdd48	1.475503
249	0xbf499ca9	-0.7875467
250	0x3eb9e869	0.36310127
251	0x3d8e25b2	0.069407836
252	0xc0438a34	-3.0553102
253	0xbfbdb34b	-1.4820341
254	0xc0062bc4	-2.0964212
255	0xbfca3249	-1.5796596

bias f4 [64]
0	0x3ee3a32f	0.44460437
1	0xbec0f490	-0.37686586
2	0xbd25751d	-0.04039489
3	0xbf74a8de	-0.9557017
4	0xbf60a3f5	-0.8775018
5	0xbefc5e71	-0.49290803
6	0xbf22d1a8	-0.6360116
7	0xbf0f9c84	-0.560982
8	0xbe055ad7	-0.13022934
9	0xbf0ff49c	-0.5623262
10	0xbe4f08b2	-0.20218161
11	0xbea43c31	-0.32077172
12	0xbec1b301	-0.37831882
13	0x3d98d8e8	0.074632466
14	0xbe1c3d56	-0.15257773
15	0xbf71996c	-0.9437473
16	0xbe7a2351	-0.24427535
17	0x3e0e18dc	0.1387667
18	0xbe1d1c6e	-0.15342876
19	0xbe8d0565	-0.27543178
20	0xbf518c82	-0.8185502
21	0xbf18da31	-0.59707934
22	0xbf4db66d	-0.80356485
23	0xbe8af89c	-0.271428
24	0xbfcf826f	-1.621168
25	0x3ebd4c23	0.3697215
26	0xbedd5e8d	-0.432362
27	0x3e14ef9b	0.14544527
28	0x3f09c776	0.5381998
29	0xbf57eef8	-0.8434901
30	0xbefad664	-0.48991692
31	0xbe014cf2	-0.12627009
32	0xbe82f9be	-0.25581163
33	0xbf1c020a	-0.6094061
34	0xbf884de3	-1.0648769
35	0xbf825148	-1.0181055
36	0xbf2e31fb	-0.68045014
37	0xbf5e101d	-0.86743337
38	0x3df9a578	0.12189764
39	0xbd60f27f	-0.054918762
40	0xbf8e1870	-1.1101208
41	0xbe4d03e4	-0.20021015
42	0xbe9822e6	-0.29714125
43	0x3f725509	0.94661003
44	0xbf96895b	-1.1760668
45	0xbe88cd71	-0.2671924
46	0xbeeb7ab3	-0.4599205
47	0xbee25f2c	-0.44213235
48	0xbef413ee	-0.47671455
49	0xbf120382	-0.570366
50	0xbf097225	-0.53689796
51	0xbf2cae3e	-0.6745337
52	0xbf0f7a7f	-0.5604629
53	0xbe5a5944	-0.21323115
54	0xbf420763	-0.7579252
55	0xbe3566ec	-0.17715043
56	0xbef0d874	-0.4704014
57	0xbea36621	-0.31913856
58	0xbe6cb21c	-0.23114818
59	0xbe9c0e06	-0.3047945
60	0xbeedd42f	-0.46450946
61	0xbea7b0bd	-0.32752028
62	0x3f11af62	0.5690824
63	0xbf122ac4	-0.57096505

weight f4 [10, 64]
0	0x3f30e3b7	0.69097465
1	0x40248ed9	2.5712187
2	0xbedec9dc	-0.4351338
3	0x40342825	2.8149502
4	0x3f824b78	1.0179281
5	0x3fd6779d	1.6755253
6	0x3faf6bd9	1.3704787
7	0x408dedb7	4.435268
8	0x4025ea6a	2.5924325
9	0x40821147	4.064609
10	0x3fab05e4	1.3361173
11	0xc088a97f	-4.2706904
12	0xc0b54e2f	-5.665794
13	0xc0c78d20	-6.235977
14	0x3f80e3af	1.0069484
15	0xc007d906	-2.122621
16	0xc05b9bd0	-3.431385
17	0x40bd8f34	5.923731
18	0xbfff3d74	-1.9940629
19	0xc0c82fb5	-6.2558236
20	0x3f76b5c6	0.96371114
21	0x3fd07d70	1.628828
22	0x3fdd857a	1.7306359
23	0xc059b78d	-3.401828
24	0xc099590b	-4.7921195
25	0xc0c99412	-6.299325
26	0x3eafb5c9	0.3431838
27	0xc0d34293	-6.6018767
28	0x3fe1cd8a	1.764085
29	0xc051c368	-3.2775517
30	0xbf771d36	-0.9652895
31	0x3fb96c05	1.448609
32	0xc17316c6	-15.19306
33	0xc0d83b1a	-6.7572145
34	0xc0a2f6bc	-5.092619
35	0xc0b13bbe	-5.5385427
36	0xc12d5326	-10.8328
37	0xc0116de2	-2.2723317
38	0xbfa0364b	-1.2516569
39	0xc1a40daa	-20.506672
40	0xc10c800c	-8.781261
41	0x404e6349	3.22481
42	0x3fc0d306	1.5064399
43	0xc0225d95	-2.5369618
44	0xc1b42b77	-22.521223
45	0xc125de5b	-10.366786
46	0x404f1059	3.2353728
47	0x3f8a96fe	1.0827329
48	0x3f8d1627	1.1022385
49	0x3fb242c5	1.3926626
50	0xc00f10ca	-2.2353997
51	0x4090d33e	4.5257864
52	0xbea0e96c	-0.31428087
53	0xc08ae1e8	-4.3400764
54	0xc050ebd6	-3.2643943
55	0xc13e0238	-11.875542
56	0x40b88650	5.7663956
57	0xc0ac3fea	-5.382802
58	0x3ee05956	0.43818158
59	0x401f725c	2.491355
60	0xbfa7d1bc	-1.3110881
61	0xc031d448	-2.7785816
62	0x40404b80	3.0046082
63	0xc146f6fa	-12.435297
64	0x408fd2e4	4.4944935
65	0xc0541963	-3.3140495
66	0x3e59f78f	0.21285842
67	0xc0cdb45e	-6.4282675
68	0xc0ad6791	-5.4188924
69	0x407fb848	3.9956226
70	0x408a8324	4.3285084
71	0xc0d7b9a0	-6.7414093
72	0xc132dd22	-11.1789875
73	0xc0fd52e5	-7.916369
74	0x40566ae8	3.350275
75	0x3fcf6782	1.6203463
76	0xc0a1890f	-5.047981
77	0xc0ce2db7	-6.4430804
78	0xbfc2293b	-1.5168833
79	0xc12febb8	-10.9950485
80	0x40866213	4.199472
81	0xc0d69950	-6.706215
82	0x3e5dce0b	0.2166063
83	0xbfeafaf5	-1.8357836
84	0x40783c41	3.8786776
85	0xc0f081f3	-7.515863
86	0x4087fb0d	4.249396
87	0x3f481cf9	0.7816921
88	0xc05cd98d	-3.4507782
89	0x40c594ee	6.17443
90	0x3fa8ce43	1.3187946
91	0xc0810866	-4.032275
92	0x40e1b16d	7.0529084
93	0xbfd6631b	-1.6748995
94	0xc0eaaddf	-7.3337245
95	0xc138b0a7	-11.543128
96	0xbe74a9cb	-0.23892896
97	0xc14f8f63	-12.9725065
98	0xc0779c03	-3.8688972
99	0xc0acb773	-5.3973937
100	0x40821642	4.065217
101	0xc0e98138	-7.297024
102	0xc08215fa	-4.0651827
103	0x40aef57d	5.467467
104	0xc11ee0e7	-9.929908
105	0xc13eadb3	-11.917407
106	0x4084aaf6	4.1458693
107	0x40a14e12	5.04078
108	0x40a9037a	5.2816744
109	0xc009ac32	-2.151135
110	0xbff6a1a5	-1.926808
111	0x40985f54	4.7616367
112	0xbf303774	-0.68834615
113	0xbfb110a0	-1.3833199
114	0xc05b7db0	-3.4295464
115	0xc0a244ac	-5.070883
116	0xc1013b79	-8.07702
117	0x3f2d780b	0.67761296
118	0xc175e6ca	-15.368845
119	0xbfbb57b9	-1.4636146
120	0x3ea3c074	0.31982768
121	0xc14f2cb1	-12.948411
122	0xc0cee776	-6.4657545
123	0xbff64ea2	-1.9242747
124	0x3f55de0e	0.83541954
125	0x3edc2e96	0.43004292
126	0x4064426b	3.5665538
127	0x3f471aab	0.7777507
128	0x4063a86a	3.5571542
129	0xc0aec905	-5.4620385
130	0x40a93bb8	5.28854
131	0xc0b04a31	-5.5090566
132	0xc01491c1	-2.321396
133	0x40a4bcac	5.148031
134	0x4096e9ac	4.7160244
135	0x3fa99755	1.3249308
136	0xbe4411a0	-0.19147348
137	0x3fd9cd35	1.7015749
138	0xc159a187	-13.601935
139	0x3f0699e4	0.5257857
140	0x4080e77d	4.028258
141	0x3ff21ca1	1.8914987
142	0xc063432a	-3.5509744
143	0xc09cacb2	-4.896081
144	0x3f642cf5	0.891311
145	0xc0211676	-2.516996
146	0x4021bb98	2.5270748
147	0xc0693f33	-3.6444824
148	0xc116320f	-9.387221
149	0x3fd04944	1.6272359
150	0x3f00628b	0.50150365
151	0x3fe2979a	1.7702515
152	0xc14e7439	-12.903375
153	0x4048d290	3.1378517
154	0x40546c73	3.3191192
155	0x406c2480	3.6897278
156	0x408ef562	4.467454
157	0xc003bacc	-2.0582762
158	0xc05fff43	-3.499955
159	0x40a811c0	5.2521667
160	0x40820f81	4.0643926
161	0xc0d19993	-6.549997
162	0xc0addfc3	-5.4335647
163	0x40021046	2.0322433
164	0x403488f5	2.8208592
165	0x3f0f4f74	0.5598061
166	0xc0e556d9	-7.1668515
167	0x4062306d	3.5342057
168	0xc129e569	-10.618508
169	0x40474237	3.1134164
170	0xc093ac7d	-4.6148057
171	0x40b33c07	5.6010776
172	0xc17f94f9	-15.97387
173	0xc04b64a7	-3.1780183
174	0xc0cb7989	-6.358586
175	0xc1112f12	-9.073992
176	0xc0581565	-3.3763058
177	0xc0dd81e3	-6.9221053
178	0xc0a6acc2	-5.2085886
179	0x3ff83480	1.9391022
180	0xbf68bb4a	-0.9091078
181	0x4017b410	2.3703651
182	0xc0576c65	-3.3659909
183	0xc0083160	-2.1280136
184	0xc001200b	-2.0175807
185	0xc096f3f0	-4.7172775
186	0xc0ade29d	-5.4339128
187	0x3ff4e7b3	1.9133209
188	0x4066b6e2	3.6049123
189	0xc02434f6	-2.5657325
190	0x40759f2c	3.83784
191	0xc0cb2104	-6.34778
192	0xc001393e	-2.0191188
193	0x40c5e5d3	6.1843047
194	0xc1a52a81	-20.645754
195	0x4091746c	4.5454617
196	0x40c42d78	6.1305504
197	0xc1916ef2	-18.179173
198	0xc0eb808e	-7.3594427
199	0x3fec76ac	1.8473716
200	0x40dd0e7c	6.908018
201	0x40fcbb06	7.89783
202	0xc12050ec	-10.019756
203	0x40cd997f	6.4249873
204	0x40c1ff24	6.062395
205	0x40f43162	7.631028
206	0xc082530b	-4.072637
207	0xc05e6f06	-3.4755263
208	0xc0acd4fd	-5.4009995
209	0x4184e0c8	16.609756
210	0x40846698	4.1375237
211	0xc03fecde	-2.9988322
212	0xc1239111	-10.222917
213	0x411a273f	9.634582
214	0xbf8b0448	-1.0860682
215	0xc18e97d7	-17.82414
216	0x404f8b6d	3.2428849
217	0xc08007c0	-4.000946
218	0x3ffe8225	1.9883467
219	0xc0089618	-2.134161
220	0xc136296b	-11.385112
221	0x412c7d6c	10.780621
222	0x404ad3ff	3.1691892
223	0x3fc3ca00	1.529602
224	0x40c8fe28	6.281025
225	0xc032a6a2	-2.7914205
226	0xbffd6975	-1.9797808
227	0x4091bfb9	4.5546536
228	0xc0993e64	-4.788866
229	0xbe8c86c1	-0.2744656
230	0x418832fe	17.024899
231	0xbfe8db9b	-1.8192018
232	0x408edb06	4.4642363
233	0x4144818d	12.281629
234	0xc1162130	-9.383102
235	0xc0e6f77a	-7.2177095
236	0xbe25f13b	-0.16205303
237	0xbfda5b6e	-1.7059152
238	0x3e9a5d5d	0.30149356
239	0xc10173a5	-8.090734
240	0x40e7b601	7.2409673
241	0xc072a6d2	-3.791432
242	0x3f679c3e	0.9047278
243	0xbfe18616	-1.7619045
244	0x411bb0c7	9.730659
245	0x40bf6062	5.9805155
246	0xbf49f9ca	-0.7889677
247	0xc005e22b	-2.0919292
248	0x405dddb9	3.4666579
249	0x401ac90a	2.4185205
250	0xc05a7377	-3.4132974
251	0xc12f1c03	-10.944339
252	0xc0bd4036	-5.9140882
253	0x406d6e5d	3.709861
254	0xc11e72c9	-9.903024
255	0xc16932bb	-14.574885

bias f4 [10]
0	0x3f82431e	1.0176733
1	0x40526662	3.287499
2	0x4013c28b	2.308749
3	0xbef76381	-0.48318103
4	0xbf847bc5	-1.0350271
5	0xbfaed44b	-1.3658537
6	0xbd8dc7df	-0.06922888
7	0x3faba025	1.3408247
8	0x4025584d	2.5835145
9	0x401075cb	2.2571895
