models/stock_forecast1 (1).pth (torch, 69911 bytes, 6 tensors)

weight f4 [128, 60]
0.21204099 0.2785246 0.17251782 -0.31640175 -0.14053832 -0.069250464 -0.16703506 -0.124167696
-0.50878507 -0.4892246 -0.63111013 -0.23624521 -0.23961188 -0.36929715 -0.07030841 0.22672714
-0.13874167 -0.046964977 0.3113252 -0.010904842 -0.115418546 -0.3481147 -0.25606784 -0.41639596
-0.042829145 -0.13924158 -0.028428068 -0.24918084 -0.0588927 -0.21648481 0.022719461 0.21328251
0.6863645 -0.50622 1.1155375 -0.410276 1.456477 -2.9052022 -3.0191908 -0.66464347
0.8368807 1.3778555 0.41882208 2.6347163 -2.4053247 0.14088552 -2.1629508 0.579687
-5.384394 1.5793508 0.038576823 3.7720892 2.4504778 1.5540351 3.5062964 2.7448049
0.5963354 -0.98674953 4.5981736 1.5688268 0.20723571 0.35286438 0.25586087 0.4296616
0.29148313 0.40630397 0.16163127 0.13232672 0.46043137 0.08110443 0.1765846 0.13367315
-0.04396388 0.16468087 -0.22456235 0.13822153 0.34840453 -0.08899005 0.46683684 0.428931
0.12066452 -0.0013082502 -0.44106376 -0.30236593 0.16221106 0.10774893 0.34641695 0.0026205839
-0.06322654 0.0064082495 -1.5932317 -0.7137116 1.9368109 2.3873045 1.8356409 0.8316035
0.6278017 -1.0064967 -2.8064406 0.63429815 -0.87419343 -1.8487945 -2.4178436 -0.19593081
1.4796082 2.0428998 0.354141 0.31637135 1.0894129 0.75460947 -1.6755606 -2.92617
-1.2825553 0.18706091 -0.6054247 -2.3148525 0.5563421 -1.2747899 -1.9984324 -0.8381667
0.19179307 0.4578866 0.3107877 0.03343412 -0.015097695 0.18231463 -0.09784174 0.32735595
0.20475331 0.21443245 -0.2036121 0.46604475 -0.03663794 -0.2064057 -0.07581891 -0.28165668
-0.024290623 -0.3016008 -0.32452148 -0.028678166 0.3420438 0.05043733 0.11626702 -0.38248053
-0.67899 -0.685406 -1.0863247 -0.37465405 -0.61836416 -0.9639862 -0.22757567 4.3804917
-0.102585375 3.9345014 1.2194507 -2.1183507 2.0692856 -1.9946747 -2.5983675 -1.0176793
-2.6389093 1.313843 0.6526283 -2.5263832 -1.5224367 0.6246874 -2.4271677 1.8307041
0.36616567 0.040224932 2.6896346 2.4913945 1.1935201 -1.5806584 -1.631676 -2.1001196
-2.1417148 3.0060022 -1.1884116 1.1331152 -0.1727388 0.27040544 0.1251042 -0.12810476
0.33308023 0.28644305 0.41109112 0.058796227 0.6330833 0.53365576 0.12588955 0.025222773
0.17134762 0.23648988 -0.03514178 0.10099807 -0.09637537 -0.20047115 -0.14056635 0.3387077
-0.21474406 -0.4646368 -0.19758275 -0.66101664 -0.25591457 -0.12285819 0.033220693 0.20388463
-0.112415835 -0.17524348 5.452658 1.72058 -4.0513825 -3.3151972 -2.0041778 3.239452
1.4093252 -2.037539 1.9956355 0.5205898 -3.7468297 -1.3286221 -4.7590814 -1.4112989
-4.381285 -7.259358 -1.4991386 0.26687184 -2.6828892 -2.2990863 0.17998403 -1.885211
-0.92995507 -1.5272065 -1.5051539 -0.96656746 -2.7957084 3.6264448 -0.5586526 2.003783
-0.009540381 0.14352211 0.34005433 -0.017975764 0.33386886 0.25763735 -0.002009316 0.1360775
0.47085977 0.19213378 0.45243016 -0.16376467 0.30067676 -0.043570735 -0.00018574715 -0.0076556006
00000000: 4621 593e c79a 8e3e 83a8 303e 69ff a1be
00000010: 47e9 0fbe 30d3 8dbd 3d0b 2bbe a24b febd
00000020: bd3f 02bf a67b fabe 6f90 21bf 44ea 71be
00000030: d15c 75be 8414 bdbe dbfd 8fbd 292b 683e
00000040: 4c12 0ebe 595e 40bd 0466 9f3e 39aa 32bc
00000050: 8f60 ecbd 173c b2be 531b 83be da31 d5be
00000060: 9d6d 2fbd 5895 0ebe fbe1 e8bc 4329 7fbe
00000070: 7939 71bd 32ae 5dbe 2a1e ba3c bb66 5a3e
00000080: 95b5 2f3f a297 01bf efc9 8e3f b20f d2be
00000090: d76d ba3f d5ee 39c0 6c3a 41c0 1326 2abf
000000a0: d03d 563f 925d b03f d96f d63e 319f 2840
000000b0: d7f0 19c0 4b44 103e c96d 0ac0 5e66 143f
000000c0: f54c acc0 2b28 ca3f bb02 1e3d e969 7140
000000d0: a1d4 1c40 9fea c63f 2967 6040 e2aa 2f40
000000e0: 70a9 183f 9e9b 7cbf 3d24 9340 51cf c83f
000000f0: 9935 543e a4aa b43e 3200 833e 9bfc db3e
00000100: 473d 953e 1307 d03e ab82 253e a880 073e
00000110: a9bd eb3e 141a a63d 98d2 343e 9de1 083e
00000120: 7813 34bd 1aa2 283e acf3 65be f289 0d3e
00000130: 1462 b23e 6a40 b6bd 3d05 ef3e d89c db3e
00000140: f61e f73d 9879 abba 1cd3 e1be b5cf 9abe
00000150: a81a 263e 79ab dc3d 905d b13e 1abe 2b3b
00000160: eb7c 81bd 4bfc d13b 04ef cbbf ceb5 36bf
00000170: 6be9 f73f 99c9 1840 48f6 ea3f f8e3 543f
00000180: 9db7 203f e2d4 80bf b99c 33c0 5d61 223f
00000190: 24cb 5fbf 4ca5 ecbf f3bd 1ac0 16a2 48be
000001a0: cd63 bd3f dfbe 0240 f851 b53e 6dfb a13e
000001b0: e271 8b3f 162e 413f c578 d6bf 5f46 3bc0
000001c0: c62a a4bf e58c 3f3e 1dfd 1abf 8b26 14c0
000001d0: 706c 0e3f 512c a3bf a2cc ffbf 1892 56bf
000001e0: 6765 443e 1d70 ea3e 911f 9f3e 37f2 083d
000001f0: 535c 77bc b0b0 3a3e 4061 c8bd 339b a73e
00000200: daaa 513e 2e94 5b3e b17f 50be 6b9d ee3e
00000210: aa11 16bd 045c 53be f246 9bbd 4e35 90be
00000220: 21fd c6bc 6c6b 9abe ae27 a6be 79ee eabc
00000230: 5d20 af3e 6097 4e3d 671d ee3d 7dd4 c3be
00000240: 4ad2 2dbf c576 2fbf b00c 8bbf a8d2 bfbe
00000250: 1d4d 1ebf cdc7 76bf 9909 69be fd2c 8c40
00000260: 4818 d2bd dfce 7b40 f616 9c3f 0f93 07c0
00000270: 2d6f 0440 8051 ffbf a74b 26c0 5143 82bf
00000280: e4e3 28c0 022c a83f a612 273f 43b0 21c0
00000290: 35df c2bf 83eb 1f3f b756 1bc0 8354 ea3f
000002a0: 117a bb3e e6c2 243d f922 2c40 0273 1f40
000002b0: 44c5 983f 0453 cabf c2da d0bf 5c68 06c0
000002c0: db11 09c0 5762 4040 df1d 98bf eb09 913f
000002d0: 71e2 30be 9572 8a3e 511b 003e e52d 03be
000002e0: 7e89 aa3e aaa8 923e 897a d23e 50d4 703d
000002f0: bf11 223f aa9d 083f 31e9 003e fd9f ce3c
00000300: c075 2f3e 672a 723e d4f0 0fbd 13d8 ce3d
00000310: 7360 c5bd 4f48 4dbe a0f0 0fbe 186b ad3e
00000320: dee5 5bbe e0e4 edbe 2253 4abe 6338 29bf
00000330: 3c07 83be 139d fbbd 6c12 083d 22c7 503e
00000340: 463a e6bd 0773 33be 2d7c ae40 f73b dc3f
00000350: eda4 81c0 312c 54c0 7344 00c0 2e53 4f40
00000360: c564 b43f 0a67 02c0 fc70 ff3f 6045 053f
00000370: 0fcc 6fc0 4a10 aabf 654a 98c0 71a5 b4bf
00000380: 7d33 8cc0 a94c e8c0 c6e3 bfbf 6da3 883e
00000390: 75b4 2bc0 3b24 13c0 bc4d 383e 984e f1bf
000003a0: 8911 6ebf 817b c3bf e2a8 c0bf f770 77bf
000003b0: e3ec 32c0 ac17 6840 db03 0fbf fb3d 0040
000003c0: 424f 1cbc 76f7 123e 9a1b ae3e e941 93bc
000003d0: dcf0 aa3e 0be9 833e bbae 03bb e657 0b3e
000003e0: 8814 f13e b8be 443e eda4 e73e edb1 27be
000003f0: 4ef2 993e 3a77 32bd 1fc5 42b9 d5db fabb

bias f4 [128]
0.41274926 0.18662745 0.25112608 -0.19904071 -0.78589445 0.19849977 0.08484907 0.096594244
0.39779118 -0.61490834 -0.13609512 0.0064082327 -0.06316924 0.31983414 -0.3632415 -0.35918152
-0.25841278 -0.36307618 -0.56608087 -0.011188848 -0.19247344 -0.5109909 0.14908916 -0.14465329
-0.63235813 -0.47051504 0.21731393 0.17181215 0.021417724 -0.004661205 0.009250388 0.17167316
-0.13531588 -0.35248646 -0.32600573 -0.01184662 0.19257565 -0.7284187 -0.5365672 0.26776534
-0.7904591 0.22383392 0.5110363 0.33540693 0.012332941 0.30723292 -0.91669464 -0.22771224
0.048668116 0.16843413 -0.014140713 0.3151266 -0.21997103 -0.082777806 -0.28337678 -0.051835246
-0.5700336 -0.23116677 0.32117695 -0.4270686 0.27687448 -0.18325844 -0.09778335 0.03999462
0.5108646 -0.062138263 0.3850884 0.5300132 0.17617117 0.19638933 0.3276147 0.18742706
0.19561103 -0.3390566 -0.44832918 -0.20636776 0.0152834635 0.09072968 -0.0005962217 0.2112594
0.90278745 0.2749471 -0.21381843 -0.034688264 0.08335928 -0.027485128 -0.2373967 -0.44470763
0.12416804 -0.85563123 -0.4471103 -0.09244149 -0.11155133 0.703458 0.051746078 0.28625983
-0.34764978 0.5558839 -0.06886087 -0.19695255 -0.3169673 0.32549822 0.20912503 -0.06519895
-0.22493605 0.13907927 -0.36729586 -0.31531945 -0.48499596 -0.57924217 -0.20442675 -0.15219903
-0.29643038 0.22592723 0.15794012 -0.28238887 -0.7087811 -0.45765257 -0.74627894 0.062387373
0.38389736 0.32831395 -0.45466298 0.0144357765 -0.17936544 -0.46282607 -0.17839456 0.0954285
00000000: df53 d33e 441b 3f3e 9993 803e 54d1 4bbe
00000010: 6130 49bf 8643 4b3e 59c5 ad3d 34d3 c53d
00000020: 49ab cb3e a26a 1dbf 855c 0bbe 27fc d13b
00000030: e05e 81bd 4dc1 a33e cafa b9be a4e6 b7be
00000040: ae4e 84be 1fe5 b9be adea 10bf 6e51 37bc
00000050: c217 45be 4dd0 02bf d4aa 183e fe1f 14be
00000060: 39e2 21bf 59e7 f0be 8b87 5e3e 86ef 2f3e
00000070: 3974 af3c 06bd 98bb f08e 173c 17cb 2f3e
00000080: 3f90 0abe 1b79 b4be 39ea a6be 5318 42bc
00000090: 8d32 453e a679 3abf 785c 09bf 8a18 893e
000000a0: 875b 4abf b834 653e 46d3 023f 75ba ab3e
000000b0: 1b10 4a3c a24d 9d3e 80ac 6abf 662d 69be
000000c0: 3858 473d ff79 2c3e 73ae 67bc 4658 a13e
000000d0: 1640 61be 6987 a9bd c316 91be 3251 54bd
000000e0: b9ed 11bf fbb6 6cbe 4e71 a43e bca8 dabe
000000f0: 7ec2 8d3e 1aa8 3bbe a342 c8bd 66d1 233d
00000100: 06c8 023f b184 7ebd 4f2a c53e f2ae 073f
00000110: 3766 343e 491a 493e 1dbd a73e e1ec 3f3e
00000120: 424e 483e d498 adbe 678b e5be 1252 53be
00000130: 7e67 7a3c 7cd0 b93d c34b 1cba 6254 583e
00000140: 141d 673f dec5 8c3e 38f3 5abe 4815 0ebd
00000150: 45b8 aa3d 7e28 e1bc 1f18 73be b8b0 e3be
00000160: d04b fe3d a60a 5bbf a4eb e4be f751 bdbd
00000170: 0675 e4bd d315 343f b2f3 533d a690 923e
00000180: 27ff b1be 684e 0e3f ee06 8dbd eead 49be
00000190: 8a49 a2be b4a7 a63e df24 563e 0787 85bd
000001a0: a355 66be cc6a 0e3e 340e bcbe 8d71 a1be
000001b0: 6451 f8be 3749 14bf 3f55 51be 10da 1bbe
000001c0: b9c5 97be 7859 673e 0ebb 213e 4695 90be
000001d0: ae72 35bf 7051 eabe 230c 3fbf e789 7f3d
000001e0: 328e c43e c418 a83e 96c9 e8be 0984 6c3c
000001f0: 93ab 37be 8af7 ecbe 10ad 36be 0470 c33d

weight f4 [64, 128]
-1.302289 7.56977 -0.52545196 -3.2674558 1.7380464 0.6800231 1.0930102 -2.6158469
-0.15241493 -1.8694439 -1.38806 1.6700927 -4.427403 -1.1704745 1.8331321 5.9654827
1.7546302 2.3466074 -0.83165663 -2.4640036 -0.29337353 0.9976944 -1.2354329 1.7824605
5.11727 -0.6763626 0.43196487 -0.4326943 -0.8605494 -1.2720984 1.2807968 0.4076141
3.1525576 -0.66701216 3.7153707 1.0395452 -0.93485403 -1.5186028 -2.398016 -1.8220094
3.0332584 -1.0105591 -0.17021444 -0.14270483 -1.8831998 2.721041 1.2786512 4.437261
0.061286215 1.7533863 2.4700909 1.3103921 2.0206463 5.4471025 -0.061134093 -1.2453871
-3.9515674 3.104962 -1.6486335 -1.4214401 -0.22150421 1.5865663 -0.049310837 -1.1987709
-1.64446 -1.6909494 1.3158696 -1.9394429 0.27733898 1.074523 -1.9989676 -1.3135854
-0.75874037 -1.9241269 4.6519437 2.2690346 -0.27816376 -1.8433686 -2.4303935 -0.54007226
-0.21213101 -2.404324 -0.21529134 1.2677699 -0.5035082 -2.9700584 1.2882754 3.6217554
0.5072002 0.58517003 -1.6990591 0.5804797 0.22653447 -0.64380544 -2.063157 0.2621975
3.1134021 1.0146317 -0.40989166 0.8589087 0.8074041 -0.024042904 1.213524 0.9719217
1.0020411 0.35050535 1.1231257 1.1878414 1.2995462 1.1506573 2.3008244 -2.3927033
0.2724924 -1.8753161 -1.8565551 -0.61227685 1.4913392 1.202125 1.6713903 0.07282447
0.7100594 0.16935585 0.051607575 -1.5324506 2.9006689 4.018657 -1.8571726 1.0763522
-0.29167056 -1.0454279 0.41876402 2.6914573 4.3786736 -1.1284521 -2.0326862 1.1863782
0.16760233 -3.2126706 2.2561982 -0.4727513 3.3710074 -0.16456695 -4.5084124 -5.9931617
-9.529114 3.7972195 0.06446876 -2.9836936 0.19226913 3.127813 -0.011666749 0.49170586
5.1527457 0.64376867 0.85248464 0.79881066 3.0979288 -0.12485709 2.3827677 2.2026234
0.8301131 0.47090563 -12.857591 2.401767 2.177517 2.5022082 -3.2234712 -0.46703693
-0.5945612 -0.88485765 0.33501312 -0.6761231 -2.5340252 -0.49166837 0.1737798 -2.2998295
1.1221784 -1.4454266 -1.2433883 0.79485834 -1.6577345 -4.5411043 2.000868 -2.8348067
0.022608772 -4.2808895 0.8547278 -1.9176235 -0.7243005 -2.5119405 0.38753977 1.3066792
0.6532194 -1.6493385 -1.7634356 0.9751466 1.2748709 -8.934699 0.3232588 -0.117726296
1.2601993 2.0112112 -4.917533 -1.3945049 1.163105 0.35904798 -1.2374367 0.5600927
3.281875 2.2092419 -1.6688373 0.34344438 -0.21589087 -9.419527 -1.7807834 2.8925772
-0.17613596 -7.153899 2.3402185 -0.38849926 -6.0558944 0.67322785 -2.273612 0.86118186
5.0790787 -2.0210025 3.5287366 4.1853704 -0.021322632 1.8902506 -1.9853209 0.7485864
-2.200927 -1.4438218 -1.3728757 -4.4526625 0.42220694 -0.59476304 -6.633834 -0.29717368
-0.31313944 -0.035666812 2.2002375 0.77274233 -1.0077003 -0.54546607 -1.3894788 1.5737778
1.40288 -0.96152323 0.3121903 0.13117434 -3.2294836 -1.9020287 -1.6782918 -1.5890487
00000000: 68b1 a6bf 8e3b f240 0584 06bf ff1d 51c0
00000010: 4e78 de3f fe15 2e3f c2e7 8b3f 096a 27c0
00000020: a912 1cbe f049 efbf f3ab b1bf 99c5 d53f
00000030: 49ad 8dc0 1cd2 95bf 13a4 ea3f 3ce5 be40
00000040: b997 e03f d12e 1640 73e7 54bf 3cb2 1dc0
00000050: 0e35 96be e668 7f3f aa22 9ebf aa27 e43f
00000060: adc0 a340 1926 2dbf 802a dd3e 1b8a ddbe
00000070: f74c 5cbf 1fd4 a2bf 26f1 a33f ccb2 d03e
00000080: 81c3 4940 4fc1 2abf a2c8 6d40 d10f 853f
00000090: 9852 6fbf 9461 c2bf 1879 19c0 9b37 e9bf
000000a0: e820 4240 005a 81bf b24c 2ebe 3721 12be
000000b0: b10c f1bf 8925 2e40 d8aa a33f 0bfe 8d40
000000c0: 4107 7b3d f66e e03f f815 1e40 eeba a73f
000000d0: 4552 0140 aa4e ae40 be67 7abd d868 9fbf
000000e0: 7be6 7cc0 b3b7 4640 6c06 d3bf c0f1 b5bf
000000f0: 00d2 62be 9b14 cb3f 29fa 49bd 5371 99bf
00000100: aa7d d2bf 0871 d8bf 6a6e a83f aa3f f8bf
00000110: 60ff 8d3e f889 893f 2cde ffbf 9123 a8bf
00000120: cf3c 42bf ca49 f6bf b9dc 9440 dd37 1140
00000130: 7b6b 8ebe 81f3 ebbf 918b 1bc0 2d42 0abf
00000140: df38 59be 72e0 19c0 5575 5cbe 4946 a23f
00000150: eae5 00bf 7015 3ec0 35e6 a43f d7ca 6740
00000160: dfd7 013f b4cd 153f c57a d9bf 519a 143f
00000170: a7f8 673e 6fd0 24bf c40a 04c0 c03e 863e
00000180: fb41 4740 74df 813f 52dd d1be 71e1 5b3f
00000190: 09b2 4e3f a0f5 c4bc c154 9b3f dccf 783f
000001a0: e242 803f 7075 b33e 95c2 8f3f 300b 983f
000001b0: 8857 a63f bd48 933f b540 1340 0d22 19c0
000001c0: 2084 8b3e 5c0a f0bf 99a3 edbf 2dbe 1cbf
000001d0: 34e4 be3f 3bdf 993f 1ef0 d53f ff24 953d
000001e0: 74c6 353f 9f6b 2d3e 7762 533d 5727 c4bf
000001f0: 8fa4 3940 d798 8040 d5b7 edbf e9c5 893f
00000200: d855 95be 95d0 85bf 3d68 d63e d640 2c40
00000210: 181e 8c40 1e71 90bf 8817 02c0 3edb 973f
00000220: f29f 2b3e 659c 4dc0 8d65 1040 750c f2be
00000230: 96be 5740 3d84 28be ea44 90c0 fbc7 bfc0
00000240: 4077 18c1 a505 7340 3208 843d d6f4 3ec0
00000250: 33e2 443e 172e 4840 e425 3fbc dfc0 fb3e
00000260: 4be3 a440 06ce 243f 6f3c 5a3f db7e 4c3f
00000270: 7744 4640 13b5 ffbd 447f 1840 c8f7 0c40
00000280: 4b82 543f 8b1a f13e b1b8 4dc1 8db6 1940
00000290: 705c 0b40 2e24 2040 5a4d 4ec0 771f efbe
000002a0: 2a35 18bf 0886 62bf d786 ab3e 6716 2dbf
000002b0: 782d 22c0 f5bb fbbe 55f3 313e 6830 13c0
000002c0: 8ba3 8f3f bd03 b9bf 5927 9fbf d67b 4b3f
000002d0: a530 d4bf ba50 91c0 390e 0040 796d 35c0
000002e0: 0836 b93c 0cfd 88c0 71cf 5a3f b074 f5bf
000002f0: c26b 39bf a2c3 20c0 9d6b c63e 4441 a73f
00000300: 6339 273f 861d d3bf 42b8 e1bf 35a3 793f
00000310: f82e a33f 87f4 0ec1 2d82 a53e 7c1a f1bd
00000320: 364e a13f afb7 0040 6e5c 9dc0 237f b2bf
00000330: a0e0 943f 23d5 b73e 5364 9ebf 3c62 0f3f
00000340: 3d0a 5240 3864 0d40 769c d5bf f1d7 af3e
00000350: 7f12 5dbe 62b6 16c1 b6f0 e3bf fc1f 3940
00000360: fc5c 34be beec e4c0 24c6 1540 60e9 c6be
00000370: e3c9 c1c0 a958 2c3f dc82 11c0 6a76 5c3f
00000380: d087 a240 1b58 01c0 d2d6 6140 8eee 8540
00000390: cdac aebc bbf3 f13f ff1e febf 5ca3 3f3f
000003a0: fddb 0cc0 27cf b8bf 64ba afbf 367c 8ec0
000003b0: 822b d83e 6442 18bf 5e48 d4c0 2627 98be
000003c0: d053 a0be 5d17 12bd b1d0 0c40 71d2 453f
000003d0: 53fc 80bf aaa3 0bbf 71da b1bf 8d71 c93f
000003e0: 9291 b33f 6326 76bf 68d7 9f3e 9152 063e
000003f0: dcaf 4ec0 ad75 f3bf 44d2 d6bf f365 cbbf

bias f4 [64]
0.37193263 -0.38279018 -0.06621622 -1.0652372 -1.0065653 -0.5695038 -0.7405347 -0.65854657
-0.18914048 -0.587473 -0.26604268 -0.4277543 -0.4353747 -0.046418887 -0.16196342 -1.2671419
-0.18569511 0.13503613 -0.19004905 -0.3512483 -1.0021197 -0.69323486 -0.98895925 -0.38734594
-1.8741294 0.5810804 -0.43811765 0.13340363 0.58706427 -0.9969907 -0.57426286 -0.116557285
-0.35810483 -0.7925024 -1.3423376 -1.1911849 -0.7553128 -0.9997058 0.18233956 0.18775392
-1.3886985 -0.20052028 -0.31701186 1.0440385 -1.3571025 -0.36564246 -0.5422223 -0.50900066
-0.5753282 -0.63733983 -0.6640358 -0.81649464 -0.62741107 -0.2831032 -0.867497 -0.17013024
-0.5719551 -0.5526853 -0.30381447 -0.40659636 -0.52539665 -0.3412739 0.6939449 -0.61743206
00000000: f46d be3e 13fd c3be 5f9c 87bd b159 88bf
00000010: 22d7 80bf 00cb 11bf af93 3dbf 8296 28bf
00000020: 0bae 41be a164 16bf bf36 88be 9d02 dbbe
00000030: 6fe9 debe bb21 3ebd bdd9 25be b531 a2bf
00000040: dc26 3ebe e946 0a3e 389c 42be d1d6 b3be
00000050: 7545 80bf d777 31bf 6f2c 7dbf 3552 c6be
00000060: 79e3 efbf afc1 143f f550 e0be f69a 083e
00000070: d849 163f c83a 7fbf e402 13bf 96b5 eebd
00000080: 8459 b7be 70e1 4abf b8d1 abbf bf78 98bf
00000090: 2e5c 41bf b8ec 7fbf 39b7 3a3e 9042 403e
000000a0: dfc0 b1bf 3055 4dbe 614f a2be 0ea3 853f
000000b0: 89b5 adbf 7d35 bbbe 15cf 0abf de4d 02bf
000000c0: b548 13bf b428 23bf 40fe 29bf cb05 51bf
000000d0: 039e 20bf e7f2 90be 4914 5ebf 9f36 2ebe
000000e0: a66b 12bf c97c 0dbf 928d 9bbe 662d d0be
000000f0: 6580 06bf 74bb aebe 5fa6 313f 0710 1ebf

weight f4 [10, 64]
1.1392083 1.2485924 -0.58497775 2.818958 1.2229614 1.7510211 1.4364531 4.565035
2.6215882 4.1409235 1.4054326 -5.2124515 -6.7501187 -6.794132 1.1038047 -4.5025005
-3.4458516 6.4213634 -3.0903394 -6.2084007 0.7455239 1.7083746 1.934076 -3.4632752
-5.0947013 -6.0014086 0.7930497 -6.3442144 1.8350583 -4.518389 -0.50633484 1.5670112
-17.374409 -6.858544 -5.1449566 -5.8611317 -11.063905 -2.3854165 -0.5919162 -21.441582
-9.136765 1.8601856 1.8119702 -3.4173992 -23.325592 -10.319874 3.128839 1.2537235
1.8221744 2.203802 -3.5820293 4.7147527 -0.19812644 -4.113347 -1.3697817 -12.874573
6.224713 -5.2368474 -0.0002867222 2.3861692 -2.1274912 -2.2558227 3.2416883 -12.971994
4.7469544 -5.5091157 0.08228205 -6.105059 -6.41106 4.1238728 5.17721 -6.8308516
-12.044058 -8.716777 3.7686868 1.4733968 -6.1233535 -6.55201 -1.4246144 -12.627897
4.5377426 -8.022892 0.1456837 -2.5084481 4.447997 -8.561099 4.9031496 0.22174661
-3.861316 6.212938 1.5456918 -4.0457287 8.473021 -2.1867838 -8.076599 -12.139964
-0.32637882 -13.595812 -5.3809867 -5.793178 4.600108 -7.849131 -4.8508663 5.9522176
-9.66131 -13.572433 4.5804768 5.4203534 5.9788427 -3.098848 -2.5703108 5.4938664
-0.6764768 -1.2208943 -5.64627 -5.4304776 -7.879727 0.8279588 -18.200144 -3.114841
0.26397693 -14.497193 -7.452077 -2.5618517 0.71190584 0.06163699 4.1636763 0.2544144
3.7963884 -7.9750943 5.4049935 -5.77306 -2.294029 5.4610176 5.255818 1.4283123
-0.581883 2.1698165 -14.079834 0.6423237 3.9481046 1.6641731 -3.9921682 -5.3295856
1.0965708 -2.7113445 2.8431125 -4.153414 -9.881181 1.7448993 0.6502713 1.7521728
-13.666835 3.5160737 3.8983989 3.9305942 4.2420263 -2.202146 -4.103545 5.8223658
4.4171104 -6.852124 -6.143077 1.7086688 3.0084708 0.7422548 -8.3771925 3.815986
-11.093748 2.9403577 -4.900143 5.842874 -17.034843 -4.141891 -7.0413013 -9.985947
-3.694722 -6.8048205 -6.5082436 2.004846 -1.1212852 2.612383 -3.9216774 -2.3748384
-2.377987 -5.74929 -6.176808 2.0536342 3.869532 -2.7823677 4.2666135 -6.0968
-2.373319 6.2319803 -20.99419 4.6655173 6.4217715 -19.249884 -8.07564 2.0105312
7.5648723 8.608651 -9.8715105 6.6292205 6.632748 7.8499155 -4.01012 -4.1946564
-5.68028 17.665424 4.305795 -3.6800566 -10.743066 10.301882 -0.6663617 -18.283838
3.8447638 -4.1002707 1.9919709 -2.1181016 -10.971875 11.061458 3.0705502 1.1572205
6.090055 -3.152916 -2.0972881 4.6383567 -5.036434 -0.18258296 17.873856 -1.6898104
4.7401633 12.71872 -9.391142 -7.4955025 0.3863196 -2.063528 -0.5788053 -8.78726
7.7308254 -4.053236 0.7234795 -2.3506155 10.368946 6.130835 -1.2006749 -2.7562878
3.978293 2.2783418 -3.6098907 -11.169752 -6.3107586 3.5813377 -10.347743 -14.7195215
00000000: 94d1 913f e0d1 9f3f 1ac1 15bf cf69 3440
00000010: 008a 9c3f 7621 e03f b2dd b73f c414 9240
00000020: 1ac8 2740 7282 8440 37e5 b33f 67cc a6c0
00000030: f900 d8c0 8869 d9c0 7949 8d3f 7c14 90c0
00000040: d588 5cc0 cf7b cd40 1fc8 45c0 38ab c6c0
00000050: a8da 3e3f 05ac da3f cd8f f73f 4da6 5dc0
00000060: cb07 a3c0 8a0b c0c0 4e05 4b3f ce03 cbc0
00000070: 31e3 ea3f a596 90c0 299f 01bf d393 c83f
00000080: cafe 8ac1 3179 dbc0 7ca3 a4c0 648e bbc0
00000090: c105 31c1 aaaa 18c0 d287 17bf 5c88 abc1
000000a0: 3030 12c1 901a ee3f a4ee e73f abb6 5ac0
000000b0: d09a bac1 341e 25c1 e63e 4840 037a a03f
000000c0: 033d e93f 180b 0d40 f83f 65c0 41df 9640
000000d0: a8e1 4abe 8aa0 83c0 0255 afbf 40fe 4dc1
000000e0: d930 c740 4194 a7c0 3453 96b9 ffb6 1840
000000f0: d128 08c0 665f 10c0 d277 4f40 4a8d 4fc1
00000100: 0de7 9740 ad4a b0c0 7e83 a83d a55c c3c0
00000110: 6727 cdc0 c4f6 8340 b4ab a540 5696 dac0
00000120: 76b4 40c1 eb77 0bc1 2a32 7140 4498 bc3f
00000130: 83f2 c3c0 11aa d1c0 c459 b6bf de0b 4ac1
00000140: 3035 9140 c45d 00c1 1c2e 153e 6a8a 20c0
00000150: fe55 8e40 43fa 08c1 9ae6 9c40 8b11 633e
00000160: cd1f 77c0 63d0 c640 3bd9 c53f 9c76 81c0
00000170: 7e91 0741 44f4 0bc0 c039 01c1 4b3d 42c1
00000180: 201b a7be 7288 59c1 0b31 acc0 b761 b9c0
00000190: 1634 9340 152c fbc0 4c3a 9bc0 9178 be40
000001a0: ba94 1ac1 b028 59c1 4493 9240 8973 ad40
000001b0: ae52 bf40 8753 46c0 f97f 24c0 c1cd af40
000001c0: 952d 2dbf 4446 9cbf 3eae b4c0 79c6 adc0
000001d0: b926 fcc0 1cf5 533f e599 91c1 8e59 47c0
000001e0: fc27 873e 81f4 67c1 6a77 eec0 61f5 23c0
000001f0: 763f 363f 1277 7c3d d63c 8540 9b42 823e
00000200: 07f8 7240 f933 ffc0 b5f5 ac40 e8bc b8c0
00000210: 5fd1 12c0 a8c0 ae40 a92f a840 f0d2 b63f
00000220: 49f6 14bf 46de 0a40 0047 61c1 536f 243f
00000230: bfad 7c40 a003 d53f af7f 7fc0 f78b aac0
00000240: 6f5c 8c3f ab86 2dc0 8ef5 3540 c4e8 84c0
00000250: 5119 1ec1 dc58 df3f 2e78 263f 3347 e03f
00000260: 5bab 5ac1 5a07 6140 5e7f 7940 db8e 7b40
00000270: aebe 8740 f6ef 0cc0 3e50 83c0 d250 ba40
00000280: f858 8d40 9a44 dbc0 1694 c4c0 a9b5 da3f
00000290: c98a 4040 6904 3e3f fb08 06c1 1d39 7440
000002a0: fe7f 31c1 d22e 3c40 f9cd 9cc0 d3f8 ba40
000002b0: 5c47 88c1 5f8a 84c0 5752 e1c0 70c6 1fc1
000002c0: 5376 6cc0 17c1 d9c0 8843 d0c0 664f 0040
000002d0: 4686 8fbf 4831 2740 c3fc 7ac0 5afd 17c0
000002e0: f030 18c0 2ffa b7c0 69a8 c5c0 be6e 0340
000002f0: 6aa6 7740 5012 32c0 1988 8840 fc18 c3c0
00000300: 75e4 17c0 626c c740 1af4 a7c1 eb4b 9540
00000310: 277f cd40 c3ff 99c1 d235 01c1 8bac 0040
00000320: 6f13 f240 09bd 0941 b5f1 1dc1 9322 d440
00000330: 793f d440 8232 fb40 e752 80c0 a03a 86c0
00000340: dbc4 b5c0 ca52 8d41 13c9 8940 0c86 6bc0
00000350: 99e3 2bc1 82d4 2441 ae96 2abf 4d45 92c1
00000360: 9c10 7640 6b35 83c0 e7f8 fe3f fa8e 07c0
00000370: cd8c 2fc1 bbfb 3041 e583 4440 cd1f 943f
00000380: bbe1 c240 60c9 49c0 f839 06c0 6b6d 9440
00000390: 782a a1c0 07f7 3abe a8fd 8e41 b54b d8bf
000003a0: 6baf 9740 e17f 4b41 1e42 16c1 28db efc0
000003b0: afcb c53e d810 04c0 962c 14bf 9e98 0cc1
000003c0: ec62 f740 1cb4 81c0 f435 393f 7c70 16c0
000003d0: 34e7 2541 cd2f c440 b7af 99bf 0567 30c0
000003e0: 5a9c 7e40 5ad0 1140 7308 67c0 4eb7 32c1
000003f0: bcf1 c9c0 a334 6540 5b90 25c1 2983 6bc1

bias f4 [10]
1.0818124 3.850797 2.743355 -0.27366078 -1.2666951 -1.4322234 0.026514154 1.9010739
3.0524406 2.513844
00000000: d478 8a3f 7573 7640 2193 2f40 441d 8cbe
00000010: 1123 a2bf 1953 b7bf 3634 d93c 6456 f33f
00000020: 305b 4340 d2e2 2040
