models/stock_forecast1 (0310_1932).pth (torch, 69911 bytes, 6 tensors)

weight f4 [128, 60]
-0.1472435 -0.103206575 -0.051768545 -0.3040021 -0.004695135 -0.042362504 -0.008934663 -0.070469886
0.057180475 -0.01487948 0.03704253 0.45321977 0.29075274 -0.21716933 0.13608113 -0.04837381
-0.13675211 -0.17886572 -0.06607592 -0.2509943 -0.0044016074 -0.16229175 -0.10190423 -0.2771348
-0.7476274 -0.12513839 -0.1306147 -0.050057106 0.011476226 -0.55757123 -1.8469999 -1.7192118
2.7311091 -0.43337038 0.69176906 -0.46762976 -2.1113596 -0.031175163 -1.0285078 -4.962068
-1.5848191 -0.8337147 -0.5279394 -2.095862 0.74670476 1.7413071 1.3036638 2.0011415
-1.1218487 -1.4212294 -3.478117 -2.9324398 2.913165 -1.125189 0.82410175 -2.6401603
-0.49819103 -0.92112803 1.5164887 0.32972816 0.2183051 0.19076441 0.2594147 0.2229689
0.50038207 0.29677984 0.22723535 0.4150706 0.19943704 0.22175318 -0.28425282 -0.16218728
0.11481607 0.059764806 0.081612065 0.21074317 -0.25367358 0.15876253 0.4462716 -0.15819879
-0.109945096 -0.09757721 -0.3591645 0.008703062 0.29012886 0.15860547 0.3425688 0.13801481
-0.2638989 -0.016007889 -0.7145185 -0.32704386 0.604813 1.3735918 -1.3620384 -0.5906385
-1.7628884 0.35239545 0.87371045 -2.2157578 2.1643262 0.53496176 -0.44018704 2.1304872
0.45903656 -2.1596332 0.015464413 0.48892513 1.6116769 -1.372324 -2.1626174 1.0718981
-0.54768753 0.21645163 1.8091747 1.8075633 1.5718127 0.39709893 -1.0078484 1.7190503
-0.41681993 -0.07888117 -0.086678416 -0.056496084 0.00950806 0.116466686 -0.14286347 0.07324881
0.0010676258 -0.09257979 0.004911347 0.042800874 0.30682576 0.23632264 0.21066411 0.18636543
0.2109047 -0.04190126 0.16462976 0.2790774 0.23052458 0.2736898 0.22504434 0.40254402
0.2768206 0.18741496 0.43930042 0.11902584 -0.14833796 -0.048230253 -0.71713805 -3.8960168
1.098875 0.34314665 -1.8264087 -1.623893 -1.2250986 0.62852347 1.627329 -0.32251695
-1.2938575 0.5708568 -0.47699493 0.5152371 2.0180428 -0.4615031 1.1863625 1.3835721
0.5256836 -1.0612271 2.564547 2.247771 -1.5697038 1.0840446 -0.31702107 -3.009421
1.7062335 -2.1200814 1.2727735 0.092729256 0.17987001 0.23391002 -0.048292395 -0.14985488
0.13454705 -0.018264268 -0.19128199 -0.09647879 -0.1005052 0.17599376 -0.29338112 -0.23376048
-0.33153126 -0.15482649 -0.09532579 -0.22812718 -0.08472156 -0.298028 -0.65425164 0.036229193
0.047407623 -0.089164026 0.020198274 -0.093917005 0.29427412 -0.13632005 -0.23175073 -0.3237031
-0.37232825 -0.1548499 -1.2353929 -0.12510794 3.3807113 1.3694189 -1.1004367 -1.3465056
1.5147799 0.77790475 -1.5189098 1.4415884 1.5080621 2.2769995 0.61560327 1.5345453
-0.53287596 -0.6580209 -2.4666328 0.42431536 -5.167152 2.1435184 -0.30366984 3.0262744
1.5504642 1.0370871 0.12287728 -1.486983 0.44357336 -2.5734656 -1.3361365 1.4220636
0.33591574 0.09680656 -0.009674505 0.10916617 -0.08160173 -0.12292438 0.82615626 0.22340733
0.13566765 0.46743706 0.21516173 0.1269121 0.12591618 -0.24272972 -0.33538732 -0.36886293
00000000: 00c7 16be f85d d3bd 410b 54bd 2aa6 9bbe
00000010: a6d9 99bb 4e84 2dbd b162 12bc 8452 90bd
00000020: 1336 6a3d 10c9 73bc e8b9 173d 6c0c e83e
00000030: 8bdd 943e a361 5ebe da58 0b3e 9e23 46bd
00000040: bf08 0cbe 9328 37be d052 87bd 5382 80be
00000050: 5c3b 90bb cf2f 26be 2ab3 d0bd 9de4 8dbe
00000060: 8264 3fbf 4724 00be dcbf 05be ae08 4dbd
00000070: c806 3c3c fdbc 0ebf 7e6a ecbf 220f dcbf
00000080: 7eca 2e40 b9e2 ddbe c717 313f 2b6d efbe
00000090: 8420 07c0 0e63 ffbc 25a6 83bf 43c9 9ec0
000000a0: 5adb cabf 546e 55bf 0927 07bf 9a22 06c0
000000b0: 0b28 3f3f 27e3 de3f 75de a63f b412 0040
000000c0: bd98 8fbf d8ea b5bf 7899 5ec0 18ad 3bc0
000000d0: 4c71 3a40 3106 90bf 55f8 523f 63f8 28c0
000000e0: e512 ffbe 0ccf 6bbf 4d1c c23f 21d2 a83e
000000f0: 5f8b 5f3e bf57 433e 01d2 843e f651 643e
00000100: 0a19 003f 87f3 973e 62b0 683e 2284 d43e
00000110: 3939 4c3e 4413 633e 9689 91be 6c14 26be
00000120: b024 eb3d f1cb 743d 3a24 a73d 0fcd 573e
00000130: 81e1 81be a592 223e b67d e43e ddfe 21be
00000140: e52a e1bd 8fd6 c7bd 69e4 b7be 4a97 0e3c
00000150: c58b 943e 7969 223e 2e65 af3e c153 0d3e
00000160: c21d 87be fa22 83bc afea 36bf 4b72 a7be
00000170: 06d5 1a3f dbd1 af3f 4657 aebf 1634 17bf
00000180: 54a6 e1bf 2d6d b43e 7dab 5f3f face 0dc0
00000190: 5284 0a40 41f3 083f 3260 e1be e759 0840
000001a0: d706 eb3e 6e37 0ac0 735e 7d3c 6554 fa3e
000001b0: 6e4b ce3f 50a8 afbf 5368 0ac0 f533 893f
000001c0: 4035 0cbf 7fa5 5d3e 0993 e73f 3c5e e73f
000001d0: 2931 c93f 8d50 cb3e 2d01 81bf d709 dc3f
000001e0: 6c69 d5be 738c a1bd 7484 b1bd 7068 67bd
000001f0: b2c7 1b3c 1686 ee3d cd4a 12be 7903 963d
00000200: 94ef 8b3a 799a bdbd 5def a03b f84f 2f3d
00000210: 4418 9d3e 90fe 713e 55b8 573e 94d6 3e3e
00000220: 67f7 573e a8a0 2bbd b494 283e 3ce3 8e3e
00000230: a30e 6c3e 1221 8c3e 0672 663e 401a ce3e
00000240: 6ebb 8d3e b5e9 3f3e fceb e03e d2c3 f33d
00000250: e8e5 17be 168d 45bd 5c96 37bf 5758 79c0
00000260: f0a7 8c3f ebb0 af3e c3c7 e9bf badb cfbf
00000270: 08d0 9cbf eae6 203f 514c d03f f120 a5be
00000280: 1f9d a5bf ac23 123f ae38 f4be 94e6 033f
00000290: 9d27 0140 224a ecbe bada 973f e418 b13f
000002a0: 3393 063f 4ad6 87bf 8a21 2440 7bdb 0f40
000002b0: 0eec c8bf f9c1 8a3f 9650 a2be 5b9a 40c0
000002c0: dc65 da3f 6aaf 07c0 3eea a23f d6e8 bd3d
000002d0: d82f 383e 1c86 6f3e 3fce 45bd 8f73 19be
000002e0: b4c6 093e f29e 95bc 6ddf 43be ac96 c5bd
000002f0: acd5 cdbd b537 343e 0d36 96be e85e 6fbe
00000300: 77be a9be d68a 1ebe 2b3a c3bd 2c9a 69be
00000310: 7f82 adbd 2097 98be 097d 27bf 1065 143d
00000320: 7f2e 423d a19b b6bd da76 a53c 8f57 c0bd
00000330: 19ab 963e 7c97 0bbe 1050 6dbe 6abc a5be
00000340: cfa1 bebe f990 1ebe 5b21 9ebf 4c1c 00be
00000350: 935d 5840 1e49 af3f 1cdb 8cbf 4c5a acbf
00000360: 4fe4 c13f c424 473f a36b c2bf f885 b83f
00000370: 2e08 c13f 5cba 1140 2d98 1d3f fb6b c43f
00000380: 8f6a 08bf 0f74 28bf 50dd 1dc0 dd3f d93e
00000390: 4f59 a5c0 682f 0940 9d7a 9bbe 7bae 4140
000003a0: 9c75 c63f 45bf 843f 15a7 fb3d 7555 bebf
000003b0: 0c1c e33e a9b3 24c0 8506 abbf 2e06 b63f
000003c0: 26fd ab3e 8542 c63d d181 1ebc 8392 df3d
000003d0: cf1e a7bd c7bf fbbd fa7e 533f e4c4 643e
000003e0: 76ec 0a3e e953 ef3e 5b53 5c3e 3ff5 013e
000003f0: 2cf0 003e 248e 78be e3b7 abbe 9adb bcbe

bias f4 [128]
0.05114577 0.2456054 -0.5007714 0.10742821 0.31687498 -4.611619e-05 -0.0614611 -0.4780696
-0.11221926 0.17666821 -0.501285 0.07820654 -0.25571683 -0.37603825 0.18188171 -0.43696308
0.19531377 0.07624722 -0.101668134 -0.049910586 0.19293801 0.27624562 -0.3143335 0.13203523
0.08923661 0.088382035 0.2560825 -0.36093298 0.06792657 0.25542215 -0.44609967 0.24412255
-0.14357539 -0.028546741 0.29909998 0.12917884 -0.12866841 -0.023678858 0.2881571 -0.15045756
-0.069942355 -0.18604991 -0.11055722 -0.29988337 -0.38140595 -0.31878024 -0.018985966 -0.28071406
-0.13055125 -0.07682005 0.05700202 -0.03510357 -0.093216844 -0.054240435 -0.0801631 0.13432784
-0.1398366 -0.1298479 0.011164221 -0.36939418 -0.17136276 -0.0465635 0.076747596 -0.07356749
0.24180034 -0.30692035 0.0054587494 0.047931142 0.41209444 0.19422281 0.054421525 -0.2709709
-0.27347934 0.04422363 -0.44778022 -0.28507587 0.22571388 0.2311961 0.09740029 -0.12653662
0.07198081 0.3720484 0.24880198 -0.095789246 0.3787996 -0.30355078 -0.36428404 0.5378052
-0.07972692 -0.08747833 -0.4669425 0.1991676 0.09273399 -0.4003503 0.1348404 0.2279786
-0.14245269 -0.14776762 -0.19645333 0.5142562 0.00073253654 0.1424553 0.15138054 0.30285752
-0.07859575 0.20322827 -0.4742306 -0.12865143 0.13556369 0.0818806 -0.039655752 0.48182744
-0.29678407 -0.098009855 -0.45636007 0.31358546 0.19432509 0.07245857 0.079006225 0.09980864
0.25361812 0.106692 0.028662914 0.5284557 -0.1518179 -0.30361474 -0.11935221 -0.10723424
00000000: 3a7e 513d fb7f 7b3e 8e32 00bf 5203 dc3d
00000010: 703d a23e e26c 41b8 a2be 7bbd 8ac5 f4be
00000020: 36d3 e5bd 83e8 343e 3754 00bf c02a a03d
00000030: 51ed 82be 1688 c0be 333f 3a3e a0b9 dfbe
00000040: 5500 483e 8127 9c3d 6237 d0bd 0b6f 4cbd
00000050: 8b91 453e 1170 8d3e 52f0 a0be 3e34 073e
00000060: afc1 b63d a401 b53d 3f1d 833e 35cc b8be
00000070: 161d 8b3d b1c6 823e 2d67 e4be 43fb 793e
00000080: 6d05 13be dbda e9bc a223 993e 7547 043e
00000090: a7c1 03be 2afa c1bc 5489 933e 8c11 1abe
000000a0: f03d 8fbd de83 3ebe d36b e2bd 508a 99be
000000b0: a447 c3be 2a37 a3be 7588 9bbc c1b9 8fbe
000000c0: 3aaf 05be d553 9dbd f37a 693d c3c8 0fbd
000000d0: 79e8 bebd 382b 5ebd 8d2c a4bd 3d8d 093e
000000e0: 5331 0fbe d9f6 04be 23ea 363c 3c21 bdbe
000000f0: b879 2fbe 5eb9 3ebd d82d 9d3d 8daa 96bd
00000100: 829a 773e aa24 9dbe 4fdf b23b 7253 443d
00000110: 0bfe d23e 58e2 463e 1be9 5e3d b3bc 8abe
00000120: 7c05 8cbe d623 353d 7343 e5be 77f5 91be
00000130: 8a21 673e acbe 6c3e ce79 c73d d192 01be
00000140: ad6a 933d 217d be3e f2c5 7e3e 272d c4bd
00000150: 05f2 c13e 026b 9bbe 7083 babe 9aad 093f
00000160: de47 a3bd d727 b3bd 1613 efbe 97f2 4b3e
00000170: 51eb bd3d b7fa ccbe 9a13 0a3e 3973 693e
00000180: 1edf 11be 6550 17be 102b 49be 4ba6 033f
00000190: b207 403a cddf 113e 8003 1b3e 2410 9b3e
000001a0: cff6 a0bd 121b 503e 5ace f2be 33bd 03be
000001b0: 35d1 0a3e 04b1 a73d 126e 22bd 16b2 f63e
000001c0: 15f4 97be 64b9 c8bd 07a8 e9be 468e a03e
000001d0: 28fd 463e 2965 943d 04ce a13d 7968 cc3d
000001e0: 3cda 813e 5681 da3d 7dce ea3c df48 073f
000001f0: 2776 1bbe 6473 9bbe ee6e f4bd a09d dbbd

weight f4 [64, 128]
-0.43744156 3.1862307 -2.4239037 -0.5159296 -2.061388 7.4264545 -2.3078682 1.0735346
0.97246236 0.45642087 3.0289285 0.34973723 -2.1556153 -1.8055005 -0.20055652 2.3532393
-0.65594214 -0.72061014 -1.176129 -0.8153469 0.6674672 1.1633418 -0.20488302 0.5375479
1.9897105 0.8775783 0.1893576 -0.9232074 2.172828 -0.6389554 -2.5790856 -0.673976
3.8171303 -2.6946523 -0.9203344 -1.6994772 2.1962128 -0.69245815 -1.0723957 -3.5157847
2.9628584 -5.879784 3.5062726 4.05004 2.0484092 1.8248594 1.0449221 1.2337884
5.459339 -0.7489701 -0.30174243 7.9108357 -1.8125838 1.1215646 3.7334201 0.7232874
-0.7408335 -4.4189167 -1.0692415 0.8993708 1.5163206 1.169825 -0.8682434 1.1407125
0.7318229 -2.1038778 0.6245102 1.2296089 -0.67022216 1.2338678 -2.574521 -3.9455914
-0.028671183 0.9450287 -1.3167099 0.9261061 -2.4418547 -0.61154866 1.3760937 -0.26819015
-0.6254805 -0.5727924 -3.2121856 -0.0074688974 -0.72478324 -1.4577183 3.8863459 0.66328436
0.85912937 -0.085502855 -0.6126697 -0.6922525 0.11457742 -2.2386253 0.73188347 0.8985346
-0.6522696 1.0284886 1.6426251 0.51034594 3.903126 -0.1067889 -1.43508 -0.85062593
-0.37344977 -3.10783 0.78960454 -0.27118045 0.6364553 1.1266445 -1.1137916 -0.34792566
4.4237905 0.53410184 -4.4007525 -0.97703856 0.3510361 -0.5618423 -1.3276079 4.824977
0.60298496 -4.8954706 1.7359887 0.18760249 -2.4129148 0.07596095 -0.7639182 -0.5044548
-0.16516091 1.7477281 0.4885208 -0.32643023 -0.84393287 -0.5099022 -1.2439519 0.43272045
0.7490989 1.3228377 -0.2747492 0.715002 -2.3034787 -5.8007383 -0.87471676 0.13980106
-0.29739767 2.132055 0.6789701 1.8817782 1.293369 -0.2573005 -2.0232244 1.072827
2.9966266 -4.619289 -2.2786224 -0.6200483 3.6443677 -0.2792799 -3.8674068 -0.82642496
2.9588802 -0.40736398 0.91303545 -1.7129908 -0.3547785 -0.5127325 -0.8002587 -1.4577239
2.105855 -2.1296086 2.5227673 5.6967554 3.9435976 2.4340198 3.3082936 1.5922647
2.7350905 -0.55063915 -4.93126 6.9781857 2.8012474 3.3418307 -0.9088747 0.58451194
-1.0307871 -1.4478683 -0.83812356 2.2154918 -0.38822907 0.7330641 -0.12638135 -1.0010037
0.7681208 -1.6348528 -0.6081431 1.1165726 -0.9783782 0.5695683 -3.2845979 -4.658378
-0.8992421 0.27785268 -0.91505134 -2.2817342 2.6031482 -0.42739952 1.1151112 -0.36119118
-0.43862322 -0.021285128 -3.1043496 0.66069925 -0.61531085 -4.0233417 1.7334001 1.2018967
-0.6934949 -1.748198 -0.49866986 -0.9059356 -3.3226557 -6.7785926 1.1694883 -0.43142167
-3.808035 1.373672 2.2680058 1.1168096 2.0355837 -1.0788367 5.133368 -0.38437232
1.0972366 0.1760952 -2.7712674 3.643061 0.7620466 0.6634881 -2.2824051 -0.869636
3.712758 1.2006937 -0.984003 0.38589928 1.0152781 -0.9103162 -2.2973278 3.417842
0.9084288 -3.1785858 1.6648284 -0.34329805 -3.8140752 3.0868154 -2.1748917 -1.0841819
00000000: 57f8 dfbe 34eb 4b40 3d21 1bc0 f613 04bf
00000010: c8ed 03c0 84a5 ed40 1db4 13c0 9569 893f
00000020: 4bf3 783f ffaf e93e f7d9 4140 c210 b33e
00000030: 9af5 09c0 a41a e7bf b05e 4dbe 799b 1640
00000040: d3eb 27bf e879 38bf 658b 96bf 93ba 50bf
00000050: 21df 2a3f 62e8 943f dbcc 51be bd9c 093f
00000060: d5ae fe3f f9a8 603f f5e6 413e 5257 6cbf
00000070: 9d0f 0b40 9592 23bf bd0f 25c0 b189 2cbf
00000080: dd4b 7440 2f75 2cc0 099b 6bbf 7888 d9bf
00000090: c08e 0c40 f044 31bf 4344 89bf 9e02 61c0
000000a0: 799f 3d40 3127 bcc0 c566 6040 ed99 8140
000000b0: 2319 0340 fe94 e93f 02c0 853f c7ec 9d3f
000000c0: e8b2 ae40 81bc 3fbf fc7d 9abe 9125 fd40
000000d0: bf02 e8bf 6e8f 8f3f 5bf0 6e40 5d29 393f
000000e0: 44a7 3dbf c467 8dc0 e8dc 88bf 2a3d 663f
000000f0: cb16 c23f d3bc 953f 3345 5ebf de02 923f
00000100: bf58 3b3f efa5 06c0 e7df 1f3f d363 9d3f
00000110: ae93 2bbf 61ef 9d3f f4c4 24c0 9284 7cc0
00000120: d4df eabc 67ed 713f f389 a8bf 4a15 6d3f
00000130: 5947 1cc0 748e 1cbf d723 b03f 3850 89be
00000140: 7d1f 20bf 86a2 12bf 7394 4dc0 a7bd f4bb
00000150: 658b 39bf 8396 babf e4b9 7840 01cd 293f
00000160: e7ef 5b3f 1f1c afbd ecd7 1cbf 7637 31bf
00000170: 91a7 ea3d a345 0fc0 b75c 3b3f 5d06 663f
00000180: 24fb 26bf 84a5 833f 8a41 d23f 08a6 023f
00000190: d1cc 7940 24b4 dabd b4b0 b7bf 9fc2 59bf
000001a0: cf34 bfbe b0e6 46c0 8623 4a3f 2ad8 8abe
000001b0: bcee 223f e335 903f b990 8ebf 5023 b2be
000001c0: b18f 8d40 e6ba 083f f7d2 8cc0 331f 7abf
000001d0: 01bb b33e e6d4 0fbf 0eef a9bf 3666 9a40
000001e0: 395d 1a3f b2a7 9cc0 e134 de3f de1a 403e
000001f0: 326d 1ac0 6a91 9b3d 2590 43bf f323 01bf
00000200: f11f 29be 8eb5 df3f 661f fa3e dd21 a7be
00000210: fc0b 58bf f388 02bf d139 9fbf 898d dd3e
00000220: f2c4 3f3f bf52 a93f edab 8cbe 5f0a 373f
00000230: 326c 13c0 a69f b9c0 70ed 5fbf 0228 0f3e
00000240: 8244 98be 9773 0840 fcd0 2d3f 1cde f03f
00000250: 1e8d a53f e4bc 83be 827c 01c0 6552 893f
00000260: bbc8 3f40 37d1 93c0 f3d4 11c0 7cbb 1ebf
00000270: 523d 6940 c6fd 8ebe 9883 77c0 9690 53bf
00000280: 4b5e 3d40 0392 d0be b1bc 693f 4843 dbbf
00000290: 87a5 b5be 7042 03bf c1dd 4cbf b296 babf
000002a0: 54c6 0640 824b 08c0 0575 2140 d24b b640
000002b0: e763 7c40 fbc6 1b40 15bb 5340 54cf cb3f
000002c0: b90b 2f40 b0f6 0cbf e2cc 9dc0 4c4d df40
000002d0: a347 3340 8ee0 5540 03ac 68bf 93a2 153f
000002e0: d5f0 83bf c053 b9bf 448f 56bf 9eca 0d40
000002f0: f6c5 c6be 17aa 3b3f 1d6a 01be e420 80bf
00000300: 91a3 443f db42 d1bf 44af 1bbf daeb 8e3f
00000310: fe76 7abf 3acf 113f da36 52c0 6f11 95c0
00000320: bb34 66bf b542 8e3e ce40 6abf ef07 12c0
00000330: fb99 2640 1cd4 dabe f7bb 8e3f 0dee b8be
00000340: 3993 e0be 265e aebc aaad 46c0 9623 293f
00000350: 0385 1dbf 37bf 80c0 0ee0 dd3f c0d7 993f
00000360: e288 31bf f4c4 dfbf a851 ffbe 65eb 67bf
00000370: 64a6 54c0 3bea d8c0 cbb1 953f 4de3 dcbe
00000380: d8b6 73c0 7cd4 af3f 0227 1140 9ef3 8e3f
00000390: 0147 0240 5217 8abf 8d44 a440 73cc c4be
000003a0: 4072 8c3f 4d52 343e 725c 31c0 e927 6940
000003b0: 7c15 433f 5bda 293f ed12 12c0 77a0 5ebf
000003c0: d49d 6d40 55b0 993f 9fe7 7bbf 9794 c53e
000003d0: a2f4 813f 7c0a 69bf 6b07 13c0 ecbd 5a40
000003e0: ca8e 683f f36d 4bc0 1919 d53f c3c4 afbe
000003f0: cf19 74c0 628e 4540 6d31 0bc0 79c6 8abf

bias f4 [64]
-0.057877213 0.41340718 0.30016983 -0.27668792 -0.42470756 0.5071823 0.29954207 0.087859906
-0.75517136 0.3172425 -0.2042403 -0.05657691 -0.3831062 0.20915125 0.027499301 0.13393398
-0.017698303 0.19288526 -0.30036202 0.11199926 -0.007156374 -0.12645765 -0.28112808 0.016670851
0.30343115 -0.3352525 -0.10488153 -0.2694319 -0.027841158 -0.33936617 0.6664657 -0.32041416
0.45806774 0.03846327 0.3023652 -0.14218576 0.16718988 0.5430081 -0.2033528 -0.020219686
-0.13993905 -0.3123125 -0.19473077 0.31472012 -0.69718117 -0.11779306 -0.36031666 0.27003977
-0.11576703 -0.24557427 0.18767837 0.19807288 0.28477284 0.5328231 -0.043786377 0.1491235
-0.29439804 0.18509153 0.5051239 -0.13523586 -0.5579071 -0.22478375 -0.14425205 0.3085469
00000000: a810 6dbd 1baa d33e dcaf 993e 0aaa 8dbe
00000010: 4573 d9be b3d6 013f 945d 993e e5ef b33d
00000020: e952 41bf 9c6d a23e 5f24 51be 31bd 67bd
00000030: 7f26 c4be bf2b 563e 3746 e13c fd25 093e
00000040: 08fc 90bc b783 453e 0dc9 99be de5f e53d
00000050: 0480 eabb 1d7e 01be 05f0 8fbe 4f91 883c
00000060: 545b 9b3e 37a6 abbe 21cc d6bd faf2 89be
00000070: 2413 e4bc 67c1 adbe 7f9d 2a3f 530d a4be
00000080: db87 ea3e a98b 1d3d 9dcf 9a3e 2599 11be
00000090: d333 2b3e 9402 0b3f b73b 50be c1a3 a5bc
000000a0: 2f4c 0fbe 6de7 9fbe 8167 47be ff22 a13e
000000b0: 777a 32bf 7d3d f1bd 6d7b b8be a742 8a3e
000000c0: 4417 edbd d277 7bbe c22e 403e 9ed3 4a3e
000000d0: bfcd 913e 1867 083f 5859 33bd d5b3 183e
000000e0: 57bb 96be a288 3d3e cd4f 013f 457b 0abe
000000f0: 00d3 0ebf b62d 66be cfb6 13be dcf9 9d3e

weight f4 [10, 64]
-3.9294298 -0.94563544 -1.1201632 2.0930774 1.6256618 -1.1509713 -0.63106966 3.1103184
-5.845643 -0.7880571 1.8947334 2.801522 2.8460867 -1.8461897 3.4669123 -0.23602878
4.620754 -5.6127105 -0.004039629 -3.0877275 0.37917688 2.242339 3.7376127 2.7743502
-1.6204021 -4.220648 -1.231522 2.511073 -3.4122245 -4.87567 -2.39082 1.3707578
-1.9333967 2.6704557 -4.447161 2.6473284 0.61417776 -0.282094 -4.7031837 2.3760345
3.722238 2.3053715 2.0635257 3.9586623 -4.597251 3.2948105 -3.3490505 -2.4141665
3.414296 -2.9347243 1.0520176 -1.5887442 -0.92045015 -0.9066444 -3.67694 -3.7433317
-5.367791 -1.1523857 -0.344121 2.2796543 -7.9186964 3.4157448 -0.6272218 -2.850243
-1.7046249 -3.8233783 -3.6744955 1.4930416 3.9900737 -1.3867037 -2.1631033 2.451105
-2.1776476 -1.5574192 3.3007617 1.6611223 1.4036853 -6.5084887 0.9878252 -3.9539857
2.188549 -0.21686187 0.46985218 -7.179589 1.6298991 2.76494 2.6597612 1.1857778
-2.9332168 -2.8380537 -6.580137 1.5380505 -2.1024566 -7.393384 -5.3490753 2.538793
-3.9195685 1.2028507 -4.6348243 1.1993062 -2.6192458 -5.8370414 -4.721023 1.7675189
2.150931 4.4883413 3.486005 6.88036 3.5831845 2.5626547 3.0062993 -3.9518833
2.6647995 -1.0107751 3.548797 -0.3342029 -5.672083 -3.4774609 -1.8879899 1.5446368
-2.958505 -3.2014635 -2.2742047 1.5769849 -15.496086 5.481081 2.7934828 -5.1754746
-1.7030303 -3.5849867 -4.038316 1.2187412 3.4576592 -1.5897677 -1.8658282 2.2717426
-2.2088587 -1.5985985 3.441411 1.8287032 1.2364255 -5.9968266 0.98942786 -4.2147307
2.6017723 -0.33945113 0.29859528 -6.7637634 1.2731833 2.9812973 2.6812687 1.0507938
-2.7030833 -2.3647325 -6.5433764 1.5389336 -1.9981577 -6.983285 -4.9303837 2.5813365
-3.8728962 1.0876948 -4.1042237 0.9850902 -2.7707813 -5.707733 -4.7855773 1.4385927
2.271788 4.263311 3.3006222 6.5980945 4.08039 2.2946951 2.98345 -4.0187755
2.3843439 -1.7173262 3.1730187 -0.28219542 -5.739865 -3.513055 -1.7786958 1.5119107
-2.552542 -3.382287 -2.2797313 1.4580818 -13.21826 5.2821145 2.6597993 -4.878509
1.9156035 -4.8973193 -4.343854 1.8661759 5.4462 -5.7848716 -9.11948 0.22770439
0.3459734 -5.1054506 6.106171 0.4089776 4.1780343 -4.1196475 1.60419 -1.5802697
3.8612187 -4.2182436 3.3746696 -7.5951524 3.211578 2.610111 4.9417744 0.80940866
-0.2600165 1.9330012 -1.0159627 6.2558665 -8.262625 0.59683514 -7.2938714 2.6031353
-2.5108612 0.2512474 -6.9716454 2.2826471 -1.4970073 -4.91532 5.018557 1.780007
1.4302561 2.6932478 -0.011997887 2.4781156 1.7338958 1.4502652 1.0964059 -6.9957557
2.5309749 0.83462006 -1.2855009 -4.4178743 -4.4282823 -4.8852696 -2.8085537 -2.9262042
1.1647027 -4.3331504 -5.126797 1.0273887 4.777841 6.018101 3.4284859 -6.7009897
00000000: c77b 7bc0 2a15 72bf 8261 8fbf fbf4 0540
00000010: b015 d03f 0753 93bf c88d 21bf 750f 4740
00000020: 820f bbc0 1cbe 49bf a086 f23f 234c 3340
00000030: 4926 3640 f24f ecbf e4e1 5d40 87b1 71be
00000040: 37dd 9340 539b b3c0 dd5e 84bb 549d 45c0
00000050: 7923 c23e 7b82 0f40 0c35 6f40 f48e 3140
00000060: 5669 cfbf 8c0f 87c0 83a2 9dbf 6cb5 2040
00000070: e361 5ac0 7d05 9cc0 3203 19c0 fe74 af3f
00000080: 8b79 f7bf bfe8 2a40 254f 8ec0 d46d 2940
00000090: c13a 1d3f a06e 90be 7b80 96c0 f310 1840
000000a0: 2639 6e40 358b 1340 ce10 0440 b95a 7d40
000000b0: ae1c 93c0 2dde 5240 d856 56c0 b481 1ac0
000000c0: d383 5a40 86d2 3bc0 83a8 863f f85b cbbf
000000d0: 9fa2 6bbf d919 68bf fc52 6bc0 bf92 6fc0
000000e0: f2c4 abc0 6081 93bf a130 b0be dbe5 1140
000000f0: f665 fdc0 909b 5a40 9c91 20bf 626a 36c0
00000100: 2631 dabf 3bb2 74c0 ef2a 6bc0 fd1b bf3f
00000110: 5e5d 7f40 827f b1bf 4970 0ac0 e8de 1c40
00000120: 945e 0bc0 8359 c7bf ae3f 5340 a89f d43f
00000130: f6ab b33f 8a45 d0c0 1de2 7c3f 1a0e 7dc0
00000140: 3011 0c40 0a11 5ebe 7790 f03e 31bf e5c0
00000150: 89a0 d03f c7f4 3040 8739 2a40 91c7 973f
00000160: d3b9 3bc0 aca2 35c0 7b90 d2c0 d7de c43f
00000170: a68e 06c0 9a96 ecc0 a02b abc0 967b 2240
00000180: 36da 7ac0 03f7 993f 7b50 94c0 de82 993f
00000190: b9a1 27c0 0bc9 bac0 9f12 97c0 0f3e e23f
000001a0: daa8 0940 7ea0 8f40 b51a 5f40 e92b dc40
000001b0: e552 6540 8902 2440 3567 4040 a8eb 7cc0
000001c0: 138c 2a40 1461 81bf 7d1f 6340 a41c abbe
000001d0: b481 b5c0 b88e 5ec0 a7a9 f1bf a9b6 c53f
000001e0: 2558 3dc0 c7e4 4cc0 928c 11c0 a4da c93f
000001f0: f8ef 77c1 0465 af40 6cc8 3240 7d9d a5c0
00000200: e6fc d9bf 6c70 65c0 e239 81c0 b6ff 9b3f
00000210: 4a4a 5d40 827d cbbf 75d3 eebf 3b64 1140
00000220: f15d 0dc0 e09e ccbf 1440 5c40 f212 ea3f
00000230: 3143 9e3f 01e6 bfc0 254b 7d3f 13df 86c0
00000240: 7083 2640 8acc adbe 7be1 983e c070 d8c0
00000250: acf7 a23f 93cd 3e40 e899 2b40 6980 863f
00000260: 51ff 2cc0 c757 17c0 5763 d1c0 c7fb c43f
00000270: a2c3 ffbf 1277 dfc0 b4c5 9dc0 9e34 2540
00000280: 88dd 77c0 9539 8b3f cd55 83c0 df2e 7c3f
00000290: 7b54 31c0 c0a5 b6c0 7323 99c0 ce23 b83f
000002a0: f964 1140 0b6d 8840 653d 5340 9723 d340
000002b0: 8e92 8240 49dc 1240 d8f0 3e40 cf99 80c0
000002c0: 1799 1840 58d1 dbbf bd12 4b40 eb7b 90be
000002d0: f9ac b7c0 e5d5 60c0 4eac e3bf 4a86 c13f
000002e0: d95c 23c0 6477 58c0 1ee7 11c0 6da2 ba3f
000002f0: fe7d 53c1 1507 a940 273a 2a40 bf1c 9cc0
00000300: 7f32 f53f d7b6 9cc0 da00 8bc0 dade ee3f
00000310: 4547 ae40 ab1d b9c0 64e9 11c1 572b 693e
00000320: 6d23 b13e da5f a3c0 c165 c340 8365 d13e
00000330: 75b2 8540 27d4 83c0 1956 cd3f 4746 cabf
00000340: 351e 7740 dafb 86c0 96fa 5740 7d0b f3c0
00000350: 7e8a 4d40 0f0c 2740 0423 9e40 6835 4f3f
00000360: e220 85be 956c f73f 110b 82bf 0f30 c840
00000370: b633 04c1 30ca 183f 6567 e9c0 c599 2640
00000380: f3b1 20c0 80a3 803e b817 dfc0 e416 1240
00000390: ef9d bfbf 4d4a 9dc0 0598 a040 45d7 e33f
000003a0: a212 b73f 2c5e 2c40 c992 44bc 7299 1e40
000003b0: 4cf0 dd3f 4aa2 b93f 0757 8c3f 3bdd dfc0
000003c0: 7efb 2140 a9a9 553f 4b8b a4bf 3a5f 8dc0
000003d0: 7db4 8dc0 2154 9cc0 58bf 33c0 ee46 3bc0
000003e0: fa14 953f 2ba9 8ac0 b90e a4c0 7981 833f
000003f0: 13e4 9840 4994 c040 506c 5b40 826e d6c0

bias f4 [10]
0.6684126 0.19910724 0.26249483 -0.32180458 -0.04052016 -0.08594093 -0.5528721 -0.5822814
-0.7916913 0.14359799
00000000: 171d 2b3f c5e2 4b3e b965 863e 92c3 a4be
00000010: 78f8 25bd cc01 b0bd 0789 0dbf 6510 15bf
00000020: 48ac 4abf 5a0b 133e
