models/stock_forecast1 (0310_1923).pth (torch, 69911 bytes, 6 tensors)

weight f4 [128, 60]
-0.18994261 -0.14906977 -0.042997256 -0.3054978 -0.08279651 -0.13348287 -0.012021402 -0.12113114
0.0070325932 -0.022388425 -0.0013301931 0.31496176 0.14226265 -0.20652398 0.05802431 -0.08172113
-0.07199451 -0.14740384 -0.076583065 -0.1731338 0.060651485 -0.07922111 0.050639085 -0.21834454
-0.4591828 -0.11167261 -0.005883992 0.0016970439 0.069613926 -0.37049064 -1.3758317 -1.5175724
2.4877794 -0.23694399 0.61938906 -0.4296127 -1.3616658 -0.07067895 -0.8548143 -4.2596703
-1.345885 -0.4828277 -0.32210812 -1.5532017 0.60047513 1.0984539 0.42468673 1.1981086
-0.94215447 -1.6450863 -3.0563545 -2.0945544 2.8088398 -1.3605523 0.2858226 -2.1102517
-0.07910913 -0.94371134 0.8951151 -0.37259698 0.13917238 0.12154641 0.17401715 0.14704825
0.35460898 0.20405082 0.1414803 0.34654525 0.124501705 0.1817651 -0.24973078 -0.18599103
0.15009089 0.094110094 0.062630765 0.2202608 -0.21486758 0.16242583 0.3829728 -0.10220763
-0.026775116 -0.0915913 -0.30108345 -0.013385807 0.24280538 0.13133353 0.2893833 0.18677056
-0.16104603 -0.005324748 -0.44359663 -0.2392445 0.33065814 1.1498468 -1.0321414 -0.53415036
-1.4064403 0.3021493 0.51823545 -1.5296999 1.8033046 0.30541703 -0.3608037 1.6072377
0.22260833 -1.783346 0.179536 0.65182024 1.3227677 -1.2761685 -1.9793115 0.78572947
-0.39260277 0.217021 1.5501451 1.2839477 1.2913754 0.20606077 -0.8553702 1.3257073
-0.25404653 -0.010903698 -0.020401603 -0.038372934 0.06658233 0.11928622 -0.06550032 0.09223661
-0.012088142 -0.10406797 0.015840853 0.015726948 0.22894675 0.17171311 0.13439257 0.14804608
0.13143685 -0.018573163 0.14911197 0.2498384 0.18844523 0.20575236 0.17516795 0.28029883
0.1980708 0.15504105 0.36604524 0.08718124 -0.14691795 0.0012177167 -0.43467554 -3.155903
1.0593112 0.065995954 -1.6637553 -1.5050545 -0.7770186 -0.2960434 1.3845865 -0.41565987
-1.0703826 0.3530229 -0.4729861 0.5827805 1.6631315 -0.8145851 1.0525931 1.0724474
0.21996933 -1.0855474 1.826002 1.8562303 -1.3315705 0.62007433 -0.2433192 -2.7190764
1.4099631 -1.5474104 1.0427307 0.42015955 0.1585296 0.17299177 -0.056414064 -0.1120539
0.11476674 -0.0087505905 -0.17571712 -0.10596438 -0.055715285 0.1626466 -0.21874815 -0.22805111
-0.24539411 -0.13974442 -0.04038593 -0.18424723 0.01754226 -0.17417948 -0.7731882 0.047462195
0.005650444 -0.06876979 0.032834854 -0.07068794 0.27708945 -0.09693221 -0.16592452 -0.23660448
-0.28864092 -0.19791655 -0.9536074 -0.20884003 2.9129715 0.4003044 -0.71420205 -1.5147985
1.5049924 0.23855497 -1.2153846 1.3166944 1.2598743 1.5744812 0.68513656 1.4189287
-0.6108794 0.024416614 -2.064237 0.43933412 -3.8329766 1.7577428 -0.72479296 1.9969383
1.1632181 1.4539083 0.47357613 -1.3711411 0.41101646 -2.1645274 -0.7007729 1.0617009
0.22411649 0.010428959 0.009615753 0.21158512 0.015771946 -0.06806367 0.56138563 0.17204581
0.046466317 0.3247899 0.22531037 0.100268714 0.093803234 -0.21677326 -0.24964862 -0.30333537
00000000: 5180 42be bfa5 18be e41d 30bd 356a 9cbe
00000010: 3791 a9bd bcaf 08be 6af5 44bc 9a13 f8bd
00000020: ab71 e63b ee67 b7bc e059 aeba ab42 a13e
00000030: 4dad 113e 067b 53be e6aa 6d3d 685d a7bd
00000040: dc71 93bd 08f1 16be 95d7 9cbd fd49 31be
00000050: b16d 783d ad3e a2bd ee6a 4f3d b695 5fbe
00000060: 021a ebbe 9cb4 e4bd 81ce c0bb 586f de3a
00000070: bf91 8e3d f3b0 bdbe 411b b0bf d03f c2bf
00000080: c737 1f40 72a1 72be 4890 1e3f 32f6 dbbe
00000090: 114b aebf 20c0 90bd 1cd5 5abf 384f 88c0
000000a0: f645 acbf 3135 f7be 5beb a4be 50cf c6bf
000000b0: bdb8 193f 239a 8c3f 8a70 d93e 9f5b 993f
000000c0: 0931 71bf 3092 d2bf 509b 43c0 2e0d 06c0
000000d0: 08c4 3340 9426 aebf 5757 923e 5d0e 07c0
000000e0: f803 a2bd 1197 71bf 4326 653f 08c5 bebe
000000f0: 3483 0e3e 53ed f83d 8d31 323e d193 163e
00000100: 4f8f b53e b3f2 503e 36e0 103e 616e b13e
00000110: c0fa fe3d a120 3a3e 6db9 7fbe 6f74 3ebe
00000120: 6db1 193e cbbc c03d 8f44 803d 0c8c 613e
00000130: 3f06 5cbe f552 263e 0315 c43e 3c52 d1bd
00000140: 7d57 dbbc 3894 bbbd 9c27 9abe 2550 5bbc
00000150: f9a1 783e 4c7c 063e 0c2a 943e c840 3f3e
00000160: 40e9 24be 397b aebb 191f e3be 83fc 74be
00000170: 064c a93e 2e2e 933f 361d 84bf 14be 08bf
00000180: 3c06 b4bf 50b3 9a3e 14ab 043f 35cd c3bf
00000190: afd2 e63f 9f5f 9c3e 43bb b8be f7b9 cd3f
000001a0: 70f3 633e af44 e4bf 49d8 373e b1dd 263f
000001b0: 7450 a93f 7d59 a3bf 145a fdbf 9125 493f
000001c0: 3b03 c9be c13a 5e3e 286b c63f 6658 a43f
000001d0: ca4b a53f 9801 533e 8bf9 5abf c7b0 a93f
000001e0: 6312 82be 6da5 32bc 4321 a7bc f02c 1dbd
000001f0: 515c 883d 554c f43d 0825 86bd 8ce6 bc3d
00000200: 580d 46bc 9621 d5bd adc4 813c cdd5 803c
00000210: 0471 6a3e 90d5 2f3e 359e 093e 6499 173e
00000220: 6297 063e bf26 98bc cfb0 183e a3d5 7f3e
00000230: c9f7 403e bfb0 523e 3a5f 333e 5483 8f3e
00000240: 12d3 4a3e 15c3 1e3e 486a bb3e 148c b23d
00000250: a971 16be cb9b 9f3a cb8d debe 51fa 49c0
00000260: 8297 873f e328 873d eff5 d4bf a0a5 c0bf
00000270: b1ea 46bf 0093 97be 213a b13f 5fd1 d4be
00000280: 4c02 89bf 6bbf b43e 3c2b f2be 1a31 153f
00000290: 7ee1 d43f a688 50bf 5fbb 863f f545 893f
000002a0: a43f 613e 38f3 8abf 6fba e93f f498 ed3f
000002b0: e770 aabf 31bd 1e3f ab28 79be 5905 2ec0
000002c0: ac79 b43f 8b11 c6bf 3378 853f 271f d73e
000002d0: 9555 223e c124 313e 6f12 67bd 847c e5bd
000002e0: d30a eb3d a35e 0fbc 30ef 33be da03 d9bd
000002f0: b635 64bd d58c 263e 84ff 5fbe 3b86 69be
00000300: 9848 7bbe 2919 0fbe b86b 25bd 4eab 3cbe
00000310: c9b4 8f3c 1b5c 32be a9ef 45bf b867 423d
00000320: 5c27 b93b 2dd7 8cbd d77d 063d d7c4 90bd
00000330: abde 8d3e 6584 c6bd 1ee8 29be 7248 72be
00000340: bec8 93be a3aa 4abe 9d1f 74bf 29da 55be
00000350: 206e 3a40 b3f4 cc3e f2d5 36bf ebe4 c1bf
00000360: 97a3 c03f c147 743e b991 9bbf 7189 a83f
00000370: 9043 a13f 9a88 c93f 1c65 2f3f 759f b53f
00000380: 9862 1cbf 5a05 c83c 761c 04c0 67f0 e03e
00000390: 7d4f 75c0 b7fd e03f 088c 39bf ad9b ff3f
000003a0: 55e4 943f ab19 ba3f 9278 f23e 8d81 afbf
000003b0: c070 d23e 9e87 0ac0 da65 33bf d1e5 873f
000003c0: cb7e 653e 39de 2a3c 648b 1d3c c5a9 583e
000003d0: 2b34 813c f764 8bbd f8b6 0f3f c72c 303e
000003e0: 7753 3e3d dd4a a63e c3b7 663e af59 cd3d
000003f0: e91b c03d cff9 5dbe e3a3 7fbe c64e 9bbe

bias f4 [128]
0.008282768 0.15969802 -0.41611558 0.07948452 0.24344693 0.075095855 -0.035531364 -0.30578345
-0.019139629 0.17939757 -0.4414709 0.17280221 -0.21639791 -0.32477522 0.11629719 -0.3005932
-0.0014271659 0.045752518 -0.032041326 0.042543504 0.11974455 0.24359973 -0.27118546 0.08023684
0.07082286 0.09844057 0.11759003 -0.29261324 0.07468135 0.12556016 -0.36120722 0.11555884
-0.16717055 -0.07987548 0.13107108 0.17185369 -0.021650279 -0.08579963 0.12754548 -0.07586215
-0.056736 -0.154072 -0.12019497 -0.2320926 -0.25763386 -0.25475177 -0.07185813 -0.2124428
-0.09978788 -0.053609736 0.06609247 0.005239388 -0.078617364 -0.04088596 -0.03306503 0.18161128
-0.050926268 -0.10393235 0.0016265326 -0.25255182 -0.0912457 0.013230402 0.097412415 -0.06862906
0.2106872 -0.29495957 0.11502344 0.010035114 0.3196006 0.094927005 -0.0085399775 -0.21139792
-0.09058421 -0.016610714 -0.45093802 -0.23889983 0.21347818 0.14181986 -0.024579233 -0.1510198
0.07114267 0.2636177 0.20364767 -0.03047655 0.28280702 -0.25213128 -0.22222361 0.44654658
0.06435976 -0.058223885 -0.42665404 0.05679839 0.11652511 -0.31884575 0.06613987 0.083658695
-0.14064257 -0.054326974 -0.024839703 0.43239546 -0.048364677 0.061331324 0.12507685 0.13627587
-0.05153848 0.15709671 -0.3324839 -0.08692951 0.16489896 0.12809609 -0.10174576 0.23838013
-0.23938364 -0.010166309 -0.33306232 0.2743255 0.16141118 -0.018395694 0.057401408 0.103072695
0.08307819 0.083482735 0.082872465 0.43547547 -0.0874065 -0.23632467 -0.09642732 -0.06956137
00000000: 72b4 073c e187 233e 1a0d d5be c8c8 a23d
00000010: 274a 793e dbcb 993d 5689 11bd a68f 9cbe
00000020: b6ca 9cbc ffb3 373e 7908 e2be 10f3 303e
00000030: 6a97 5dbe f048 a6be 392d ee3d 5ae7 99be
00000040: be0f bbba fe66 3b3d c43d 03bd 1942 2e3d
00000050: a13c f53d 3572 793e d2d8 8abe 3653 a43d
00000060: 930b 913d 369b c93d 0bd3 f03d 67d1 95be
00000070: 89f2 983d d892 003e 27f0 b8be 1daa ec3d
00000080: c22e 2bbe c195 a3bd 7f37 063e 6afa 2f3e
00000090: ed5b b1bc b7b7 afbd 489b 023e 9d5d 9bbd
000000a0: 0264 68bd 0dc5 1dbe c828 f6bd afa9 6dbe
000000b0: 96e8 83be d36e 82be 5b2a 93bd 9b8a 59be
000000c0: 975d ccbd e295 5bbd 7d5b 873d 2caf ab3b
000000d0: 2402 a1bd 0978 27bd 326f 07bd 4ff8 393e
000000e0: 1098 50bd 7cda d4bd 6131 d53a 794e 81be
000000f0: 07df babd 54c4 583c 2980 c73d 658d 8cbd
00000100: 63be 573e f104 97be 6991 eb3d 526a 243c
00000110: b1a2 a33e 1769 c23d 43eb 0bbc b278 58be
00000120: 3784 b9bd 3113 88bc 59e1 e6be 28a2 74be
00000130: 069a 5a3e 3a39 113e 635a c9bc efa4 1abe
00000140: 40b3 913d e6f8 863e 0489 503e f5a9 f9bc
00000150: 15cc 903e 5a17 81be 968e 63be c1a1 e43e
00000160: 0dcf 833d 2b7c 6ebd 6672 dabe 6ea5 683d
00000170: b8a4 ee3d c03f a3be 5774 873d 4055 ab3d
00000180: 9b04 10be f685 5ebd a27c cbbc f062 dd3e
00000190: 0a1a 46bd 8e36 7b3d 2514 003e e78b 0b3e
000001a0: 031a 53bd f6dd 203e 543b aabe 1908 b2bd
000001b0: 46db 283e 9f2b 033e 1560 d0bd ec19 743e
000001c0: fc20 75be 9790 26bc 2587 aabe 6474 8c3e
000001d0: f948 253e 91b2 96bc bd1d 6b3d c717 d33d
000001e0: e624 aa3d fff8 aa3d 0ab9 a93d a4f6 de3e
000001f0: 2e02 b3bd 18ff 71be b07b c5bd 3176 8ebd

weight f4 [64, 128]
-0.5686383 2.2562196 -1.8715106 -0.4633997 -1.2000593 4.737904 -1.3439922 0.8048674
0.61579984 0.5736909 1.6120181 0.0067185806 -1.8520039 -1.499277 -0.47792295 1.7398485
-0.59996545 -0.5007924 -1.0012631 -0.020567825 0.60308534 0.6689439 -0.17886151 0.5557634
1.151442 -0.51926374 -1.2050443 -0.50357324 2.4499524 -0.60144836 -2.0612483 -0.49759594
1.9750218 -2.0160546 -0.77548754 -1.5271349 2.1100075 -0.47693267 -0.6187724 -2.277372
2.6303966 -3.537483 2.1143353 3.2418673 0.9511893 2.0296252 1.3579669 0.5572102
3.003248 -0.6328618 -1.2995883 5.9707236 -1.5235413 0.97154266 2.693252 0.698958
-0.6660892 -3.238889 -0.7082202 0.44212568 0.8893761 0.9444318 -0.5165285 1.2150729
0.5089485 -1.9814572 0.6991444 0.77727604 -0.5077352 0.86501765 -2.2515593 -3.304995
-0.10477359 0.84131014 -0.99201894 0.08116712 -0.9488947 -0.54224724 0.4072498 -0.18004198
-0.3797744 -0.44537693 -2.902887 0.46647665 -0.5769571 -0.9697005 2.1891727 0.46093395
0.10523684 0.22046912 -0.5858862 -0.49430025 -0.86055297 -1.6271999 0.7005024 0.30532944
-0.866669 0.78330976 0.8034374 0.48730847 2.924219 -0.21629702 0.49798012 -0.33995816
0.28839982 -2.52457 1.3670472 0.49676448 0.76173973 0.8017204 -1.1506292 -0.29237142
3.6128387 0.5189606 -3.0989666 -0.5818277 0.36174092 -0.5429482 -1.5515653 3.0760334
0.5533523 -3.1893384 1.4277481 0.15064752 -2.4008498 0.09121802 -1.101079 -0.54435307
-0.21155941 1.8959076 -0.28518197 -0.35098153 -0.3379074 -0.16147433 -1.1659619 0.2289554
1.4121865 0.9038435 0.49384093 0.43223742 -0.8270013 -3.3781068 -0.8343926 1.1551099
-0.4763954 1.6498615 0.22375304 0.5822771 0.8202948 0.16026247 -1.5093191 0.61298805
1.4117142 -1.9996853 -0.5771746 -0.6846508 2.5146992 -0.32759455 -2.143663 -0.70607567
2.2341244 -2.1202347 0.13474739 -0.46406528 0.33792663 -0.46103215 -0.6510521 -1.4036394
2.3187623 -2.2876937 2.350342 4.476927 2.5572577 1.2619753 2.4047275 2.0886588
1.2023749 -0.47414693 -2.8806815 3.7713902 -0.18378143 2.1038177 -0.5989557 0.46087757
-0.6436262 -1.811769 -0.7057855 0.76651746 0.45061505 0.6731526 -0.31584755 0.53248507
0.8612909 -0.8915116 0.8076954 0.96043247 -0.85685784 0.5164427 -2.149699 -3.275207
-0.8787124 0.56704587 -0.5061794 -1.1274712 2.5969532 -0.32386246 0.4759685 -0.22615153
-0.40738934 -0.22984336 -2.3178315 0.5329716 -0.6093136 -2.8338516 1.2381425 0.9191324
-0.1740795 -1.3493344 -0.45620528 -0.48691896 -2.1633291 -4.769077 0.8654361 -0.11477802
-2.6055558 1.1233163 0.4750196 0.94324285 0.9401187 -0.69594324 2.180192 -0.37739772
0.38686368 -0.36516273 -0.3757844 2.8901565 0.7094194 0.52142406 -0.9728068 -0.61694056
3.504345 0.8410774 -1.5267601 0.20665114 0.69137305 -0.748139 -1.4009873 2.7568212
0.80572546 -3.541617 1.3650093 0.0024300187 -2.1114905 1.1786191 -1.6900467 -0.6272094
00000000: 4892 11bf e765 1040 a98d efbf ba42 edbe
00000010: 8b9b 99bf e99c 9740 f007 acbf ca0b 4e3f
00000020: 0fa5 1d3f 68dd 123f 9c56 ce3f 8a27 dc3b
00000030: 770e edbf 4fe8 bfbf 51b2 f4be 5bb3 de3f
00000040: 5697 19bf ee33 00bf 6429 80bf db7d a8bc
00000050: cd63 1a3f e83f 2b3f 7927 37be 8346 0e3f
00000060: 7462 933f 78ee 04bf e43e 9abf 2dea 00bf
00000070: 05cc 1c40 85f8 19bf 7eeb 03c0 e5c4 febe
00000080: 84cd fc3f 0a07 01c0 5a86 46bf 2879 c3bf
00000090: 5d0a 0740 8530 f4be de67 1ebf 76c0 11c0
000000a0: 6b58 2840 1f66 62c0 4551 0740 c17a 4f40
000000b0: 2481 733f 61e5 0140 dcd1 ad3f 54a5 0e3f
000000c0: 3735 4040 3b03 22bf e958 a6bf 2b10 bf40
000000d0: 6703 c3bf 05b7 783f 3e5e 2c40 e9ee 323f
000000e0: d284 2abf f549 4fc0 eb4d 35bf 4c5e e23e
000000f0: 27ae 633f 48c6 713f 363b 04bf 8287 9b3f
00000100: 734a 023f 64a0 fdbf 21fb 323f 90fb 463f
00000110: effa 01bf cc71 5d3f 8c19 10c0 0a85 53c0
00000120: 8993 d6bd 1a60 573f f4f4 7dbf f23a a63d
00000130: c3ea 72bf b7d0 0abf 0c83 d03e ed5c 38be
00000140: ca71 c2be 7208 e4be e7c8 39c0 07d6 ee3e
00000150: 76b3 13bf 4b3e 78bf 681b 0c40 89ff eb3e
00000160: 6a86 d73d a8c2 613e a3fc 15bf ec14 fdbe
00000170: 334d 5cbf 1648 d0bf 2054 333f 2454 9c3e
00000180: 05de 5dbf fd86 483f 13ae 4d3f 7f80 f93e
00000190: 6726 3b40 f77c 5dbe 40f7 fe3e ff0e aebe
000001a0: 24a9 933e 8e92 21c0 67fb ae3f ea57 fe3e
000001b0: 6001 433f 8c3d 4d3f d147 93bf b5b1 95be
000001c0: c038 6740 9ada 043f 7855 46c0 a9f2 14bf
000001d0: 1b36 b93e a7fe 0abf b199 c6bf bbdd 4440
000001e0: 7fa8 0d3f 1f1e 4cc0 73c0 b63f 5843 1a3e
000001f0: 86a7 19c0 83d0 ba3d 28f0 8cbf b95a 0bbf
00000200: 08a3 58be 1aad f23f 5f03 92be dab3 b3be
00000210: 3302 adbe 8759 25be 3d3e 95bf 4973 6a3e
00000220: 87c2 b43f 4a62 673f b8d8 fc3e 394e dd3e
00000230: 5bb6 53bf e732 58c0 c19a 55bf a4da 933f
00000240: 19ea f3be a92e d33f 841f 653e 1d10 153f
00000250: d7fe 513f d81b 243e 5e31 c1bf c9ec 1c3f
00000260: 0db3 b43f b0f5 ffbf b7c1 13bf 4645 2fbf
00000270: d5f0 2040 79ba a7be c631 09c0 60c1 34bf
00000280: e5fb 0e40 edb1 07c0 38fb 093e f799 edbe
00000290: b804 ad3e 680c ecbe 5aab 26bf 75aa b3bf
000002a0: 9a66 1440 9369 12c0 016c 1640 fc42 8f40
000002b0: 1caa 2340 6888 a13f 0ee7 1940 96ac 0540
000002c0: 6ce7 993f 63c3 f2be 165d 38c0 755e 7140
000002d0: 3331 3cbe f3a4 0640 2955 19bf 25f8 eb3e
000002e0: b0c4 24bf 0ce8 e7bf 5cae 34bf 7d3a 443f
000002f0: 04b7 e63e bb53 2c3f c5b6 a1be f150 083f
00000300: 8f7d 5c3f 1b3a 64bf 20c5 4e3f e7de 753f
00000310: 095b 5bbf 9735 043f ab94 09c0 fe9c 51c0
00000320: 4cf3 60bf eb29 113f f994 01bf fa50 90bf
00000330: 7b34 2640 4dd1 a5be 25b2 f33e 4494 67be
00000340: 5695 d0be 0f5c 6bbe 5a57 14c0 d470 083f
00000350: fafb 1bbf d35d 35c0 747b 9e3f 434c 6b3f
00000360: e541 32be fdb6 acbf bd93 e9be 714d f9be
00000370: fc73 0ac0 479c 98c0 388d 5d3f bd10 ebbd
00000380: 6dc1 26c0 d4c8 8f3f c535 f33e 5d78 713f
00000390: 9eab 703f 5629 32bf 4488 0b40 463a c1be
000003a0: ff12 c63e 9cf6 babe d066 c0be 53f8 3840
000003b0: 839c 353f 0c7c 053f de09 79bf d1ef 1dbf
000003c0: 3047 6040 d950 573f e06c c3bf 5b9c 533e
000003d0: d3fd 303f 0a86 3fbf 8d53 b3bf c26f 3040
000003e0: 0644 4e3f daa9 62c0 a0b8 ae3f f340 1f3b
000003f0: a922 07c0 fedc 963f 7353 d8bf cc90 20bf

bias f4 [64]
-0.019271601 0.19807112 0.2416956 -0.17479749 -0.21816368 0.32133317 0.14302224 0.09307035
-0.47688064 0.20108062 -0.09299089 -0.08205077 -0.25149778 0.024470532 0.074447766 0.07806857
-0.031924494 0.054867886 -0.20164208 0.08330939 -0.08478729 -0.06744409 -0.16051945 -0.0152426995
0.19167878 -0.2381457 -0.07794926 -0.12334724 -0.026361454 -0.25748292 0.38149354 -0.22693829
0.27699515 -0.01032808 0.13847123 -0.032579698 0.10033302 0.33283544 -0.12010874 0.038869835
-0.059946135 -0.15314552 -0.1361126 0.4029669 -0.3830465 -0.067227714 -0.1534537 0.19224414
-0.05639266 -0.13093032 0.22535165 0.15128349 0.10095222 0.3463156 -0.07414497 0.059289135
-0.162555 0.15893914 0.32675868 -0.052299887 -0.48225436 -0.06754424 -0.16141276 0.15348059
00000000: 7adf 9dbc 28d3 4a3e 0d7f 773e 1dfe 32be
00000010: 4d66 5fbe c885 a43e 6c74 123e ab9b be3d
00000020: b329 f4be 14e8 4d3e 0272 bebd 3c0a a8bd
00000030: 51c4 80be 6d76 c83c 1278 983d 6ae2 9f3d
00000040: 42c3 02bd 26bd 603d 437b 4ebe 1d9e aa3d
00000050: f5a4 adbd 2120 8abd 365f 24be 84bc 79bc
00000060: 7147 443e 77dc 73be dda3 9fbd 7a9d fcbd
00000070: faf3 d7bc cdd4 83be 1f53 c33e 8362 68be
00000080: 4fd2 8d3e 1b37 29bc 67cb 0d3e 4a72 05bd
00000090: 667b cd3d 6869 aa3e 92fb f5bd fa35 1f3d
000000a0: 148a 75bd 2ed2 1cbe 1a61 0bbe ad51 ce3e
000000b0: ac1e c4be afae 89bd f722 1dbe a6db 443e
000000c0: fdfb 66bd 9912 06be 95c2 663e 0fea 1a3e
000000d0: 0ac0 ce3d 4750 b13e 51d9 97bd 2ad9 723d
000000e0: d174 26be f1c0 223e ea4c a73e 6838 56bd
000000f0: 0bea f6be a254 8abd 6349 25be 042a 1d3e

weight f4 [10, 64]
-2.475315 -0.8424163 -0.828151 1.3962592 0.9417346 -0.8336659 -1.0317161 2.841206
-4.0255423 -0.3304121 2.4301927 2.3666794 1.8225155 -1.8359118 2.3045254 -1.0648364
2.8283725 -2.9932399 -0.23336245 -1.1537566 -0.14612003 1.866646 2.074103 2.0295556
-1.5043615 -2.9507337 -0.65483016 1.2492597 -1.9071891 -3.4298165 -0.7419007 0.9514365
-1.5605795 2.0701454 -2.8432121 1.8206544 -0.53372204 -0.517497 -2.686777 1.9009081
2.861142 1.2395326 1.6720675 3.2510054 -3.263228 2.528509 -2.4944797 -1.0644292
3.0092812 -1.7812172 2.0972862 -1.247289 -0.99174863 -0.64833677 -2.4674878 -2.4744964
-3.4746442 -0.9063612 -0.5052573 1.5918266 -6.3937936 2.4263086 -0.5409715 -1.7121854
-1.8067251 -2.9214892 -2.993394 1.2809231 1.8656828 -1.9688036 -1.7472086 2.2659397
-1.5434095 -2.1826596 2.7285857 1.5706227 1.7469766 -4.2002544 1.1811261 -2.3719442
1.9529047 -1.1122437 0.74998647 -3.6131852 1.0487674 2.4345338 2.461489 1.267852
-2.4027739 -1.5631169 -3.7168543 1.1614517 -1.0758601 -4.3041344 -2.8822298 1.9731388
-3.0500994 1.1494051 -3.5206723 1.1859713 -1.5914353 -4.286139 -3.4039223 1.4415764
2.4923491 2.3190916 2.6409028 4.003358 2.6811228 2.1341755 1.1237713 -3.1152456
2.4253902 -1.8753804 1.6404693 -1.1072509 -3.5169203 -2.7562544 -2.0006044 0.26837516
-1.434392 -1.794457 -2.4627388 1.6220161 -9.11287 3.714546 1.4871757 -3.3694549
-2.1039107 -2.834375 -3.37878 1.1302601 1.4944215 -1.9047164 -1.5912911 2.241806
-1.4782158 -2.1469796 2.744254 1.7337931 1.7942975 -3.9351487 1.3102067 -2.706194
2.2967253 -0.9955271 0.4903929 -3.8852797 0.843146 2.758715 2.5374439 1.1586275
-2.4541845 -1.4403195 -3.786552 1.36213 -1.1470873 -4.062846 -2.8799639 2.105744
-3.1915636 1.0363866 -3.4981606 1.1295784 -1.767638 -4.5212097 -3.3076942 1.1901927
2.6505609 2.7066734 2.6324387 3.8328848 2.733501 2.0621877 1.2651459 -3.110081
2.6137679 -2.0316017 1.2924323 -1.0693598 -3.4324102 -2.7457342 -1.7488616 0.48069185
-1.3603868 -2.0788207 -2.2837985 1.5327721 -8.96838 3.9681964 1.5920455 -3.365359
-0.022155087 -3.4421647 -3.0495584 1.9747947 3.0831692 -4.127142 -3.7111852 0.42512143
2.489537 -3.8457 2.313356 0.8302972 1.035566 -1.3330854 1.5005615 -1.2536379
0.9581189 -2.1884327 2.5715494 -4.5162835 2.6483407 2.0217447 2.2371964 1.0205517
-0.4023654 0.9421771 -0.7208803 4.274859 -4.2000318 -1.0500705 -4.950283 1.9553101
-1.8266518 0.5777076 -3.3784213 2.3824995 0.05949699 -2.941719 2.8786945 1.638034
1.15711 1.9031898 0.38683125 0.9465908 0.29923195 1.4704776 0.5921407 -4.3584166
1.4017206 -0.3079449 -0.46563846 -3.1491432 -2.0043752 -3.8026567 -1.5877048 -2.49252
-1.4979594 -2.203433 -4.051073 1.1256646 6.2270904 2.1542003 2.3616986 -3.9929836
00000000: 906b 1ec0 98a8 57bf b401 54bf 9fb8 b23f
00000010: 8515 713f 216b 55bf 460f 84bf 52d6 3540
00000020: 3ed1 80c0 c62b a9be 4788 1b40 ad77 1740
00000030: 3048 e93f 28ff eabf 587d 1340 8f4c 88bf
00000040: 0e04 3540 3e91 3fc0 91f6 6ebe 4cae 93bf
00000050: 7da0 15be 42ee ee3f 1bbe 0440 3de4 0140
00000060: eb8e c0bf d2d8 3cc0 f3a2 27bf bee7 9f3f
00000070: c61e f4bf 1d82 5bc0 34ed 3dbf 5891 733f
00000080: 12c1 c7bf 437d 0440 30f7 35c0 340b e93f
00000090: 02a2 08bf af7a 04bf 28f4 2bc0 f550 f33f
000000a0: f31c 3740 01a9 9e3f 4f06 d63f 7910 5040
000000b0: bad8 50c0 17d3 2140 8ea5 1fc0 373f 88bf
000000c0: 1098 4040 edfe e3bf f039 0640 2aa7 9fbf
000000d0: 3de3 7dbf 66f9 25bf 52eb 1dc0 265e 1ec0
000000e0: 9260 5ec0 4a07 68bf 8b58 01bf f9c0 cb3f
000000f0: f599 ccc0 a448 1b40 1c7d 0abf e428 dbbf
00000100: c542 e7bf aef9 3ac0 c493 3fc0 4af5 a33f
00000110: b2ce ee3f c201 fcbf 88a4 dfbf 2805 1140
00000120: 718e c5bf b2b0 0bc0 26a1 2e40 2a0a c93f
00000130: ee9c df3f 7c68 86c0 242f 973f efcd 17c0
00000140: c8f8 f93f 005e 8ebf 1dff 3f3f 6d3e 67c0
00000150: 033e 863f 67cf 1b40 0989 1d40 f948 a23f
00000160: 0cc7 19c0 3714 c8bf f1e0 6dc0 73aa 943f
00000170: c9b5 89bf 78bb 89c0 7476 38c0 d08f fc3f
00000180: d434 43c0 b51f 933f b252 61c0 e8cd 973f
00000190: 27b4 cbbf 0d28 89c0 ddd9 59c0 9385 b83f
000001a0: a682 1f40 ff6b 1440 8d04 2940 821b 8040
000001b0: 8497 2b40 5596 0840 bdd7 8f3f 2f60 47c0
000001c0: 9839 1b40 770c f0bf e6fa d13f 66ba 8dbf
000001d0: 3915 61c0 7966 30c0 e709 00c0 7868 893e
000001e0: 289a b7bf c4b0 e5bf 839d 1dc0 399e cf3f
000001f0: 51ce 11c1 1fbb 6d40 c65b be3f 26a5 57c0
00000200: 79a6 06c0 6666 35c0 ee3d 58c0 5dac 903f
00000210: 3449 bf3f bfcd f3bf 6daf cbbf c079 0f40
00000220: 2d36 bdbf 1d68 09c0 dca1 2f40 efec dd3f
00000230: 8aab e53f 7ad9 7bc0 dab4 a73f 4832 2dc0
00000240: 8cfd 1240 ddda 7ebf c714 fb3e 6ca8 78c0
00000250: 6bd8 573f c98e 3040 7b65 2240 e84d 943f
00000260: 5c11 1dc0 645c b8bf de56 72c0 475a ae3f
00000270: c2d3 92bf d602 82c0 5451 38c0 82c4 0640
00000280: 9442 4cc0 51a8 843f dde1 5fc0 0696 903f
00000290: f641 e2bf c0ad 90c0 43b1 53c0 3c58 983f
000002a0: caa2 2940 233a 2d40 e079 2840 fc4d 7540
000002b0: aef1 2e40 e2fa 0340 4df0 a13f 910b 47c0
000002c0: f947 2740 c305 02c0 6c6e a53f c8e0 88bf
000002d0: 9cac 5bc0 1cba 2fc0 b2da dfbf 3e1d f63e
000002e0: 2821 aebf 660b 05c0 c129 12c0 e031 c43f
000002f0: 7c7e 0fc1 eef6 7d40 26c8 cb3f 0b62 57c0
00000300: 967e b5bc 6d4c 5cc0 f72b 43c0 13c6 fc3f
00000310: a552 4540 8c11 84c0 0f84 6dc0 84a9 d93e
00000320: 9354 1f40 f31f 76c0 060e 1440 5b8e 543f
00000330: 6d8d 843f 8ba2 aabf 6612 c03f 3577 a0bf
00000340: 4847 753f 480f 0cc0 4494 2440 6585 90c0
00000350: 6a7e 2940 4464 0140 3a2e 0f40 70a1 823f
00000360: d602 cebe 8532 713f 9d8b 38bf a5cb 8840
00000370: a966 86c0 b668 86bf b868 9ec0 9a47 fa3f
00000380: bacf e9bf a5e4 133f 0e38 58c0 df7a 1840
00000390: 1eb3 733d 2045 3cc0 883c 3840 19ab d13f
000003a0: 2e1c 943f b99b f33f bf0e c63e c653 723f
000003b0: ee34 993e 9c38 bc3f 8896 173f 2678 8bc0
000003c0: 956b b33f f4aa 9dbe 2a68 eebe 908b 49c0
000003d0: af47 00c0 ba5e 73c0 e939 cbbf 7385 1fc0
000003e0: 22bd bfbf 0c05 0dc0 64a2 81c0 c715 903f
000003f0: 5344 c740 6bde 0940 1226 1740 0b8d 7fc0

bias f4 [10]
0.5958355 0.2754047 0.3199977 -0.38440382 0.075329676 -0.02472939 -0.52197194 -0.3503183
-0.12793586 0.26832116
00000000: ad88 183f d801 8d3e bdd6 a33e 94d0 c4be
00000010: 7246 9a3d 4a95 cabc f49f 05bf ec5c b3be
00000020: 9e01 03be 6461 893e
