models/stock_forecast__1.pth (torch, 69463 bytes, 6 tensors)

weight f4 [128, 60]
000000 ab 07 ad bd 68 3d d4 bd 52 db 2b 3d 20 d1 37 bd
       -0.08448728 -0.10363275 0.041957207 -0.04487717
000010 ec 6f a1 3c 2a 18 bc 3d ae e3 df ba be 6d eb bd
       0.019706689 0.091842964 -0.0017081404 -0.11495541
000020 b0 2b 6f bd 2e 4a 00 3e ea c6 0a bd 60 3b 08 bd
       -0.058391273 0.12528297 -0.033881105 -0.03325975
000030 74 ac 40 3c 12 96 73 bd 7c 16 88 bd bf d8 6e 3d
       0.011759866 -0.05946929 -0.066449136 0.058312174
000040 33 d0 3d bd f3 3f b7 bd 68 91 ca bd 66 5a a6 3d
       -0.046341132 -0.08947744 -0.09891015 0.08122711
000050 cc c1 a2 bd 0b f6 52 bd ac 20 cc 3d e1 70 02 be
       -0.0794712 -0.051504176 0.09967169 -0.12738372
000060 2d ad a3 bd b1 48 8c bc ed a6 10 3e ee 47 b5 bc
       -0.07992015 -0.017124506 0.14126177 -0.022129025
000070 bd 18 9f bd 7d 90 a9 3d 59 4d 09 be 60 72 82 3e
       -0.0776839 0.08279512 -0.13408412 0.25477886
000080 63 5d 20 be 10 ea ef 3d 45 8d 92 3d 66 8d a7 bd
       -0.15660624 0.11714566 0.07155851 -0.081812665
000090 69 1a a6 be 0c d6 bd bc 44 bb eb 3d 02 ae 47 bd
       -0.32442024 -0.023173355 0.115103275 -0.04874993
0000a0 4e 67 0b be 6e 0c 35 be 0e 42 4b bc 07 0e b1 bd
       -0.13613626 -0.17680523 -0.012405885 -0.08645254
0000b0 9b 54 cd bc c4 85 27 be cd 4b 5f 3e 47 da 5b be
       -0.025064757 -0.16359621 0.2180626 -0.21469985
0000c0 e2 4e 5a be 1f 35 cf bd b6 04 a7 3c 83 72 31 3d
       -0.21319154 -0.10117554 0.020387989 0.043322098
0000d0 70 23 0b 3e fc 22 15 bd 03 89 f8 bc f6 68 d4 3d
       0.13587737 -0.036410317 -0.03033877 0.10371582
0000e0 0d b5 1e be 8c cd 87 be fb f4 01 be eb 0e 6f 3e
       -0.15498753 -0.26524007 -0.12691109 0.23345535
0000f0 7e 4c bd 3d 66 d1 13 ba 1e 1d b2 3d 03 0b 0b bc
       0.09243105 -0.0005638808 0.0869696 -0.008486512
000100 34 81 b3 3d c6 b1 d9 bd 17 a8 08 3e f3 ba 15 3d
       0.08764878 -0.10629611 0.13345371 0.03655524
000110 04 3c c7 3d a8 d6 94 3d 9f 62 93 3d 96 79 04 3d
       0.09728244 0.07267505 0.07196545 0.032342516
000120 82 6f 8d bd 88 a2 78 3c 61 bc ae bd 68 f2 e4 3d
       -0.06906034 0.015175469 -0.08532024 0.11179048
000130 9f 1b 61 3d a7 60 73 bd a3 29 02 3d 89 c0 a6 bc
       0.054957982 -0.059418347 0.03177799 -0.02035548
000140 3f cb 17 3d 19 41 fe bd 04 5b 8a 3d 69 77 86 bd
       0.037059065 -0.1241476 0.06755641 -0.065657444
000150 2f fb 2d bd e2 b8 a2 3b 65 ff 1c 3b 45 39 bc bd
       -0.042475875 0.0049658874 0.0023955938 -0.09190611
000160 d2 07 4b 3d 9c b2 4a bd af 49 50 3d 63 b3 51 bc
       0.049568005 -0.04948674 0.05085152 -0.012799117
000170 24 3f 48 3d 5a 1d 81 bd 20 b5 7f 3c 01 e6 98 bd
       0.04888834 -0.063044265 0.015607148 -0.07465745
000180 92 f0 05 3d d7 23 54 3e 9e 25 a6 bc 7f ce bb 3d
       0.03270013 0.20716797 -0.02028161 0.091702454
000190 70 05 61 bd 9f 00 1d 3e a6 a0 57 3e fc d3 9f be
       -0.054936826 0.15332268 0.21057376 -0.3121642
0001a0 1b 9b 60 be 2a 7a 85 3c 92 e8 dc bc 29 9a 89 bd
       -0.21934168 0.016293604 -0.026966367 -0.06718857
0001b0 98 02 7b bd 56 88 49 bd 35 4d 73 3d b4 2c 44 be
       -0.06128177 -0.049202286 0.059399802 -0.19157678
0001c0 d3 48 98 bd 5c 74 d6 bd 36 34 13 3e 69 6c 45 be
       -0.07435765 -0.104714125 0.14375386 -0.19279636
0001d0 9f 45 4c bd e3 92 5f 3d 2b 6e 38 3d b5 48 08 3e
       -0.049871083 0.05458344 0.04502694 0.13308986
0001e0 a9 31 3d bd dd 76 c0 bd 22 e5 1e 3d bf b4 05 3e
       -0.046189938 -0.09397671 0.038792737 0.1305723
0001f0 60 e8 72 3d 94 53 2a bd 30 b3 07 bc dd 04 9e bd
       0.05930364 -0.041583613 -0.008282468 -0.07715771
000200 ff a8 6c bd b3 e9 ef bd 49 ba 18 bd fb a3 7d 3d
       -0.057778355 -0.117144965 -0.03728703 0.061923962
000210 e5 3d cb 3c 75 e6 02 3d 06 58 a2 bc 3d ec 7b bd
       0.024809787 0.031958062 -0.019817363 -0.06150459
000220 78 92 d4 3d d4 48 e1 3d 4a 36 b2 3d 98 f5 83 3d
       0.10379499 0.11000219 0.08701761 0.06443328
000230 b0 fd c0 3d 9e ef 1c 3d ee 68 8f 3b 3b 33 a3 3d
       0.09423387 0.038314454 0.0043765223 0.07968756
000240 a3 c3 8b 3d 17 08 8f bd 81 87 ce bd 9e 8b d2 3d
       0.06824424 -0.06983965 -0.10084439 0.10280536
000250 b4 b9 bd 3d 78 13 c9 3d 99 5d 93 3e 8e 4d 04 bd
       0.09263936 0.098181665 0.28782347 -0.032300524
000260 63 19 1e be 73 3a 46 3c 59 d4 0c be 9a a7 e2 3d
       -0.15439372 0.012098896 -0.13752879 0.11067124
000270 c6 ab d9 3d 44 09 ed 3d d4 12 b6 3e 3a a1 9d bd
       0.10628466 0.11574033 0.3556124 -0.07696767
000280 e2 ea c3 3d 7e 38 4a bd 2e 27 77 3e f9 ea bb 3e
       0.09566285 -0.04937028 0.2413604 0.36702707
000290 02 4c 7d 3d e4 98 95 3c 41 99 20 be fb 79 fe 3d
       0.061840065 0.01826138 -0.15683462 0.1242561
0002a0 9b 44 10 3d 27 60 1c 3e 89 58 b0 3d 29 0a 41 3e
       0.035221677 0.15271054 0.08610637 0.18851532
0002b0 dd 96 37 be 94 a3 34 3e 2a 8e a3 bd 6d 4b 5a bd
       -0.17928644 0.17640525 -0.079861 -0.053294588
0002c0 29 1b a4 3e f0 3b 64 3e 13 b6 8d be 49 2d 1e be
       0.32051972 0.2228849 -0.27677974 -0.15446962
0002d0 63 de 1a 3d 23 0d 8b bd 20 5a ba 3c b8 9f 02 3d
       0.03780974 -0.06789615 0.022748053 0.0318906
0002e0 c0 1c af bd 5d ac 81 bd 9a 69 c1 bd 8f 11 bb bd
       -0.085504055 -0.06331704 -0.0944397 -0.091342084
0002f0 00 4f 95 bd 7b 24 fd 3c ec fb 97 bd c1 f8 9f bc
       -0.07290459 0.030901184 -0.07421097 -0.019527795
000300 91 63 ad bc 56 c4 ec 3b 70 80 9c bd 21 16 66 bd
       -0.021165641 0.0072255535 -0.07641685 -0.056173448
000310 2a 31 82 3b 02 cd d4 bd ee 5b a2 3d 1d c4 ca 3d
       0.003973146 -0.10390665 0.079276904 0.09900687
000320 1d dd ac bd ec 41 9a 3d dd 63 ec 3d 51 db d4 3d
       -0.084406115 0.07532105 0.11542485 0.10393394
000330 79 2c 95 3d fa 40 f4 ba 76 0d 3a bd 57 12 f0 3d
       0.07283873 -0.0018635087 -0.045422994 0.11722248
000340 d0 41 c2 3d 3a c7 ec bd cb 5d 66 be 46 04 21 bd
       0.09485209 -0.11561437 -0.22496717 -0.039310716
000350 f9 45 3b 3e dd 7b d7 bb 01 71 e4 3d 94 33 68 3e
       0.18288411 -0.006576045 0.11154366 0.22675925
000360 07 8e 09 be 73 f7 6e bd 6e 95 28 3e 65 45 07 be
       -0.13433085 -0.058341455 0.16463253 -0.13210066
000370 55 22 0a 3d 71 19 bd 3d c9 ba f2 bd 7d 67 8d 3e
       0.033724148 0.09233368 -0.11852033 0.27618018
000380 ff 27 42 3e 6f a1 31 be 8e c0 24 3e 67 60 12 3e
       0.1896057 -0.17346738 0.16089079 0.14294587
000390 ac 6c 75 3e f0 71 50 3e 2b 32 b0 3b c4 d2 be 3e
       0.23967236 0.20355964 0.0053770742 0.37270176
0003a0 69 ab 1c be d9 1e 56 3d ac 39 35 be 22 17 3f be
       -0.15299763 0.052275512 -0.17697781 -0.18661168
0003b0 c9 a1 b3 bc e8 f8 9f bd e7 51 c2 bd ed d0 c7 bd
       -0.021927731 -0.07811147 -0.09488278 -0.09756646
0003c0 41 74 c1 bc 49 e2 19 3e 4f 6d 20 3d ca 37 2a 3d
       -0.023615004 0.15027727 0.039166745 0.04155711
0003d0 ca 76 e0 3c 4f 70 d0 bc da a1 b9 bd 6d 93 e5 bb
       0.027400393 -0.025444178 -0.09064074 -0.0070061
0003e0 c5 6a 9f bc da 71 ab 3d 90 6b bd bd 4e 22 9a bd
       -0.019460091 0.08371325 -0.092490315 -0.07526074
0003f0 7d 48 1e 3e 3d 7e c6 3b 10 a9 7f bd 4e 77 e1 bd
       0.1545734 0.0060575292 -0.06241709 -0.11009084

bias f4 [128]
000000 05 4b 0e be 16 05 d9 bd 62 8b c1 bc ea 51 a2 3d
       -0.13895805 -0.10596673 -0.023626033 0.0792578
000010 77 c3 4a 3d af d5 36 bd 82 26 8d 3d e9 f3 fe bd
       0.049502816 -0.04463738 0.068921104 -0.12448866
000020 ab 4c eb 3c 2d 0c 03 3c f5 61 04 bc f4 b8 b8 bd
       0.028723082 0.007998508 -0.008079995 -0.09019652
000030 a2 d6 af bb c7 81 c3 bd d1 86 99 3c 2f e5 88 3d
       -0.0053661624 -0.095462374 0.018741043 0.06684338
000040 45 73 6a bd 53 81 05 3e 1d a7 ab 3d 51 20 67 bc
       -0.057238836 0.13037615 0.08381484 -0.014106826
000050 80 53 b6 3d e6 88 a3 bd f8 4a 7a 3d b8 e4 df 3d
       0.08902645 -0.07985096 0.061106652 0.109322965
000060 08 09 bc bd 4b 70 92 3d 5d 28 ad bd e2 c2 fd bd
       -0.0918141 0.071503244 -0.08454964 -0.123906866
000070 0b c8 97 3d 5c 76 f9 3d 72 cb 58 3d a5 5a a2 bb
       0.07411202 0.121807784 0.052928396 -0.0049546533
000080 44 08 be bd a9 83 ff 3d d7 99 ca bd 0f ea 83 bd
       -0.0927892 0.12476284 -0.09892624 -0.064411275
000090 47 f0 ac bd c5 92 d8 bc f3 41 03 3e bf 9e 50 3d
       -0.08444267 -0.026437173 0.12818126 0.050932642
0000a0 ab 50 dc bd 79 00 0e 3e 6b 5f bc 3d 58 d3 9c bd
       -0.10757574 0.13867368 0.09197887 -0.07657498
0000b0 30 c2 ee bd 54 36 20 bd cf ef 15 3d 3a a7 f4 bd
       -0.11658132 -0.03911431 0.036605652 -0.119459584
0000c0 5a a4 c8 bd 82 bd d5 3d ff dd 03 be d5 33 ee 3d
       -0.097969726 0.10436536 -0.12877654 0.1163098
0000d0 22 ad 94 3d 10 ee e6 bb e7 4b 0d 3e ce f5 45 3b
       0.07259585 -0.007047422 0.13798486 0.0030206325
0000e0 9e 97 17 3e 65 63 30 bd c9 1f c9 3d 33 a2 38 3d
       0.14803931 -0.04306354 0.09820516 0.04507656
0000f0 d6 c8 11 bc db 99 a4 3d 4e 94 aa bd a2 33 84 bd
       -0.008897981 0.08037158 -0.08329068 -0.06455161
000100 98 15 bd bd 38 77 c8 bb db 62 09 3e 43 b2 b9 bd
       -0.09232634 -0.0061177276 0.13416617 -0.09067204
000110 78 f0 7e bd 9f b1 5b bd 0e 0f 15 be aa c2 83 3d
       -0.062241048 -0.05363619 -0.14556524 0.064336136
000120 c2 f3 2e 3c d1 be 08 bd 64 11 2f 3b 65 44 8c bd
       0.010678234 -0.0333851 0.0026713246 -0.06848983
000130 4a c7 68 3d c1 f6 4e bd d3 c7 cf bd 3e b5 36 bd
       0.05683068 -0.05052829 -0.10145535 -0.04460644
000140 e3 89 e4 bd 02 70 6d 3d af de 50 bc 84 d2 9a bd
       -0.11159112 0.057968147 -0.012748404 -0.07559684
000150 51 b9 45 3c cb d0 53 bd 00 c9 f6 3d 88 a8 9d bd
       0.012068109 -0.051712792 0.120500565 -0.076981604
000160 99 c0 0c be 9e ce 39 bd 9d 59 9b 3d 18 66 85 3d
       -0.13745345 -0.04536306 0.07585452 0.065136135
000170 ae b1 22 be 04 56 00 3d 97 ba 5a bc 96 da b6 3d
       -0.15888092 0.03133203 -0.013350151 0.08928411
000180 87 6f 17 bd e2 5a 06 bc 0e 0b b0 3b 08 80 c7 3d
       -0.036971595 -0.008200379 0.0053724116 0.09741217
000190 1d fc 09 bc 8f 8d 55 3d 9b 04 ca 3d 21 c4 2a bd
       -0.008421925 0.052136954 0.0986416 -0.04169095
0001a0 3a 69 e0 3c 0e c2 9d 3d 89 3f fd 3c c1 e5 28 bd
       0.027393926 0.077030286 0.030914085 -0.041234735
0001b0 09 6c 48 bd 1a 5f 57 3b e9 cb 91 3c e1 ab c8 bb
       -0.048931155 0.0032863081 0.017797427 -0.006124005
0001c0 64 de 91 bd 48 d2 0c bd b5 92 02 3e e5 25 92 bd
       -0.07122496 -0.034380227 0.12751277 -0.07136134
0001d0 c3 d4 c4 bd 4a 13 50 3d 3f a7 11 3e a0 11 5f 3d
       -0.096108936 0.050799645 0.14223956 0.054460168
0001e0 1c e7 75 3c 4d 0b cf bd a6 92 c3 bd c9 1d 69 bd
       0.015008714 -0.10109577 -0.09549455 -0.05691317
0001f0 87 37 ab 3d ee 3c b2 3c 35 c5 0b bc 26 c1 f7 bd
       0.083602004 0.02175757 -0.008530905 -0.12097387

weight f4 [64, 128]
000000 dc b9 ca bc 06 da c9 bb 7e aa 15 be af b5 6d bd
       -0.024746828 -0.0061600236 -0.14615819 -0.058034595
000010 55 79 a2 3d de 0e 13 bc 96 9b ac 3c f8 c5 9c 3d
       0.079332985 -0.008975713 0.021070283 0.07654947
000020 a3 ea c8 3d 73 35 a9 bc 37 f9 eb 3d e7 5e fe bd
       0.098103784 -0.02065537 0.11522143 -0.12420445
000030 7a 87 27 bd 5a 17 02 be 24 c3 24 3d 0e 73 93 bd
       -0.040900685 -0.1270422 0.040225163 -0.07199679
000040 46 cd 36 3d 72 91 a8 bd 10 3d 89 bc ae bf 15 3e
       0.044629358 -0.082308665 -0.01675275 0.14623901
000050 62 db 09 be 6d 31 02 be a9 ed 92 3c 57 b0 0e 3d
       -0.13462594 -0.12714167 0.01793559 0.03483614
000060 77 a5 b5 bd 44 2f 14 3d 71 71 49 3d c1 39 af bd
       -0.088694505 0.03617789 0.04918045 -0.085559376
000070 0e 5f 12 be b2 41 8e bd 71 0a 88 3d 32 fd 2e be
       -0.14294073 -0.06946124 0.066426165 -0.17088774
000080 77 4e fa 3c dd 5a f6 3b 81 b1 ab bc ca a3 83 3d
       0.030554993 0.007518156 -0.020958664 0.06427725
000090 02 ac 4d 3d 06 cc 99 3d 1d f4 15 be 90 f9 7d bc
       0.050212868 0.075096175 -0.14643903 -0.015501395
0000a0 8c 1e a7 bd 7f 8e db bd 39 9c 91 3d dc 09 f5 bc
       -0.08160123 -0.10720538 0.07109875 -0.029911928
0000b0 3b 5a ec 3c e8 51 fb bc 80 38 5f bd 77 2c 10 3e
       0.028851619 -0.030678704 -0.054497242 0.14079462
0000c0 3e 89 68 3d d7 51 97 3d e2 fa 29 3d 81 cc 96 3c
       0.05677151 0.073886566 0.041499026 0.018408062
0000d0 29 82 ab 3c b7 af 69 bb 67 06 9e bd 6c c0 de bd
       0.020936089 -0.0035657713 -0.07716065 -0.10876545
0000e0 53 97 df 3d 59 59 49 be ba a0 3c bd d8 02 fc bd
       0.10917535 -0.1966299 -0.04605172 -0.1230523
0000f0 76 cb 86 bd ec ad 9e bd 43 69 5d 3e 33 61 b3 3c
       -0.06581776 -0.07748017 0.21622185 0.021896934
000100 07 16 8e 3d bb 2f 0c bb a4 24 84 be ce 39 e0 bd
       0.06937795 -0.0021390754 -0.25809205 -0.10948525
000110 81 cb ae bd ff 2e 93 3d ed 16 ab bd 5f a4 6e 3e
       -0.08534909 0.07186698 -0.08353982 0.2330489
000120 bb 0b a9 3d 9f ce 65 be 3d c9 7a be 26 86 23 3d
       0.082541905 -0.22442101 -0.24490829 0.039922856
000130 00 ba 08 bd af 5a 7f be d6 b5 4c bd 19 0d 23 bc
       -0.03338051 -0.24936937 -0.0499781 -0.009951853
000140 ac 0c a8 3d be a1 08 be ee a1 02 bd 0f 71 32 3a
       0.08205542 -0.1334295 -0.03189271 0.0006807008
000150 19 90 38 be da 21 ce 3d af 97 99 3d cc e2 fb 3c
       -0.18023719 0.100650504 0.074996345 0.030747794
000160 1b 28 92 bd 5d 93 bb 3d fa f0 e6 3b e1 95 21 bd
       -0.07136556 0.09158967 0.0070477696 -0.039449576
000170 1b 7f 44 3c 8a ef 45 be ba 1f 77 bd 9e cd 0c be
       0.011993195 -0.19329658 -0.06033299 -0.13750312
000180 b4 7f fe 3d 47 87 2d 3c 7b ff 86 be 3b 28 02 be
       0.12426701 0.010591335 -0.2636679 -0.12710659
000190 7d ef 8b be 7c 1b 1d 3c 5f e5 06 be bd 56 9c 3d
       -0.27331153 0.009589072 -0.13173436 0.076337315
0001a0 9e 5e 40 3d 65 0f eb 3c ce eb ee bc 41 25 b3 bd
       0.046965234 0.028693864 -0.029165175 -0.0874734
0001b0 f4 2d 53 3d d1 bf 64 bc 9a 1f 6f bd 3b 8a 00 3d
       0.051557496 -0.013961748 -0.058379747 0.031381827
0001c0 35 57 82 3c 9d 0a 86 bc 30 aa 75 3d 7e 40 2e be
       0.015910724 -0.016362483 0.059976757 -0.1701679
0001d0 93 ec 42 be da bf cb bc 5a 07 07 3c f6 6e 4d bd
       -0.19035558 -0.024871755 0.008241499 -0.05015465
0001e0 bf ca ca bd c1 73 22 3e 54 d1 bf bc 63 ee ac bc
       -0.09901952 0.15864469 -0.023415245 -0.021109765
0001f0 a7 da 90 3c b3 97 67 3d bb f8 35 3d f0 82 bc 3d
       0.017682387 0.056541156 0.04442666 0.09204662
000200 24 6a cd 3d f0 b2 81 3c b6 6f 01 be d8 ce 68 3d
       0.1003001 0.015832394 -0.1264027 0.056837887
000210 fd 3b 11 3e bd 1a 9a bc ac 1e be bc 6d 2b c3 3c
       0.1418304 -0.018811578 -0.023207985 0.023824418
000220 c6 27 08 3c 64 de ba bd 6f 4c a4 3d a0 66 40 bd
       0.008310264 -0.09124449 0.08022391 -0.04697287
000230 80 ac 0e be fc 7a 53 be 49 6a 5d b9 d2 35 46 bd
       -0.13932991 -0.20652384 -0.00021115797 -0.04839117
000240 11 3c 0e b9 8a 7e 04 be 6e 7f 44 bd 4b a4 84 3e
       -0.00013564552 -0.12938896 -0.04797309 0.25906596
000250 c7 90 c2 bd b1 19 59 bd 88 47 a0 3d b5 79 92 3b
       -0.0950027 -0.053003017 0.078261435 0.004470075
000260 e0 da 55 bd a2 d3 2f bd 15 ab 5f 3d d8 88 5f 3c
       -0.05221069 -0.04292644 0.054606516 0.013643466
000270 49 cd ed bd 44 ef 09 be 60 24 71 3d be 99 48 be
       -0.11611421 -0.13470179 0.05887258 -0.19589898
000280 1d df 34 3e a4 d8 6f bd 17 67 4b 3d 32 c2 7f 3d
       0.17663236 -0.058556214 0.04965886 0.06244106
000290 1f e4 b5 3d 65 d3 72 3d 48 12 2d be 07 78 f3 bc
       0.08881401 0.059283633 -0.16901505 -0.02972032
0002a0 83 10 bc ba 00 a3 67 3c 09 ca 55 bd ef b6 62 3d
       -0.0014348183 0.014137983 -0.05219463 0.05535024
0002b0 c5 ca 90 3c c0 99 77 3d 15 7f c2 bd 15 ac eb 3d
       0.017674813 0.06044936 -0.09496895 0.115074314
0002c0 d5 2a 32 3b 68 53 e9 bc c8 ad 67 3d 4d a6 8c bd
       0.0027186174 -0.028482154 0.056562215 -0.06867657
0002d0 3b ad 32 3c d3 e5 f1 bc 45 68 07 be a4 44 59 3d
       0.010905559 -0.029528534 -0.1322337 0.053043976
0002e0 3a 8d 71 3d c9 70 8b bd 7d 61 82 bd 01 be 0f be
       0.058972575 -0.068086214 -0.06366251 -0.14037324
0002f0 a9 2e 31 bd 77 ab 79 3d 23 8e 15 3e c5 2c c2 bd
       -0.04325739 0.060954537 0.14605002 -0.09481195
000300 e9 8a e7 3d 27 80 03 bd 47 9e 55 be c4 43 f9 bd
       0.11305792 -0.032104637 -0.2086116 -0.121711284
000310 71 c4 6f bd 3b f7 0f bd 17 d2 e8 bc 66 42 54 3e
       -0.05853695 -0.035147887 -0.028420491 0.20728454
000320 2a a3 72 3d 2a 00 e2 bd 9a 64 74 be 96 ca a7 3c
       0.059237637 -0.110351875 -0.23866501 0.020482343
000330 14 5a 51 3d 6b 6e 3e be a4 f8 c9 bd ba 1e aa bd
       0.051111296 -0.18596809 -0.098618776 -0.08306642
000340 f2 8e 0b bc 4e 9e bf bd 89 40 74 bd 8b 46 9a bc
       -0.008517968 -0.09356366 -0.059631858 -0.018832466
000350 ec 77 1a be ac 7d af 3d 88 ad c2 3c 68 bf 47 3c
       -0.15084809 0.08568892 0.023764387 0.012191631
000360 bf f8 cb 3c 6d 6c f1 3c 4d a3 e6 bd 13 85 5c 3d
       0.024898885 0.029470647 -0.11261616 0.053837847
000370 de ba 8b 3d 23 a0 11 be 27 53 c4 bd 84 60 27 be
       0.068227515 -0.14221244 -0.095861726 -0.16345412
000380 9f ac a0 3d 05 c1 38 3d d9 9e 2f be c0 0a 0f be
       0.07845425 0.045105953 -0.1715044 -0.13968945
000390 fe 24 bd be dd cb d5 3c 32 c5 1f be 34 b3 a7 bd
       -0.36942285 0.026098186 -0.15602568 -0.08188477
0003a0 3f af c5 bd f4 ed cb 3d ff 33 b2 3d 51 ec f1 bd
       -0.09652566 0.09957495 0.08701324 -0.11812652
0003b0 86 92 9b bc d8 67 50 3d c7 c7 40 be fb e5 e2 3d
       -0.018990766 0.050880283 -0.18826209 0.110790215
0003c0 d2 fb 2b 3b b7 21 ee bc 02 02 9a 3d c9 02 67 bd
       0.0026242626 -0.02906881 0.07519914 -0.05639914
0003d0 20 5d cd bd a5 89 c1 bd c7 79 4f bc db 83 25 bd
       -0.10027528 -0.09450082 -0.012663311 -0.04040895
0003e0 ba 1d 84 bd a8 4c f5 3d 75 e1 a6 3d ad 80 c1 3d
       -0.064509824 0.11977512 0.08148471 0.09448371
0003f0 61 78 bf 3d de 8c 3c 3d d7 fe d8 bc 6d d8 4d 3e
       0.09349132 0.04603278 -0.026488705 0.20102091

bias f4 [64]
000000 dc 28 20 bd 5b af 6d 3d 85 f8 a5 3c d8 42 88 3a
       -0.039101467 0.05802856 0.020260105 0.0010395898
000010 3a db 6e 3d 07 9c 2a bd 83 bf 86 bd 2c 92 73 bd
       0.05831454 -0.041652706 -0.06579497 -0.059465572
000020 4c 36 4d bc da 34 09 bd 25 f3 8b bd fc cb b3 3d
       -0.012525152 -0.03349767 -0.068334855 0.08779141
000030 d5 0f 00 bd 41 33 a5 bd c3 cb d7 3c 59 25 c7 bb
       -0.0312651 -0.080664165 0.026342278 -0.0060774502
000040 f2 d2 63 3d fa 3d a8 3d e7 c9 d3 3b a6 3f 7b bd
       0.055621095 0.08214946 0.0064632776 -0.061339997
000050 6b 3c 5e bd 29 d6 67 bd 3f 38 82 bd f5 58 79 3d
       -0.054256838 -0.056600723 -0.06358384 0.06087585
000060 b4 b4 cc bc f0 fa 61 bd 72 be 90 bd ae 61 90 3c
       -0.02498851 -0.055170953 -0.070675746 0.017624702
000070 dd bd d3 bd ad 65 b3 bd c9 53 9e 3c cc 67 2b 3d
       -0.10338948 -0.087596275 0.019327061 0.041847035
000080 9a bb 0e 3d 68 67 35 bd 00 08 3e bc cc c4 c7 3c
       0.03484688 -0.04428807 -0.011598587 0.024385832
000090 79 63 46 bd e7 3a cf 3a 38 87 e5 3c 33 e7 68 bd
       -0.04843471 0.0015810401 0.028018579 -0.056861114
0000a0 1b d8 e7 b9 88 ef b8 bd 3a 39 ae bd 96 71 b7 bd
       -0.00044220765 -0.09030062 -0.08507009 -0.08957212
0000b0 71 7f cc ba 00 59 28 3d 3b e3 75 bd a2 09 68 3c
       -0.0015601945 0.041100502 -0.060031157 0.014162453
0000c0 5b 5d 16 3d 53 ec a0 bd 36 a1 9a 3d 1d 06 b0 3c
       0.036710124 -0.07857575 0.0755028 0.02148729
0000d0 48 f1 00 bd 4c 9b 9a bd a3 ff 75 bd 37 97 96 3a
       -0.031480104 -0.07549152 -0.060058247 0.0011489157
0000e0 87 03 88 3d 1c f3 4e bd a2 d1 a7 bc 4e 45 a7 bd
       0.06641298 -0.050524816 -0.020485703 -0.08167516
0000f0 dc bf 4d 3d 0b 40 cf bd e8 1e 4e 3d eb a5 3e bd
       0.0502318 -0.10119637 0.050322443 -0.04654495

weight f4 [10, 64]
000000 4e 28 de 3d a5 bb 16 bc 04 50 be 3c 34 ff 9d 3d
       0.10847531 -0.009200011 0.023231514 0.07714692
000010 93 a5 45 bc f7 d0 ef bd 68 c6 85 bd 9f 57 0b 3e
       -0.012063402 -0.11709779 -0.065319836 0.13607644
000020 9c 6e 92 3c 8e 85 24 bc a6 fc e2 3d 49 d3 cc 3d
       0.017875008 -0.010041608 0.11083345 0.10001237
000030 0e 5b 9c 3d 82 29 f3 bd dd c3 24 3e d7 40 27 bd
       0.07634555 -0.11873151 0.16090341 -0.04083332
000040 2a cb c3 bd 95 74 08 bd 40 29 63 3d 2f dd a5 bc
       -0.09560235 -0.033314306 0.05545926 -0.02024707
000050 02 0f 29 3e d7 2a b6 bc 2c c9 15 3e a4 a4 f9 bd
       0.16509631 -0.022237225 0.14627522 -0.12189606
000060 d5 4c fb bd 2d 4b d3 bd 26 3f c4 bd 88 04 c7 3d
       -0.12270514 -0.10317073 -0.09582357 0.09717661
000070 e2 cb 5c 3c 01 84 a5 bd 01 9a ff 3d 32 2e 92 bd
       0.013476344 -0.08081818 0.12480546 -0.07137717
000080 c5 ca 3b be 68 e5 0e 3e 19 8d 00 3a 0b e6 c1 3d
       -0.18339069 0.13954699 0.00049038377 0.09467705
000090 6f 99 d7 bd 29 30 d3 3d 52 6a 77 3c 74 02 58 3e
       -0.10527312 0.1031192 0.015101032 0.21094686
0000a0 bd 2d e5 bd b9 9d ad bd 2e 55 78 3d e3 c7 a9 bd
       -0.111903645 -0.08477349 0.06062811 -0.082900785
0000b0 e9 9f e9 bd 16 72 3b be 9a 4f 41 3e 8f a9 0f be
       -0.114074536 -0.18305239 0.18878022 -0.14029525
0000c0 4d 64 01 be 12 ac c0 bd 35 88 f2 bd 24 d9 c2 bb
       -0.12635918 -0.0940782 -0.11842386 -0.0059462953
0000d0 a0 d6 2d 3e e8 62 2b be c5 fb a1 bd bf d6 b8 3d
       0.16976404 -0.16736948 -0.07909349 0.090253346
0000e0 aa 75 53 3e b9 d8 23 be 91 17 b3 3c 11 24 29 3b
       0.20650354 -0.16000642 0.021861823 0.002580885
0000f0 fa 09 51 3b 6c 9d 88 bc 6b b1 9d bd d4 e5 b9 3d
       0.0031896816 -0.016676627 -0.076998554 0.09077039
000100 70 23 ce 3d 6c ab d6 3d 8e 52 5b 3d 4f ee e7 3c
       0.10065353 0.10481915 0.053545527 0.028311877
000110 30 b6 3d bd 61 61 c3 bd 24 05 15 be e4 67 b6 3d
       -0.046316326 -0.09540058 -0.14552742 0.08906534
000120 24 ab 42 bd 8b 15 14 be 11 14 27 3e a0 22 4f bd
       -0.047526494 -0.14461343 0.16316248 -0.05057013
000130 ae 8d 87 3b 90 9d d1 3d a1 d4 e8 bc f0 d9 fb bd
       0.0041367626 0.10235131 -0.028421702 -0.12297428
000140 85 e6 17 bd 4a 2b 5e bd 42 35 eb 3d 12 45 84 bd
       -0.037085075 -0.054240502 0.114847675 -0.064584866
000150 eb e3 0b 3e a5 f5 5a 3d 9f 33 e5 bc 8b 54 bf bd
       0.13661163 0.05345692 -0.027978716 -0.09342297
000160 99 eb 94 bd d3 d0 80 bd 37 66 db bd 09 a6 e5 bd
       -0.07271499 -0.0628983 -0.10712855 -0.11213309
000170 be a2 b2 3d b2 c5 29 bd 3f c9 a0 bd 1b 6a 1b be
       0.08722447 -0.041448303 -0.07850885 -0.15177195
000180 73 34 c5 bd 1e 43 de 3d ab 10 c4 3d 9b 3f d7 3d
       -0.096291445 0.10852645 0.09573492 0.10510179
000190 45 f6 23 be 82 78 63 3d 03 7c 5e 3d 51 ff 45 3e
       -0.16011913 0.055534847 0.054317486 0.19335677
0001a0 a9 56 15 be 4e ce 16 be 9c f3 12 3e 27 d4 6a bd
       -0.1458384 -0.14727136 0.14350742 -0.05733123
0001b0 97 88 22 be 30 a9 cd bd 02 76 95 3d 3f f3 01 be
       -0.15872417 -0.100420356 0.07297899 -0.12690447
0001c0 b8 24 31 be 42 a2 a1 bd 09 71 07 bd d6 43 11 be
       -0.17299163 -0.07892276 -0.033066783 -0.14186034
0001d0 67 8e 13 3e 7b ac 4e bd f8 dc a7 bd 56 55 ad bd
       0.14409791 -0.05045746 -0.08196443 -0.08463542
0001e0 3c 7b 28 3c f9 fe f3 bd b1 74 38 3e 8c 05 2d bd
       0.010283288 -0.119138665 0.18013264 -0.042241618
0001f0 45 9c ff 3d ac 17 a4 3d a0 0c 7c 3d 79 ed 1d 3e
       0.12480978 0.080123276 0.061535478 0.1542262
000200 6b 46 ca 3d 1a 3e cb 3d 26 d2 84 bd 37 f9 83 bd
       0.098767124 0.09923954 -0.06485395 -0.06444018
000210 65 5d e0 bd 13 3a 01 3d 02 bd ef bd b3 a2 ef 3d
       -0.109553136 0.031549525 -0.11705972 0.11700954
000220 d9 c5 d5 bd 95 8f 8a bd 3a 1b 5d 3e b3 36 9f 3d
       -0.10438127 -0.06765667 0.21592417 0.07774105
000230 64 62 08 bd bd f1 66 bc 86 89 16 3e 00 c1 dd 3a
       -0.033296958 -0.014095721 0.14700899 0.001691848
000240 87 cb cd bb ac fb 6d bc 82 60 f9 3d 8d f3 0a 3e
       -0.006280366 -0.014525335 0.121766105 0.1356947
000250 c3 6b a7 3d 7d 7a 4d bd f7 1a 2a 3e 5b 08 62 bb
       0.08174851 -0.050165642 0.16611849 -0.0034489844
000260 8f 82 b7 bb 1a 37 fa bd 56 f4 e6 bd 35 11 ae bd
       -0.0056002806 -0.12217541 -0.11277072 -0.08499376
000270 20 16 6d bd 17 87 13 be 58 ac 56 3d ac f7 3d bc
       -0.05788243 -0.14407001 0.052410454 -0.011594694
000280 eb b1 77 bd d4 64 a5 3d cf e2 49 3d ef 86 1b 3e
       -0.06047241 0.08075872 0.049288567 0.15188192
000290 b7 b0 00 be 58 97 05 bd df 2a c6 3d 8e ea 4f 3e
       -0.12567411 -0.032615036 0.09676146 0.2030432
0002a0 33 10 9c 3d 36 dc 2f 3d 95 b6 ed 3d a3 19 12 be
       0.07620277 0.04293462 0.116070904 -0.14267592
0002b0 05 5c c3 bd ad 53 ad 3c 66 a0 df 3d 71 77 d8 bd
       -0.09539036 0.021158064 0.109192654 -0.10569657
0002c0 9a 7f ab bd 98 4a 8d bd 82 7c 2c bd 6e bb 50 3b
       -0.083739474 -0.06898993 -0.042110927 0.0031849998
0002d0 43 19 76 3d c6 29 c9 bd 18 bc cb 3d 39 07 c0 bb
       0.060082685 -0.09822421 0.099479854 -0.005860236
0002e0 d9 6b 37 3e ed 2f b5 bc 7a 98 2b 3e 83 5a ac bd
       0.17912234 -0.02211758 0.16757384 -0.08415701
0002f0 6a 88 04 3e 4c 3f 0c be 92 ca c2 bd 86 43 05 bd
       0.12942663 -0.13696021 -0.095112935 -0.0325351
000300 04 d8 28 3d df 47 23 3e 40 fd 26 3d bb bf 20 3e
       0.041221634 0.15945385 0.04076886 0.1569814
000310 35 f7 28 be b9 9a 9a 3d 7b 01 8e bd c3 e3 33 3d
       -0.16500552 0.07549042 -0.06933876 0.043918382
000320 36 7b 79 3d c0 f5 1c bd 45 b0 01 3e f6 9b 0d 3e
       0.06090852 -0.038320303 0.12664898 0.13829026
000330 23 66 38 be 85 cf 06 3e 99 8d 28 bd 63 22 b9 3d
       -0.18007712 0.131651 -0.041150663 0.09039762
000340 ea ff ef 3d 64 b1 c5 3d f5 e5 be 3d c9 43 dd bc
       0.117187336 0.09652975 0.093212046 -0.027009862
000350 6e 94 07 3d 4a b5 08 be d6 91 c9 3d 91 f7 9f 3d
       0.033100538 -0.13350406 0.09842269 0.078108914
000360 7c 6d b3 bc 77 a2 fc 3c 2d 50 f4 bc a5 f5 6d bd
       -0.021902792 0.030839188 -0.029823387 -0.058095593
000370 ad d1 19 3e 1a 7c 9b bc 7a de 09 3e 83 4a 13 3e
       0.15021391 -0.018980075 0.13463774 0.14383893
000380 30 58 16 3e 8a ff 0c 3e ba e5 2d 3e ed 2d 1a 3e
       0.14682078 0.13769355 0.16982165 0.15056582
000390 d1 d6 19 bd 13 6a 60 b9 75 6f 66 bc b9 69 11 bc
       -0.03755838 -0.0002140182 -0.014064659 -0.008875304
0003a0 d8 66 c5 3d eb 7f b5 bd c3 fe 9f 3d d0 05 3d be
       0.096387565 -0.08862289 0.07812264 -0.18459249
0003b0 16 07 a8 3c 26 26 b0 3d 4f a2 14 bd 7a 43 69 bc
       0.020511191 0.08601026 -0.036287602 -0.014237279
0003c0 6e 89 0b be 7c c3 0b be 9b 2b c0 bd bc 79 1f bd
       -0.13626644 -0.1364879 -0.09383317 -0.038934454
0003d0 97 a9 45 3d 63 43 87 bd 05 c5 e7 3d 36 ea 6b bc
       0.048257437 -0.0660465 0.11316875 -0.014399102
0003e0 d4 02 13 3e 7a ea 42 bc d0 ea 5a 3e 6d 28 e1 bd
       0.14356548 -0.011896724 0.21378636 -0.10994039
0003f0 ab 54 19 3e df eb 09 3d 87 19 fa bc 54 00 56 3e
       0.14973705 0.03367221 -0.03052975 0.20898563

bias f4 [10]
000000 0e 72 77 bd 92 64 fe bd f9 ce 0d 3d 1d 09 4f bd
       -0.060411505 -0.12421526 0.034621213 -0.0505458
000010 58 9d 69 3d 31 6d af 3d 3e 07 9e bd e6 f4 80 3c
       0.05703482 0.085657485 -0.07716225 0.015741777
000020 5b 9e 15 bd 8b d7 21 3d
       -0.036527973 0.0395122
