models/stock_forecast1 (0310_1938).pth (torch, 69911 bytes, 6 tensors)

weight f4 [128, 60]
-0.15563196 -0.096070655 -0.057986274 -0.32012406 0.02764716 -0.042855807 -0.011361892 -0.1074487
0.0748247 -0.03581258 0.037988406 0.5175316 0.34565318 -0.24336158 0.17116573 -0.048359692
-0.16594364 -0.20834082 -0.07692071 -0.2990119 0.007321046 -0.17701285 -0.13376048 -0.2786132
-0.81759036 -0.13466932 -0.12961656 -0.062340192 0.014150339 -0.59467727 -1.86645 -1.7148383
2.8921635 -0.5605895 0.7293171 -0.66487104 -2.517066 -0.07293517 -1.1564158 -5.3752866
-1.8633299 -0.6622192 -0.7396008 -2.3269956 0.8087534 1.7461138 1.3712463 2.0429552
-1.1138948 -1.5971504 -3.8538673 -3.3019931 2.967599 -1.1666223 0.8944618 -2.5817003
-0.58773553 -0.88546044 1.6099305 0.21895146 0.2670148 0.2234702 0.2831946 0.24273725
0.5367309 0.32447854 0.23739223 0.41982988 0.19822219 0.2116218 -0.34265748 -0.17139328
0.09297906 0.07270966 0.104657635 0.21937321 -0.27215126 0.17187709 0.47609016 -0.17289074
-0.13312767 -0.09353705 -0.37217963 0.019864427 0.29525214 0.15760688 0.36916515 0.13157603
-0.27233136 -0.016857447 -0.82113355 -0.39280158 0.675317 1.3739569 -1.3344074 -0.5757399
-1.8606153 0.28926122 0.90402853 -2.5266101 2.2276354 0.68798995 -0.46181002 2.409521
0.61711824 -2.253336 0.022608092 0.533784 1.8454274 -1.4027498 -2.2671432 1.0656085
-0.58132195 0.28302684 2.0628405 1.9427848 1.5326884 0.42746234 -0.9464215 1.7168691
-0.49984795 -0.091986954 -0.11803677 -0.07016851 -0.025845695 0.0934876 -0.1625561 0.04787474
-0.011901741 -0.12285371 -0.01815091 0.063621014 0.33881244 0.301857 0.255827 0.23001987
0.25642553 -0.038678814 0.14535742 0.31541678 0.24399194 0.2622865 0.2616423 0.44056755
0.32431027 0.21152246 0.4921041 0.13239329 -0.17711818 -0.04803203 -0.8652794 -3.9821532
1.2728902 0.26273572 -1.9449009 -1.8333086 -1.4476156 0.69779265 1.7785646 -0.36055717
-1.2636331 0.6097483 -0.4314519 0.4186216 2.1313243 -0.64811677 1.4960935 1.6392933
0.44924447 -1.0742856 2.733571 2.187724 -1.4912994 1.1707197 -0.6166616 -2.9697754
1.8180623 -2.0770836 1.2529358 0.07904002 0.17839566 0.25157177 -0.0514603 -0.14559866
0.14811657 -0.00063779665 -0.17990136 -0.081373386 -0.094237745 0.17785019 -0.27985 -0.2101717
-0.31485868 -0.16379455 -0.10063417 -0.24531938 -0.11024536 -0.3279147 -0.7396057 0.020353388
0.04665216 -0.088684596 0.034815755 -0.09166175 0.30093676 -0.14859243 -0.2585712 -0.36255383
-0.40904722 -0.16044866 -1.1953256 -0.13729262 3.4795773 1.7746377 -1.1824924 -1.1388872
1.3682569 0.5875067 -1.5300549 1.5926988 1.5211947 2.44808 0.34892645 1.8167264
-0.7066686 -0.9015249 -2.761786 0.7324588 -5.71074 2.1366723 -0.29354706 3.327363
1.728464 1.0480607 0.23754501 -1.3022745 0.4333013 -2.7874746 -1.3411407 1.870085
0.37278208 0.13069811 -0.0059106126 0.064312726 -0.09867855 -0.16364834 0.8708671 0.2324128
0.1727389 0.5210916 0.2026752 0.14444363 0.14610675 -0.27489486 -0.36007077 -0.37604997
00000000: fc5d 1fbe b1c0 c4bd 0483 6dbd 4de7 a3be
00000010: 4c7c e23c 9289 2fbd 3b27 3abc 100e dcbd
00000020: b13d 993d 36b0 12bd bb99 1b3d f37c 043f
00000030: 74f9 b03e c733 79be 1246 2f3e d014 46bd
00000040: 21ed 29be 4c57 55be 9b88 9dbd 1618 99be
00000050: 63e5 ef3b db42 35be 82f8 08be 64a6 8ebe
00000060: 9a4d 51bf c1e6 09be 34ba 04be 6e58 7fbd
00000070: d3d6 673c c53c 18bf d5e7 eebf d27f dbbf
00000080: 3519 3940 cb82 0fbf 87b4 3a3f fd34 2abf
00000090: 9c17 21c0 095f 95bd 6f05 94bf 5902 acc0
000000a0: 9881 eebf 3387 29bf 7a56 3dbf 7fed 14c0
000000b0: 760a 4f3f a880 df3f 0085 af3f c7bf 0240
000000c0: 1b94 8ebf 6d6f ccbf c3a5 76c0 db53 53c0
000000d0: 24ed 3d40 e153 95bf 73fb 643f 943a 25c0
000000e0: d675 16bf 89ad 62bf 3412 ce3f d034 603e
000000f0: 2ab6 883e 5fd5 643e e2fe 903e 1d90 783e
00000100: 3267 093f 0d22 a63e f316 733e f1f3 d63e
00000110: c2fa 4a3e 63b3 583e cd70 afbe b881 2fbe
00000120: ce6b be3d cde8 943d be56 d63d 5fa3 603e
00000130: 6957 8bbe 8c00 303e 17c2 f33e 450a 31be
00000140: 9f52 08be 5a90 bfbd 548e bebe b9ba a23c
00000150: 4a2b 973e b363 213e 3703 bd3e debb 063e
00000160: 046f 8bbe a118 8abc cf35 52bf 4a1d c9be
00000170: 93e1 2c3f d2dd af3f ddcd aabf b163 13bf
00000180: a428 eebf 0c1a 943e 6a6e 673f fbb3 21c0
00000190: 9491 0e40 1c20 303f 5d72 ecbe 9835 1a40
000001a0: 76fb 1d3f a836 10c0 9b34 b93c 11a6 083f
000001b0: f736 ec3f 4e8d b3bf e018 11c0 dc65 883f
000001c0: 84d1 14bf e5e8 903e 9405 0440 2cad f83f
000001d0: 222f c43f 58dc da3e ae48 72bf 5ec2 db3f
000001e0: 12ec ffbe a863 bcbd 43bd f1bd 82b4 8fbd
000001f0: 5aba d3bc 6d76 bf3d 1b75 26be 4e18 443d
00000200: 85ff 42bc ba9a fbbd 38b1 94bc bc4b 823d
00000210: d378 ad3e 008d 9a3e c2fb 823e 548a 6b3e
00000220: 354a 833e ad6d 1ebd 93d8 143e 4f7e a13e
00000230: 06d9 793e 6b4a 863e fbf5 853e 1292 e13e
00000240: ff0b a63e 5899 583e 12f5 fb3e 1b92 073e
00000250: 785e 35be 3cbd 44bd f382 5dbf 99db 7ec0
00000260: 11ee a23f 4c85 863e 83f2 f8bf dba9 eabf
00000270: 784b b9bf 8aa2 323f 01a8 e33f f39a b8be
00000280: bbbe a1bf 7718 1c3f 43e7 dcbe 9255 d63e
00000290: 9e67 0840 fbea 25bf fe7f bf3f 5dd4 d13f
000002a0: 5f03 e63e 3182 89bf d4f2 2e40 ac03 0c40
000002b0: e6e2 bebf 25da 953f 89dd 1dbf cd10 3ec0
000002c0: 44b6 e83f f0ee 04c0 3360 a03f bcdf a13d
000002d0: 5aad 363e 04ce 803e 09c8 52bd d117 15be
000002e0: dfab 173e cf31 27ba 1038 38be 17a7 a6bd
000002f0: b8ff c0bd 5c1e 363e 8048 8fbe 4037 57be
00000300: 2835 a1be c2b9 27be 4a19 cebd 0135 7bbe
00000310: 52c8 e1bd 70e4 a7be cd56 3dbf 26bc a63c
00000320: 5616 3f3d 45a0 b5bd f79a 0e3d 28b9 bbbd
00000330: 6214 9a3e 9d28 18be 7263 84be a8a0 b9be
00000340: a36e d1be a74c 24be 6e00 99bf 7096 0cbe
00000350: 65b1 5e40 5427 e33f e95b 97bf 0ec7 91bf
00000360: 0b23 af3f d766 163f d7d8 c3bf 8edd cb3f
00000370: 82b6 c23f 58ad 1c40 7da6 b23e 7e8a e83f
00000380: 3ce8 34bf 56ca 66bf 1ac1 30c0 6b82 3b3f
00000390: 62be b6c0 3dbf 0840 cd4b 96be 84f3 5440
000003a0: 4f3e dd3f da26 863f 003f 733e eeb0 a6bf
000003b0: abd9 dd3e fc65 32c0 80aa abbf f25e ef3f
000003c0: 4bdd be3e bad5 053e d0ad c1bb 64b6 833d
000003d0: fb17 cabd 6e93 27be 25f1 5e3f 9ffd 6d3e
000003e0: 77e2 303e 4266 053f 168a 4f3e 08e9 133e
000003f0: 029d 153e 05bf 8cbe 325b b8be 9f89 c0be

bias f4 [128]
0.07230448 0.306367 -0.55466586 0.105999544 0.35683563 -0.0018887037 -0.07439946 -0.5375767
-0.16101441 0.16087818 -0.548619 0.004591886 -0.2613353 -0.39433435 0.21029264 -0.4707017
0.24543963 0.090159565 -0.08767245 -0.05597389 0.22097532 0.2698243 -0.30873483 0.12107267
0.08907662 0.096337415 0.26045573 -0.34728706 0.045175813 0.27373326 -0.48335713 0.21367666
-0.14509091 -0.0029353811 0.3491303 0.12890872 -0.17905791 0.022740046 0.32607043 -0.1992006
-0.03686118 -0.1874013 -0.12884696 -0.33075798 -0.4377325 -0.34108162 0.020317495 -0.29443994
-0.14083494 -0.07274284 0.03307776 -0.0398912 -0.10784518 -0.07917497 -0.09921244 0.10942604
-0.084501065 -0.14286591 0.00905042 -0.40013528 -0.17329425 -0.063272975 0.07487292 -0.058476042
0.2610295 -0.31759226 -0.09188795 0.03426618 0.49634594 0.24888465 0.033686727 -0.2972841
-0.33641416 0.099271365 -0.4453018 -0.27581623 0.20802027 0.24618195 0.13013919 -0.06587053
0.05770488 0.4004759 0.26010406 -0.20408171 0.39363348 -0.33627522 -0.4168937 0.5634151
-0.15294112 -0.08002485 -0.46417564 0.30255446 0.0879484 -0.45120096 0.098458454 0.2910969
-0.16241966 -0.1617069 -0.18079516 0.54796374 0.01309934 0.22293814 0.17190287 0.3373894
-0.107285075 0.19243512 -0.51190317 -0.13835493 0.17730957 0.06463953 -0.02665602 0.57477635
-0.28367636 -0.11537256 -0.49746132 0.33676088 0.20938432 0.106536016 0.11050519 0.123301886
0.30420175 0.1093785 0.019303922 0.5785457 -0.20050755 -0.33327574 -0.14101318 -0.0731978
00000000: 5f14 943d 23dc 9c3e 95fe 0dbf 4a16 d93d
00000010: 29b3 b63e 618e f7ba be5e 98bd a09e 09bf
00000020: f6e0 24be 40bd 243e 4b72 0cbf 8877 963b
00000030: becd 85be 31e6 c9be f456 573e d0ff f0be
00000040: 8754 7b3e 94a5 b83d 9d8d b3bd e144 65bd
00000050: 5b47 623e 6926 8a3e 7e12 9ebe f3f4 f73d
00000060: ce6d b63d 8d4c c53d 745a 853e 9ccf b1be
00000070: 460a 393d c426 8c3e 967a f7be 0ece 5a3e
00000080: b692 14be 865f 40bb 35c1 b23e a600 043e
00000090: f55a 37be 5549 ba3c b4f2 a63e 3efb 4bbe
000000a0: c0fb 16bd 20e6 3fbe 75f0 03be 1c59 a9be
000000b0: 791e e0be 40a2 aebe e070 a63c d5c0 96be
000000c0: 0937 10be 33fa 94bd 8c7c 073d f464 23bd
000000d0: efdd dcbd 7d26 a2bd e42f cbbd c21a e03d
000000e0: e50e adbd 714b 12be 3648 143c 88de ccbe
000000f0: 0c74 31be 4395 81bd f956 993d 9384 6fbd
00000100: a9a5 853e 749b a2be c02f bcbd b25a 0c3d
00000110: 0e21 fe3e 9edb 7e3e 18fb 093d 9f35 98be
00000120: 7a3e acbe c94e cb3d 99fe e3be c937 8dbe
00000130: 4403 553e 1f17 7c3e 3543 053e 21e7 86bd
00000140: f45b 6c3d 2d0b cd3e 5c2c 853e ccfa 50be
00000150: 548a c93e 442c acbe 1773 d5be f93b 103f
00000160: 999c 1cbe 12e4 a3bd 6ea8 edbe 6be8 9a3e
00000170: 4a1e b43d d003 e7be 96a4 c93d a70a 953e
00000180: 5751 26be 7e96 25be 5e22 39be 5a47 0c3f
00000190: 9d9e 563c e549 643e 4e07 303e 4ebe ac3e
000001a0: 47b8 dbbd b60d 453e 160c 03bf eaac 0dbe
000001b0: a490 353e bb61 843d ba5d dabc 8b24 133f
000001c0: 073e 91be 7348 ecbd 40b3 febe ec6b ac3e
000001d0: d868 563e 8e2f da3d 8c50 e23d b385 fc3d
000001e0: 55c0 9b3e d601 e03d 4223 9e3c 921b 143f
000001f0: da51 4dbe 1ea3 aabe c265 10be bae8 95bd

weight f4 [64, 128]
-0.38425365 3.2097604 -2.2848265 -0.4524788 -2.3948176 7.246874 -2.52032 1.2175027
1.2877898 0.4146434 3.5075214 0.45773804 -2.4487123 -1.5761316 -0.20307891 2.4922569
-0.42222843 -1.0150951 -1.6554698 -0.1896526 0.866844 1.3153344 -0.40421623 0.37395644
2.2779212 1.5954438 0.45813242 -1.3516605 1.595219 -0.56934863 -2.2856398 -0.7186948
3.9592347 -2.8014672 -0.6418727 -1.6914476 2.4891133 -0.69441324 -1.3472024 -3.7138593
3.2292116 -6.468316 4.027168 3.9564133 2.215731 2.083463 1.361179 1.2294599
5.7431135 -0.80612713 0.4415395 8.714827 -2.060612 0.57315624 4.11012 0.74913955
-0.6546705 -4.0105515 -1.0148381 1.2307256 2.319195 1.2716494 -1.0349874 0.60138583
0.84077126 -1.7655991 0.4945257 1.2824081 -0.79527366 1.4136977 -2.6676993 -3.4641933
-0.09169205 0.7962566 -1.2505153 1.8398696 -2.5354075 -0.41666123 1.3301427 -0.21836182
-0.83333933 -0.55019367 -2.7238832 0.45986578 -0.63700455 -1.9721793 4.2442603 0.39735729
0.83198607 -0.5856618 -0.026556944 -0.849409 0.643339 -3.5453608 0.64355725 1.3301892
-0.6309534 1.1442957 2.2779274 0.22630373 4.5420322 -0.1366358 -1.9291395 -1.0856005
-0.9962286 -3.2028058 0.7377454 -0.6689703 0.2119887 1.3459299 -0.6155567 -0.20072892
4.5322237 0.48774922 -5.0596538 -1.2601007 0.29250035 -0.46405706 -0.75118566 4.9446125
0.74232227 -5.522095 1.794504 -0.14160508 -2.126762 -0.4102217 -0.1593605 -0.5796605
-0.14013104 1.6103622 0.55164754 -0.36970612 -0.8004717 -0.38919315 -1.9122368 0.42342323
0.87634724 1.4116392 0.117855504 1.0915904 -2.5499032 -6.602255 -0.9049205 0.1486197
-0.3518867 1.9303778 1.3616909 2.2274146 1.4388032 -0.5077119 -2.8314905 1.0725808
4.063029 -5.523607 -2.3483646 -0.65547514 4.1336117 -0.25606143 -4.199681 -0.87701803
2.488815 -0.06321304 1.0509776 -1.7293435 -0.46255678 -0.47504333 -0.7554257 -1.7390922
1.9188604 -1.961418 1.9311519 5.233854 4.4610305 3.0982106 3.1823435 1.6378869
3.3901334 -0.66561466 -5.2020555 7.8519654 2.8941176 2.7828968 -1.1247536 0.66374874
-1.1853197 -0.10038225 -0.8619206 2.92038 -0.25732863 0.8518849 -0.13690554 -1.7549894
0.7582534 -1.8398722 -1.5067087 1.1649381 -1.1101526 0.60551775 -3.393993 -4.83261
-0.8152562 0.101257145 -1.0507452 -2.6424708 2.4094667 -0.57934165 0.85935134 -0.44519618
-0.4168569 -0.010954487 -3.6326985 0.6972277 -0.66860205 -4.140551 2.1138754 1.4227343
-0.5960393 -1.3084433 -0.6910899 -0.8514514 -2.8940408 -7.528575 1.2521958 -0.53214145
-3.9154973 1.4297965 2.5511005 1.1762491 1.8987904 -1.2454399 5.8300486 -0.31270897
1.6908654 0.3112197 -3.8803542 4.013533 0.69023657 0.61918974 -2.652964 -0.8514878
3.901581 1.3109823 -0.70869404 0.4192354 1.1247205 -1.0611492 -2.2940106 2.675242
1.2202804 -2.6066813 1.7484823 -0.49272016 -4.7266326 3.5139127 -2.629425 -1.4342877
00000000: e5bc c4be b76c 4d40 993a 12c0 4dab e7be
00000010: b144 19c0 64e6 e740 ec4c 21c0 21d7 9b3f
00000020: 4cd6 a43f 244c d43e 3b7b 6040 a45c ea3e
00000030: b4b7 1cc0 aebe c9bf ebf3 4fbe 2381 1f40
00000040: 532e d8be a3ee 81bf 6fe6 d3bf 4b34 42be
00000050: 7de9 5d3f e15c a83f 6ef5 cebe 3877 bf3e
00000060: 76c9 1140 8137 cc3f 5590 ea3e 3603 adbf
00000070: 2330 cc3f d5c0 11bf ec47 12c0 62fc 37bf
00000080: 1a64 7d40 3d4b 33c0 c551 24bf 5b81 d8bf
00000090: a24d 1f40 11c5 31bf 2171 acbf dfaf 6dc0
000000a0: 67ab 4e40 72fc cec0 8fde 8040 e035 7d40
000000b0: 89ce 0d40 7557 0540 1d3b ae3f f15e 9d3f
000000c0: 96c7 b740 595e 4ebf 7711 e23e ee6f 0b41
000000d0: 11e1 03c0 5eba 123f 1a86 8340 9cc7 3f3f
000000e0: 7c98 27bf 7056 80c0 37e6 81bf 6b88 9d3f
000000f0: b16d 1440 68c5 a23f 787a 84bf 6cf4 193f
00000100: c93c 573f 27ff e1bf 7932 fd3e f325 a43f
00000110: 0e97 4bbf 0cf4 b43f 96bb 2ac0 58b5 5dc0
00000120: 0bc9 bbbd 79d7 4b3f e310 a0bf d980 eb3f
00000130: 1e44 22c0 9f54 d5be 1e42 aa3f 3e9a 5fbe
00000140: ba55 55bf 7ed9 0cbf 1a54 2ec0 8773 eb3e
00000150: bb12 23bf 5f70 fcbf fbd0 8740 6a72 cb3e
00000160: 0afd 543f efed 15bf f38d d9bc de72 59bf
00000170: ddb1 243f 31e7 62c0 2bc0 243f a443 aa3f
00000180: 2986 21bf 4878 923f 90c9 1140 2abc 673e
00000190: 5458 9140 41ea 0bbe 0bee f6bf f5f4 8abf
000001a0: d608 7fbf c5fa 4cc0 e2dc 3c3f a341 2bbf
000001b0: 9113 593e 6e47 ac3f 2095 1dbf e28b 4dbe
000001c0: fa07 9140 44ba f93e afe8 a1c0 fb4a a1bf
000001d0: 9bc2 953e e398 edbe b44d 40bf 443a 9e40
000001e0: d508 3e3f 01b5 b0c0 4fb2 e53f ec00 11be
000001f0: de1c 08c0 9408 d2be 662f 23be a164 14bf
00000200: 837e 0fbe 5920 ce3f c638 0d3f 1f4a bdbe
00000210: b7eb 4cbf 5344 c7be 2dc4 f4bf eeca d83e
00000220: 4b58 603f 98b0 b43f 3a5e f13d 3cb9 8b3f
00000230: 9d31 23c0 ac45 d3c0 dfa8 67bf c32f 183e
00000240: 7e2a b4be 9f16 f73f e34b ae3f f68d 0e40
00000250: b42a b83f 68f9 01bf 2437 35c0 544a 893f
00000260: 5504 8240 63c1 b0c0 9b4b 16c0 38cd 27bf
00000270: 8c46 8440 7c1a 83be c963 86c0 4184 60bf
00000280: bf48 1f40 d775 81bd 6f86 863f 215b ddbf
00000290: 3ed4 ecbe e138 f3be 9463 41bf 939a debf
000002a0: 389d f53f bf0f fbbf fc2f f73f bb7b a740
000002b0: c3c0 8e40 1549 4640 84ab 4b40 47a6 d13f
000002c0: f2f7 5840 b965 2abf 3d77 a6c0 4d43 fb40
000002d0: 3939 3940 fb1a 3240 edf7 8fbf 70eb 293f
000002e0: 8eb8 97bf 3695 cdbd d4a6 5cbf 82e7 3a40
000002f0: 94c0 83be 2115 5a3f f730 0cbe 7ea3 e0bf
00000300: e51c 423f ef80 ebbf d5db c0bf b11c 953f
00000310: 7b19 8ebf 3603 1b3f 2e37 59c0 bea4 9ac0
00000320: a1b4 50bf e85f cf3d d27e 86bf 3e1e 29c0
00000330: b434 1a40 bc4f 14bf 73fe 5b3f c1f0 e3be
00000340: 456e d5be 737a 33bc 227e 68c0 847d 323f
00000350: 8129 2bbf 657f 84c0 bc49 0740 281c b63f
00000360: 0896 18bf 127b a7bf 45eb 30bf b8f8 59bf
00000370: f737 39c0 16ea f0c0 f447 a03f 6c3a 08bf
00000380: 8297 7ac0 9203 b73f 3b45 2340 558f 963f
00000390: 900b f33f 936a 9fbf c28f ba40 641b a0be
000003a0: 476e d83f 3058 9f3e b957 78c0 dd6e 8040
000003b0: 58b3 303f 3883 1e3f 2aca 29c0 1bfb 59bf
000003c0: 81b3 7940 45ce a73f f96c 35bf 06a6 d63e
000003d0: d7f6 8f3f bdd3 87bf 12d1 12c0 2a37 2b40
000003e0: 2632 9c3f ded3 26c0 45ce df3f d145 fcbe
000003f0: 9340 97c0 f2e3 6040 8048 28c0 bd96 b7bf

bias f4 [64]
-0.11384262 0.46255666 0.28880924 -0.28201854 -0.49994367 0.52657217 0.34205386 0.07968833
-0.8969015 0.3464128 -0.27413365 -0.021019746 -0.41902068 0.2550164 0.03428888 0.12146808
0.03255217 0.20990518 -0.32382092 0.09259879 0.03469591 -0.12815079 -0.29832187 0.052652463
0.3033789 -0.40025225 -0.20244367 -0.27285203 -0.04160209 -0.41243762 0.7452092 -0.31863222
0.50368124 0.072311044 0.27946302 -0.14797276 0.2483294 0.5967332 -0.27366897 -0.006104259
-0.16472003 -0.34547347 -0.1957489 0.25593594 -0.8317985 -0.11127637 -0.45896626 0.27902356
-0.103084676 -0.3152681 0.16639273 0.1666584 0.28151432 0.56377697 -0.07521709 0.17638913
-0.40856725 0.17806087 0.487481 -0.101313815 -0.60902566 -0.26689756 -0.12489109 0.33341002
00000000: 5226 e9bd 3ad4 ec3e cede 933e bc64 90be
00000010: 9ef8 ffbe 6fcd 063f af21 af3e a333 a33d
00000020: 569b 65bf 055d b13e 3f5b 8cbe 9a31 acbc
00000030: e189 d6be 8291 823e 7f72 0c3d 42c4 f83d
00000040: 6d55 053d 62f1 563e dbcb a5be 6fa4 bd3d
00000050: 4c1d 0e3d f639 03be a5bd 98be 1caa 573d
00000060: 7b54 9b3e dded ccbe 654d 4fbe 43b3 8bbe
00000070: f466 2abd 062b d3be 08c6 3e3f c323 a3be
00000080: 41f1 003f d017 943d c715 8f3e 2c86 17be
00000090: 104a 7e3e 82c3 183f 571e 8cbe 3c06 c8bb
000000a0: 5eac 28be e6e1 b0be 6672 48be 090a 833e
000000b0: bff0 54bf dee4 e3bd a0fd eabe 2ddc 8e3e
000000c0: 0f1e d3bd d26a a1be db62 2a3e 80a8 2a3e
000000d0: a522 903e b053 103f 6b0b 9abd 5a9f 343e
000000e0: ba2f d1be 9755 363e 1c97 f93e 9e7d cfbd
000000f0: 1be9 1bbf cca6 88be e6c6 ffbd b8b4 aa3e

weight f4 [10, 64]
-5.033366 -0.879364 -0.79889643 2.1988845 2.3107245 -0.9855444 0.43381226 3.132415
-6.50702 -0.5232002 2.2498186 2.920584 3.3576005 -1.954798 3.9153333 -0.61791867
5.011055 -6.738389 0.0475432 -3.8828156 0.43609595 2.54948 4.208076 3.0236611
-1.6525033 -4.705188 -1.2940211 3.0222795 -4.145 -4.971396 -3.0301409 1.5878175
-2.0110488 3.0386314 -4.9371796 2.9712915 1.1047602 0.04778682 -5.394403 2.4819982
3.8049142 2.6872418 2.3482642 4.4630957 -5.4957547 3.646114 -3.5115354 -3.0140579
3.873007 -3.7189705 1.0207088 -1.6200933 -1.5669708 -1.0266372 -4.4784794 -4.5533485
-6.1372905 -1.7848032 -0.25903788 2.6877093 -8.0446825 3.3704212 -0.7628941 -3.144282
-0.41633046 -3.8780367 -4.579465 1.6809065 5.3265166 -1.5907731 -3.2876623 2.6124885
-2.8125367 -1.4052278 3.5124674 1.9298177 1.6553825 -7.5068827 1.132089 -5.2483273
2.6934793 0.07776095 0.5422913 -7.5501003 2.200268 2.8168168 3.0338566 1.1526328
-2.68709 -3.7807686 -7.961053 2.0013313 -3.031059 -7.792629 -6.086653 2.9265425
-4.032559 1.281423 -4.8047276 1.3903894 -3.1010425 -6.71864 -4.9952655 1.8781422
2.2157397 5.1638956 3.874597 8.306667 3.4719326 2.828048 3.0201085 -3.6565385
2.779228 -0.67780817 4.2815275 -0.043773495 -6.0454383 -3.9719343 -2.480846 1.9791002
-3.1775012 -3.7527797 -2.5046892 1.8604795 -17.728933 6.4394164 3.4922125 -6.2374687
-1.3055655 -4.045888 -4.7383065 1.4559108 4.7699904 -1.6160656 -3.324378 2.3602715
-3.090189 -2.0735538 3.9852865 2.0160315 2.2765996 -6.500077 1.0927414 -4.571603
3.7152238 -0.50421274 0.31841704 -6.9183655 1.7238399 2.9604487 3.260187 0.9690022
-2.757219 -2.706523 -7.4161186 2.011989 -3.0563068 -7.2054534 -5.8274417 2.8794692
-4.344008 1.1222858 -4.5068116 0.8946332 -3.0481677 -6.3714323 -4.2984676 1.5452149
2.3439076 5.16735 3.5712552 6.4343457 3.936717 2.5662305 3.0217614 -3.6376595
1.7723556 -1.3405846 2.7635138 -0.1889551 -6.859996 -3.9103618 -2.3135269 1.7931838
-2.5777664 -2.6675625 -2.240176 1.3407706 -16.014463 5.549862 3.2949474 -5.865141
0.08307601 -5.266612 -4.9676127 2.240021 7.1390934 -5.901225 -10.2523155 0.22477707
-0.4500569 -6.0718236 7.1882443 0.45447856 5.555555 -5.1162066 1.5836054 -2.8109694
5.299827 -4.0029554 3.9676914 -8.943688 3.503111 2.9062283 6.2494736 1.0342702
-0.8475376 1.8142971 -1.650653 6.828696 -8.121864 0.5679029 -8.346191 2.8666582
-3.0054398 0.21088037 -7.8078437 2.4475873 -2.183307 -5.834452 4.8338556 1.80717
1.3657496 3.1725066 -0.5525084 4.389655 2.5182524 1.5474719 1.5274186 -7.418276
3.1355555 1.0588113 -1.0837841 -5.0977144 -7.0817695 -5.144944 -3.426585 -2.5413697
1.5279685 -5.087613 -5.231644 1.6361617 5.779971 7.808864 3.3639517 -7.2706923
00000000: 5611 a1c0 001e 61bf 7a84 4cbf 86ba 0c40
00000010: e9e2 1340 a34c 7cbf a41c de3e 7d79 4840
00000020: 8239 d0c0 73f0 05bf 07fd 0f40 d9ea 3a40
00000030: ede2 5640 d236 fabf d294 7a40 eb2f 1ebf
00000040: 905a a040 e2a0 d7c0 a9bc 423d 0d80 78c0
00000050: f847 df3e ae2a 2340 8fa8 8640 aa83 4140
00000060: 3a85 d3bf e690 96c0 7ca2 a5bf 076d 4140
00000070: d7a3 84c0 ad15 9fc0 d4ed 41c0 9b3d cb3f
00000080: 06b5 00c0 f078 4240 60fd 9dc0 a429 3e40
00000090: c868 8d3f 1dbc 433d f39e acc0 0fd9 1e40
000000a0: b783 7340 c5fb 2b40 f649 1640 aed1 8e40
000000b0: 39dd afc0 ef59 6940 ffbc 60c0 53e6 40c0
000000c0: 59df 7740 9d03 6ec0 96a6 823f 385f cfbf
000000d0: 8092 c8bf d968 83bf b44f 8fc0 08b5 91c0
000000e0: af64 c4c0 6e74 e4bf 9da0 84be 6e03 2c40
000000f0: 05b7 00c1 fbb4 5740 074d 43bf eb3b 49c0
00000100: 4429 d5be c131 78c0 fa8a 92c0 f227 d73f
00000110: d372 aa40 749e cbbf 0f69 52c0 0333 2740
00000120: 9a00 34c0 81de b3bf 44cc 6040 4404 f73f
00000130: 93e3 d33f 6238 f0c0 4be8 903f 4cf2 a7c0
00000140: f761 2c40 2241 9f3d 9ad3 0a3f 6c9a f1c0
00000150: 31d1 0c40 ba46 3440 b52a 4240 7989 933f
00000160: 48f9 2bc0 1df8 71c0 f2c0 fec0 d015 0040
00000170: dffc 41c0 375d f9c0 ddc5 c2c0 794c 3b40
00000180: b90a 81c0 ab05 a43f 54c0 99c0 48f8 b13f
00000190: 7b77 46c0 19ff d6c0 37d9 9fc0 f766 f03f
000001a0: aece 0d40 a23e a540 66f9 7740 1ce8 0441
000001b0: 2534 5e40 bdfe 3440 7549 4140 ba04 6ac0
000001c0: dfde 3140 d684 2dbf 4602 8940 d64b 33bd
000001d0: 3b74 c1c0 2c34 7ec0 2ec6 1ec0 2853 fd3f
000001e0: 2e5c 4bc0 8b2d 70c0 d44c 20c0 3124 ee3f
000001f0: dbd4 8dc1 b30f ce40 6980 5f40 5899 c7c0
00000200: c51c a7bf ea77 81c0 35a0 97c0 495b ba3f
00000210: c3a3 9840 3ddb cebf 9cc2 54c0 b00e 1740
00000220: a8c5 45c0 1bb5 04c0 ef0e 7f40 a906 0140
00000230: cfb3 1140 a100 d0c0 f3de 8b3f 924a 92c0
00000240: 3ac6 6d40 1614 01bf 8f07 a33e 4063 ddc0
00000250: c9a6 dc3f fe77 3d40 e7a6 5040 8710 783f
00000260: 4776 30c0 ac37 2dc0 d850 edc0 6ec4 0040
00000270: 889a 43c0 1393 e6c0 677a bac0 3949 3840
00000280: 1d02 8bc0 10a7 8f3f cd37 90c0 ae06 653f
00000290: 2e15 43c0 c6e2 cbc0 0c8d 89c0 9ac9 c53f
000002a0: 9502 1640 ee5a a540 728f 6440 29e6 cd40
000002b0: 2cf3 7b40 1f3d 2440 8a64 4140 6acf 68c0
000002c0: 8cdc e23f 4798 abbf 69dd 3040 727d 41be
000002d0: 1685 dbc0 5e43 7ac0 d310 14c0 0c87 e53f
000002e0: 20fa 24c0 58b9 2ac0 0b5f 0fc0 5f9e ab3f
000002f0: 9f1d 80c1 7898 b140 6be0 5240 3caf bbc0
00000300: c123 aa3d 1688 a8c0 aff6 9ec0 815c 0f40
00000310: 7473 e440 d6d6 bcc0 7c09 24c1 f62b 663e
00000320: dc6d e6be 614c c2c0 1906 e640 6ab1 e83e
00000330: 1bc7 b140 f7b7 a3c0 95b3 ca3f ece6 33c0
00000340: 2f98 a940 3618 80c0 a8ee 7d40 5919 0fc1
00000350: f832 6040 a5ff 3940 b0fb c740 f762 843f
00000360: 39f8 58bf e33a e83f 9948 d3bf ad84 da40
00000370: 28f3 01c1 1662 113f 008a 05c1 5477 3740
00000380: 2059 40c0 06f1 573e dbd9 f9c0 45a5 1c40
00000390: 4dbb 0bc0 d5b3 bac0 f2ae 9a40 5951 e73f
000003a0: e2d0 ae3f 590a 4b40 3171 0dbf 0e78 8c40
000003b0: 0c2b 2140 8f13 c63f 7482 c33f 8462 edc0
000003c0: f1ac 4840 2187 873f 70b9 8abf 7a20 a3c0
000003d0: db9d e2c0 62a3 a4c0 2b4d 5bc0 cda5 22c0
000003e0: 7994 c33f bacd a2c0 a169 a7c0 bf6d d13f
000003f0: 86f5 b840 37e2 f940 fc4a 5740 83a9 e8c0

bias f4 [10]
0.6416801 0.23323512 0.32689694 -0.30593392 -0.085050166 -0.16061929 -0.545455 -0.8317789
-1.0485772 0.08271757
00000000: 2645 243f 30d5 6e3e 095f a73e 5fa3 9cbe
00000010: c82e aebd 6279 24be f0a2 0bbf 76ef 54bf
00000020: c737 86bf d467 a93d
